trained_models/a2c/trial_8/MicropolisEnv-v0_weights.pt (torch_old, 893296 bytes, 13 tensors)

base.conv_0.weight f4 [64, 104, 5, 5]
000000 52 99 93 bd 59 4c 6f bd ec 4d a3 bc 4d d2 57 bc
       -0.07206978 -0.05842242 -0.019934617 -0.013172698
000010 ed bd fa bc ec 83 10 bd 7c 28 a6 bd 1f 5e 20 3d
       -0.030608142 -0.03528206 -0.081131905 0.03915226
000020 80 e7 57 3c 4c 13 8c 3c 1f 74 b2 bd aa d3 1c bd
       0.0131777525 0.017099045 -0.087135546 -0.038287796
000030 07 54 50 bd 85 17 bb bc 25 15 b6 3c 86 3a 87 bd
       -0.050861385 -0.022838363 0.02222688 -0.06602959
000040 98 50 dc bd d9 a3 ce bd 7a 88 75 bd 94 0f a2 bc
       -0.107575595 -0.10089845 -0.059944607 -0.019782819
000050 ab b8 ae 3c a3 17 d2 bc 9c a1 96 bd 23 3d 42 bb
       0.02132829 -0.025646036 -0.07355043 -0.002963849
000060 fa 4d 74 bc 4d ef 98 ba 50 8a 31 3d 56 ac 68 3d
       -0.014911169 -0.0011667997 0.043344796 0.056804977
000070 e6 44 aa 3d 7f 7d c4 3c e8 05 47 bb 7a 36 f6 bb
       0.083139226 0.023985622 -0.003036851 -0.0075138183
000080 90 85 70 bc f9 df 6d 3b 68 4e 0f 3d a0 e5 6e bc
       -0.014680281 0.0036296828 0.034986883 -0.014581114
000090 87 ce f7 bb c8 7b 2f bc f1 c2 53 3c d7 6d ab 3b
       -0.007562462 -0.010710664 0.012924896 0.0052316
0000a0 7e a7 b2 bb ef e1 90 bc 3a e9 93 bc 3f d8 ac bd
       -0.0054520955 -0.017685859 -0.018055547 -0.08439683
0000b0 be 6f 8f bc a4 93 4d 3c c5 4a de 3c 30 02 a8 3b
       -0.017509338 0.012547407 0.027135262 0.005127214
0000c0 a7 4d 8b bc cd d2 7b bd 73 f8 85 3d 83 e5 3f 3c
       -0.017004801 -0.061480332 0.065415286 0.011712435
0000d0 23 9f 8f 3c 87 46 52 3d 3d cd 62 3d 37 98 1b 3d
       0.017531937 0.05133679 0.05537151 0.03798696
0000e0 44 90 57 3d dd f7 96 3d 0a 7b 68 3d c4 30 c1 3c
       0.052627817 0.07371495 0.056757964 0.023582824
0000f0 ff 07 4a 3d 13 9f a0 3d 66 72 f9 3d 00 4c 9e 3d
       0.049324032 0.07842841 0.12180023 0.077293396
000100 ec 7d 35 3d 1e 2e ef 3c 54 1e 4e 3d 7e 52 bf 3d
       0.04430954 0.029196795 0.050321892 0.09341906
000110 98 51 5a 3c 72 4a a7 3c 6d 9c 1b 3d 14 1d 40 3c
       0.0133251175 0.02042124 0.037990976 0.011725683
000120 e2 fe b1 3c 71 80 e5 bc 36 9e ef 3c 5a 0e 8a bd
       0.021727983 -0.028015347 0.029250246 -0.067410186
000130 cb 0a 77 bd d7 a2 d7 bc 79 9e c4 bb 10 c0 10 bd
       -0.060313027 -0.026322765 -0.0060003367 -0.035339415
000140 c4 fc ec bc 35 8f 3c bd 0c 20 5d bc 7b c2 5a bd
       -0.028929122 -0.04603501 -0.01349641 -0.053408127
000150 25 07 a9 3a 42 05 93 bc 5a 65 a8 bd b3 d4 86 bd
       0.0012895806 -0.017946843 -0.08222456 -0.06583538
000160 9d a2 b4 bc 2c e8 8e bc d8 a1 b7 bc d1 92 95 bd
       -0.022050196 -0.017444693 -0.02241604 -0.07303394
000170 11 26 6c bd 64 06 d6 bc a1 08 81 bc ee a8 3b bd
       -0.05765349 -0.026126094 -0.015751185 -0.0458154
000180 44 c5 1b bd f3 e1 79 bd 27 55 79 bd f2 80 8a bc
       -0.038029924 -0.061006498 -0.060872223 -0.016907189
000190 64 bf 5d 3d c2 11 12 3d 4c 0d bc ba 52 12 ee bc
       0.054137602 0.035661466 -0.0014347224 -0.02906147
0001a0 18 ad e0 bc 3a a7 ad 3c 33 35 57 bc aa f2 c9 bc
       -0.027426288 0.021197904 -0.013135242 -0.024651844
0001b0 67 9a 2a bd f1 cd b3 bc 7d 89 30 3d 8e b4 5e bb
       -0.041651156 -0.021948786 0.04309987 -0.003398213
0001c0 86 95 ad bb f7 86 4e bd 7c 98 4c bd 0d a4 9c bb
       -0.0052973656 -0.05042168 -0.049950108 -0.0047802986
0001d0 24 50 ce 3c 24 3d be bc 01 60 b7 bb 38 7f 39 bb
       0.025184698 -0.023222513 -0.0055961614 -0.0028304588
0001e0 34 04 c0 bb c7 1f 09 bc 3e f9 68 bd 54 d2 b7 bc
       -0.005859876 -0.008369393 -0.05687832 -0.02243916
0001f0 ec 45 a8 3b 79 0a 18 bd 34 23 f8 bc aa 9b 7a 3b
       0.0051352885 -0.037119363 -0.030290224 0.0038239756
000200 42 a1 0f 3d 19 83 b1 3c 40 13 d1 bc f3 0b 43 bd
       0.035065897 0.021668958 -0.025521874 -0.047618818
000210 f3 e1 bd 3c 7c 79 2e 3d f4 e4 9a 3c 48 3f 37 bc
       0.02317903 0.042596325 0.018908001 -0.011184521
000220 b9 6e ea bb 69 0a 13 3d 33 98 55 3d a2 a1 6b 3d
       -0.0071543125 0.0358986 0.0521471 0.057527192
000230 7a 17 01 bd ef ae f3 3c 63 12 92 3d 73 fa 87 3d
       -0.03151653 0.0297465 0.07132413 0.06639566
000240 8e 22 50 3d 70 91 bf 3a d5 a9 4c 3c 17 ce ee bc
       0.050814204 0.0014615487 0.012491663 -0.029151006
000250 4a 59 6c 3c a8 dc e8 3c 56 9c 36 3c e9 a4 09 3d
       0.014425585 0.02842553 0.011145672 0.033604536
000260 9b 17 09 3d 93 9d 3a bc cc 85 c1 bc 25 d5 91 bb
       0.033469778 -0.011390108 -0.02362337 -0.0044504576
000270 fc 04 55 bc 38 01 b9 3b 88 46 03 3c da fb 4a bc
       -0.013001677 0.0056458972 0.008012421 -0.012389148
000280 be d5 13 bd 3d 59 11 bd 27 36 b6 3c e4 92 08 3d
       -0.036092512 -0.035485495 0.022242619 0.03334321
000290 c5 89 27 3d 5e d3 3c bd 5b 1a 41 3c 16 be 08 3d
       0.04090287 -0.046100013 0.011786069 0.033384405
0002a0 fb 6b 2a 3d 99 c6 8a bb b0 b0 d0 bb af bf b0 3b
       0.041606884 -0.0042351005 -0.006368719 0.005393944
0002b0 44 63 38 3d 3f f7 93 3c e2 ca ca 3b a4 4b 96 bc
       0.045016542 0.018062232 0.0061887363 -0.018346615
0002c0 94 57 13 bd c7 bf 04 bd cd 2e e7 3b 15 b5 a8 bc
       -0.035972193 -0.032409456 0.0070551396 -0.02059416
0002d0 d9 78 49 bd ec 08 23 bb 5c 5a af 39 95 5c 9e bc
       -0.049187515 -0.0024877144 0.00033445924 -0.019331256
0002e0 1e c3 e7 3c 34 e6 4b 3c 4a 40 79 bb 60 58 ba 3c
       0.028291281 0.012445021 -0.0038032704 0.022747219
0002f0 63 00 14 bc f2 90 59 3b 3f 99 c6 3c 2f 42 70 3c
       -0.009033295 0.0033197966 0.024242995 0.014664217
000300 6f ab 96 3b c7 ec 25 3c 84 cb 4c 3d 44 37 98 3c
       0.004598073 0.010127253 0.049998775 0.01858104
000310 15 69 47 3d af f6 61 3d bc 48 72 bb 6f 50 e5 3c
       0.0486842 0.055166896 -0.0036969623 0.027992455
000320 4c 8d 24 bd 51 36 c6 bc e8 93 23 bd e9 ac b9 3c
       -0.040173814 -0.024195822 -0.039935976 0.022665458
000330 96 3a 80 bb 6a f6 0e bc f4 80 03 bc b9 3f 4c bc
       -0.003913234 -0.008725742 -0.00802635 -0.012466365
000340 f3 d1 e1 ba 1b dd 3c bd 21 f4 a3 3c 01 a8 37 bb
       -0.0017228707 -0.0461093 0.02001387 -0.0028023722
000350 d8 e9 69 bb df e9 de 3b d7 cb 34 3b af 40 19 bd
       -0.003569236 0.006802782 0.0027587318 -0.037415203
000360 cb 3e 9f bb 8e 29 93 3b 8f 6a 8c 3c 52 e2 83 bc
       -0.0048597804 0.0044910377 0.017140655 -0.016099129
000370 db ff e2 bc a1 74 3a 3d f4 f8 90 3d 8d 55 13 3d
       -0.027709892 0.045521382 0.07078734 0.03597026
000380 e1 7b 53 3b f5 7a 41 3c 75 e3 31 3c 1f 9d 51 bc
       0.0032269883 0.0118091 0.010857453 -0.012793808
000390 0d 7f 85 bd 51 33 2b 3c 41 9f 7f bd 85 36 0b bd
       -0.06518374 0.0104492465 -0.062407736 -0.03398754
0003a0 c4 18 2b bc c2 0b 84 bc d2 96 93 bc dc e3 59 bd
       -0.010442916 -0.016118888 -0.018016253 -0.05319582
0003b0 e2 e2 25 bc cd 07 67 bc 52 56 c9 bc 93 02 8e bc
       -0.010124894 -0.014100981 -0.024577294 -0.017335212
0003c0 b9 00 ff bc fd d3 ce bc 10 9d 1d bd cf 4d 16 3c
       -0.031128274 -0.025247568 -0.038479865 0.009173824
0003d0 26 30 70 3c 85 88 26 bd e8 39 dc bc 23 ef a5 3c
       0.014659917 -0.04065754 -0.02688308 0.02025563
0003e0 fb 6d 38 bd d8 14 5f bb d3 34 88 bb 12 66 2c bd
       -0.04502676 -0.0034039523 -0.0041566878 -0.04208953
0003f0 72 08 0f 3d 41 59 b6 bc 68 36 fa bb 6e f4 88 bc
       0.034920163 -0.022259356 -0.0076358803 -0.016718116

base.conv_0.bias f4 [64]
000000 2a 77 0f be 8f 1b 48 3d 83 45 31 bd de c1 2e be
       -0.14010301 0.048854407 -0.043279182 -0.17066142
000010 1d b2 7e bd 62 b1 43 bd a6 e9 3b bc 94 7b 58 bd
       -0.06218158 -0.047776587 -0.01146928 -0.05285223
000020 84 1a 57 3e e9 db 9d bc 90 0d 09 bd 15 62 8c 3c
       0.21006209 -0.0192699 -0.0334602 0.017136613
000030 03 c7 84 3d a6 52 8c bc d2 b2 62 bd a3 29 22 3d
       0.06483271 -0.017129254 -0.055346318 0.03959049
000040 0c fa 26 bd 4a 72 94 bd 83 92 aa bd 7e 6d 13 bd
       -0.040765807 -0.072483614 -0.08328726 -0.03599309
000050 56 61 a5 bc 9f bb 3a bd f4 6c e7 bc b7 7f 26 be
       -0.020188015 -0.045589086 -0.028250195 -0.16259657
000060 f1 53 4c 3c 85 87 b1 bd 78 da 06 bc 15 d5 a2 3d
       0.012471185 -0.086684264 -0.008230798 0.079507984
000070 0a f9 a1 3d d0 11 28 3d 16 10 c6 bc cd ab 17 bd
       0.079088286 0.041032612 -0.024177592 -0.037029076
000080 6d 2f 5a bd 13 67 0e 3d c1 e1 4b bd d7 44 56 3d
       -0.053267885 0.034766268 -0.049775843 0.052311745
000090 ab 5b 0d bd b8 f0 0f bd fd 9b 11 bd 74 c6 4d bc
       -0.03451125 -0.035141677 -0.035549153 -0.012559522
0000a0 e0 9e 18 bd 4c b7 79 bd eb 8a af 3d d2 a8 15 be
       -0.03726089 -0.06096582 0.085714184 -0.14615181
0000b0 67 3b 42 bd 44 4e ca bc a6 f6 ba bd 6d 34 f9 bc
       -0.04741993 -0.024695523 -0.09129076 -0.030420506
0000c0 71 af d1 bd 5c 15 52 3d 49 ac e8 3c 28 73 2d 3d
       -0.10238541 0.0512899 0.028402464 0.04234615
0000d0 fa 36 19 bd 99 d7 a7 bd 07 a2 25 bd 72 fb 37 bd
       -0.037405945 -0.08195419 -0.040437724 -0.04491753
0000e0 85 a1 96 bd 90 18 50 bd f4 33 44 3b 99 c5 17 bd
       -0.07355026 -0.050804675 0.0029938193 -0.03705368
0000f0 05 f6 0d bc 27 e3 da 3b 05 cb 4c be f8 97 6e bd
       -0.008664613 0.0066799107 -0.19999321 -0.058250397

base.conv_1.weight f4 [64, 64, 3, 3]
000000 eb c0 ac bc e0 47 9f bd 83 6c 92 3d 11 e6 92 bd
       -0.021088084 -0.07777381 0.07149603 -0.07172788
000010 ea 70 bf bd c3 2a f0 bd 8c 46 79 bd 9b af 01 bd
       -0.093477085 -0.11726906 -0.060858294 -0.03166161
000020 2e 36 b5 bd fb 8c fb bd 6e ea 53 3c 6c 2e f9 3d
       -0.088482246 -0.12282749 0.01293431 0.121670574
000030 f8 03 14 be bc 38 59 3d cc 14 d1 bc 98 f6 ac bc
       -0.14454639 0.05303262 -0.025522612 -0.021113679
000040 86 8f bd 3c a9 73 78 bd 8f 90 85 3d 96 2e ab bd
       0.023139726 -0.060657177 0.06521713 -0.08358495
000050 13 7d ea bc e4 4d b8 bd 32 c9 39 bd 61 0b 88 bd
       -0.028624093 -0.089992315 -0.04535789 -0.06642795
000060 cc e9 75 3c da bf fb bd 36 e6 bc bd 4e c5 b9 bd
       0.015009355 -0.12292452 -0.09223597 -0.09070836
000070 cd 1d 73 bd a6 45 50 bb bf dc c0 bd f2 7e af bd
       -0.059354592 -0.0031779795 -0.09417104 -0.08569135
000080 8f e6 65 bd 0b 91 c3 bd 45 dc d3 bd eb 61 5a bd
       -0.05612808 -0.09549149 -0.103447475 -0.053316038
000090 fe 04 eb bd 16 15 13 bd b6 a3 0b bd 33 54 b6 39
       -0.114755616 -0.03590878 -0.034091674 0.00034776478
0000a0 d4 89 df bd c8 04 c3 bd 84 22 ca bd 4d 9f 13 bd
       -0.109149605 -0.09522396 -0.098698646 -0.036040593
0000b0 56 02 5f bd 71 7e a9 bd ad fe 5d 3b d6 6e 51 3c
       -0.054445587 -0.0827607 0.0033873722 0.012782773
0000c0 3a b3 63 3c b6 4b 52 bd 63 1b a1 3d c3 40 87 bd
       0.013897711 -0.051341735 0.07866552 -0.06604149
0000d0 8d 8c 27 bc fb 98 32 bd 2a 39 e6 3c f4 e5 5b 3d
       -0.010226381 -0.043602925 0.02810343 0.053686097
0000e0 da eb 67 3d bc 23 b1 3d 8e 55 bc 3d 8b bb 90 3d
       0.05662141 0.08649394 0.09196006 0.07067021
0000f0 79 36 09 3e d9 6f 29 3e 58 45 24 3e b7 a3 67 bd
       0.13399686 0.16546573 0.16042078 -0.056552615
000100 8a a6 a2 3c f6 0b 62 bd 87 f0 3c bd 04 1f 9f bb
       0.019854803 -0.055187188 -0.046127822 -0.0048559923
000110 cf 13 4c 3b 80 28 47 3b 76 c2 12 3d bc 0f 05 3d
       0.0031139737 0.003038913 0.035829984 0.03248571
000120 45 23 1c be 22 cd 37 be b7 06 5c be 6b 88 c3 3b
       -0.1524783 -0.17949346 -0.21486937 0.00596719
000130 98 a5 22 bd 67 44 c2 bd cf e4 0d bb 25 07 24 38
       -0.039708704 -0.09485703 -0.0021651273 3.91073e-05
000140 82 d0 4a be c7 5a 6c bd 66 7d e0 bd bc 56 55 bd
       -0.19806102 -0.05770376 -0.10961418 -0.05208467
000150 a7 ab 26 be 46 cb fb bd 3a d0 24 be d1 5f c4 bd
       -0.16276418 -0.12294631 -0.16095057 -0.09588588
000160 fd a9 29 be e2 93 05 bd cf c1 66 bd d2 d3 b2 3c
       -0.16568752 -0.032611735 -0.056337174 0.02182952
000170 b7 1a 59 bd 94 c0 3a bd ba 1d 09 3d ba 96 ce 3d
       -0.053003993 -0.045593813 0.033475615 0.100873426
000180 5d c8 d3 bd 09 c1 43 bd 5c 68 30 39 0a 72 82 3d
       -0.10340951 -0.047791515 0.00016823545 0.063694075
000190 c3 a8 d6 3d 7e cb 45 3d 0a e0 b9 3d d1 8e c3 3d
       0.104814075 0.04828977 0.09075935 0.095487244
0001a0 18 9f 28 3d f0 30 9b 3d 62 c7 c7 3d de 9a 33 3d
       0.04116735 0.075776935 0.09754826 0.043848865
0001b0 c4 ca 19 bd 2e 6e 83 bd 79 b6 ed bc 7b 69 85 bd
       -0.037546888 -0.064174995 -0.029017674 -0.065142594
0001c0 1d fc d8 bd 74 f1 12 be f3 67 7e bd 9d ca 3b bd
       -0.10594962 -0.1434992 -0.062110852 -0.045847524
0001d0 cd 75 0e be 1c 00 35 3d 0b 95 ad bd 5f 6b c7 bd
       -0.13912125 0.044189557 -0.08475693 -0.09737276
0001e0 fb b3 bf 3d f2 ce 4a 3d 1b bb 5b bd e6 b1 a8 3d
       0.093605004 0.049513765 -0.053645235 0.082370564
0001f0 2d 14 f8 bd 07 52 e5 bc 28 c6 bd bd 69 22 8b ba
       -0.12113223 -0.027993215 -0.09266311 -0.0010615113
000200 b7 56 af bd 5b 61 42 3c b7 f4 9b bd 14 72 4c bd
       -0.085614614 0.011864032 -0.07615035 -0.04991348
000210 db c6 96 bd 8c 4f bf bd 12 12 a5 bd fd 64 d2 bd
       -0.073621474 -0.09341344 -0.08060087 -0.10273168
000220 27 35 fc 3c 3e 8c fb 3c 8a c6 3c be 56 b5 13 be
       0.030787064 0.030706521 -0.18435112 -0.14424643
000230 eb fb 48 3d 5f de c7 bd c8 d7 62 3c 8c a3 d3 bb
       0.049068373 -0.09759211 0.013845392 -0.0064587053
000240 f0 ae 9b bd 3a be 3b bd 86 49 5d 3e a2 3f 68 bd
       -0.07601726 -0.04583571 0.21610078 -0.05670131
000250 b1 e1 81 bd 36 d8 0e 3e f4 aa 2d bd 8e 5f ed bc
       -0.06341875 0.13949665 -0.04239936 -0.028976228
000260 12 d6 3e bd dc fd 8c bd 33 6a 65 bd d5 b3 0c bd
       -0.046590872 -0.06884357 -0.056009483 -0.03435119
000270 94 ac 3c 3d 52 3d 46 bd 9b e7 e6 bd 4e 32 8a bd
       0.04606302 -0.048398323 -0.11274644 -0.06747876
000280 91 ff b0 3d d4 af 10 be ef 30 b3 3b 42 c5 ac bd
       0.086424954 -0.14129573 0.00546848 -0.084360614
000290 eb 6e 29 39 30 e4 03 bc f4 d8 a6 bd ae fc dc bd
       0.00016158416 -0.00805001 -0.08146849 -0.10790382
0002a0 25 95 01 be 55 03 99 bd f2 d2 b8 3c b1 bf 0d bd
       -0.1265455 -0.07471339 0.022561524 -0.03460664
0002b0 7a f4 2e 3d 66 ed ab bc d3 d6 f6 bd 4c 29 04 bd
       0.04271362 -0.020987224 -0.12052693 -0.032265946
0002c0 37 14 e3 3d 3a dd 4f bd ac d8 92 3a 40 21 7d bc
       0.1108784 -0.050748087 0.0011203489 -0.015449822
0002d0 6a 7b 2f bd 94 4d a7 bd 63 31 ca bd 98 01 22 bd
       -0.042842306 -0.08169094 -0.09872701 -0.0395523
0002e0 6d 1a 22 bd df 22 c0 bd 76 34 87 3d e4 6e 08 bd
       -0.039575983 -0.09381651 0.06601803 -0.03330888
0002f0 bd 95 6f 3c 51 9d 24 3c 91 17 13 be 74 be 95 bd
       0.014623103 0.010047273 -0.14364459 -0.07311717
000300 9d c5 69 3d 53 56 99 bc b6 ce 79 bd 43 8a a0 3d
       0.057073224 -0.01871792 -0.06098815 0.07838871
000310 cb 7f b0 bd 6c 5d 5c bd cc 79 5a 3d 2f b4 be 3c
       -0.086181246 -0.05380003 0.05333881 0.023279278
000320 ef aa d5 3c 4a 7d 2d 3d d3 0f cd ba 5f cb 98 3d
       0.026082484 0.042355813 -0.0015644975 0.07460665
000330 17 fe 6b 3d e2 f5 f3 3c 7c 47 db bc 50 63 69 be
       0.057615366 0.029780332 -0.026767485 -0.22791791
000340 5c 0c 88 bd 7f 7e 05 be 42 56 36 be f8 ba 08 3c
       -0.06642982 -0.13036536 -0.17806342 0.008345358
000350 7b ca a2 bd e7 24 75 3d 8a f6 4a bd 16 38 07 be
       -0.07948776 0.059849646 -0.049551524 -0.13204989
000360 e9 37 ce bc d1 e9 be bc 79 cf 50 bd 4b 25 14 be
       -0.025173144 -0.023304852 -0.05097911 -0.14467351
000370 19 2b dc ba 58 44 ad 3d a0 86 41 be 73 c1 bd bd
       -0.0016797512 0.08460301 -0.18899012 -0.09265413
000380 9b be 6e bd da f3 22 bd cd d0 10 bd 5e 92 55 bd
       -0.058287244 -0.039783336 -0.035355378 -0.05214154
000390 8c b1 3d 3c c4 a7 60 bc ee de f2 bc 3e 13 94 bd
       0.011577975 -0.013711873 -0.029647317 -0.07230233
0003a0 c0 f5 e1 bd 2a f5 36 bd e9 a8 72 3c 91 45 3b 3d
       -0.11033201 -0.0446674 0.014810779 0.04572064
0003b0 f1 33 01 bd 29 8c cd bd 9d cc 0b bd 2c f9 69 3c
       -0.031543676 -0.10036499 -0.03413068 0.014280599
0003c0 bd 61 29 3d 0a 83 99 3c 95 49 0d bd e7 81 0f be
       0.041352976 0.018739242 -0.034494 -0.14014398
0003d0 f8 92 bb 3c c1 35 c3 bd 2d dc 11 bc ac 2f d2 3d
       0.022897229 -0.09531737 -0.008902592 0.10262999
0003e0 30 f4 82 bd b6 fc f5 3c e9 8d 30 3e 43 8d b0 3b
       -0.06394231 0.030027729 0.17241634 0.0053879335
0003f0 f9 75 88 bd a9 b5 e4 3c 85 0d 76 bb fa 1b f9 bd
       -0.066631265 0.027918654 -0.003754468 -0.12163539

base.conv_1.bias f4 [64]
000000 39 64 9a be 69 8d 73 bd b1 ca 9b bd b1 c0 ce bd
       -0.3015459 -0.05946103 -0.0760702 -0.10095347
000010 a6 8e 0e be d5 dd a7 be b6 0c 31 be 41 19 d4 bc
       -0.13921604 -0.32786432 -0.17290005 -0.025890948
000020 a9 bb b1 bd 3a 10 b0 3d 71 53 0e bd 3f cd c1 bd
       -0.086783715 0.08596845 -0.034747545 -0.09462976
000030 65 2b d9 bd 1a 6c ac be e3 35 4d be 55 32 46 3e
       -0.1060398 -0.33676225 -0.20040087 0.19355138
000040 b0 f2 88 be 7a 64 2b 3e 58 40 32 3e 86 86 a1 3c
       -0.26747656 0.16737548 0.17407358 0.019717466
000050 5a ba 17 3e 7a a0 cb be 02 95 c1 be 46 e4 b6 3d
       0.14817181 -0.3977087 -0.37808996 0.089302585
000060 39 85 ac 3d 71 a5 02 be 9f 8c af bd 99 cd fc 3d
       0.08423848 -0.12758423 -0.08571743 0.12343902
000070 8c 06 93 bd 1b e2 f4 bb 80 49 fb be 18 c7 8f 3e
       -0.07178983 -0.007473243 -0.49079514 0.28081584
000080 74 35 a7 be 49 03 1c 3d 00 13 8e 3c e2 cb 83 3b
       -0.3265797 0.03808907 0.017343044 0.0040221075
000090 1e b4 29 3e df 99 38 3e a3 ed 7d 3d 3a 01 03 be
       0.16572616 0.18027447 0.061994206 -0.12793437
0000a0 d6 af 45 be 2e 5c 29 be b0 a0 fa 3d 62 27 e2 bd
       -0.19305357 -0.1653907 0.1223768 -0.11042668
0000b0 08 8a 3d 3d 19 17 37 3d d0 44 09 be 1a b7 6d 3e
       0.046274215 0.044699762 -0.13405156 0.23214379
0000c0 2d b8 b3 3e 68 c8 0e be b9 18 60 3e 13 2b 9a bd
       0.35101452 -0.13943636 0.21884431 -0.07527747
0000d0 71 6d 58 be 76 3c d7 bd b9 00 65 be 78 67 a5 bd
       -0.21135499 -0.10509579 -0.22363557 -0.08076376
0000e0 27 2b 30 be 1c 50 63 be 08 3c 11 be 5a 52 35 3d
       -0.17203961 -0.22198528 -0.14183056 0.04426799
0000f0 aa 90 78 3d a8 8e 35 bf 0d af 1b be 76 a1 21 3e
       0.060684837 -0.709208 -0.15203495 0.15784249

base.input_compress.weight f4 [15, 104, 1, 1]
000000 ad b4 5a be 8e 3f 24 be 6d 84 a3 bd a5 51 e2 be
       -0.21357985 -0.16039869 -0.079842426 -0.44202915
000010 bf 58 ac be 5d b6 81 be 5d c4 63 bd 8f 34 b5 be
       -0.33661458 -0.25334445 -0.05560719 -0.35391662
000020 6d 1d 85 bc bb d1 18 be be 71 bc be 21 51 d2 bd
       -0.016249383 -0.14923756 -0.36805528 -0.1026938
000030 99 fa 9c bd a4 fb be bd 20 39 cf bd 75 44 28 3e
       -0.07664985 -0.093253404 -0.101183176 0.16432364
000040 11 c4 e4 3e 2f 32 8a be 85 1d a8 bd 7a d3 fd 3d
       0.44680837 -0.26991412 -0.082087554 0.123938516
000050 62 51 a7 be 26 90 d8 be 37 b9 93 be bf 12 28 bd
       -0.32679278 -0.42297477 -0.28852245 -0.041033503
000060 be 00 54 bd 73 b6 4c bf 11 9e 55 bd c5 c1 2e be
       -0.05175852 -0.79965895 -0.052152697 -0.17066105
000070 13 f6 38 be d6 78 cc be f3 2f 3c be 46 8e 3b be
       -0.1806262 -0.3993594 -0.18377666 -0.18315992
000080 9d 5b 80 3d 05 3f f5 bd a0 57 c4 bc a7 f0 6c bd
       0.06267474 -0.11974911 -0.023967564 -0.05784669
000090 ca 6c 7f be c3 b2 87 be 6e 9f ed 3d 3d 29 40 bd
       -0.24943843 -0.26503572 0.116026744 -0.046914328
0000a0 07 c4 b4 3d 0b eb 4f 3e 8c 7a 45 3e b6 08 b4 be
       0.08826452 0.20304506 0.19285029 -0.35162896
0000b0 1f cc cb 3c 8a 68 9a bc d4 0a ae 3d 7a ad 9c be
       0.024877606 -0.018848676 0.08498159 -0.30601102
0000c0 27 49 b9 be 62 cf 4f bc 5e 04 e5 bc e6 83 0e bf
       -0.36188623 -0.012683721 -0.027956184 -0.5567001
0000d0 20 c9 33 be f4 3b 41 be 7d 9e 60 be 99 66 0b be
       -0.17557192 -0.18870527 -0.21935458 -0.13613357
0000e0 0a 82 d4 bb ba 53 82 3d cd ef c6 bc 95 68 91 be
       -0.0064852284 0.06363626 -0.024284268 -0.28400102
0000f0 01 78 d1 bd 2b 35 60 3e 3d 1a e5 3d 2f 75 21 be
       -0.10227967 0.21895282 0.11186645 -0.15767358
000100 24 86 03 3e c4 ba 11 3e 99 f3 17 3e 09 f0 39 3e
       0.1284414 0.14231402 0.14839019 0.18157972
000110 b1 65 46 3e 04 a6 cd bc a3 c4 42 bd 08 e3 7e 3c
       0.1937473 -0.025103576 -0.04755081 0.015557058
000120 e7 96 96 3e a8 16 75 be 3e 24 9c be 0e 56 04 bd
       0.29412004 -0.23934424 -0.304964 -0.03230863
000130 2d 34 4f bd bb 21 f9 be e0 88 04 bf 78 c6 12 bf
       -0.050586868 -0.48658547 -0.51771355 -0.5733409
000140 30 92 06 bf 49 8e 80 3f a7 95 c1 bd 9c 20 7b 3d
       -0.52566814 1.0043422 -0.09452372 0.061310396
000150 03 71 e8 3d 5f 17 0b 3f 71 4e 87 3d 3c a8 47 3f
       0.1134968 0.54332536 0.066067584 0.7799108
000160 46 84 44 3e 70 0c 33 3e 7f e2 09 3f 5d 75 8e 39
       0.19191083 0.17485213 0.5386123 0.00027171793
000170 98 df e7 3c d8 bd 18 bf d7 1f 0e 3f c0 c9 e7 3d
       0.02830486 -0.5966468 0.55517334 0.11317778
000180 c2 3d 7b 3d d9 df 64 3c a9 bc c8 3e 2f bc 2c 3f
       0.061338194 0.013969385 0.39206436 0.67474645
000190 41 cf 9e be 60 b1 a5 bc f3 94 3a bd a3 12 eb 3e
       -0.31017497 -0.02022618 -0.045552205 0.45912656
0001a0 6a 54 d8 3e 26 57 0c be e6 eb 24 be 3c 46 c8 be
       0.42251903 -0.1370512 -0.16105613 -0.39116085
0001b0 6b c0 58 be ce 9a 8c be 4a 6f 89 be 59 cc e7 be
       -0.21167152 -0.27461857 -0.2684272 -0.45273092
0001c0 dd f8 d1 be af 40 f7 be c1 75 b7 be e9 7f bb 3b
       -0.4101018 -0.48291537 -0.35832027 0.005722035
0001d0 5b e1 50 be 57 e4 af bd 29 e9 f7 3d da a3 59 3e
       -0.20398466 -0.08588474 0.12105019 0.2125391
0001e0 9c aa 1c 3f 51 c8 ae bd 60 20 2c bc 82 4b 15 be
       0.6119783 -0.08534301 -0.010505766 -0.14579585
0001f0 c4 7a c2 be d1 8c 03 be 5c 96 dc bc 62 8f 0a bd
       -0.37984288 -0.12846686 -0.026927166 -0.033828147
000200 e2 7d b3 3d e6 e9 0f bf 86 65 cd 3e ed 47 59 be
       0.087642446 -0.56216276 0.4011652 -0.21218844
000210 8c e0 a5 be 7b aa 09 bf cf 24 32 be b3 b4 c2 be
       -0.32397878 -0.5377576 -0.17396854 -0.38028488
000220 cf 83 a1 be 50 9c f0 be 14 53 99 be 8a 1f 1e bf
       -0.31545874 -0.46994257 -0.29946196 -0.61766875
000230 f5 75 6b be 5e 58 bd 3e c6 80 1d be 14 f1 76 be
       -0.22994216 0.3698148 -0.15381154 -0.24115402
000240 54 7b c6 3c 34 ac 4b 3e 1a cb 20 3f 3a c9 82 be
       0.02422873 0.19889909 0.6280991 -0.2554415
000250 4b 02 e9 bd 34 c9 59 b9 85 69 00 bf 60 70 26 be
       -0.113773905 -0.00020769687 -0.5016101 -0.16253805
000260 bb 45 c2 bd 00 e2 9a bd 99 33 8b 3d 3f ea 06 bf
       -0.09485956 -0.07562637 0.06796951 -0.5270118
000270 5e bf 6e 3f 23 01 05 be 5a b2 28 bd 1f 72 28 bf
       0.93260753 -0.12988715 -0.041185714 -0.65799135
000280 5e ee 5e be 3b 43 47 be bc a9 84 be f7 8a 17 bf
       -0.21770617 -0.1945924 -0.25910747 -0.5919642
000290 34 dd 18 bf b6 72 13 bf b2 19 ce be 13 97 76 3e
       -0.5971253 -0.5759691 -0.4025398 0.24081068
0002a0 c2 21 8a be 29 c0 71 be 90 76 7b 3d f0 e9 7f 3d
       -0.2697888 -0.2360846 0.061392367 0.06247896
0002b0 aa 11 db 3d 63 84 6e be e4 be 13 be f2 67 07 bc
       0.106967285 -0.23292689 -0.14428288 -0.008264529
0002c0 85 f3 cb bd f2 c2 2e bc b3 c6 8e bd c0 b6 3d be
       -0.09958557 -0.010666596 -0.069714926 -0.18526745
0002d0 5a 0d de 3d f7 55 1e bf 18 f7 99 3f 24 c2 f1 bd
       0.1084239 -0.6184992 1.2028532 -0.118046075
0002e0 d0 c6 b5 bd d7 b9 b0 be 9f 42 01 bf c5 bc 9b bd
       -0.08875811 -0.34516785 -0.5049228 -0.07604364
0002f0 10 d5 c3 be 02 ce 0b bf f5 ca aa bf ef 9d 84 be
       -0.3824849 -0.5461122 -1.3343188 -0.25901744
000300 9d d6 aa be d5 a3 ab 3e 92 53 45 3e 08 59 d6 be
       -0.33366862 0.3352343 0.19270161 -0.418648
000310 2b b5 12 3d e5 14 37 3f 5b 25 a3 be 90 d3 9c be
       0.035817306 0.7151626 -0.31864437 -0.3063016
000320 9b 36 8c bd d5 f5 82 bd cd 21 bb bc 67 79 20 3f
       -0.06846353 -0.06394545 -0.022843266 0.62685245
000330 87 9c 28 be 40 45 15 be 5f 92 89 be 62 7b ff be
       -0.1646596 -0.14577198 -0.26869485 -0.4989882
000340 e7 76 dd 3d c7 29 14 3d c2 38 ae be 5a bf e1 be
       0.108136944 0.036172654 -0.34027678 -0.44091302
000350 ad 30 a9 bc 8c fb db be 09 a6 cb be ec d0 1c bf
       -0.020653093 -0.42965353 -0.39775112 -0.6125629
000360 49 ea a4 be 4a 6a c4 be 7b e9 6d 3e d5 c7 91 3d
       -0.32209995 -0.38362342 0.23233597 0.07118193
000370 73 34 2a be 4d c9 5c be 6f aa 89 bd 4c d9 6c bf
       -0.1662157 -0.21561165 -0.06721961 -0.9251907
000380 3a 4f e6 be 55 2f d1 bd c3 8e 09 3d d5 1b 3d 3e
       -0.4498232 -0.10214106 0.033583414 0.18467648
000390 da b3 2d be 46 9a 16 bf c8 ce b0 3d 22 40 84 bd
       -0.16963139 -0.5882915 0.086331904 -0.06457545
0003a0 7a 1b d1 3c cf f7 27 bf 62 04 55 be 54 7a 7d 3d
       0.025525797 -0.656125 -0.20802453 0.06188424
0003b0 c8 1e dc be c3 b0 ae be 92 57 6c bb 21 2e 3f be
       -0.42992234 -0.34119233 -0.0036062938 -0.1866994
0003c0 9a 33 92 be 63 76 bb be c5 6c 38 be 8d 4a 75 be
       -0.28554994 -0.3661376 -0.18010242 -0.2395422
0003d0 3e 0c 41 3e c6 09 ab bd b2 dc 48 be af df 22 be
       0.18852326 -0.083514735 -0.19615439 -0.15905641
0003e0 93 99 86 bd f3 51 3f be 6d 24 61 be 9d 7a f3 bd
       -0.06572261 -0.18683605 -0.21986552 -0.11888621
0003f0 6f 8d 85 bd 9a f6 06 3d de d0 f0 be a7 1f b8 be
       -0.06521117 0.03295002 -0.47034353 -0.3596165

base.input_compress.bias f4 [15]
000000 e9 8f 28 be 33 ea 52 3f 5e 87 1b 3f 54 b9 9f bf
       -0.16461147 0.8238861 0.6075343 -1.2478433
000010 93 79 12 3f 29 c1 5e 3e 62 24 01 3e b4 63 8f 3e
       0.5721676 0.21753372 0.12611535 0.28005755
000020 c1 5b d6 bd c5 2a 71 3f 28 11 0e be 21 90 0c 3f
       -0.104667194 0.94205886 -0.13873732 0.54907423
000030 fc 67 a5 be 70 14 20 3f 13 27 0d bd
       -0.32305896 0.62531185 -0.034461092

base.actor_compress.weight f4 [19, 79, 3, 3]
000000 64 b7 61 bd 58 45 65 3d 49 95 82 3d 40 8c 4b 3c
       -0.055106536 0.055974334 0.0637613 0.012423575
000010 3f d8 2e 3d 98 20 1d 3c f5 e8 49 3d 00 80 41 3d
       0.042686697 0.0095902905 0.04929443 0.04724121
000020 88 40 05 3e 05 e3 84 bd 70 54 b1 3d 3b 52 11 bc
       0.13012898 -0.06488613 0.08658683 -0.008869703
000030 73 0d 30 bd 5f 05 08 3e ba 2b c2 39 d4 21 c1 3c
       -0.042981576 0.13283299 0.00037035142 0.0235757
000040 da df 0f 3e 76 71 5d 3d f2 a0 c9 bc 6a c5 0b 3d
       0.14050236 0.054063283 -0.024612878 0.034123816
000050 f6 70 59 3d 1c 2f 01 3e e4 4c bb 3d c6 aa 95 3c
       0.053086244 0.12615627 0.09145525 0.018269908
000060 bb 76 53 3d ba f7 b1 3d a8 f7 11 3e f5 b7 e4 bd
       0.051626902 0.08689828 0.1425463 -0.111678995
000070 6b cd 03 bd 84 82 71 3d 02 bf dc 3c 1b 6e 94 bd
       -0.032178324 0.05896236 0.026946548 -0.072475635
000080 5d 7c cd bd 8d 6d e2 bd f2 84 a0 bd ac 1f 01 bd
       -0.10033486 -0.110560514 -0.07837857 -0.031524345
000090 dc bf d0 3d ff 94 fc 3c 17 5c 0b bd 70 52 95 3c
       0.10192844 0.030832766 -0.03402337 0.018227786
0000a0 1e 06 9c bc c7 a9 73 bd 8d 92 9b 3c 1d 19 30 be
       -0.019045886 -0.059488084 0.01899078 -0.1719708
0000b0 b0 3e 9a bd 71 e3 51 bc fe bc 7d 3c 3f 35 be 3d
       -0.07531488 -0.012810574 0.015486954 0.092875
0000c0 04 a8 51 3d 7f b2 a3 3c c5 63 0a 3d 62 c6 39 3e
       0.051185623 0.019982575 0.033786554 0.18142083
0000d0 6d 69 34 3d f6 36 4d 3d fe fd 05 ba 52 7d 12 bc
       0.044045854 0.050101243 -0.0005111395 -0.0089410115
0000e0 8d 60 8e 3b d7 3d ba 3b 9d 51 a6 3c b7 23 26 3d
       0.004345006 0.0056836414 0.020302588 0.040561404
0000f0 2c 16 70 3d 6d 95 27 3d e2 62 4a 3d f5 90 45 3c
       0.058614895 0.040913988 0.04941071 0.012058486
000100 3a 1b dc bb b6 12 64 3b 44 20 67 be ea d9 0d 3c
       -0.006717113 0.0034801192 -0.22570902 0.008657912
000110 b1 05 19 be fb c5 08 bd 11 76 f1 bd f6 66 29 be
       -0.14943577 -0.033391934 -0.117900975 -0.16543183
000120 69 69 5f be f6 8b d0 bd 4d 71 a5 bc 4d dc b7 bd
       -0.21817555 -0.101829454 -0.020195628 -0.08977566
000130 7e 90 ac bd 3f 1f be 3c 0c 8f c4 bc d5 58 f5 3d
       -0.08425997 0.023208259 -0.023993991 0.11979834
000140 e4 dd 30 3e e8 37 87 3d 16 dd d3 3e e8 94 a8 3d
       0.17272145 0.0660246 0.41379613 0.082315266
000150 53 5f 16 3e 5f df d8 3e ae c6 60 3e 2d ec 50 be
       0.14684801 0.4235792 0.2195079 -0.20402594
000160 bd 68 9e 3e 70 77 92 be d5 08 e8 be 4f e1 4e be
       0.30939284 -0.2860675 -0.45319238 -0.20203136
000170 1c a2 96 be f1 2b a4 bd 95 47 c8 3d 69 68 91 3d
       -0.29420555 -0.08016194 0.09779278 0.07099993
000180 14 95 65 be c5 cc 25 be 6e 73 5e be 61 5d 19 be
       -0.2242015 -0.16191395 -0.2172372 -0.14977027
000190 3c cc 8f bd 23 1d cf 3c 7b 78 80 bc d5 da 95 3c
       -0.070213765 0.025282448 -0.01568245 0.018292824
0001a0 b5 6b 2d 3d ea 23 b1 bd 6b 2b c1 3d be ba 8f 3d
       0.042339046 -0.08649428 0.094321094 0.0701804
0001b0 e6 da 32 3d 2c 44 f8 3d d7 66 06 bd 42 e1 77 3d
       0.04366579 0.12122378 -0.03281292 0.060517557
0001c0 6b de 1d 3e 4e 69 a8 bc 91 25 10 bd 7a a1 0c be
       0.15416877 -0.020558026 -0.035192076 -0.13733473
0001d0 0f ea 34 be 10 0d 1f be b8 4f 39 3e b4 db 7a 3d
       -0.17667411 -0.15532327 0.18096817 0.06124468
0001e0 8d e8 3e bd 5d 43 5b 3d 0a 7b 9f bc b9 db 43 bd
       -0.046608496 0.05353104 -0.01946785 -0.047816966
0001f0 41 4a a0 3c 7b 35 5b bb 6a 38 08 3d ca 7a 01 be
       0.019566657 -0.0033448625 0.033256926 -0.12644497
000200 27 48 cc 3b 78 6b 4b be d8 64 59 be be db 01 be
       0.006234187 -0.19865215 -0.21229875 -0.12681481
000210 1f ac ac bd 7e a5 fc bc d9 34 36 bd 18 eb 9b 3c
       -0.08431267 -0.030840632 -0.044483993 0.019033
000220 e9 48 46 3d f4 c3 8b 3d a5 d4 12 3e 38 aa a5 3e
       0.048409376 0.068244845 0.1433893 0.3235643
000230 ac e0 5a 3e 96 7e 91 3c 61 0f 49 3e 57 4b cc 3c
       0.21374768 0.017760556 0.19634773 0.024938269
000240 8a 77 20 3b 8d 93 b5 3c cd ea b9 bd 2b 1e c3 bd
       0.0024485313 0.022165084 -0.09077988 -0.095272385
000250 a9 29 0f 3b bb 81 55 3d a3 cd 07 bd 03 41 b3 ba
       0.00218449 0.052125674 -0.033155095 -0.0013675991
000260 c1 60 c3 3d c5 47 40 bd ca 8f 0d bd 12 28 62 3c
       0.09539939 -0.046943445 -0.034560956 0.013803499
000270 92 ef c5 3c 12 ac 03 bd dc ca 33 bd 2f a5 d1 3d
       0.024162088 -0.03214652 -0.043894634 0.102365844
000280 1a 8d 05 be 12 53 97 bd f6 3c 6e 3d 6a d0 43 3b
       -0.13042107 -0.07388891 0.058163606 0.0029878863
000290 88 40 f2 3d ee 57 e3 bc 44 ff 3c 3d de fe ce 3d
       0.118287146 -0.02775189 0.046141878 0.10107206
0002a0 f6 f7 42 3b e8 04 c9 3d 8c b9 70 3d 69 75 96 3c
       0.0029749847 0.09815389 0.0587707 0.018366532
0002b0 08 fe 2c 3e 58 5f b9 3e f5 1d 6d 3d f1 07 00 3e
       0.1689378 0.36205554 0.057889897 0.1250303
0002c0 94 3c 53 bd fc bf 3a bc 6b 7a 5b 3c 63 98 32 be
       -0.051571444 -0.011398312 0.013395886 -0.17440943
0002d0 3c 26 98 3d 83 a8 59 3c 78 32 ca bb 28 dd 96 bc
       0.07429168 0.013284805 -0.006170567 -0.018416002
0002e0 1f f8 20 3d 9e c1 3f 3c 01 64 84 bd a2 73 da bc
       0.039299127 0.011703877 -0.06464387 -0.026666466
0002f0 48 9f 91 3d 8a d4 43 bb 9b 10 20 3d 9a e9 e9 bd
       0.071104586 -0.0029881322 0.039078336 -0.11421509
000300 d0 c6 55 3c 84 10 cb bd e8 05 0f be 53 8d ac bc
       0.013047889 -0.099152595 -0.13967097 -0.021063482
000310 ef d7 83 3d c5 9c 72 bd 38 c5 56 3d 1f 5f 05 bc
       0.064376704 -0.05923154 0.052434176 -0.008140354
000320 04 2f e2 3c ac 89 82 ba 23 2b 90 bc 7c c7 e9 bc
       0.02761031 -0.0009959242 -0.017598694 -0.028537504
000330 75 48 8a 3d ab 7e f3 3a d3 a3 47 3d 72 b0 4a 3e
       0.06752101 0.0018577179 0.04874022 0.19793871
000340 73 32 58 3e 44 7d 49 be 2a 69 76 3e 57 91 d9 3d
       0.21112995 -0.19676691 0.24063554 0.106234245
000350 d6 30 f7 bd 9b 40 39 3e 85 33 8e 3e 02 cf 88 ba
       -0.120698616 0.18091051 0.2777368 -0.001043767
000360 ac de 9a bd 1f a6 fe 3d 87 2c bb 3d f8 41 e7 bd
       -0.075620025 0.12434029 0.09139352 -0.112918794
000370 c1 f0 55 3d f7 a1 90 bc b8 35 6c be 93 25 1e bc
       0.052231554 -0.017655356 -0.23067367 -0.009652513
000380 b2 9b 17 be 77 7a 8f 3b 6d d0 f0 3c 92 42 98 bb
       -0.14805487 0.0043786126 0.02939626 -0.0046466077
000390 4c 22 50 3c 94 d7 1e 3c 9a 65 fc bc 12 eb 71 3d
       0.0127034895 0.0096949525 -0.030810166 0.05906207
0003a0 e1 92 2d 3d 4c 71 d6 bd 8f b0 3a bc 77 b4 67 3d
       0.042376403 -0.104708284 -0.011394634 0.05656859
0003b0 34 b4 6a 3d de 00 f4 3d bf 66 08 bd f8 c4 c8 3d
       0.05730076 0.11914228 -0.03330111 0.09803194
0003c0 4e 72 17 3e 66 e3 ab 3a 79 25 5e 3d 22 d7 3d 3e
       0.14789698 0.0013114035 0.054234955 0.18539098
0003d0 9d 66 65 3e c8 2d b4 3c d1 1e 31 3e 31 33 68 3e
       0.22402425 0.021994486 0.17296912 0.22675778
0003e0 75 1e 30 3e ac a6 cb bc f7 40 f0 bc b5 e8 b4 3b
       0.17199118 -0.024859749 -0.029327853 0.005520905
0003f0 c9 a6 1a 3e 6d 5b 39 bc ba af df bd 79 10 dd bc
       0.15102686 -0.0113133015 -0.10922189 -0.026985394

base.actor_compress.bias f4 [19]
000000 a3 09 6c 3f 33 02 1d 3f 79 4b 39 be 5e bb fa 3e
       0.92202204 0.6133148 -0.18095197 0.48971075
000010 fb bf 84 bd 6c 41 20 be 9a 37 34 3f 48 f4 ef 3e
       -0.0648193 -0.15649956 0.7039734 0.4686606
000020 0f b8 5a be 1c d7 3b 3f 2a 3b 32 3f 43 98 c1 3e
       -0.21359275 0.73375106 0.6962153 0.3781148
000030 e8 2d 72 bd c1 32 09 3e f4 d2 19 3f ee 69 da bd
       -0.05912581 0.13398267 0.60087514 -0.10664736
000040 63 fe 1d 3f 55 5d 5c be ba 11 ed 3e
       0.6171629 -0.21519978 0.46302587

base.critic_compress.weight f4 [8, 79, 1, 1]
000000 04 cd 32 3f 03 3b f0 bd c7 f4 e9 bd 52 e7 29 bd
       0.6984408 -0.117300056 -0.11423641 -0.04148037
000010 37 a0 c0 3c 6b 0c 09 be 2b 9d 6d bc ab 73 c8 3c
       0.023513896 -0.13383643 -0.014502804 0.024469217
000020 ab a1 79 3b c8 4c bc 3d f8 e9 9c 3c 8c a5 b3 bd
       0.0038090746 0.09194332 0.019154534 -0.0877181
000030 a5 d9 c8 bd 33 68 11 bd d0 b7 e3 bc 4c 15 5a bd
       -0.098071374 -0.035499763 -0.02779761 -0.053242967
000040 fe 60 19 be fa 5e 0a bd 10 63 0f bc 95 bf e9 3d
       -0.14978406 -0.033781983 -0.008751646 0.114134945
000050 c1 2a 39 bd a7 af 87 bd 71 e4 28 3c 9f 45 60 bd
       -0.04520679 -0.066253 0.010308371 -0.054753896
000060 d6 42 bb bd 14 cc 9d 3d 78 db 57 be 75 b7 07 3d
       -0.09143607 0.077049404 -0.21079814 0.033133943
000070 c1 a9 24 3d 57 a8 86 bc 0c e3 35 3d 17 ea ce bc
       0.040200952 -0.016437693 0.044405982 -0.025258107
000080 4c 7b a9 3d 92 07 a6 3d d4 64 2c bd f8 58 a6 bc
       0.0827547 0.08106913 -0.042088345 -0.020306095
000090 66 aa 12 3c 3b d0 c2 bd 6a d0 eb 3c 2e 50 23 be
       0.008951759 -0.09512373 0.028785903 -0.15948555
0000a0 3b d6 3c bc 25 25 12 bb 4b 6e 09 3e 29 4e b5 bb
       -0.011525686 -0.0022299972 0.1342098 -0.005532999
0000b0 e7 48 a7 bd 8c 2a 16 bd ea bc 8b bd 4d 5f 2d 3d
       -0.08168202 -0.03666167 -0.06823142 0.042327214
0000c0 4f 2e 84 bc 8d 48 95 3d e8 c8 16 3d d6 94 99 bb
       -0.016135363 0.072892286 0.036812693 -0.004686932
0000d0 08 48 fd 3b 1f 53 90 3c 45 92 9e 3b 0a 10 ab bd
       0.007729534 0.01761776 0.004839214 -0.083526686
0000e0 ba ef 04 3d 7d 1f df bd a7 a6 13 3d 11 0c 91 3a
       0.032455184 -0.10894678 0.036047604 0.0011066218
0000f0 2a ec f0 3d ae 50 e7 bd 72 7e cf bd 4e e5 2f 3e
       0.11763795 -0.11294685 -0.101315394 0.17177317
000100 d1 2e d0 be 8b f6 b6 3d d5 6a a4 3e 8a 28 66 3d
       -0.40660718 0.08933743 0.32112756 0.056191005
000110 16 45 dc bd 5a b8 98 bd 93 60 ec 3d 51 68 6e 3e
       -0.107553646 -0.07457037 0.115418576 0.23281981
000120 bb 4b 33 bd ad f6 60 3e 2d 79 a4 3b 37 df 15 bd
       -0.043773394 0.219691 0.005019328 -0.036589827
000130 a0 25 af bd 4d 55 7d 3d 2a b6 56 3e cf 6a e8 bb
       -0.08552098 0.061848927 0.20967928 -0.0070928107
000140 a4 fd d5 3e 11 99 de bd 16 84 94 3d 3a d1 e9 3c
       0.41795075 -0.10869039 0.07251756 0.02854215
000150 c0 e7 ae bc fb 1e d5 bd 56 7b 20 be aa f4 9f bc
       -0.021350741 -0.104063 -0.15672049 -0.019525845
000160 32 8b d5 3d c6 03 df bc a7 be 26 be ed 62 9f bd
       0.1042694 -0.027223479 -0.16283666 -0.077825405
000170 59 45 96 be 14 a5 81 bd f1 b3 6e bb 3b 42 bb bd
       -0.29349783 -0.06330314 -0.0036423171 -0.09143492
000180 2f 51 62 bd 4f 0c 7e be b2 bc a8 3d 36 64 2e 3c
       -0.055253204 -0.24809383 0.08239116 0.010644009
000190 6c cd 29 be c1 77 e0 bb 12 ae e9 bc 97 00 7c 3c
       -0.16582268 -0.0068502133 -0.028525386 0.015381
0001a0 71 d5 25 3d 62 6f 89 3c ec 51 33 be b6 61 13 bb
       0.040486757 0.016776744 -0.1751172 -0.002248866
0001b0 5e be 6b bd 04 57 0a bd 07 f1 bb bd 3e 53 02 be
       -0.057554595 -0.03377439 -0.09176832 -0.12727067
0001c0 92 5a a1 3d 68 58 4b be ce ae f1 bc f9 d5 17 bd
       0.07878603 -0.19857943 -0.029502299 -0.037069295
0001d0 b5 24 56 bd 58 f3 c1 bb fe ed b0 3c 8d be 1a bc
       -0.0522811 -0.0059189014 0.021597859 -0.009444845
0001e0 74 fe 3b be 6d 2b 4d 3d ab 0f 28 3d 99 c6 69 bd
       -0.18358785 0.050090242 0.041030567 -0.057074163
0001f0 ee f0 25 be 5c cb 05 be ca 6f 61 bc 66 86 d2 bc
       -0.16205189 -0.13065857 -0.013759563 -0.025698852
000200 ad 75 7e bd 07 75 2d be e4 f6 76 bd 2c 1c e9 bc
       -0.062123943 -0.16939174 -0.060294047 -0.028455816
000210 4a cb 48 bd ff 9c 5c bc 8f 89 91 3d 15 d7 e4 3c
       -0.049021997 -0.013465165 0.07106315 0.02793459
000220 6d b3 c7 bd ff b3 69 bd 26 e5 9f bd b4 d6 15 3e
       -0.097510196 -0.057056423 -0.078073785 0.14632684
000230 2b b4 8b be 62 04 39 bd 36 11 06 be 5e 9b c2 bd
       -0.27285895 -0.045170195 -0.13092503 -0.0950229
000240 b6 45 17 bd 53 71 6e be 87 4c 5b be 30 ef 04 3d
       -0.036931716 -0.23285417 -0.21415912 0.03245467
000250 ae 55 9a bc 9d 31 04 be 97 c7 18 3d 17 1a 0b 3c
       -0.018839683 -0.12909551 0.03729972 0.008490107
000260 8f 4a 43 bd 9f 25 83 3d ec 28 03 3e fd 81 08 be
       -0.047678526 0.0640366 0.12808579 -0.13330837
000270 2f 36 bf bd 14 d7 ab 3d f3 7b ac bc 08 e9 09 be
       -0.093365066 0.08390632 -0.021055197 -0.134678
000280 e5 c2 32 3f 96 de 0b bd 85 7f 2c bc 98 df 85 bc
       0.69828635 -0.03414782 -0.01052845 -0.01634197
000290 d0 09 80 bd 9f 53 a7 bd 0d 81 13 be 79 f1 89 3e
       -0.062518716 -0.08170246 -0.14404698 0.26942042
0002a0 ff 64 1a bd 47 1d 10 be 59 83 9b bd 63 aa f1 bc
       -0.037693974 -0.14073668 -0.07593412 -0.029500192
0002b0 84 58 cd bd 46 71 ac 3c e9 2e aa bd 04 fc e3 bd
       -0.10026649 0.021050107 -0.08309729 -0.111320525
0002c0 11 4e 1e 3d 34 dc 47 be f2 66 9a bd 3f e5 3f be
       0.03864867 -0.19517595 -0.075391665 -0.18739794
0002d0 2b 6e 79 3c 0b 68 00 be 23 bf ee be 35 fd c7 bd
       0.01522402 -0.12539689 -0.466302 -0.09765092
0002e0 25 e7 5b bd 2f c1 98 bd 61 4e 81 3c a7 31 f0 3b
       -0.053687233 -0.07458722 0.015784444 0.007330138
0002f0 b9 90 9f 3c 49 60 a2 bd 12 e3 3e be 87 5f 0e bd
       0.019478189 -0.07928521 -0.18641308 -0.03475907
000300 5e 4a 58 be c5 e0 01 be 76 75 fe bd 7d 1b 8d bd
       -0.21122119 -0.12683399 -0.12424748 -0.068900086
000310 9e 60 62 bd 7b 9c d7 bd 71 a4 e6 3c 13 5e a9 bd
       -0.055267923 -0.10527893 0.028154584 -0.08269896
000320 62 ce 1e bb 6f 8c ff bc 7b d4 0f bd a1 26 40 bc
       -0.00242319 -0.031194894 -0.035114747 -0.01172796
000330 ef 15 66 bc 06 17 f9 bd ea 1d 9f be b6 bd e6 bd
       -0.014043315 -0.121625945 -0.3107751 -0.11266653
000340 5f 21 1d be 8c 6e 24 be b9 77 cf 3c cd 49 d9 bc
       -0.15344761 -0.16057795 0.025325643 -0.026524449
000350 8e 50 46 be 03 59 7c bb 37 52 2f be 29 c3 9e bd
       -0.19366667 -0.0038505204 -0.17121206 -0.077520676
000360 9e e2 91 bd 6a 83 b1 bd cb 64 66 bd c3 3c f2 3c
       -0.07123302 -0.08667643 -0.056248467 0.02956999
000370 44 85 ed bd ff 88 9a 3c 4a 29 e1 be 48 b6 91 be
       -0.11597684 0.018864153 -0.43976814 -0.28459382
000380 d5 ac bc 3d d5 c7 e8 bd 36 9e 1e be b8 85 20 bf
       0.092126526 -0.1136624 -0.1549004 -0.6270404
000390 49 83 1e be 1d c3 4a 3d de d9 97 be d8 23 2d bd
       -0.15479769 0.04950248 -0.29658407 -0.04227051
0003a0 7f 8c 85 be 19 35 31 be 75 b7 d4 be 6b d2 31 be
       -0.26083753 -0.17305411 -0.41546217 -0.17365424
0003b0 38 c8 08 be 8a b9 32 bc eb 42 4c bd 8f ab a9 3d
       -0.13357627 -0.010908494 -0.049868505 0.08284675
0003c0 6a ab 4f 3f 24 fe 63 bd 2f 7f 09 3e 57 19 3c bd
       0.8112093 -0.05566229 0.13427423 -0.045922603
0003d0 14 30 ed 3d 57 e3 28 be 31 49 22 be 7e 38 4a bc
       0.11581436 -0.16492973 -0.15848233 -0.01234257
0003e0 f4 13 7e bd f1 87 8e bd 35 18 8d 3d 1f 1c ea bd
       -0.062030748 -0.069595225 0.06889383 -0.11431145
0003f0 ce cf 5b bc e8 0c 58 bd d9 a4 9f bd 83 d6 26 3d
       -0.013416244 -0.052746683 -0.07795114 0.040731918

base.critic_compress.bias f4 [8]
000000 e7 f5 ca 3e c9 59 c3 3e b0 ef 7c 3e 37 de 6f be
       0.39640734 0.38154438 0.24700809 -0.23424612
000010 60 34 19 be bc 03 0e 3d 55 d2 2d 3e fc 35 f6 bc
       -0.14961386 0.03467153 0.16974767 -0.030055039

base.critic_conv_1.weight f4 [1, 8, 20, 20]
000000 99 bd 12 3d 07 68 99 3d 90 48 44 3e d2 70 cd 3d
       0.035825346 0.07490545 0.19168305 0.100312844
000010 84 c2 c6 3d fb bc 4f 3e f3 d0 58 3e fe 2a 6f 3d
       0.0970507 0.20286934 0.21173458 0.05839061
000020 fd c4 1f bd 29 06 12 3e 7e 90 9f 3d 0f d4 14 3e
       -0.039006222 0.14260162 0.077912316 0.14534019
000030 3a fc d1 3d f9 0d 2c 3e 6e 2c 69 3d 10 07 40 3d
       0.102531865 0.16802205 0.056927137 0.046881735
000040 8e 4c 8a bc 94 60 5d 3e 8b 20 89 3d 8e f2 45 3d
       -0.016882207 0.21618873 0.0669566 0.04832702
000050 63 7c fd bd eb 21 00 bd cb d0 d3 3d 32 07 11 3d
       -0.123772405 -0.031282347 0.103425585 0.035407253
000060 05 92 30 bc 48 e9 13 3c eb fc b7 3d e0 2a 04 3d
       -0.010777001 0.009027787 0.08983787 0.03226745
000070 e5 e1 ab 3d b6 9c d1 3d 45 a0 10 3c 53 81 c9 3d
       0.08392695 0.10234968 0.008827274 0.0983912
000080 3a 05 ec 3d 9e c0 8d 3d b9 50 ca 3d 7b 73 e7 bc
       0.115244344 0.069215044 0.09878678 -0.028253308
000090 f8 18 de bd e8 fb 34 3e d8 2f 8b 3d f2 df a0 bc
       -0.10844606 0.1767422 0.06796235 -0.019638035
0000a0 ac 5f 3b 3d aa 83 9d 3d c3 98 ff 3d c4 90 86 bb
       0.045745537 0.076911286 0.12480309 -0.004106613
0000b0 92 9a 17 3d 6f 36 65 3d ed 98 af bc 03 1d 31 3d
       0.037012644 0.055960115 -0.021435225 0.04324056
0000c0 88 8e b2 3c 6f ea a6 3d b4 f1 f0 bb f9 b1 c8 3d
       0.02179648 0.081501834 -0.007353032 0.097995706
0000d0 c6 ae c9 3d 19 2e 1a 3e c4 0d 4e 3d b9 a7 21 bd
       0.098477885 0.15056647 0.050306097 -0.039466593
0000e0 32 fe 3e 3d 98 31 2a 3d ba 8c 16 bc e9 f3 35 bc
       0.04662914 0.041551203 -0.009188825 -0.011105516
0000f0 df 9e 42 3d 79 05 72 bd 11 2e 6a 3d 26 e2 e0 3d
       0.047514793 -0.05908725 0.05717284 0.109806344
000100 1e e1 17 3e 2c ad 9b 3d 4e 67 b9 3d bc 11 f4 3d
       0.14831969 0.07601389 0.09052907 0.11917445
000110 5d b1 dc 3d cf f0 cb 3d e5 2f 41 3d 70 a0 29 3d
       0.10776017 0.0995804 0.047164816 0.04141277
000120 a8 50 b4 3c 9c 58 0d 3e 8b 26 21 3e 7c 4d c3 bb
       0.022011116 0.13803333 0.15737359 -0.0059601646
000130 95 cf 9b 3d ee 62 b6 3d ea c4 f4 3d 9a b6 7b 3d
       0.076079525 0.08905588 0.11951621 0.06145344
000140 cc ef b0 3c ca 3e 4a 3e 60 93 00 3e 60 fb 1f 3e
       0.021598719 0.19750515 0.12556219 0.15623236
000150 de 88 bb 3d 80 9f 2a 3e 9e 4b b8 3d 8e a0 b1 3d
       0.09156965 0.16662407 0.08998798 0.086732015
000160 55 67 b8 3d 52 44 ba 3d 2f 99 0d bc 9f 59 ba 3d
       0.09004084 0.09095062 -0.008642479 0.09099125
000170 c7 c9 10 3e 2c 7f 27 3e 87 80 98 3d 23 72 c5 3d
       0.14139472 0.16357106 0.0744639 0.096409105
000180 fd a2 16 3e ee 17 e8 3d 5c 96 a6 bd 33 19 26 be
       0.14710613 0.11332689 -0.081341475 -0.1622055
000190 60 c2 b8 3d 1a 2b 81 3d 03 48 a3 3d b8 4c b7 3d
       0.09021449 0.06307049 0.079727195 0.0895018
0001a0 54 ee 9b 3d aa 3a 40 3e a8 a4 c3 3d ea a4 6a 3d
       0.07613817 0.18772379 0.0955289 0.05728618
0001b0 c3 a2 b3 3d 27 10 ff 3d ca 68 fb 3c 69 ba fe 3d
       0.08771279 0.12454253 0.030689616 0.12437899
0001c0 17 6e 1d 3e 47 ec 9b 3d c9 8e 46 3d c0 74 e2 3c
       0.15374027 0.07613426 0.048476014 0.027643561
0001d0 9e 29 b9 3d a1 53 d9 3d 5d 7f 8b 3d ee d2 f3 3d
       0.09041141 0.10611654 0.06811402 0.11905466
0001e0 ae 03 71 3d f7 e1 37 3e 40 6e 60 3d 2d fa ac 3d
       0.0588414 0.17957292 0.054792643 0.08446155
0001f0 96 c0 2d 3a d1 5c 4c 3d 5f 9c 1a 3e be 22 0f 3e
       0.0006628124 0.049893204 0.15098713 0.13978097
000200 ee 55 90 3d 13 20 ad 3d 45 96 d8 ba f9 6c b6 bb
       0.0704764 0.08453383 -0.0016524276 -0.00556719
000210 c3 08 9c 3d 48 34 ba 3d fb 75 88 3d d6 d1 25 bc
       0.07618859 0.09092003 0.06663128 -0.01012083
000220 d9 37 a3 3c fa 37 ce 3d e0 f1 b7 bc 58 9b 46 3d
       0.019924091 0.100692704 -0.022454202 0.04848799
000230 48 22 e1 3d 21 ae 22 bd 85 31 09 3e de bf 18 3e
       0.10992867 -0.039716844 0.13397796 0.14916942
000240 e9 c1 7c bc eb 7f a7 3d eb 13 a4 3d c8 ca 9e 3d
       -0.015427091 0.08178695 0.080116116 0.07753521
000250 d5 e4 74 3c 22 45 b3 3d 84 4e 58 3d d7 17 92 bc
       0.014947136 0.087534204 0.052809253 -0.017833633
000260 5b b9 2c 3e e0 40 1c 3d ea 3d a5 3d a9 6f 7d 3d
       0.16867582 0.038147807 0.0806845 0.061874066
000270 a8 11 2f 3e 2f e8 44 3e 1d 65 ed 3c e1 02 2c 3e
       0.17096579 0.19229196 0.028978879 0.16797973
000280 d8 94 ca 3c e3 04 2c 3e ca f3 34 3d 5c 87 eb 3d
       0.024729177 0.16798739 0.044177808 0.11500427
000290 a9 29 9b 3d 50 a0 ee 3d f7 ec 10 3e 57 62 0a 3e
       0.075763054 0.11651671 0.14152895 0.13514076
0002a0 fa 95 01 3e 5a bd 69 3d 39 8e 81 3d 58 af 24 3e
       0.12654868 0.057065345 0.06325955 0.16082513
0002b0 c1 0f 9d 3e d1 cc 79 3d b1 26 39 3e f9 a1 1a 3e
       0.30676082 0.060986344 0.18081166 0.1510085
0002c0 ed cd 8d 3e 34 d1 3a 3d 94 71 9e bd e6 fd c9 3d
       0.2769617 0.045609668 -0.07736507 0.098628804
0002d0 8f 14 e6 3d 78 04 ae 3c 01 f4 11 3d f4 04 95 3d
       0.1123439 0.021242365 0.03563309 0.07276335
0002e0 64 83 fd 3d dc 2c d3 3d cf 5f 18 3e db e5 b9 3d
       0.123785764 0.103112906 0.14880298 0.090770446
0002f0 dc d9 1f 3e c6 52 f7 3d bb f1 6a 3d 66 47 54 3d
       0.1561045 0.12076335 0.05735944 0.051825903
000300 41 1f 86 3e 44 86 4e bc 0a 7f bd 3d 91 cd 49 3d
       0.2619572 -0.012605254 0.092527464 0.04926831
000310 4b 06 57 b9 89 cc 58 3d 12 64 8f bd b7 2d bd 3d
       -0.00020506342 0.052929435 -0.07001509 0.09237235
000320 0b 9c 50 3c ec a2 89 bd 14 68 5f bd ab 84 94 3c
       0.012732516 -0.06720528 -0.054542616 0.018129667
000330 8c c4 c8 3d 4d 75 33 3d a9 ad 22 3e fd 17 09 3e
       0.09803113 0.04381304 0.15886559 0.13388057
000340 e6 fb d2 3d 0f ab 45 3d 6b 9f a7 3d 96 4b 17 bd
       0.10301952 0.048258837 0.081847034 -0.03693732
000350 0e 75 0a 3d 2a 59 9c 3d e3 e7 4e 3e 0a c6 15 3e
       0.03380304 0.07634194 0.20205645 0.14626327
000360 75 84 15 3e df 0e 08 3d 47 32 a5 3d c5 ac 33 3d
       0.1460131 0.033217307 0.0806623 0.043865938
000370 91 03 4d 3d 74 eb 62 3d e8 d2 4e 3e 0d 07 c0 3c
       0.05005223 0.055400327 0.20197642 0.023440862
000380 c2 43 4f 3e d7 01 15 3d 4a 77 b2 3d c9 4d 3f 3e
       0.20240691 0.036378708 0.08714159 0.18682016
000390 17 3d f0 3c 10 a0 79 3d e4 ae 31 bd 38 2c 38 3e
       0.029326005 0.060943663 -0.04337968 0.17985618
0003a0 d6 cb 75 3e f5 87 6f 3e 42 c9 04 3e 2f 74 f6 3d
       0.24003538 0.23391707 0.12967399 0.12033879
0003b0 67 66 a4 bc 74 34 e8 3d 4d 48 0e 3e b5 ac 1a bc
       -0.02006836 0.1133813 0.13894768 -0.009440591
0003c0 f2 ed f4 bd 88 5a 00 bc 49 a3 5c 3e 45 94 04 3e
       -0.11959447 -0.007834084 0.21546663 0.12947185
0003d0 3f 41 f5 3d d1 a9 69 3d 2f 22 1e 3d 75 48 1a 3e
       0.11975335 0.057046715 0.03860682 0.15066703
0003e0 f8 0f ec 3d f5 73 28 3d a1 f3 08 bd 37 63 fc bb
       0.11526483 0.04112621 -0.033435468 -0.007702257
0003f0 d4 b2 0c bd 9e b4 3b 3d 8b ca 13 3d 65 12 0f 3e
       -0.03435023 0.045826547 0.036081832 0.1397186
