trained_models/a2c/trial_10_5conv/MicropolisEnv-v0.pt (torch_old, 905277 bytes, 13 tensors)

weight f4 [64, 104, 5, 5]
000000 61 a0 12 be eb 6a 30 bd 6a 2b 44 bd 9c 27 b6 bd
       -0.14318992 -0.043070715 -0.047892965 -0.08894274
000010 d2 bf 33 be 99 8c b5 bd be 0f 48 bd 55 d6 da 3b
       -0.17553642 -0.088647075 -0.048843138 0.0066783824
000020 e8 29 6e bd 25 f6 17 be b8 c6 c2 bd c8 17 38 3d
       -0.058145434 -0.1483999 -0.09510559 0.044944555
000030 de 79 96 bc 75 c5 8c bd 1e 46 10 be 3d c8 7c bd
       -0.018368658 -0.068735994 -0.14089248 -0.0617144
000040 59 ea 16 bd 00 32 8d bd 33 35 01 be a2 f7 6c be
       -0.036844585 -0.06894302 -0.1261795 -0.2314134
000050 34 9a b1 bc 90 33 18 bd ca 93 d5 bd 19 1b 2f be
       -0.021679975 -0.03715855 -0.10428579 -0.1710018
000060 43 01 88 be 01 61 de bb 1e 47 c2 3c 1f 3a 80 3c
       -0.26563463 -0.006786466 0.023715552 0.015652714
000070 4b eb 08 3d 64 f1 ac bc bd 14 b6 ba a3 85 18 bc
       0.033427518 -0.021111198 -0.0013891679 -0.009309205
000080 80 fc 18 bd 06 cd 10 bd 34 3c 19 bc 98 5c 96 3b
       -0.037350178 -0.035351776 -0.009352732 0.0045886748
000090 41 17 80 3c bf e2 94 bb 89 38 f7 3b 3f e1 34 bb
       0.015636088 -0.004543632 0.0075445813 -0.0027600077
0000a0 5e 0f 9c 3c 10 a4 b8 3b 7a f6 73 3c 03 b1 2c bd
       0.019050296 0.005634792 0.014890308 -0.042161
0000b0 b8 c6 98 3c 0b 87 2c 3d 2f 81 54 3d e7 ae 15 3d
       0.018649444 0.042120975 0.05188101 0.036543753
0000c0 ed 90 c4 3c cd 55 43 bc 5b af 88 3c eb e9 37 bd
       0.023994887 -0.011922312 0.016685179 -0.044900816
0000d0 cb f8 42 bd 01 b0 3f bb 2b 06 45 3c ed ac d9 b9
       -0.04760055 -0.0029249194 0.012025396 -0.00041518305
0000e0 ad 84 c4 bc 4b ca f3 bc 3a c6 5c bc 82 9f 77 bc
       -0.023989046 -0.029759547 -0.013474995 -0.015113713
0000f0 8e 5c 0e bb 6c aa 89 b9 50 a1 e2 3c de 1f 60 3c
       -0.0021722647 -0.0002625765 0.02766481 0.013679473
000100 e6 3d a9 3c 9b d2 23 3b 6b a1 24 ba 15 ca f8 3c
       0.020659398 0.0024997357 -0.00062801567 0.030369798
000110 e8 75 bd bc 0b 27 b9 3b 27 49 ce 3c a5 a9 c7 39
       -0.023127511 0.0056504062 0.025181366 0.00038082633
000120 36 55 2d 3c 78 67 90 bc 84 bd 5d 3d 57 95 d5 bc
       0.010579398 -0.017627463 0.054135814 -0.026072187
000130 da 9d 76 bc aa 17 cb 3b 35 84 9e 3c 1d 5d 03 bc
       -0.015052283 0.0061978893 0.01935015 -0.008017805
000140 a5 2e 90 3c 37 54 a7 3a 8d ed 90 3c 9a fb 18 bd
       0.017600367 0.0012766187 0.017691398 -0.03734932
000150 8f f0 a8 3c c9 ef 9e 3c 74 52 dc bc bf c9 13 bc
       0.02062252 0.019401448 -0.026894785 -0.009020268
000160 81 a7 94 3c 0c 94 bf 3c bd 56 76 bb c7 75 01 bd
       0.018146278 0.023386024 -0.003758832 -0.03160646
000170 75 0d 73 bc 46 fd 29 3c fd 6c b3 3c 80 09 b9 3b
       -0.014834751 0.0103753265 0.021902556 0.0056468844
000180 0d 14 a5 3c a2 f6 54 bc 4a 89 ae bc 03 b0 75 3c
       0.020151163 -0.012998255 -0.021305699 0.014995578
000190 c9 ec 96 3c ac fc 90 3c 27 e4 e0 b9 31 3d df ba
       0.018423455 0.017698608 -0.00042894596 -0.0017031786
0001a0 cb 8a c4 bb 54 d8 04 3c bc 3c 1b bc 95 81 d2 bb
       -0.0059979907 0.008108217 -0.009474929 -0.006424139
0001b0 e8 c9 17 bc 3f 8d dd bb 21 90 03 3d 11 76 7e 3a
       -0.009264447 -0.0067612226 0.032119874 0.00097069243
0001c0 08 15 c0 3c 54 0b 6c bc da 9e 15 bd 7e ce 67 bc
       0.023447528 -0.014406998 -0.036528446 -0.014148353
0001d0 b0 56 f0 3c 06 6e b2 3b 90 c5 bb 3c 50 2c ab 3b
       0.02933821 0.0054452447 0.022921354 0.0052237883
0001e0 a3 2a d4 bc 14 c3 97 bc 06 f7 55 bd 58 00 91 bc
       -0.025899237 -0.018525638 -0.052237533 -0.01770036
0001f0 93 d0 98 3b 30 f7 0b 3c b4 3d 93 ba 4a a5 af 3c
       0.004663536 0.008542821 -0.0011233599 0.02144112
000200 06 7c ee 3c 70 8b 68 3c 62 cb 6f 3c 9e 0b c1 bc
       0.029111873 0.014193401 0.014635893 -0.02356511
000210 27 68 b0 3c e8 af 50 3c 15 e8 af bc 8f 4f f2 3c
       0.021534039 0.012737252 -0.02147297 0.029578952
000220 ec d8 fe 3b 89 b1 82 3c 76 3f b3 3b 08 d1 93 3c
       0.007777324 0.015953796 0.0054702116 0.01804401
000230 c8 0e 9a bc f9 f4 02 3d bf 63 89 3d f1 57 3d 3d
       -0.018805876 0.031971905 0.06708478 0.046226446
000240 a4 97 eb 3c 4e a8 4a 3c 47 0c aa 3c 93 32 5d bc
       0.028758831 0.0123692285 0.020757807 -0.013500827
000250 9f b7 c0 3c d8 6b 0e 3d 7a 0c ba 3c 8e 6a 3a 3d
       0.023525057 0.034770817 0.022711027 0.045511775
000260 46 3f 29 3d 94 0c 53 3b a1 a3 89 bc 3a c4 ba 3c
       0.041320108 0.0032203542 -0.016801657 0.022798646
000270 ed 89 89 3b 17 68 9b 3b 6b 3f 65 3c d4 06 9b bc
       0.0041973502 0.004742633 0.013992171 -0.018924154
000280 21 88 8f bb 1b 4c 98 bc 8b 9e d3 3b 23 2d d3 3c
       -0.0043802415 -0.018590977 0.006458109 0.025778359
000290 68 90 ab 3c 6f 99 f8 bc 66 e2 8b 3b 5d da ef ba
       0.020942882 -0.0303466 0.004268932 -0.001829933
0002a0 e2 f8 94 3c b9 02 10 bd ca b7 a4 bb 5d a4 09 bc
       0.018185083 -0.035158847 -0.005026792 -0.008401004
0002b0 bd 2f 82 3c c9 dd 88 ba 5c 16 d1 bc 0e a9 12 3c
       0.015891904 -0.0010442074 -0.025523357 0.008951439
0002c0 b4 2c 18 bb d0 50 cc 3b 0a 23 43 3d 25 1e e4 bb
       -0.0023220005 0.0062352195 0.047640838 -0.0069616013
0002d0 c8 b9 26 bd 5c fd 92 3b 67 6f 0d 3c 37 83 4a bc
       -0.04070452 0.004485769 0.008632517 -0.012360386
0002e0 5e 59 35 3c bc 2d 4f 3b 04 bd b0 bc 8d 82 fc 39
       0.01106867 0.0031612953 -0.021574505 0.00048162453
0002f0 1d bb 0d bd 06 37 29 bd da 20 dc 39 04 15 b6 bc
       -0.034602273 -0.04131224 0.00041986146 -0.022226818
000300 37 7e 24 bd 2c 86 1c bd d6 be 2b bc 8a 82 79 bc
       -0.04015943 -0.038213894 -0.010482511 -0.015228877
000310 ca b8 c6 bb 6e bc d2 bb 60 23 8e bd 58 fd 1c bd
       -0.006064509 -0.006431154 -0.06940341 -0.038327545
000320 67 9e e1 bd 30 53 80 bd 16 bd 98 bd d4 87 92 bc
       -0.11016541 -0.06265867 -0.0745794 -0.017887034
000330 79 24 42 bd 70 f3 38 bd 60 ee 7f bc 75 9a 26 bc
       -0.047398064 -0.045154035 -0.015620798 -0.010168661
000340 46 9b 13 bd 52 b4 ca bd 48 20 a5 b9 82 c4 5e bc
       -0.036036752 -0.098976746 -0.00031495304 -0.013596656
000350 40 bb a3 bc c0 9e 15 bd ce 78 50 bd c3 a9 63 bd
       -0.019986749 -0.03652835 -0.05089646 -0.05558182
000360 a1 23 d4 bc 21 31 0c bd 48 44 e5 bc 7b d9 8e bd
       -0.025895895 -0.03422654 -0.02798666 -0.06975075
000370 77 ca b7 bd 88 9e 57 bd a7 1e 5f bd d3 ad c8 bd
       -0.08974164 -0.05264142 -0.05447259 -0.09798779
000380 c3 38 e2 bd 0e e0 43 3c ca 64 8e 3c 8e b6 88 3c
       -0.11045983 0.011955274 0.017382044 0.016688611
000390 d3 d5 d6 bc 07 c6 1a 3d 5a e2 eb bc 03 60 1e bc
       -0.026225006 0.03778651 -0.028794456 -0.009666446
0003a0 9b 8d 13 3d 87 eb f6 3c 42 b6 9a 38 c4 5b ad bc
       0.036023717 0.030141605 7.3772404e-05 -0.021161921
0003b0 13 7e 57 3c 07 c4 fc 3c 42 77 b7 3c dd b9 84 bb
       0.013152617 0.030855192 0.022395734 -0.004050477
0003c0 6c 7b ab 3b ca 72 a7 3b 1d 5e b6 3a a8 7b 44 3d
       0.005233219 0.0051101195 0.0013913546 0.04796949
0003d0 b3 32 98 3c 7c 97 19 bc 18 34 a4 3c 8d 08 81 3d
       0.018578863 -0.009374496 0.020044371 0.06300459
0003e0 72 1a 5e bc f0 96 4c 3b e1 69 0e bd e7 e4 e9 bc
       -0.01355611 0.0031217895 -0.034768943 -0.028551532
0003f0 ba dc 10 3d e9 45 48 bc d3 a7 ce 3a 56 e6 38 bd
       0.03536675 -0.012223699 0.0015766568 -0.04514154

bias f4 [64]
000000 a5 6d 0f be 64 0c 89 bd b0 0f c4 3b ac 41 11 bd
       -0.1400667 -0.066918164 0.0059833154 -0.03546302
000010 49 4c 09 bd 00 2e 07 bd f8 0f 17 bd d7 cd a9 bc
       -0.033520017 -0.033002853 -0.036880463 -0.020728035
000020 c5 1b 8d 3d 9a 03 1a bd 84 b6 83 3d 59 3e 52 bd
       0.06890062 -0.03760109 0.064312965 -0.05132899
000030 69 9a 08 bc 96 4a 95 bd e6 b7 b6 bc eb 23 86 bd
       -0.0083375955 -0.07289617 -0.022304486 -0.065498196
000040 88 6b ce bc 4f 19 a8 bd dd 8e 0e bd d9 7c e9 bc
       -0.02519776 -0.08207952 -0.034804214 -0.028501915
000050 3f 40 47 bc 7a 1b fc bc b0 d9 91 bd 0d 9a db bc
       -0.012161314 -0.03077482 -0.07121599 -0.026806856
000060 55 28 02 bc d1 d6 cb bc 55 0e 9a bd 69 bf 1e bd
       -0.007944186 -0.024882706 -0.07522265 -0.03875676
000070 97 82 db bd fa e5 43 3e b7 4d 50 bd e1 86 04 bd
       -0.107182674 0.19130698 -0.050855365 -0.032355193
000080 6a 9f 44 bd 04 b9 b4 bd 33 72 71 3c 06 8d 2c bd
       -0.04800359 -0.088243514 0.0147367 -0.042126678
000090 d4 29 db bd 87 90 f0 bc 09 57 66 bd 53 24 0a bd
       -0.107013375 -0.029365791 -0.056235347 -0.033726048
0000a0 4d ac 84 bd 48 85 0f bd d2 ad 29 bd d5 9e 87 3d
       -0.06478176 -0.035039216 -0.041425534 0.06622092
0000b0 bf f8 d1 bc 7d e7 fd bc 6c d6 29 bd c0 9d d0 bc
       -0.025631307 -0.030994171 -0.041464254 -0.025465846
0000c0 8b 8c bb bc 06 06 19 bc 2e f3 09 3d 42 04 2a bd
       -0.022894165 -0.009339815 0.03367918 -0.041507967
0000d0 63 70 2f bd 3d 02 36 bd dd 68 d7 bb 0c 8b 89 bd
       -0.04283179 -0.04443573 -0.00657378 -0.06715974
0000e0 d9 6c 19 bd 1e 98 ee bd 56 5d 7b bd 10 8d c9 bc
       -0.03745732 -0.11650108 -0.06136831 -0.024603397
0000f0 ca bf 18 bd 01 6a f2 bc 79 2b 87 bc 72 34 b3 bc
       -0.03729228 -0.029591562 -0.016500222 -0.021875594

weight f4 [64, 64, 3, 3]
000000 9f a8 6c bd 3e 73 1f 3d 98 5c a8 3e 97 a0 6d be
       -0.057777997 0.038928263 0.32883143 -0.23205791
000010 11 77 f9 bd a5 2e 93 3d 15 b1 04 be 11 6c 0c bd
       -0.12180913 0.07186631 -0.12958176 -0.034282748
000020 28 60 1f bd 01 28 16 bd 59 cc 89 3c bd c5 5f 3e
       -0.03891006 -0.036659244 0.016821073 0.21852775
000030 9f e8 1d be fd 65 5a bc f4 a2 5d 3d ec 0a 4c bd
       -0.15420769 -0.01332998 0.054110482 -0.049815103
000040 9c 48 99 bd 30 96 08 be 26 d2 6d bc ef 6b 5d bd
       -0.07484552 -0.13338542 -0.014515435 -0.05405801
000050 e0 0d 6c 3d d6 64 d1 bd 70 b2 35 3c be 39 4e 3b
       0.05763042 -0.10224311 0.011089906 0.0031467522
000060 60 2e 2b 3d dc 08 1b 3d 9b 55 8c 3d e0 08 75 bd
       0.041792274 0.037850246 0.068522654 -0.059822917
000070 f2 ce ca bd 2d a3 b6 3c f5 0b 95 bd 93 c7 e2 bd
       -0.09902753 0.022294605 -0.07277671 -0.11073222
000080 8b 48 29 bd 9d 5d f0 bd b0 ba 4d be 95 3c f4 bd
       -0.041328948 -0.11736605 -0.20090747 -0.119256176
000090 3b 43 e8 bd 23 06 23 3c db 99 91 bc dd b4 41 3d
       -0.11340948 0.009950194 -0.01777356 0.047291625
0000a0 0d c8 14 bc 7c 53 9a bd 1f ea 59 bd 2f f8 9c bd
       -0.009080899 -0.07535455 -0.05320179 -0.07664525
0000b0 98 26 64 bd 4a 2e df 3c 31 3d 30 3e 52 3f 31 3d
       -0.05570087 0.027243752 0.17210843 0.043273278
0000c0 61 17 97 bc 71 74 63 bd 85 17 3b bd f7 bb 8f 3d
       -0.018443765 -0.05553097 -0.045676727 0.07018273
0000d0 41 2a 96 3d f5 f5 0a be 96 f4 6f be 1b d3 2a be
       0.07332278 -0.13570388 -0.23433146 -0.16682093
0000e0 e6 fe 6e be 48 be 85 bd 0e fa a0 bc f4 87 cf bd
       -0.23339424 -0.06530434 -0.019650485 -0.10133353
0000f0 71 67 b8 bd c1 26 b8 3b 76 22 95 bd d1 e9 00 be
       -0.09004105 0.005619854 -0.072819635 -0.12589194
000100 c8 a1 48 bc 17 89 ee bc 32 86 c7 bd 80 2f d2 bd
       -0.012245603 -0.029118104 -0.097423926 -0.10262966
000110 93 ef 86 ba b3 34 02 bb 8b 7e b0 3c 4d 11 d0 bc
       -0.0010294787 -0.0019867837 0.021544715 -0.025398875
000120 dc 19 4b 3a 73 cc aa bb ab 87 e8 3d 7e d7 56 3c
       0.0007747689 -0.0052123605 0.113540016 0.013112901
000130 68 63 fd bc 0b 05 d9 3d b1 1a 8b 3d d0 86 0d be
       -0.03093119 0.10596665 0.067922 -0.13820958
000140 98 35 1b be bd cf 12 be 2b 20 08 bc 61 08 31 3e
       -0.15157163 -0.14337058 -0.008308451 0.17288353
000150 a1 3d 49 be 76 f4 34 be 5e 86 53 be e9 d7 4c be
       -0.19652416 -0.1767138 -0.20656726 -0.20004238
000160 e4 05 88 be 29 fa 96 bd c7 2f 26 be 9c 1d b0 bd
       -0.26566994 -0.07371933 -0.16229163 -0.085993975
000170 e2 d9 4d 3b cd 9b 26 be e7 da c6 bd 1a aa ab bb
       0.0031410386 -0.16270371 -0.09709721 -0.0052387835
000180 5e 43 d0 bd a7 fc 99 bd ca 20 fe bd a1 60 90 3e
       -0.10169099 -0.07518893 -0.12408598 0.28198722
000190 75 f3 ce 3d 95 83 1b 3d 73 6a 21 3e b3 fd 20 bd
       0.101050295 0.037967283 0.15763263 -0.039304446
0001a0 ed c1 76 3c 69 81 80 3c b5 7c 84 bc 56 23 af bc
       0.015060884 0.015686708 -0.016172746 -0.021379154
0001b0 32 c6 65 bd 8a 51 eb bc 33 02 19 bd 16 66 00 3b
       -0.056097217 -0.028725404 -0.037355613 0.0019592098
0001c0 e1 4b 19 bc 22 bf c4 bd 95 f9 13 3e d9 3c 31 3e
       -0.00935647 -0.09606768 0.14450677 0.17308368
0001d0 fd ce 6a 3c bb fb d7 3c 57 c5 0e 3d a7 d4 96 3d
       0.014331576 0.026365152 0.034856167 0.07364779
0001e0 12 12 ce bd 09 c3 46 bc bb cd 9a bd 71 a4 bb bd
       -0.100620404 -0.012131461 -0.07558771 -0.09162224
0001f0 56 bd 67 bd a0 25 06 3e 6a 15 1c be 9d 06 c8 bb
       -0.05657705 0.1310029 -0.15242544 -0.006104304
000200 df dc 29 3e a2 19 8c bd 9b 53 34 be b5 07 ac 3d
       0.16588162 -0.068408266 -0.17610018 0.083999075
000210 91 11 5d 3d 58 e4 c8 bd 28 db 73 bc 0a 2b 04 3e
       0.05397183 -0.09809178 -0.014883794 0.12907043
000220 1b ee b7 3d df 47 63 3e b4 f2 f7 3d 19 b4 7e bd
       0.08980962 0.22195385 0.12106839 -0.062183473
000230 9e 85 41 3e 99 5d a3 3d d9 13 c6 3c d8 96 0b be
       0.18898627 0.07976837 0.024179386 -0.13631761
000240 a3 72 23 be d7 54 9a bb 22 6c 8f 3e 7c c5 63 bd
       -0.15961699 -0.0047098207 0.28012186 -0.055608258
000250 c1 66 58 3d 71 d8 59 3e 7a 82 49 3d 80 49 a6 3d
       0.05283237 0.21273972 0.049196698 0.08119488
000260 0e 79 9e bd 07 37 92 bd d8 b6 81 3e cd ea 94 3e
       -0.07737933 -0.07139402 0.2533481 0.2908539
000270 01 8b d4 3d 8d 06 8e 3d 81 6d ac 3d c1 92 31 bc
       0.103780754 0.06934843 0.08419324 -0.0108382115
000280 48 89 17 3e 6a b9 e4 bd 38 aa ef bc 7e 4c 46 be
       0.14798462 -0.111681774 -0.029255971 -0.19365117
000290 bd 9d 16 3d 36 51 40 be bc b9 8c be 1a cd f1 bd
       0.036771525 -0.1878098 -0.27485454 -0.11806698
0002a0 94 ab b7 bd 6c 5e eb bd 3c 65 f9 bd 35 1b 56 3e
       -0.08968273 -0.11492619 -0.12177512 0.20908816
0002b0 0d d6 b5 3d 01 a9 10 3c 6c 6c 0c 3e b8 0d c0 bd
       0.088787176 0.008829356 0.13713235 -0.09377617
0002c0 08 b7 b0 bd ac 80 d9 3d 65 40 ae 3d 66 e6 04 3d
       -0.086286604 0.10620245 0.08508376 0.032446288
0002d0 69 31 20 be 59 5e 0e be 49 6c 0b 3e 43 52 84 be
       -0.15643848 -0.13903178 0.13615526 -0.2584401
0002e0 a6 1e 48 be 74 c6 ea 3d b1 d2 22 bd fa e0 fd bd
       -0.19542941 0.11463633 -0.039751712 -0.123964265
0002f0 88 d2 20 3e 5d 41 e8 3d 65 da 56 3d b3 6a 4a 3e
       0.15705311 0.11340592 0.05245437 0.19767265
000300 03 3f d2 3d fe 97 8e 3d d0 8e 1d 3e 9d 32 42 3e
       0.10265925 0.06962584 0.1538651 0.1896462
000310 39 cd 7e 3d 91 c1 c0 bc 81 d4 6d be 45 17 93 bd
       0.062207434 -0.0235298 -0.23225595 -0.07182173
000320 ba c5 58 3c a8 6a a6 be 10 cd 4f be 43 98 27 3d
       0.013230735 -0.32503247 -0.20293069 0.040916692
000330 fb 1a 87 be 5f 30 74 bd c4 22 15 be 2b 6a 5d bd
       -0.26387772 -0.059616443 -0.14564043 -0.054056328
000340 e3 81 15 be 2c aa 83 3d 83 d3 0a be 33 b6 c4 bd
       -0.14600329 0.06428942 -0.13557248 -0.09605064
000350 b2 2f 21 3d a3 08 df 3b 5a 2d 9a bd 07 57 8d ba
       0.039352126 0.0068064495 -0.075281814 -0.0010783382
000360 93 a9 8c 3d 09 e3 5d 3d 51 d1 84 3d 1c 74 ad bd
       0.06868281 0.054171596 0.064852364 -0.08469412
000370 43 be d5 bc c7 0e fd 3d a4 2e 86 bd f4 82 a3 bd
       -0.0260917 0.12356334 -0.06551865 -0.07983962
000380 cf 01 71 bd 51 fa 19 3e 33 f4 2f 3d dc e4 a4 bc
       -0.058839615 0.15036894 0.042957496 -0.02012866
000390 62 5c 8d 3e e5 a5 34 3e 1f c1 02 3d b3 c4 5d 3e
       0.27609545 0.17641409 0.031922456 0.21657066
0003a0 14 e2 4b 3c ea 5f 44 3a 14 52 7a 3d a1 09 06 3d
       0.012444038 0.0007491099 0.061113432 0.032724027
0003b0 88 86 b9 bd c6 f2 04 be 95 17 51 bd 13 11 d5 3d
       -0.09058863 -0.12983236 -0.05104788 0.10403647
0003c0 b0 9d 5b 3d 49 cc 46 3d 15 f5 22 3c f5 5d a8 3d
       0.05361718 0.048534665 0.009946127 0.08221046
0003d0 8b e7 53 3c 98 fb 48 bd 45 d5 04 3e 25 21 69 3d
       0.012933622 -0.049068063 0.12971981 0.056916375
0003e0 df a6 27 bd a7 66 5e 3d fc 54 d5 3d 92 a3 d7 bd
       -0.040930625 0.054297116 0.104166 -0.105292454
0003f0 dd da 7d bd a5 61 07 3e e9 08 64 3e 83 a1 6a be
       -0.061976302 0.13220842 0.22269024 -0.22913174

bias f4 [64]
000000 5b 48 01 be b5 60 41 3d 90 78 30 be 34 54 c0 be
       -0.12625258 0.047211368 -0.17233491 -0.37564242
000010 68 78 41 be 76 ad 78 bd 2d 6f cb 3d 86 ac 3b be
       -0.18893588 -0.0607123 0.099333145 -0.18327531
000020 b4 6e 88 be 06 f2 81 be a9 fc 37 3e 88 6b 7a 3d
       -0.2664696 -0.25379962 0.17967476 0.061137706
000030 b3 6c 37 bd 9d 47 eb bd 74 89 95 be c9 63 d2 bd
       -0.044781398 -0.114882685 -0.2920643 -0.10272939
000040 9d 17 51 3d 5c c0 af be c6 c5 25 be 7a 88 25 bb
       0.05104791 -0.34326446 -0.16188726 -0.0025258348
000050 c1 e0 06 be 95 dd 13 3e dd 96 d5 3d 90 a4 00 be
       -0.13171674 0.14439996 0.104291655 -0.12562776
000060 84 1a 55 bd 4e 1c be 3d 90 d1 eb bd e1 a4 78 bc
       -0.05202724 0.092827424 -0.1151458 -0.015176029
000070 ad ad 59 be d4 7a 48 be 09 22 02 be 59 64 41 be
       -0.21257658 -0.19578105 -0.12708296 -0.18885936
000080 3c 06 02 be b1 4a cc 3d c6 58 07 3e 0a 18 aa b9
       -0.1269769 0.09975184 0.13217458 -0.00032442837
000090 09 63 29 bd ce f5 2e bd 99 47 32 be 85 2b 01 3d
       -0.041354213 -0.042714886 -0.17410125 0.031535644
0000a0 f2 aa c9 bd 95 11 10 3c 6a b7 29 be 87 7e cf bc
       -0.09847058 0.008793254 -0.16573873 -0.025328888
0000b0 f8 ec 1a 3d a9 dd 85 be ac 3a 3b 3d ab 42 fd bc
       0.037823647 -0.26145676 0.04571025 -0.030915579
0000c0 f6 74 2c be c7 e5 4a bd e9 21 4f be 5f 26 d4 bd
       -0.16841492 -0.04953554 -0.2022778 -0.10358881
0000d0 31 d1 9b bd c7 4a 06 bc c0 ae 31 be cb 68 32 bd
       -0.076082595 -0.008196539 -0.17351818 -0.04355697
0000e0 89 34 43 be 00 2a 7b bd b4 16 84 3c f5 17 13 3e
       -0.1906301 -0.06131935 0.016124107 0.14364608
0000f0 03 f9 8b bd 25 90 88 bd a2 c5 4b 3c e6 53 e2 bd
       -0.068346046 -0.066681184 0.012437256 -0.110511586

weight f4 [15, 104, 1, 1]
000000 92 80 a3 be a6 0b a4 bc b3 d3 35 3d 91 5d 00 3d
       -0.3193403 -0.020025086 0.044391345 0.031339232
000010 70 27 c2 bd 62 f1 b4 bd 2e 9a 4a bd af d9 49 3d
       -0.09480178 -0.088351026 -0.049463443 0.049279865
000020 48 62 ec 3d cc 44 32 be 38 d0 09 be 35 c0 bc 3c
       0.11542183 -0.17409056 -0.13458335 0.02304087
000030 52 d3 72 bd 74 79 fc bd 38 f7 16 be db 9b c2 be
       -0.059283562 -0.12327853 -0.14742744 -0.38009533
000040 8f e0 df 3b 99 95 11 be dc 32 2f bd 34 92 2a 3d
       0.0068321894 -0.14217223 -0.042773113 0.041643336
000050 38 5e 37 be 58 db b7 3c 60 03 70 3d da d7 7f 3e
       -0.17907035 0.022443458 0.05859697 0.24984685
000060 7c ad c7 3c 47 b1 9e 3d d4 cc b6 be 28 a4 1a bd
       0.024374716 0.07748657 -0.35703146 -0.037754208
000070 f4 ae 92 bd ee 0b 2a be ce f5 ea 3d 49 4a 66 bc
       -0.07162276 -0.16606113 0.11472665 -0.014055797
000080 49 75 66 3d 19 d9 03 be 2e 71 28 3e e8 7a 0e be
       0.056264196 -0.12875785 0.16449425 -0.13914073
000090 33 2b 6c bd 1d cb 09 be f2 6f 5b bd 1d 7e e8 bd
       -0.057658385 -0.13456388 -0.053573556 -0.11352179
0000a0 86 8f 28 3d 6c 2e 69 be 90 b2 b8 bd 19 3d 68 be
       0.0411525 -0.22771615 -0.09018433 -0.22679557
0000b0 13 45 81 3d 58 9f cd bd 3d b2 de bc 55 6e a2 bd
       0.06312003 -0.10040158 -0.0271846 -0.079312004
0000c0 4c f9 75 3d bc b0 90 3e a3 41 8c bd a5 23 f2 bd
       0.0600522 0.28259838 -0.06848457 -0.11823205
0000d0 1a 18 d6 be 8e 2f 24 3e 8d 7d 24 bc 1a da 00 bb
       -0.41815263 0.16033766 -0.010039699 -0.0019661249
0000e0 78 a3 8f bd 15 fd c6 3c e0 ca c8 be 65 cd ad 3d
       -0.07013601 0.0242906 -0.3921728 0.084864415
0000f0 9a 1d 0a 3e 26 fb bf 3d a5 8f 13 3e f0 84 f1 bd
       0.13487855 0.09374075 0.14410265 -0.11792934
000100 8a 3c a8 bd 91 aa c3 3d 83 66 d1 3d 02 e4 90 be
       -0.08214672 0.09554017 0.10224631 -0.28298956
000110 4e 6a 8d be 9f e0 f2 bc ef 04 c2 bb 89 12 81 bd
       -0.27620167 -0.029648123 -0.0059209983 -0.063023634
000120 ca 48 a1 3d 3b 81 15 3d 2b 76 fc bc 0c 20 6e 3e
       0.078752115 0.036500197 -0.030818066 0.23254412
000130 ba 63 14 be a0 9d 2b be c8 68 c4 be b1 c5 e5 bd
       -0.14491168 -0.16759348 -0.38361192 -0.11219347
000140 23 6a 04 be 9b 30 4c bd 89 6b 86 bc 38 50 74 bd
       -0.12931113 -0.04985104 -0.016408699 -0.059646815
000150 3a 77 09 be ee 8f 0e 3d 75 9b 6c 3d e1 8c ed bd
       -0.13424388 0.03480523 0.057765443 -0.11599136
000160 44 62 5c 3c f5 4f a6 3d a6 25 92 3d f0 92 98 bd
       0.013451163 0.08120719 0.07136087 -0.07449901
000170 29 34 64 bc 12 be e0 be a1 46 20 3e 4b 23 b3 bd
       -0.013928452 -0.43895012 0.15651943 -0.08746966
000180 ac 37 d8 3d 04 6f 7a bd 63 23 7c bd 55 7b 9c be
       0.105574936 -0.06114103 -0.061557185 -0.30562845
000190 f3 51 b3 bd e0 0f d5 3e c6 0a 73 37 37 d4 83 3d
       -0.08755865 0.41613674 1.4486437e-05 0.06436961
0001a0 58 05 c3 3f 5b f4 a0 3c ef c6 bb 3d 18 35 82 bd
       1.5236006 0.019647768 0.09168803 -0.06357783
0001b0 3a 73 3b 3d 35 86 bb bd 2f 35 25 3c 5b 59 f0 bd
       0.045764185 -0.09156457 0.010083481 -0.11735793
0001c0 40 13 09 c0 1b 3d d5 3b 05 15 a6 3d 28 3d 70 be
       -2.1418 0.0065075285 0.08109478 -0.2346083
0001d0 c2 96 1f be e3 11 ca 3d 48 53 cd 3d 22 1f 07 3c
       -0.15584853 0.09866693 0.1002565 0.008247169
0001e0 1b 45 67 be c4 16 68 bd c5 80 05 3e 64 43 fb bd
       -0.22584955 -0.056662336 0.13037403 -0.12268713
0001f0 a6 66 18 be d4 3d b8 3f 5e db b4 3c 65 80 7d be
       -0.14882907 1.4393868 0.022077259 -0.2475601
000200 58 31 24 bd da b0 06 bd f1 ab aa 3f 92 67 5f 3c
       -0.04008612 -0.032883503 1.3333722 0.013635533
000210 24 48 c4 bd ab 4f 31 be 29 a0 b0 3d 3a 34 52 be
       -0.09584072 -0.17315547 0.08624298 -0.20527735
000220 a9 a5 33 bd 5d 27 0b be 97 e5 ee bf f9 b6 14 be
       -0.043859158 -0.13589235 -1.8663815 -0.14522924
000230 77 93 7f 3e f1 46 ee 3d dc b2 0b be 16 cf 56 bd
       0.24958597 0.11634625 -0.13642448 -0.052443586
000240 29 07 10 bc fb cd 20 be 4d e5 9e be e0 fc 2e be
       -0.00879077 -0.15703575 -0.31034318 -0.17088652
000250 de a2 1a 3d ff ba 35 3c c6 33 87 be f8 9f ee 3f
       0.03775298 0.011091947 -0.26406687 1.8642569
000260 80 31 75 3d a1 c2 93 be bb d0 c2 3c a6 26 b1 3b
       0.05986166 -0.28859428 0.023781171 0.0054062186
000270 90 ba fd 3f d1 60 d6 bc b2 f4 00 3d 5a 8a f4 bd
       1.9822559 -0.026169213 0.03148336 -0.11940451
000280 20 2b e8 3d f1 99 ca bc 86 7d 81 3d 5e ed 75 be
       0.113363504 -0.024731608 0.0632277 -0.2401633
000290 cc 4a d2 bf cc ac c6 3c 79 09 39 3e f5 86 3f bd
       -1.6429076 0.024252318 0.1807002 -0.046759564
0002a0 c9 b6 78 be e4 ad 01 bd 5c 26 bb 3c d2 8c ce be
       -0.24288477 -0.031659976 0.02284544 -0.40341812
0002b0 dc 9e 96 bf 02 5a 68 be ae 94 f7 3b 69 86 d4 bb
       -1.176723 -0.22690585 0.007555566 -0.0064857495
0002c0 d3 40 f5 3d 59 c2 2d 40 c3 cf 95 3c 36 93 e7 be
       0.11975255 2.714987 0.018287545 -0.452295
0002d0 a9 b3 5f 39 98 41 4c bd bf a5 18 40 46 8a cf bd
       0.00021333866 -0.049867243 2.3851163 -0.101337954
0002e0 09 0f ae bc 2d 98 7e bb 99 0a c7 bb 8f f2 0b bb
       -0.021247404 -0.0038848028 -0.0060742614 -0.0021354293
0002f0 19 64 68 3e a8 c5 89 be dd f9 ac bf d9 d8 26 3d
       0.22694434 -0.26908612 -1.3513752 0.040734146
000300 63 6d 97 3e 5e 2e e6 3c 0c 7c 21 3e 61 f1 41 be
       0.29575643 0.028098281 0.15769976 -0.18939735
000310 23 0b ed bb 0a df c5 bd 7d 7c 07 c0 9f 77 9f be
       -0.0072339936 -0.09661682 -2.1169732 -0.3114595
000320 d2 e0 b1 3d b5 df 6c bd f1 d9 eb 3d ce d2 84 40
       0.08685459 -0.05783053 0.115161784 4.150733
000330 29 6b 03 3e f4 23 fe be d2 4c a0 bd 94 a2 0d bd
       0.12833847 -0.49636805 -0.07827152 -0.034578875
000340 f4 d7 d2 bb 2c 1f 2c 3d 50 cd ef bd c4 1b cf bd
       -0.006434435 0.042021915 -0.11709082 -0.10112718
000350 23 cd c1 3d a2 51 e6 bd 90 5b c9 bd 82 5b 61 be
       0.09462955 -0.11246039 -0.09831917 -0.22007564
000360 4c a5 49 be 79 54 c6 bd e3 76 cc 3d f5 a8 08 bd
       -0.19691962 -0.09684081 0.09983613 -0.033364255
000370 70 f1 3d bd dd 35 c9 bd 15 4b ad bd a4 4e 19 bf
       -0.04637283 -0.09824727 -0.084615864 -0.5988562
000380 91 39 ae bd 76 3d c6 3d 3a 11 23 3d 60 31 3d 3e
       -0.08507074 0.096796915 0.03981135 0.18475866
000390 32 eb 08 3e 5c 32 4a be 7f 49 77 bc ae 03 11 bd
       0.1337097 -0.19745773 -0.015093206 -0.0354039
0003a0 c3 22 1e be f8 58 c5 bc 98 ca a5 be 2e d4 ac 3d
       -0.15442948 -0.024090275 -0.3238113 0.084389076
0003b0 73 ed 50 be b0 a5 13 3d 70 c3 dd 3d b7 8e 87 3d
       -0.2040308 0.036046684 0.10828292 0.066190176
0003c0 47 85 80 bb dc bf ed 3b bb f1 c7 bd 2d 4a 89 3c
       -0.003922138 0.0072555374 -0.09762903 0.016759003
0003d0 06 7a 67 3d e2 fc 34 be bf da 98 bd 70 d4 4d bd
       0.056512855 -0.17674592 -0.074635975 -0.050251424
0003e0 40 ee a9 bd 83 4f a7 be 3c 52 20 3e d8 1d 9b 3d
       -0.08297396 -0.3267785 0.1565637 0.075740516
0003f0 c8 96 72 bd 8e 7e 0a 3d ad 0d 2b be 0d 2d ed bd
       -0.059225827 0.0338121 -0.16704436 -0.115808584

bias f4 [15]
000000 c6 84 f7 be fd ce 53 3f 90 83 a5 3e 3e 59 0a 3f
       -0.48343486 0.82737714 0.32326937 0.5404242
000010 e3 8e 16 3f 38 19 30 bd fa d2 56 be b5 00 05 3e
       0.5881178 -0.0429928 -0.20978919 0.12988551
000020 0f a3 39 bb 77 84 33 3f cb d8 c5 3e e7 4c 57 3f
       -0.002832595 0.70124 0.38641962 0.8410172
000030 b0 a2 c3 bd 2e c9 0d 3f 7a f0 a7 3d
       -0.095525146 0.553851 0.08200164

weight f4 [19, 79, 3, 3]
000000 c1 3f 1b bd 07 78 89 bb 2d 4b ac bc 8f 2f 21 bd
       -0.037902597 -0.0041952166 -0.02103194 -0.039351996
000010 70 2e 9b bc 53 8f 84 bd 7d ed 9e 3c 73 09 2c 3c
       -0.018943042 -0.064726494 0.019400353 0.0105003
000020 86 ac 4e 3d 27 4e dc bc 5d 05 9d bc d8 5b 7e bb
       0.0504575 -0.026892735 -0.019167596 -0.0038812067
000030 8c 94 2f bc e9 16 2a 3d 39 d4 96 bc 62 16 f9 bc
       -0.010716569 0.041525755 -0.018411743 -0.03040618
000040 fa f4 31 3c 5f 55 82 38 d0 bc 2a 3c 64 6b 87 3c
       0.01086163 6.214785e-05 0.010420993 0.0165307
000050 f3 fc 24 bc 51 25 e7 3c b1 a4 c8 ba fe a4 08 bd
       -0.010070073 0.028216036 -0.0015307871 -0.033360474
000060 10 31 09 3d 94 35 f3 bb 91 32 9e 3d fa 81 a1 bc
       0.033494055 -0.0074221585 0.077244885 -0.019715298
000070 a6 ee 06 3c 16 d0 23 3d b2 d7 0f 3d 67 6b 09 bd
       0.008235609 0.039993368 0.035117812 -0.033549692
000080 15 af 1b bd 53 79 dd 3c 54 92 be 3c 0f 9a ea 3c
       -0.038008768 0.027035391 0.023263134 0.028637914
000090 3d c4 1c ba 29 87 1f bc 44 e6 71 bc 6f 4e 2b 3c
       -0.00059801695 -0.009736815 -0.014764372 0.010455712
0000a0 db b5 28 3d e5 e4 4f bc 56 06 d7 3d e9 9f 77 3c
       0.041189056 -0.01268885 0.10499255 0.015113809
0000b0 07 f0 3f 3d 6e 00 7a bc e4 3e b2 bc a6 da 71 bc
       0.046859767 -0.0152588915 -0.021758504 -0.0147616025
0000c0 48 cc 91 bd f8 01 3b bc 93 d4 12 bc aa 2a 39 3d
       -0.07119042 -0.011414044 -0.008961814 0.045206703
0000d0 79 31 cc 3c 47 b6 94 3c c4 70 da bc 57 d8 57 bd
       0.024925934 0.018153323 -0.026665099 -0.052696552
0000e0 43 7a 63 bd 21 e6 e2 3b 7d 43 d7 bc 50 a4 b3 bc
       -0.05553652 0.006924406 -0.026277298 -0.021928936
0000f0 ea 11 77 3d 1c 46 57 3c 14 31 ac b9 29 f0 21 3c
       0.06031982 0.013139274 -0.00032842963 0.009883919
000100 6e 0b 7a bc fd 16 91 3c 85 47 71 bd 99 8c 47 3d
       -0.015261514 0.017711157 -0.058906097 0.04871807
000110 df dc 96 bc 69 df bf 3c d5 08 1b bc 32 40 dc bc
       -0.018415866 0.02342196 -0.009462555 -0.02688608
000120 e6 9d 5b bd 21 f3 3c bd 4a 0b bd 3c bc 89 fb bb
       -0.05361738 -0.046130303 0.023076672 -0.0076763313
000130 d7 6a dc bc f0 5a e5 3b 91 ab aa bc f1 b5 50 3d
       -0.026906414 0.006999366 -0.020833762 0.050954763
000140 d1 cf be 3c c7 ce 2d 3d 5a 0b 51 3b 2b e4 88 3d
       0.023292454 0.042433526 0.0031897635 0.066841446
000150 d7 11 95 bd 73 71 95 bd 0b 02 4a b8 f2 9b 7e bd
       -0.07278793 -0.07297029 -4.8162456e-05 -0.06216044
000160 c1 a3 e6 bb 19 e0 3a 3c 55 0b 3f bc ed 60 19 3d
       -0.007038564 0.011405968 -0.011660417 0.03744595
000170 2c 4d 02 bd db 45 8e bd b4 f4 9a 3b da 01 1b bd
       -0.031811878 -0.069469176 0.004728878 -0.037843563
000180 f7 18 8b bd 5c 08 28 bd cb 03 31 bd 58 54 81 bd
       -0.06791871 -0.041023597 -0.043216508 -0.063149154
000190 ab 33 7c 3c 9a 53 75 bb ce 4f e9 bb a9 a5 73 ba
       0.015393178 -0.0037433864 -0.007120109 -0.00092943996
0001a0 9e 40 35 bc d7 6f 9c bc 5b 67 82 3b 8e 9a a6 3d
       -0.011062769 -0.019096298 0.003979606 0.08134948
0001b0 0e d7 34 bd 9e 02 12 3d 90 ef 97 bd c5 f3 8f bc
       -0.044150405 0.035647027 -0.0741874 -0.017572293
0001c0 61 d3 e8 3c 0d 17 0a bd d0 48 9c 3c 14 a2 2e bc
       0.028421106 -0.03371339 0.019077688 -0.01065876
0001d0 d7 f1 97 3b 92 7b a2 bd 97 39 80 3c c5 e4 e5 3c
       0.004636984 -0.079337254 0.015652461 0.028063187
0001e0 90 aa 30 bc 37 87 cd 3b 9e 30 bf 3c 65 5a 6c bd
       -0.010782853 0.0062722224 0.023338612 -0.057703394
0001f0 ec 50 6b 3c 48 42 2f 3a 25 0a 80 3d 39 bd 08 3d
       0.014362555 0.0006685597 0.06251935 0.03338358
000200 5d c7 5b 3c 0d e4 80 bb 4e dd 25 bc 73 73 72 bd
       0.013414231 -0.003933436 -0.010123564 -0.059192132
000210 ec e9 23 bd 42 e5 dc 3c 64 2e e8 bc 1d a4 4c 3c
       -0.040018007 0.026964787 -0.028342433 0.0124902995
000220 a5 71 9c bd 4f 44 86 bd 8d 42 6c 3d 92 7c 15 bc
       -0.076388635 -0.065559976 0.057680655 -0.009123938
000230 69 2c ae bc 53 44 24 3c e3 06 c7 bc b6 ff 0d 3d
       -0.02126141 0.010026055 -0.024295276 0.034667693
000240 19 da 99 3a 79 14 42 bb 68 4f 8e bb 26 3b f1 bc
       0.0011737972 -0.0029614253 -0.004342962 -0.02944715
000250 45 e8 94 3d 86 4a 57 3d 8c 5a 97 3c b0 94 17 3d
       0.072708644 0.052561305 0.018475793 0.037007034
000260 f3 8a 44 3d 7c e8 76 3b 19 5c a3 bd 9e a3 9c 3c
       0.047984075 0.0037675193 -0.079765506 0.019120988
000270 da cd 8a bc 83 c8 5f bd f4 c8 de 3c a5 f3 a8 bb
       -0.01694386 -0.054634582 0.027195431 -0.005155998
000280 85 54 fd bc a3 8e 19 3c d6 0c da 3d 31 13 e1 3c
       -0.030924091 0.009372386 0.106469795 0.027474971
000290 c2 10 e6 3a b1 35 8b 3d 5f 5a 46 3d e9 5f 08 3d
       0.0017552602 0.0679735 0.04842603 0.033294592
0002a0 83 d5 6c 3c 81 72 de 3c 43 28 b1 3c fc 6e 47 bb
       0.014455202 0.02715421 0.021625644 -0.0030431142
0002b0 42 b2 e1 ba 11 14 62 3d e3 68 1d bd 6b 06 87 3d
       -0.0017219263 0.055194918 -0.038430106 0.06593021
0002c0 be 52 b9 bd da 8b 90 3c ee 1f 78 3c 09 a4 10 bd
       -0.09048985 0.017644811 0.015144331 -0.035312686
0002d0 86 c5 31 bd cb 84 e5 bc be 75 df bc 6c 01 b1 bc
       -0.043401264 -0.028017422 -0.027277824 -0.021607123
0002e0 86 90 3d 3d 20 9c 41 bd ae 3e dd bb aa 8d e9 bc
       0.046280406 -0.047268033 -0.0067518568 -0.028509934
0002f0 b8 20 60 bd dd cc 05 bd 8b 5a f3 bc 09 9d 57 bc
       -0.054718703 -0.032666076 -0.02970626 -0.013159999
000300 2c c3 9a 3c 53 c2 63 bd 5a e2 18 bd 83 a5 ba 3c
       0.018891893 -0.055605244 -0.03732524 0.022784
000310 f7 1f eb bc 12 3c 3b bd cd 60 28 3d a9 d5 8c 3c
       -0.028701765 -0.045711584 0.04110794 0.017191725
000320 02 15 4c 3d 8b 9a 73 bd 28 0a 76 bc 00 a1 0c bd
       0.049824722 -0.059473556 -0.01501707 -0.03433323
000330 6a 06 f8 3b a9 25 09 bd fc 4c 5b 3b d3 89 e9 bb
       0.007569124 -0.03348318 0.0033462634 -0.0071270256
000340 46 5b a1 3c c8 99 c0 3c 9e 6d dc 3c 84 9c eb bd
       0.019696843 0.023510829 0.026907738 -0.11504462
000350 9a 3b 99 3d 47 41 a4 bc 73 d7 b6 3d d8 07 2d bc
       0.07482071 -0.020050658 0.089278124 -0.010560952
000360 26 c3 91 bb 7c 09 3e bd b5 50 a7 3d 03 88 c5 3c
       -0.0044483123 -0.046395764 0.081696905 0.024112707
000370 01 e2 ca bc 06 d8 a1 3c 0a 36 f0 bc b1 63 08 bd
       -0.02476597 0.019756328 -0.029322643 -0.033298198
000380 21 7c 33 bc 0d c0 1e 3d f9 76 a5 3c 4a 0b aa bc
       -0.010954888 0.038757373 0.020198332 -0.020757336
000390 a8 8b 3b 3b e4 9d 69 bc a6 d6 35 bd 5c 43 2f 3c
       0.0028617177 -0.014258835 -0.044394158 0.010697212
0003a0 60 53 85 3d 9c 69 a4 bc 34 58 4a bd 95 dd 69 3d
       0.06510043 -0.02006989 -0.049400523 0.057096083
0003b0 c6 f9 93 bc 2a 37 dd 3c 12 12 11 bd cf 3f 7a bc
       -0.018063437 0.027003843 -0.035417624 -0.015274002
0003c0 9f 36 dc 3c 89 b1 70 bc 3b ec 06 bc 1d ee 80 3c
       0.026881514 -0.014690765 -0.008235033 0.015738541
0003d0 9f 6d 64 3b 15 2b 9f 3c 8f 49 c5 3c 2f 16 8b 3c
       0.0034855378 0.019429723 0.024082927 0.016978351
0003e0 b0 e0 40 bd ae bb 19 bd 89 93 29 bd cf 1c b7 ba
       -0.04708928 -0.0375325 -0.041400466 -0.0013970378
0003f0 8f cf 43 3d 8d 46 9d bd b7 69 98 bd 0a e5 16 3c
       0.047805365 -0.07679472 -0.074420385 0.009209881

bias f4 [19]
000000 a3 fd 68 bd d9 ee c5 3e 83 7d a7 3e e6 90 86 3e
       -0.05688251 0.3865879 0.32712945 0.26282424
000010 b5 f7 32 bd e4 31 97 3e c3 58 13 3e 35 7a a6 be
       -0.043693263 0.2953025 0.14389329 -0.32515112
000020 68 4e 66 be 61 d4 0a 3f a4 bb f5 be a6 9b d2 3e
       -0.22490847 0.54230314 -0.4799472 0.41134375
000030 01 56 75 bd 3d d2 5b 3f b3 f9 06 3f bb 86 a7 3e
       -0.059896473 0.85867673 0.5272476 0.3271998
000040 91 49 22 be 68 1b 74 bd 29 b3 c1 3e
       -0.15848376 -0.05959645 0.37832

weight f4 [8, 79, 1, 1]
000000 45 24 0c 3f 69 ef 33 bd 2e d5 08 bd e5 ce 93 3d
       0.5474284 -0.04392949 -0.03340643 0.072171964
000010 39 23 dc bc 3f f9 a7 bd 66 0d 54 bd 68 db 19 bd
       -0.026872264 -0.08201837 -0.05177059 -0.037562758
000020 55 a3 7b bd 8d 2b 35 3c c8 33 b2 bc 91 f4 1c be
       -0.061435062 0.011057747 -0.021753207 -0.1532767
000030 1f b0 32 be be ce 83 bd 4c 07 98 bd d2 49 3e bd
       -0.17449997 -0.06435917 -0.07423267 -0.04645712
000040 23 16 89 bd 33 1d 49 3c 9f 6d 7b bd 94 af bf bd
       -0.06693675 0.012275028 -0.06138384 -0.09359661
000050 3d e0 d6 bc 33 8c f0 3c 38 98 a0 bd 01 20 95 bd
       -0.026229972 0.029363727 -0.078415334 -0.07281495
000060 78 4e 0e 3c 2a 11 fa bd f8 8b 44 3d db 2e c6 bd
       0.008685701 -0.12210305 0.047985047 -0.09676906
000070 17 ee 01 3d 4a 86 a9 bd da 13 1c be da 2e b8 bd
       0.0317212 -0.08277567 -0.15241948 -0.08993311
000080 ac 7e 08 3c ba e4 0e be e6 ea ef bc e7 af 8c be
       0.008330982 -0.1395444 -0.029286813 -0.27477953
000090 5b 97 61 bd 6e dd db bd 1d 49 94 bd 7b b0 10 be
       -0.055075984 -0.10735594 -0.07240508 -0.14129822
0000a0 df b5 99 bd b3 98 2b bd 36 0f 6e bd ae 6a 19 be
       -0.07505392 -0.041893672 -0.058119975 -0.14982101
0000b0 6a 18 00 be f2 09 c6 bd 21 6b 2f bc 21 06 d3 bc
       -0.12509313 -0.09669866 -0.010706694 -0.025759758
0000c0 52 5a bc 3b 8a 32 ac bd a3 53 8f bc 1d be 72 3d
       0.0057480717 -0.08408077 -0.017495936 0.059263337
0000d0 3b d6 21 bd d9 e1 c9 bc 03 cc 6d bc 5b c1 d5 bd
       -0.039510947 -0.024643825 -0.014513972 -0.1043727
0000e0 0c 97 37 bd 03 ec fe bd 59 0f b7 bd c6 89 4b bd
       -0.044821784 -0.124473594 -0.08938474 -0.049691938
0000f0 7c 05 f4 bc 45 d5 09 bc a1 ec 0a bd 57 68 b3 bd
       -0.029787771 -0.008412664 -0.033917073 -0.087601356
000100 db 56 09 bd 91 ee 3c be 52 49 88 bd 8d 9b 19 bd
       -0.033530097 -0.18450381 -0.0665461 -0.03750186
000110 e2 02 5f be 4d f1 86 bd ae 1a 90 bc e6 aa a4 bd
       -0.21778443 -0.06588993 -0.017590847 -0.08040409
000120 47 21 81 bd f8 cc 26 be 1e ed 18 bd 4d 8b 8a be
       -0.06305175 -0.16289127 -0.037335508 -0.27059403
000130 b9 50 5a be 11 7f 29 ba 50 fa 6f be 5e 52 e3 bd
       -0.21319856 -0.0006465773 -0.2343533 -0.11099695
000140 43 29 54 3f 00 53 a8 3d 5f 34 f6 bd e8 f3 68 3d
       0.8287546 0.08218956 -0.12021708 0.056873232
000150 f9 61 83 bd 6f fc f8 bc 0f 30 70 3e 05 a0 04 be
       -0.06415171 -0.030393807 0.23455833 -0.12951668
000160 11 39 c4 bd 32 67 94 3e d0 6f c1 3c ae 27 d9 bd
       -0.09581197 0.28984982 0.023612887 -0.106032714
000170 34 b3 9f be c5 73 7c be d3 c6 0c bd 00 13 d7 3d
       -0.3119141 -0.24653538 -0.0343693 0.10501671
000180 f2 09 18 be a3 ca ed 3d 33 3e 45 be 1b 14 45 bd
       -0.14847544 0.116109155 -0.19262008 -0.048114877
000190 c3 96 23 be 88 4c 6b bd 20 b8 55 be 5b 41 84 be
       -0.1597548 -0.057446033 -0.2087102 -0.25831112
0001a0 ce bd ad 3d 10 8c 63 be a2 92 97 3c 07 0d 11 be
       0.08483468 -0.22221398 0.018502537 -0.14165126
0001b0 e1 e8 2e be 34 58 0e 3e 3e b0 ed bd 79 b7 8f bc
       -0.17081024 0.13900834 -0.11605881 -0.017543541
0001c0 ed 4d b5 3d b1 d3 5f 3e 3b 1d b5 bd 2c f6 f3 bd
       0.08852754 0.21858098 -0.08843466 -0.11912188
0001d0 35 9d c1 3c 77 b6 05 be 06 2c 3a be 90 82 04 39
       0.023634532 -0.13057886 -0.18180856 0.0001263714
0001e0 66 8f be 3d be 9d be 3d 40 90 71 3d 18 bd bf 3d
       0.09304695 0.09307431 0.05897546 0.09362239
0001f0 f8 af 09 be dd 7a 62 3e e0 e6 ff bc 4a 66 b6 3c
       -0.13446033 0.22117181 -0.03123802 0.022265572
000200 14 fb 8e bd e1 44 fc bd 27 ab 3d bd 15 81 ee bd
       -0.06981483 -0.12317825 -0.0463058 -0.11645714
000210 cd 2b 52 bd 1a 37 c1 bc e1 9a 85 bd 87 d2 74 be
       -0.051311303 -0.023585845 -0.065236814 -0.23908435
000220 08 bd 35 3e 4e 0d 73 3d b0 33 65 bd c8 09 87 bd
       0.17747891 0.05933886 -0.055957496 -0.065936625
000230 78 57 3b 3d f9 e1 09 be 64 52 d3 3c e2 f1 8e 3b
       0.045737714 -0.13465108 0.025796123 0.004362331
000240 52 48 88 bb f7 2d 74 3e 9a 03 3e 3e 40 b3 81 3d
       -0.004159012 0.23845659 0.18556061 0.06333017
000250 91 ae 2a be 94 5f 2b be e1 ca f5 bd 76 eb 21 be
       -0.16668154 -0.16735679 -0.12001587 -0.15812477
000260 15 03 b2 3d a8 98 3f be f2 e8 91 3d 21 dc 00 bf
       0.08691994 -0.18710577 0.07124509 -0.5033589
000270 24 03 db bd b0 b6 2a be 0a 76 32 be 59 e9 f2 bd
       -0.106939584 -0.16671252 -0.17427841 -0.11860914
000280 90 ec 4e 3f 06 2f 43 bd fd 33 69 bb f6 dc 26 3c
       0.80829716 -0.047652267 -0.0035583966 0.010184517
000290 4f 25 5e 3d 29 ea 43 bd 21 d3 40 3d 10 12 a6 3c
       0.0542348 -0.047830734 0.04707635 0.020272285
0002a0 e3 fe 37 3d 21 9f ac bd 57 a4 be bd 62 2e 12 bd
       0.044920813 -0.08428789 -0.09308689 -0.035688765
0002b0 e1 37 b6 bc 82 e4 3d be 08 e1 20 bd 43 9e f3 bd
       -0.022243442 -0.185442 -0.039277107 -0.118954204
0002c0 5a 98 86 3c d6 31 b6 3d 8a 62 e4 bd 6e 9c 22 bd
       0.016430069 0.08896224 -0.11151607 -0.039699964
0002d0 61 cd 84 bd 44 bb b0 bd 9d 30 09 be 04 86 01 be
       -0.064844854 -0.08629468 -0.13397451 -0.12648779
0002e0 41 6c 01 be 7d ac 5a bd 6e e5 5d bd b5 1f 2c 3c
       -0.12638952 -0.053387154 -0.05417388 0.010505606
0002f0 82 ae 42 3c 03 42 ba bd 2d 52 62 3d 85 3f ad bd
       0.011882426 -0.09094622 0.05525415 -0.08459381
000300 ec 99 b1 3d 69 3c a5 3d af bb a3 bc d9 b0 7c be
       0.086719364 0.08068163 -0.019986955 -0.24676837
000310 ce 3a 54 be b0 ce 59 bc 6a 2e 87 b9 07 ff ab bd
       -0.20725557 -0.013293907 -0.00025783788 -0.08398252
000320 86 82 da bd ad ae 8e bd 3d 01 29 be 81 ce 2a be
       -0.106694266 -0.069669105 -0.16504379 -0.16680337
000330 16 1a ad 3d 18 58 2d be 2c 1e 82 bd a1 6e 02 be
       0.08452241 -0.16928136 -0.06353411 -0.12737514
000340 79 80 a6 bc 9f cc be bc f8 d2 fc bd 27 ba 69 be
       -0.020324932 -0.02329093 -0.123449266 -0.22824918
000350 1d c8 aa bd 0a 25 15 be a2 3e 45 be d6 23 17 be
       -0.0833895 -0.1456491 -0.19262174 -0.14759764
000360 59 09 3c be 1b 38 19 be ed ea 8c be 17 07 fc bc
       -0.18362941 -0.14962809 -0.27522984 -0.0307651
000370 8c c2 c5 3d f0 26 ee bd bc 1c 65 be 86 33 1d 3b
       0.096562475 -0.116285205 -0.22374243 0.002398701
000380 64 4b 79 3d 6c bb e0 3d fb 7c 87 bd 60 99 bf 3e
       0.060862914 0.10973248 -0.06615635 0.37421703
000390 02 2e fd bd a2 a7 c0 bd f3 2a 8d be f6 70 42 3e
       -0.12362291 -0.094069734 -0.2757183 0.18988404
0003a0 55 ec 8e 3e fb 8b 9a bd e4 06 15 be f7 48 45 be
       0.27914682 -0.075462304 -0.1455341 -0.19266115
0003b0 35 76 01 3e 11 3e 77 bd 97 63 24 3c 57 df dd bd
       0.12642749 -0.060361926 0.01003351 -0.10833614
0003c0 9f 30 06 3f 60 6f b6 3b 8b 83 2d be e5 7a eb bd
       0.5241794 0.005567476 -0.16944711 -0.1149805
0003d0 ca b3 0c bc 51 92 fb 3b 66 48 b3 3d f6 79 07 bf
       -0.008587787 0.0076773544 0.08754043 -0.5292047
0003e0 5e 5f 98 bd 36 82 e3 bc 81 c8 7b be 7d 82 ec bd
       -0.07440065 -0.02777205 -0.24588205 -0.11548326
0003f0 72 4a a7 3d 12 6e 97 bd 90 dc b2 3d ab c0 4f bd
       0.08168496 -0.07394041 0.08733475 -0.050720852

bias f4 [8]
000000 b1 a8 9c be 6b 7c be 3e 77 75 61 be 88 36 22 3f
       -0.3059745 0.37204298 -0.22017466 0.6336446
000010 17 76 00 bf fe e3 71 3c 94 73 ba 3b 0a 5d ca 3e
       -0.5018019 0.01476383 0.0056900475 0.39524108

weight f4 [1, 8, 20, 20]
000000 2b 9c 3a 3b d3 56 a3 bc 3e 61 f0 3c 4f 44 fa 3c
       0.002847443 -0.019938862 0.029343244 0.03055015
000010 bf 5f ac bd 0d b1 a3 bd 00 15 63 bd ce b6 5e bc
       -0.084166996 -0.07992754 -0.05543995 -0.013593389
000020 2b 1f 9e bd ab 0a 01 be a6 15 aa bd 86 7e 8a bd
       -0.077207886 -0.12601726 -0.0830491 -0.06762414
000030 7a 52 25 bd 4d 37 88 3c 70 ef 08 3d 7e 0d bf 3c
       -0.04036186 0.016627932 0.03343147 0.023321863
000040 0c b2 7c 3b db 9f 6d 3c 87 95 b1 3c ff 92 43 bc
       0.0038558273 0.014503445 0.021677746 -0.011936902
000050 54 52 d3 bc 79 5f 44 bd 58 47 a7 bb d8 01 e3 bb
       -0.025796093 -0.047942612 -0.0051049404 -0.00692771
000060 45 da 42 bd a8 d1 27 bd 16 43 14 b9 fe 7b 4a bc
       -0.04757144 -0.04097143 -0.00014139371 -0.012358664
000070 e7 cb 8f bc 7d c5 8b bd e2 7c 50 bd 7d b6 58 bc
       -0.017553283 -0.06824777 -0.050900348 -0.013227102
000080 f7 95 3b bd df 86 9d bb 7e 2c 81 3c e0 f6 86 3c
       -0.045797314 -0.0048073377 0.015768286 0.016475141
000090 a8 84 8e 3c 82 bc 32 3d 7a 41 4d 3d c9 c4 1e 3a
       0.01739724 0.043636806 0.05011127 0.0006056545
0000a0 cb 3c 5b bd 1c 63 9f bd 85 1d 0d bd 7f f9 0f bd
       -0.053524774 -0.077825755 -0.03445198 -0.035150047
0000b0 2b ba 39 bd 80 34 4b bd 4c c0 e8 bd eb ca c5 3c
       -0.04534356 -0.049610615 -0.11364803 0.02414461
0000c0 a3 0f 9c bc c4 d6 93 bc 65 f5 f7 bb 58 62 78 3d
       -0.019050425 -0.018046744 -0.007567095 0.060640663
0000d0 80 b3 95 3d 6a 3e 31 3d 14 cb 52 3d c8 af 68 3d
       0.073096275 0.043272413 0.0514632 0.056808263
0000e0 7d 00 4a 3d 44 87 06 3d c1 48 b7 3c 71 69 a1 3c
       0.049316872 0.032843843 0.022373559 0.019703599
0000f0 c5 1f 91 bd a1 0c de bc 5c 50 50 3a ba 20 a2 3d
       -0.07086138 -0.027105631 0.0007946545 0.07916398
000100 ab 8a cb bb 40 d4 f7 3c 33 1c a0 3c 9e 9a 7d 3c
       -0.006211599 0.030252576 0.019544696 0.015478758
000110 49 56 10 3d e0 f6 1d 3c c7 9d 00 3d 9c a6 b0 3c
       0.035238538 0.009641379 0.03140047 0.02156382
000120 85 05 3c 3b 51 a7 59 3c db a9 9e 3b 45 19 1e 3d
       0.0028689813 0.01328452 0.0048420257 0.038598318
000130 ab b7 7e 3c 5c c4 08 bc 7c 26 d9 3c 4b 98 2c bb
       0.01554672 -0.008347597 0.026507609 -0.002633589
000140 f6 d3 7e bd df 88 6f bd b0 00 8d bb a3 09 99 3d
       -0.06221386 -0.05848014 -0.0043030605 0.07472541
000150 30 2c a3 3c d3 10 63 3d f1 d6 7b 3c c2 d2 26 3d
       0.019918531 0.055435967 0.01537107 0.040728338
000160 61 d0 ea bc 89 14 86 bd 6c da 16 bd 1e 31 a3 bc
       -0.028663816 -0.065468855 -0.036829397 -0.019920882
000170 d9 96 33 bd ec c2 43 3c 13 9f 56 bd c9 cf 45 bd
       -0.04384503 0.011948328 -0.0523978 -0.048293862
000180 c1 5a 2a bd c4 5e 62 bd 75 cf 90 ba b1 06 f5 3b
       -0.041590456 -0.055266157 -0.0011048155 0.0074776043
000190 f2 cb 32 bd 03 20 98 bd 5a 0a 25 bd f7 f2 1c 3d
       -0.04365153 -0.07427981 -0.040293075 0.038317647
0001a0 b8 1d bf 3c f2 4e 32 bc 31 de 0c 3d ad 14 12 3d
       0.0233296 -0.01088308 0.034391586 0.03566425
0001b0 cd d0 4c 3d 1d 21 0a bd 37 3e 10 bd da 30 5e bd
       0.050003815 -0.033722986 -0.035215583 -0.054245807
0001c0 2d 58 6e 3d f6 6f 29 3c 3d 3c 05 bd c1 05 44 bd
       0.05818956 0.010341635 -0.03252815 -0.04785705
0001d0 51 2d 84 bd ed 7a 41 bd 1c 79 d8 3c fd a3 5b 3c
       -0.06453956 -0.04723637 0.026424937 0.013405797
0001e0 17 17 7e bd bf de 2a bd 7b d8 ec bc ae bc 6b 3d
       -0.06203374 -0.041716333 -0.02891182 0.057552986
0001f0 c2 26 7d 3c 81 ea 04 3c be df ad bc b3 79 12 ba
       0.015451135 0.008112551 -0.021224853 -0.00055875926
000200 dd 9e 30 3c 66 c3 e8 bc d7 f5 e0 bd c5 62 ca bc
       0.010780063 -0.028413486 -0.1098439 -0.0247053
000210 6a 05 ba 3c 3b aa 1c bb be 86 46 ba 87 e7 71 bd
       0.02270766 -0.0023905176 -0.0007573179 -0.059058692
000220 c6 23 08 bc a0 20 2d bb 63 f6 50 3c 51 3f fa ba
       -0.00830931 -0.002641715 0.012754056 -0.0019092356
000230 5a 79 f7 3c 5f 27 41 bb 6f be 27 bd fe 33 07 3b
       0.030209232 -0.002947293 -0.040953096 0.0020630355
000240 e8 23 b7 bd e4 6c a3 bc 72 fb 16 bd ee 6d b7 bc
       -0.089423954 -0.019949384 -0.03686089 -0.022391286
000250 a8 55 d9 3c 0f 69 d0 3c 7b c8 ac 3c 47 bb d2 bb
       0.026530102 0.02544072 0.02109169 -0.0064310166
000260 1a d1 e2 3b 99 d1 5b bc 11 97 2a 3c e6 2a 37 bd
       0.0069218995 -0.013416671 0.010411994 -0.044718646
000270 2c 3f c2 bc 4d 54 0d 3c d3 d3 73 bc 20 bd 06 bb
       -0.023711763 0.008626056 -0.014882046 -0.0020559505
000280 65 0b 10 bb f5 0e ae bd 07 05 5a bc 95 d8 81 bc
       -0.0021979448 -0.084989466 -0.013306863 -0.015850345
000290 0c fb e1 bc 6f b5 38 3c f8 be f7 3a bd 74 4e bd
       -0.027585529 0.011273726 0.0018901518 -0.0504043
0002a0 cf 8f 27 bc 27 cb 42 bd d9 a7 35 bd c6 4f 0c bd
       -0.010227158 -0.047557022 -0.044349525 -0.034255765
0002b0 6b c2 8c bd b7 e6 bb bc 6d 7f 04 bd 00 d1 22 bd
       -0.0687302 -0.022937162 -0.032348085 -0.0397501
0002c0 64 f9 e0 bc 3b a5 8f ba 2b 94 a6 bb c0 2b 39 3d
       -0.027462669 -0.0010959277 -0.005083581 0.04520774
0002d0 19 19 3b b9 d1 8b 99 bd 41 3e 12 bd 78 a8 04 bd
       -0.0001784306 -0.07497371 -0.0357039 -0.032387227
0002e0 dd e3 09 3d 8d 92 87 3d ae bf 17 ba 2a 69 9a bd
       0.033664573 0.06619749 -0.00057887554 -0.0753959
0002f0 d9 13 00 bc a0 a7 ad bc 4d cf 8a bd f0 e5 ba bd
       -0.007817232 -0.021198094 -0.06777821 -0.09125888
000300 46 5c 34 bc f3 3f 7e 3c f5 46 86 3c 73 17 98 bb
       -0.011008328 0.015518176 0.016391257 -0.0046414672
000310 50 cf 85 bd 7a 36 07 3c cc a5 fd 3a 84 30 e4 3c
       -0.06533682 0.008252734 0.001935178 0.027855165
000320 69 b0 71 bb f1 1c ae bc d5 01 f8 3c 05 e1 f7 3b
       -0.003687883 -0.021254035 0.030274311 0.007564666
000330 e8 76 24 bd 6b a1 96 3d 61 f0 a7 3c 50 f2 10 3d
       -0.04015246 0.07355007 0.020500364 0.035387337
000340 6b 7c 4b bd 20 00 2a bd f5 4e 52 3f 17 f8 93 bd
       -0.0496792 -0.041504025 0.8215173 -0.07225054
000350 14 7f 09 bc d6 e6 4d 3d 85 2b fd 3b 79 b9 87 bc
       -0.008392114 0.05026897 0.007726135 -0.016567932
000360 3f c1 b7 bb ec cd d4 3c 35 05 a7 3b fc d2 2a 3c
       -0.0056077535 0.025977097 0.0050970563 0.010426279
000370 9f 43 bf bc 34 da 63 bd fc 61 4a bb e0 1c 8c 3c
       -0.023347674 -0.055628017 -0.0030881157 0.017103612
000380 a9 84 75 b9 25 c0 9a 3d 50 08 0a 3d 45 cb eb bc
       -0.0002341444 0.0755618 0.033699334 -0.02878345
000390 7b 0c 04 be d8 f5 bc bd f1 d0 7d bd 0d 76 f7 bc
       -0.12895386 -0.092265785 -0.06196684 -0.030207658
0003a0 98 2d 05 3d f2 15 21 bd 3a ca b8 3c 66 7a ee 39
       0.032514185 -0.03932757 0.022557367 0.0004548609
0003b0 42 f6 00 3c b2 f2 89 3c 39 cf 00 3b 5b b4 75 3c
       0.007871212 0.016839359 0.0019654764 0.014996613
0003c0 c0 0a 36 bc 5b 35 83 bc d8 f1 03 bd 35 d0 91 bc
       -0.011110961 -0.016016653 -0.032213062 -0.017799476
0003d0 59 bf 84 bc 80 59 84 bd 22 6e 19 3c 2c 8b ae 3d
       -0.016204523 -0.06462383 0.009364637 0.08522639
0003e0 45 fb 6f 3a 21 a2 cd 3c 35 ad ca bb 79 c5 a4 bc
       0.00091545685 0.025101723 -0.0061851987 -0.020113694
0003f0 64 e5 c3 3a 3f 2b f8 bc b7 aa ac 3c d1 27 a8 bc
       0.0014945683 -0.030294059 0.021077497 -0.020526798
