trained_models/a2c/trial_5/MicropolisEnv-v0.pt (torch_old, 905213 bytes, 13 tensors)

weight f4 [64, 104, 5, 5]
000000 7d 04 ac 3c 49 9f 40 bc c8 04 f0 bb 6a d8 00 bd
       0.020998234 -0.011756727 -0.0073247887 -0.03145639
000010 e7 51 83 bd cc 61 e0 3d 4b c3 71 bc 18 5a 54 3d
       -0.06412106 0.10956153 -0.014756034 0.051843733
000020 37 4f 34 bd 77 9a 9f bd 32 40 c0 bd ee 8d bd bc
       -0.044020858 -0.07793134 -0.09387244 -0.023138966
000030 43 31 9d bd 02 fb a6 bd 1d eb 88 bd a2 14 4e bd
       -0.076754116 -0.08153345 -0.06685469 -0.050312646
000040 3b 0c 9d bc ff 2b 61 bd 48 4c c0 bd a1 f6 e7 bd
       -0.019170871 -0.0549736 -0.093895495 -0.113263376
000050 70 b5 2d bb 32 9d 1d bc b3 49 82 bd 71 36 03 bd
       -0.002650585 -0.009619998 -0.06361713 -0.03203434
000060 b6 d6 8a bd 92 56 f5 3c 17 21 54 3d c1 b1 e0 3c
       -0.06779234 0.029948507 0.05178937 0.02742851
000070 b5 0e 68 3d 82 b0 5c bc 3d d3 01 3d 13 1d 35 3c
       0.05665465 -0.013469817 0.031695593 0.011054295
000080 90 22 4e bc 26 2a 18 bc e2 b1 be ba 7e 4b 02 3d
       -0.0125814825 -0.009287393 -0.0014548863 0.031810276
000090 bc 2c b5 3c f1 bf 66 3b d8 75 55 3c 40 2b 93 bb
       0.022116058 0.003520962 0.013028584 -0.00449124
0000a0 d2 87 90 3d 97 b3 fb 3c c5 1c 35 3d 8c 30 6d bd
       0.07057156 0.030725284 0.04421689 -0.057907626
0000b0 30 8e c3 3b b5 fc 9c 3d 44 36 80 3d 06 8c 57 3d
       0.005967878 0.076653875 0.0626035 0.05262377
0000c0 d1 64 77 3b 54 2e 5d bc d1 0c 81 3c 8b b4 0a bd
       0.00377493 -0.013499815 0.015753182 -0.033863585
0000d0 19 86 65 bd d3 1f 0f bc 24 88 82 3c e4 75 90 bc
       -0.05603609 -0.008735615 0.015934058 -0.01763434
0000e0 f1 91 14 bd ca 19 8f bc 32 5e d8 3b 2e 7d 2c 3b
       -0.036271993 -0.017468352 0.006603026 0.002631973
0000f0 05 a5 3c bb ae 07 03 bc 14 a9 30 3d 68 1e 21 3d
       -0.0028784883 -0.007997436 0.043129995 0.03933564
000100 ed 7a 4a 3d 66 cf 6a 39 f5 7d 4c bc 9c 61 db 3c
       0.049433637 0.00022393241 -0.012481202 0.026779942
000110 28 59 bf bc 8e 60 7c 3c f2 d6 d4 3c 75 04 d2 39
       -0.023357943 0.01540388 0.0259814 0.00040057642
000120 b7 fd 95 bb 71 00 33 bd 2a fd 06 3d b7 1b 87 bc
       -0.0045773643 -0.043701593 0.03295628 -0.016492708
000130 ac 74 f4 3b ce 8f 12 3d b2 5c 5b 3d 35 9f da 3c
       0.0074601974 0.035781674 0.053555198 0.026687244
000140 33 96 08 bc 19 b7 b5 bc a7 a1 96 bb 7c 71 28 bd
       -0.0083365915 -0.022182034 -0.004596907 -0.041123852
000150 25 9b b2 3c 6c 84 cf ba 6e 4d 2d bd 80 3e c1 bc
       0.021802494 -0.0015832311 -0.04231017 -0.023589373
000160 d6 d0 97 bb e5 e9 0e 3c 5d 02 cb bc e1 2d 59 bd
       -0.0046330495 0.008722757 -0.0247814 -0.05302227
000170 8d 07 47 bd 33 12 d4 bc 32 03 e2 3b 17 c9 ae 3c
       -0.048591185 -0.025887584 0.0068973536 0.021336121
000180 f3 bf 04 3d ec 0d 9d bb 8a d1 d0 bc 7a 32 18 3d
       0.03240962 -0.0047929194 -0.025490541 0.037157513
000190 10 09 69 3c 2e 68 83 3c ed 22 9d bb 6b 8c f3 ba
       0.014223352 0.016040888 -0.0047954232 -0.0018581277
0001a0 14 e8 b4 bb c0 cc 72 3a 0d df a2 bc 55 25 14 bd
       -0.00552083 0.00092620775 -0.01988175 -0.036168415
0001b0 5b fe 0d bd 2d 7f ec bc cf 3a a2 3c 66 6f 9d bc
       -0.0346664 -0.028869236 0.019803433 -0.019218158
0001c0 3a 93 d7 bc e4 e6 66 bd 9e 01 85 bd 21 f8 e5 bc
       -0.02631532 -0.05637254 -0.06494449 -0.028072419
0001d0 f9 75 70 3c c7 ff dc bc 3d cc f0 bb 62 fd 7d bc
       0.014676564 -0.026977433 -0.007348566 -0.015502306
0001e0 de 38 03 bd 27 48 36 bd 9c 01 c3 bd 06 70 25 bd
       -0.032036655 -0.044502404 -0.09521791 -0.040390037
0001f0 ef fa 5b bc aa b1 97 3c ef d1 fc 3c 18 85 60 3d
       -0.013426526 0.018517334 0.030861823 0.054814428
000200 49 07 87 3d c9 7b c4 3c a3 70 20 3b 43 63 31 bc
       0.065931864 0.023984807 0.00244812 -0.0108268885
000210 9b 2c 15 3d 15 b1 03 3d e0 d9 30 bc 6e e6 53 3c
       0.036419492 0.0321513 -0.010794133 0.012933357
000220 03 7d 20 3c e5 f2 78 3c 08 e2 a0 ba 4e bf 25 3c
       0.00979543 0.015194629 -0.0012274394 0.010116411
000230 f5 71 2e bd 75 ef 21 3c d4 61 3e 3d 16 a9 26 bb
       -0.042589147 0.009883751 0.046480015 -0.0025430373
000240 a6 5b 95 bc 2d b7 04 3d 44 23 b9 3c b6 de fa bb
       -0.018232178 0.032401253 0.022599824 -0.0076559437
000250 11 a2 e8 bb 7a 13 e3 3b 9b cd fc bc dc eb 63 3c
       -0.007099398 0.006929812 -0.03085976 0.013911214
000260 4c 85 c6 3b 84 aa 01 3c 07 26 50 bc 18 ae fb bc
       0.0060583707 0.007914189 -0.012704379 -0.030722663
000270 18 76 28 bd 0d b6 23 bd f5 2d f8 3b 25 12 b4 bc
       -0.041128248 -0.03996854 0.007573838 -0.021981308
000280 d3 65 04 bd 85 7b 1d bd 08 74 2b bc 9b 1c b3 3b
       -0.03232367 -0.038447876 -0.010464676 0.0054660565
000290 a6 20 58 3c 48 36 3c bc b9 ff f3 3b 27 34 9f 3b
       0.013191378 -0.011487551 0.007446256 0.004858512
0002a0 d9 ee 7c 3c 4a 06 e5 bc 75 05 c8 3c af e6 23 bc
       0.015437805 -0.0279571 0.024416665 -0.01000373
0002b0 1e f9 ed 3c cf 30 7b 3c 0b 32 b0 3b a9 6b fe 3c
       0.029049452 0.015331461 0.0053770593 0.031057196
0002c0 64 6b 5a 3c c5 6b 92 3c 25 1b 49 3d 93 4d 5a bb
       0.013331268 0.017873654 0.049098153 -0.0033310398
0002d0 2d c6 28 bd bd c8 08 3c 89 a2 da 3b 27 9f f1 b7
       -0.04120462 0.008348641 0.0066722077 -2.880355e-05
0002e0 ff 1c b1 3c e2 89 04 3d fc 65 f0 3b 8e 8d 0e 3d
       0.021620272 0.032358058 0.0073363762 0.034802966
0002f0 9c 24 bc ba ab a3 f3 bb 92 c5 00 3c e1 bc 70 bb
       -0.0014354172 -0.007435282 0.007859604 -0.0036733674
000300 ea 36 bc bc 92 ab aa bc 2c cf 78 3c bb 55 4d bb
       -0.022975404 -0.020833764 0.015186112 -0.0031331617
000310 fa 93 9a 3c f9 48 6b 3c 20 2d 4c bd 5b de 8b bc
       0.018869389 0.01436066 -0.049847722 -0.0170738
000320 99 fb 84 bd d5 c8 07 bd 11 81 34 bd b1 b5 7a 3b
       -0.06493301 -0.033150513 -0.0440684 0.003825527
000330 76 59 4e bb b4 6b a3 bd 7e c9 8a bd 69 98 54 bd
       -0.0031486428 -0.07979527 -0.06776713 -0.051903162
000340 87 2b 4c bd ab d4 71 bd 4c f3 66 bd 01 a3 9a bd
       -0.0498462 -0.059040707 -0.05638437 -0.07550622
000350 d6 c8 bd bd 5e 05 21 bd e4 c5 84 3c 23 35 b5 bd
       -0.09266822 -0.03931176 0.016207643 -0.08848026
000360 25 7c 67 bd 8f cb 84 bd e1 4d a9 bc 13 74 31 ba
       -0.056514878 -0.06484138 -0.020667018 -0.00067693106
000370 56 5c b1 bd 7a e0 92 bc 55 02 de 3a 38 17 c1 3a
       -0.0866019 -0.017929304 0.0016937951 0.0014731651
000380 65 07 d2 3b bf 98 3d 3c 85 c8 b9 bc b5 86 b9 bc
       0.006409573 0.011572062 -0.022678623 -0.022647241
000390 52 27 dc bc b2 36 1c 3d e9 39 f0 bc f7 9f 8a bd
       -0.026874218 0.0381381 -0.029324489 -0.06768792
0003a0 0a 6c 05 bd 82 1d 20 bb 6d 7c c1 bc f9 d6 49 bd
       -0.032573737 -0.002443165 -0.023618901 -0.04927728
0003b0 bb 38 03 bd 98 0e 3b bc 13 35 4c bc be 65 c1 bc
       -0.032036524 -0.011417054 -0.012463826 -0.023608085
0003c0 c7 16 de bc 98 c0 66 bd 74 97 43 bd 71 f6 a9 3c
       -0.02711047 -0.056336015 -0.04775186 0.020747395
0003d0 b8 ce 16 3c 13 93 1e bc 2f fb 4e 3c a2 e9 99 3d
       0.009204559 -0.00967862 0.012633129 0.07515265
0003e0 5a c6 0c 3a 57 0a 95 3b fd ec 44 bb 06 32 fb bc
       0.0005370133 0.0045483517 -0.0030048483 -0.030663501
0003f0 b6 0a 15 3d b8 c2 57 bc 0a fc f3 3b 0b a8 ef ba
       0.036387168 -0.013168983 0.007445817 -0.0018284334

bias f4 [64]
000000 b4 c4 7a bd 6f a5 62 bd 6b c6 ab 3d 6a ab 40 bd
       -0.061222747 -0.05533355 0.083874546 -0.047038473
000010 bd 44 a8 be 77 ac b5 bc a2 79 90 bd 94 98 5f bd
       -0.32864943 -0.022176964 -0.070544496 -0.05458887
000020 e9 9f 6c bd 7c d6 b9 bb 83 a3 f9 bd 7c 24 87 3c
       -0.05776969 -0.0056713205 -0.121893905 0.01649689
000030 ec 6c 93 be 84 7f 74 be ca df 42 be d6 b1 a2 bc
       -0.28794038 -0.23876768 -0.19030681 -0.01986019
000040 d4 2d a0 bd f8 83 87 bc 0a 7f cf 3d 70 26 76 bd
       -0.07821241 -0.01654242 0.10131653 -0.06009525
000050 68 96 64 bd 51 93 91 3c 56 45 22 bd 78 c6 33 be
       -0.0558075 0.017770441 -0.039616905 -0.17556179
000060 da c3 39 bd 1c 75 b9 bc 64 55 b6 bd c9 56 82 bd
       -0.045352794 -0.02263885 -0.08903006 -0.06364209
000070 7c 13 ee bc 8b 9f 5d bd e1 eb 96 be 20 9d fb bb
       -0.029062025 -0.05410723 -0.29476836 -0.007678643
000080 b0 aa 17 bd d5 a9 b0 bd b1 57 e9 bc 2b 3e 09 be
       -0.037028015 -0.08626143 -0.028484197 -0.13402621
000090 9b 2b 85 bc 21 8f 27 be 82 88 2d be 6d 37 39 bd
       -0.016256144 -0.16363193 -0.16946605 -0.045218874
0000a0 8e 81 04 bd e0 3a 90 bc 87 6c cc bc dd 80 7d be
       -0.032350115 -0.017606199 -0.024954094 -0.24756189
0000b0 12 fb b2 3d 70 b2 b5 bb 18 ac c9 bd 00 d0 35 bd
       0.08739294 -0.005544953 -0.098472774 -0.044387817
0000c0 05 cd 27 be af 9e 39 bd c8 43 e4 bc d7 dd 77 bd
       -0.16386802 -0.045317348 -0.027864352 -0.060514297
0000d0 a4 4e 77 bd 22 87 4c bd 04 ad 9e bd b0 98 ad bd
       -0.060377732 -0.04993356 -0.07747844 -0.084763885
0000e0 66 ec 58 3d e5 66 58 bd 80 ad 93 bd 73 b4 bd bc
       0.052959822 -0.052832503 -0.07210827 -0.023157334
0000f0 16 a6 02 3d 05 2e 7e bd 34 0d 56 bd d9 2d 6b 3d
       0.031896673 -0.062055606 -0.052258685 0.05741677

weight f4 [64, 64, 3, 3]
000000 5f a8 20 bd 4c d0 b1 bd 82 0f bb 3d 3e 62 a4 bd
       -0.03922307 -0.086823076 0.09133817 -0.08026551
000010 d1 20 e3 bd 08 d6 47 bd e9 eb 62 bc 90 48 7d 3b
       -0.110902436 -0.0487881 -0.013850191 0.0038647987
000020 89 7d 79 bd 49 fd 10 bd 50 97 d7 bb 8e 80 93 3d
       -0.060910735 -0.0353978 -0.006579317 0.07202254
000030 06 c4 f9 bd 7b 20 cc bb 7a 76 4b bb f9 bb 2c 3b
       -0.12195592 -0.006229458 -0.003104596 0.0026357158
000040 32 a1 3e bd 76 01 d7 bc aa de d9 3d a5 f4 2c bd
       -0.046540447 -0.026245814 0.10638173 -0.0422255
000050 21 32 e8 bc 7b 6a 12 bd 2b 33 32 3d 7c 8c ba bb
       -0.028344216 -0.03574608 0.04350583 -0.0056930166
000060 8d a2 a3 3c 44 f8 27 3c 07 1f 5a 3c ae bf a9 3d
       0.019974971 0.010252062 0.013313062 0.08288513
000070 de f5 38 bc ef f3 ea 3d 94 53 b6 3d 9d 17 ea 3c
       -0.011289088 0.11472308 0.0890266 0.028575713
000080 5e 3a 75 3d dc bd e5 bc d9 38 98 bd 1d aa 51 bc
       0.059870116 -0.028044634 -0.07432718 -0.012796906
000090 cd 44 b3 3c a8 72 42 3c 44 71 4c 3c 9f 4c e0 bd
       0.021883393 0.0118681565 0.0124781765 -0.10952114
0000a0 52 89 81 be 5a 2a 6a be e0 30 97 bd 80 5a b1 bd
       -0.2530008 -0.22867718 -0.07382369 -0.0865984
0000b0 fa f4 ce bd a9 7b cb bc 86 da a3 3c a6 0f 5d bd
       -0.10105319 -0.02483924 0.020001661 -0.05397
0000c0 96 bc a0 3c 9c 37 79 bd d5 f4 be bc a6 02 1a bd
       0.019621175 -0.06084405 -0.023310104 -0.037600182
0000d0 71 a4 e3 bc 35 30 95 bd a0 aa f6 bc 30 74 f2 bb
       -0.027788373 -0.072845854 -0.030110657 -0.0073991045
0000e0 4b c5 d5 bb f0 07 8f bb 78 ff 3d bd d6 c5 64 bd
       -0.0065237633 -0.00436496 -0.046386212 -0.055852734
0000f0 e8 1e 62 bc c2 e9 2e bc 84 57 29 3d 22 dc 89 bd
       -0.013801314 -0.010675849 0.041343227 -0.0673144
000100 37 77 ad 3c 48 55 20 bd 3b 69 21 bd 88 81 fa bc
       0.02117501 -0.03914383 -0.039406996 -0.030579343
000110 d7 b9 1e 3d 3b 82 16 3d 83 94 c3 3c be 94 09 3d
       0.03875145 0.03674529 0.023874527 0.033589117
000120 c5 cf f6 3a 34 78 92 3c 56 5f 11 bd f3 aa 92 bc
       0.0018830231 0.017879583 -0.03549131 -0.01790378
000130 f0 84 93 3c 37 8d 19 3d 8b 65 de bc 98 b9 07 bc
       0.018007725 0.03748819 -0.027148029 -0.008283995
000140 33 fa 87 bd 60 e1 70 3d 81 c7 dc ba 64 02 6a 3d
       -0.066395186 0.058808684 -0.0016844125 0.057131186
000150 22 78 8e bc 78 31 8d 3c 41 64 71 bd 4c 6d 7d 3c
       -0.017391268 0.017235503 -0.0589335 0.015467953
000160 6d 1e 61 bd ca 8f 7c 3d 08 52 06 3d bb c9 88 bd
       -0.054960657 0.061660565 0.032793075 -0.06679102
000170 92 5c 20 be bf 55 a4 bc f5 15 78 bd da 6b 87 bd
       -0.15660313 -0.020060418 -0.060567815 -0.06612368
000180 1c 9d 33 bb cc 28 55 bd 53 29 42 bd 36 42 eb bd
       -0.0027406877 -0.05204086 -0.04740269 -0.11487238
000190 ec af b5 bd 21 71 45 3c 85 2c e4 bd d8 c9 9c bd
       -0.08871445 0.012050898 -0.11141304 -0.07655686
0001a0 58 21 14 bc c6 20 88 bd 40 23 dc bc 0b a7 16 bd
       -0.009041153 -0.06646876 -0.026872277 -0.0367804
0001b0 36 ae e0 ba b9 6f 83 bd 85 09 35 bc 40 7d fa 3b
       -0.0017141763 -0.06417794 -0.011049633 0.0076443255
0001c0 15 96 3f bd af 4a b9 bd 01 e1 71 3c e8 b0 a4 3c
       -0.04677399 -0.09047448 0.014763118 0.020103887
0001d0 ae 5b cc bd be c1 ba 3d b1 cb fc bd b8 c0 0b 3d
       -0.09978424 0.09118985 -0.123435386 0.034119338
0001e0 b9 e7 03 3d 7c 35 ed 3c d3 6f e7 bd c3 49 92 bd
       0.03220341 0.028956167 -0.11300626 -0.07142975
0001f0 7b 7e 3f be 8a a5 ed bc 17 b1 4c 3e 47 05 5d 3d
       -0.18700592 -0.0290096 0.1998943 0.05396011
000200 e5 9e f2 3d b4 aa 4f 3d 11 11 19 bd 08 a7 a2 3d
       0.11846713 0.050699905 -0.03736979 0.07942015
000210 dd bb fa 3c 78 86 0f be f4 27 85 bd 1d 9b d5 bc
       0.030607158 -0.1401614 -0.06501761 -0.02607494
000220 0d 75 ba 3b df 63 b1 3c 84 6a 70 bd 7c b7 c8 bd
       0.005690223 0.021654068 -0.05869533 -0.09800622
000230 4d 25 5d 3c 5b 5d 25 3a 2d f4 aa 3c 97 b6 94 bd
       0.013497663 0.00063081615 0.020868385 -0.07261389
000240 de de 5e bd c8 09 05 bd 7f 92 d8 3d ce 35 34 bd
       -0.05441176 -0.03248003 0.10574817 -0.043996625
000250 ca e0 22 bd a3 fa 60 3d 24 42 9e bd 51 22 ae 3a
       -0.039765157 0.054926526 -0.07727459 0.0013285374
000260 b3 db 89 bd 74 f0 f6 bd b0 84 f2 3c 80 67 c7 3c
       -0.067313574 -0.120575815 0.029604286 0.024341345
000270 f8 c4 ee 3b ab ce 02 bd 50 bd c2 bc 29 bd d3 bd
       0.007286664 -0.031935375 -0.023771912 -0.10338814
000280 29 25 59 3d 24 91 cc bd d2 53 af bd 42 df 30 be
       0.053013954 -0.09988621 -0.08560909 -0.17272666
000290 38 9f 81 3d 05 3f f8 bc 9d 9f 87 bd e6 72 23 bc
       0.06329197 -0.030303488 -0.06622241 -0.009976124
0002a0 76 a1 25 bd b7 fb fe bd ee 46 17 3d 6b 63 2b 3d
       -0.040437184 -0.124503545 0.03693288 0.04184286
0002b0 c6 31 40 3c 99 0a 6f bd de 6e 1f bb 20 d0 36 bd
       0.011730617 -0.058359716 -0.0024327557 -0.044632077
0002c0 5b 7d 8b 3d a9 8f 90 3c 88 5a 11 3d 26 3b 53 bc
       0.06811019 0.017646628 0.035486728 -0.01289252
0002d0 ae 45 3d 3c 17 7d 19 3c 10 87 47 bd bf 0b cf bc
       0.011552257 0.009368203 -0.04871279 -0.025274156
0002e0 17 3f 25 3d b8 be 63 bc 0b fa c4 3c 66 cd 79 bd
       0.04034337 -0.013900451 0.024045011 -0.0609869
0002f0 59 e6 e6 3c 08 10 19 3d 5b b0 ab bd ba 37 a5 3c
       0.02818601 0.037368804 -0.083832465 0.020168174
000300 4a d4 49 bd 1d a2 a9 bd 4e 97 0c bd b6 c6 93 bd
       -0.04927472 -0.08282874 -0.034323983 -0.072156355
000310 37 61 08 be 40 2a 06 be 8d b2 10 3d 14 10 11 3a
       -0.13318335 -0.13102055 0.03532653 0.0005533707
000320 23 78 d0 3c c2 9c e2 3b 2d 8d d4 bc 38 66 5e 3d
       0.02544791 0.0069156596 -0.025946224 0.054296702
000330 76 95 cf 3c 0e 9b a7 3b ce 44 31 bd ee af 17 bd
       0.025339823 0.0051149195 -0.043278508 -0.037033014
000340 f0 bf 57 bd 52 5e e2 bc 4d 50 c4 bd bd dd 53 3c
       -0.05267328 -0.027632866 -0.09585629 0.0129312845
000350 90 01 8b 3a cf 0d 12 bc 0c c3 90 bc 3f b7 9c bc
       0.0010605324 -0.008914425 -0.01767113 -0.019130347
000360 d7 0f dd bc 85 dc 61 bd fa 66 a2 3b 24 54 93 bc
       -0.026985092 -0.055141944 0.0049561234 -0.017984457
000370 64 dd 77 bd bf c4 58 3d e0 a4 f5 bc 3b 03 e2 bc
       -0.06051387 0.052922007 -0.029985845 -0.027589431
000380 7f af 09 bd bb ab 4c 3c 6e 55 8e bd 79 ad 9b bd
       -0.03361463 0.012492116 -0.06949888 -0.07601447
000390 b3 68 24 3d 7c 82 32 39 a4 f9 07 3c ab 8f 6e bc
       0.04013891 0.00017024012 0.008299265 -0.01456062
0003a0 61 fe 55 bd ff fb 3f 3d 71 7a a1 39 1c 05 c9 bc
       -0.052244548 0.04687118 0.0003079954 -0.02453857
0003b0 e4 16 49 bd 0a 8a 4c bd 07 04 bc bd 9e 74 86 3c
       -0.049094096 -0.04993633 -0.09180456 0.01641303
0003c0 ef 73 22 3d 34 bd 8d bc fb 1e bb bc a2 49 e5 3c
       0.039661344 -0.017302133 -0.022841921 0.027989212
0003d0 f5 68 29 3c 96 21 e1 bc c4 51 42 bd fd 40 1c 3d
       0.010339965 -0.027481835 -0.04744126 0.038147915
0003e0 c9 39 01 3d 2a 51 b0 bd 14 e3 dc 3b 04 9b 38 bd
       0.03154925 -0.08609231 0.006740937 -0.04506971
0003f0 b2 f9 2b 3b 7f aa d2 3c 3c bf df bc 35 da de bd
       0.002624136 0.025716064 -0.027312867 -0.108814634

bias f4 [64]
000000 9d 37 55 be ba 5c df be 07 ff ef be a3 6c 80 be
       -0.20821996 -0.43625432 -0.46874258 -0.25082883
000010 19 a3 93 bd 52 8c ff bb 45 b8 de bb 70 ff c9 bd
       -0.07208843 -0.00779871 -0.006796869 -0.09863174
000020 d4 d3 90 be cd 82 ba bc ab dd 45 be a4 2f fa bd
       -0.28286612 -0.022767449 -0.19322841 -0.12216118
000030 51 12 af be 41 d5 a9 be ae 26 b7 be 46 a0 51 be
       -0.34193662 -0.33170512 -0.35771698 -0.20471296
000040 8e 14 20 be 6a 72 cf bd 05 87 bb be a0 c0 31 be
       -0.15632841 -0.101292446 -0.3662645 -0.17358637
000050 03 a1 a3 be 5d 39 2c 3f 46 5d 87 be fb 9b 1e be
       -0.3195878 0.6727503 -0.2643835 -0.1548919
000060 a1 a4 4b bd eb 3a ab be ee 70 0a be d5 c9 35 be
       -0.04971755 -0.33443388 -0.13519642 -0.17752774
000070 16 d2 26 3f ca b5 d7 be 16 47 13 bd eb 43 0e be
       0.65164316 -0.42130882 -0.035956465 -0.13893096
000080 55 a0 9d be 88 e5 70 be e0 69 8a be e2 cd 4d be
       -0.30786386 -0.23525059 -0.270339 -0.2009807
000090 c3 aa 13 be 95 55 b4 bd 7b 4f e9 bd 4c c8 80 bd
       -0.14420609 -0.08805386 -0.11392113 -0.062882036
0000a0 1f 59 37 be c1 f1 e4 bd 66 8d 85 be 22 dc a0 bd
       -0.17905091 -0.111789234 -0.2608444 -0.07854487
0000b0 34 9e 58 be b2 90 22 3f 83 13 82 be a2 6a 5d be
       -0.211541 0.6350204 -0.2540551 -0.21622708
0000c0 45 27 18 be 9f f5 78 be 0d 00 ad be 61 ce 90 3e
       -0.1485873 -0.24312447 -0.337891 0.28282455
0000d0 95 68 a3 be c8 e1 f9 3d f6 a9 74 be 9d 18 ca bd
       -0.31915727 0.122012675 -0.2389296 -0.09867976
0000e0 86 c3 d5 bd fc 90 d0 be f1 8e 96 be f6 29 93 3e
       -0.10437684 -0.40735614 -0.2940593 0.2874295
0000f0 e3 89 3f 3f f5 33 df bd 44 96 24 be 85 57 07 3f
       0.74819773 -0.10898582 -0.16072947 0.5286792

weight f4 [15, 104, 1, 1]
000000 5b 6d 8b 3f 1e 4d 72 3b 8f 07 d1 3d 44 10 06 bf
       1.0892748 0.0036972235 0.1020652 -0.5236857
000010 12 92 10 3d ab 16 7a bd 9e c5 cb bd 7c a0 2c bf
       0.035295554 -0.061056774 -0.09949802 -0.6743238
000020 83 1d 36 be b8 2c 1f bf c3 6a 23 3e 75 79 5a 3e
       -0.17784695 -0.6217761 0.15958695 0.21335395
000030 b5 c3 c5 bd 9a 81 88 bd db f6 13 be 11 4d 1e 3e
       -0.09656469 -0.066653445 -0.14449637 0.15459086
000040 4f 98 19 3f dc 9d c7 be bf a4 a4 bd 24 6d cd 3c
       0.5999803 -0.38987625 -0.08039235 0.025076456
000050 1a 17 06 bd d7 fa 24 3d 36 ea 9b 3c 45 6d 6f bf
       -0.032736875 0.040278282 0.019032579 -0.9352611
000060 54 46 55 bd fa 2f 6f 3d 79 36 92 3f e5 e7 0b bd
       -0.052069023 0.058395363 1.1422874 -0.0341567
000070 29 31 98 bc 80 60 33 bf 10 7a 6f 3e f7 a7 aa 3b
       -0.018578129 -0.7006912 0.23386407 0.0052080113
000080 c2 47 02 bc ec aa 61 bf 88 9d e4 bd 6e ba 14 bf
       -0.007951679 -0.8815143 -0.11162859 -0.5809697
000090 46 61 90 3e 91 ad c4 3c 49 ac b7 bd 57 8d 21 bd
       0.28199214 0.024008544 -0.08968408 -0.039441433
0000a0 a9 4c 39 3d c9 cd a6 3e 18 d2 10 3f 57 2b f7 be
       0.045239124 0.32578877 0.5657058 -0.48275253
0000b0 17 b9 b6 3c ce cc f1 bd e2 ed d7 3d 1d 1e 8f 3e
       0.022305055 -0.118066415 0.105434194 0.27952662
0000c0 a8 ae 9c 3c ef 90 81 bf 3c 72 2c bd 77 b7 06 be
       0.019126251 -1.0122355 -0.04210113 -0.13155924
0000d0 ab ee 9e 3f 71 0c 1c 3e cb e3 3d 3d e6 e0 03 bf
       1.2416586 0.15239121 0.04635982 -0.5151504
0000e0 45 cd 9b 3c 6d 40 2f 3d 79 02 01 bf ad dc 44 bf
       0.019018779 0.04278605 -0.503944 -0.76899225
0000f0 4f 62 49 be a2 61 db be a0 e9 e3 3e 1b c1 ba 3d
       -0.19666408 -0.42847925 0.4451418 0.09118863
000100 58 ae 03 be 0a eb 1a 3e 44 12 da 3d 8c 5c 91 3e
       -0.12859476 0.15128723 0.10648015 0.2839092
000110 85 9f b2 3e 41 0d 99 be 8a 83 47 bd de 0e 9d bd
       0.3488733 -0.29892924 -0.04870943 -0.07668851
000120 cd 70 53 3e 8a c2 49 3f 58 dc f8 3c bd f4 87 bf
       0.20648499 0.7881247 0.030378506 -1.0621563
000130 26 4f ba bd 0f 0f 43 be ad 5d e0 3f a3 af 23 be
       -0.090971276 -0.19048713 1.7528588 -0.15984969
000140 e7 a4 c7 bd 93 4f 13 bf e1 72 4c 3d 67 d6 64 bd
       -0.097482495 -0.57543296 0.049914245 -0.055868533
000150 1a da 90 be eb cb 5e bf 1e 69 49 be 8a 03 25 bf
       -0.28291398 -0.87029904 -0.19669005 -0.64458525
000160 20 33 c1 3e 09 ba b2 3e 37 fd 0a 3d 8f 8e 28 3b
       0.37734318 0.3490756 0.03393289 0.0025719737
000170 c6 fb 18 bc c3 48 a2 3c 9c 40 2d be 44 24 ce be
       -0.009337371 0.019810086 -0.16919178 -0.40262043
000180 b3 8e 6b 3d 73 e5 9c bd 4a 10 49 3d fb 20 bf 3f
       0.057509135 -0.076609515 0.0490878 1.493194
000190 54 9f f8 3d 70 80 93 bf 08 86 2d 3d 06 97 da 3c
       0.121397644 -1.1523571 0.04236415 0.026683342
0001a0 72 95 ce 3e f5 ae a5 3d a7 7b 65 3d 3e f6 50 be
       0.40348393 0.08090011 0.056026127 -0.20406434
0001b0 68 3d 84 3d 61 83 e0 bd 47 61 ea 3c 41 b4 5a be
       0.06457025 -0.109625585 0.028610839 -0.21357824
0001c0 0d 1b b5 be bd 7c 9f 3d 57 9f 53 3e 84 eb ef bd
       -0.353722 0.07787464 0.20666252 -0.11714843
0001d0 70 b8 4f 3c db 7b 82 3e b2 3b b0 3d 80 7b d7 3c
       0.012678251 0.2548512 0.08605136 0.026304007
0001e0 f7 de a9 3e c3 de 48 bd d4 4f 49 3c a7 11 1a be
       0.3317792 -0.049040567 0.012287099 -0.15045796
0001f0 ef 15 b9 bc db 2a 27 bf b1 30 00 be 6f 58 38 be
       -0.022593467 -0.6529977 -0.12518574 -0.18002485
000200 59 c4 82 bb 54 d9 cd bd 93 97 a0 3e 71 40 4d 3d
       -0.0039906916 -0.10051218 0.31365642 0.050110284
000210 96 d8 d1 bd 35 36 a3 be b1 8f f9 3d bc b8 74 be
       -0.102463886 -0.31877294 0.1218561 -0.23898596
000220 d8 7a d8 bc e1 b7 6e be 2f a8 7f be e2 82 2e be
       -0.026425764 -0.23312332 -0.249665 -0.17042115
000230 80 51 c4 3e 50 54 31 3e e9 45 94 3d fa 56 be 3d
       0.3834343 0.17317319 0.07239897 0.09293933
000240 0d 77 77 bc fa 1e 28 3e b9 0e a7 3e 99 da 55 be
       -0.0151040675 0.16418067 0.3262842 -0.2088417
000250 97 af bc bd aa b7 03 bc 77 a3 fb bd f6 0f 2c bf
       -0.092131786 -0.008039394 -0.12287038 -0.67211854
000260 db 57 8c 3d f6 8c 16 be 58 9d c0 bd 65 a8 1b bd
       0.068526946 -0.1470221 -0.09405011 -0.03800239
000270 eb b4 37 3f 31 6b 51 3d 80 0a 08 3d c3 e1 7b be
       0.71760434 0.051127616 0.03321314 -0.2459784
000280 0d 8b 09 3e 8e b3 c3 bd 9b 85 9b 3c 06 34 bb be
       0.1343195 -0.09555732 0.018984606 -0.36563128
000290 e8 8f 96 be c6 0b a2 bd d3 84 4c 3e b5 dd 9e 3d
       -0.29406667 -0.07912402 0.19972543 0.07757131
0002a0 40 49 41 bd 6d ee df 3d 2b 91 1e 3c 7a 7d 0f 3e
       -0.047188997 0.10934148 0.009678165 0.1401271
0002b0 78 73 4b 3e 67 bf 84 be bd a3 f8 bd 41 ff 69 bc
       0.19868267 -0.25927278 -0.121406056 -0.014282049
0002c0 b3 ad 84 3e e9 c4 97 be 85 2c d7 3d 01 ce 1e be
       0.25913772 -0.29642418 0.10506538 -0.15508272
0002d0 e1 2f 05 be 2a f8 bf bd 9a 8a 67 3f 97 f2 62 bd
       -0.13006546 -0.093735054 0.90445864 -0.055407133
0002e0 e0 d9 86 bd e4 c6 03 be 5d 07 03 bc 8b bf c3 bd
       -0.06584525 -0.1286884 -0.007997361 -0.09558018
0002f0 27 80 20 3e d7 fd d8 be 29 60 8c be 4c 8e 13 be
       0.15673886 -0.42381164 -0.27417114 -0.1440975
000300 01 3b 49 3e 7c 57 22 3e 06 19 be 3e 1e c2 11 bd
       0.19651414 0.15853685 0.37128466 -0.035585515
000310 30 d1 62 bc 37 46 fa 3e f0 45 74 be 7b 84 9e be
       -0.0138438195 0.48881695 -0.23854804 -0.3096045
000320 6e f2 31 bd 2d 9f 90 bd 4f b2 87 3e 7e 50 c9 3e
       -0.04344409 -0.0706161 0.26503226 0.39319223
000330 f9 64 84 be b6 07 57 be b3 2a c4 be 35 ae bd bd
       -0.25858286 -0.20999035 -0.38313827 -0.09261743
000340 40 a2 a6 bd 3c 04 89 bb ba a5 b7 bc fa 4d 4b be
       -0.081364155 -0.004181413 -0.022417892 -0.19853964
000350 2f 67 8d bc 5a a6 57 be 15 ab 2a be b3 a2 8c be
       -0.017261116 -0.21059552 -0.16666825 -0.2746788
000360 a5 98 85 be 42 20 e6 bd 21 40 6a 3e 55 8a a4 bc
       -0.2609302 -0.112366214 0.22876026 -0.020085493
000370 d5 8c 12 bd 37 6b d6 bd ec 8d 98 bd 52 17 b6 be
       -0.03577884 -0.10469668 -0.074489444 -0.35564667
000380 06 47 2a 3e d2 c0 de 3d 7d 5c 8f 3c 07 69 50 3e
       0.16628656 0.10876621 0.017500157 0.20352565
000390 a9 4d 02 3e 1c 77 1f bf eb b7 6a bd 93 e1 14 3e
       0.12724937 -0.6229112 -0.057304304 0.14539175
0003a0 10 a5 77 3d ad 65 47 be f1 66 e1 be 2e 80 25 3d
       0.06046015 -0.1947238 -0.4402385 0.040405445
0003b0 e9 18 0c be b3 a4 67 bd 75 7d 2b 3c 2b c7 32 3c
       -0.13681377 -0.056553554 0.010466923 0.010911743
0003c0 aa 2d 30 bd 17 72 18 bd 32 f3 d3 bd ee 21 a1 3c
       -0.0430123 -0.03721818 -0.1034912 0.0196695
0003d0 b7 5e 33 3e 57 98 29 be b1 5a a5 bd 3f 39 55 bd
       0.175166 -0.1656202 -0.08073939 -0.052056547
0003e0 f6 15 98 bd d4 d2 66 be ef 56 bc 3e ec 79 e2 3d
       -0.07426064 -0.22541362 0.36785075 0.11058411
0003f0 51 7a ad bd 6c f6 53 3d 4f 75 2f be eb 08 38 bf
       -0.08470596 0.051748678 -0.17134593 -0.7188861

bias f4 [15]
000000 6d 5e 52 3f f4 1e 05 3f d8 46 19 3e 69 67 37 be
       0.8217533 0.52000356 0.14968431 -0.17910542
000010 d7 2a e1 be 1f 41 79 3e 22 24 ea 3d cf 51 f8 bc
       -0.43977997 0.24341248 0.11432673 -0.030312447
000020 ee 99 8a bf ff e3 3f 3f 23 e3 2b 3f 7f fa f6 3e
       -1.0828226 0.7495727 0.6714346 0.48237988
000030 aa 7e fe be b6 c7 a3 3f 1c dc 26 3e
       -0.49706012 1.2795322 0.16294903

weight f4 [19, 79, 3, 3]
000000 f9 35 1b bd 4e f4 e8 bb 72 09 64 bd 0a 71 cd bd
       -0.03789327 -0.0071092015 -0.05567307 -0.10031326
000010 83 b7 70 bc e7 4f 75 bd 53 0c 2d bd 4e 8f 1a bd
       -0.01469219 -0.059890654 -0.04224808 -0.037734322
000020 6c 15 0e ba 4b 08 ba bd 94 dd 19 be 6a 53 0b be
       -0.0005420062 -0.09083613 -0.15025932 -0.13606039
000030 3d 8f 15 3e 8c a7 81 3d 2c 47 f2 3c 4b 5e 20 3d
       0.14605422 0.06330785 0.029574953 0.039152425
000040 bd 63 61 3c 0d eb be bc 2e 60 0c 3d 6b 22 37 3e
       0.01375669 -0.02330544 0.03427141 0.17884223
000050 74 03 1e 3e ad 9a 8c 3d 77 82 cf 3d 63 7f 26 3e
       0.15431005 0.068654396 0.10132306 0.16259532
000060 a0 f3 0a 3d c6 25 6e 3d c4 98 26 3e 1e 07 06 be
       0.033923745 0.058141492 0.16269213 -0.13088652
000070 15 a4 23 be 13 57 d4 bc c6 ad e8 bd fe 70 ab be
       -0.15980561 -0.025920426 -0.1136127 -0.33484644
000080 cc d6 66 be 2e f5 e6 3e e3 ab 80 3e 0b c3 2c 3e
       -0.22542876 0.45108932 0.2513114 0.16871278
000090 ca 71 4b be 06 fc c3 bd 0d 84 86 bd af 76 5c 3e
       -0.19867626 -0.09569554 -0.065681554 0.21529649
0000a0 bc b0 87 3e 72 28 93 3e 47 7a f8 3e 46 39 7f 3e
       0.26502025 0.28741795 0.4853079 0.24924192
0000b0 2b 05 ae 3e 99 8f 95 bd 7f fe e9 3b d9 14 16 bd
       0.33988318 -0.0730278 0.007140934 -0.036640976
0000c0 0f 74 94 bd 2c 1f 95 bd e0 23 b2 bc 9f 62 2e 3d
       -0.07248699 -0.07281336 -0.021745622 0.04257452
0000d0 27 66 81 bd 02 5f 72 bc f9 c6 81 bd 66 31 db bd
       -0.06318312 -0.014793159 -0.06336779 -0.107027814
0000e0 25 f3 d8 bc 03 97 a7 3b 3e 80 60 3d 9c 41 06 3d
       -0.026483128 0.0051144375 0.0548098 0.032777414
0000f0 1e 96 d8 3c 88 a7 f6 3c 59 81 8c 3d 61 ba 2d bb
       0.026438769 0.030109182 0.068606086 -0.0026508796
000100 19 97 1f bd ca 74 fa bb 55 7b 8f bd 5c a8 5b 3c
       -0.038962457 -0.007643317 -0.070059456 0.013406839
000110 0d 8f 17 bd 09 d1 b7 bc 7c 81 21 3c 65 36 64 bc
       -0.03700166 -0.022438543 0.009857532 -0.013928984
000120 e4 a5 8e bd 74 7e b3 bd a5 67 03 3d 7d ae 4d bd
       -0.06965235 -0.087643534 0.032081265 -0.050215233
000130 6f 4a d1 bc bb ea a6 bc 51 c6 5e bd b3 40 80 3c
       -0.025548188 -0.0203756 -0.054388348 0.015655851
000140 2a e0 b9 3d 3a 8c 25 3d d7 3d 8b bc 7e 79 81 3d
       0.09075959 0.040416934 -0.016997261 0.06322001
000150 d9 fc 21 be 54 7e c3 bd d3 19 8c bb 36 42 13 bc
       -0.1581911 -0.095455796 -0.0042755394 -0.008987954
000160 a8 6f 99 bd 0f b4 e5 bc 9c 59 6b 3d 57 39 19 3e
       -0.07492 -0.02803996 0.057458505 0.1496328
000170 d9 2c 98 3c f9 db 27 be 6a c2 72 bc 41 94 15 bd
       0.018576073 -0.16392507 -0.01481686 -0.03651834
000180 25 f6 85 bd f4 17 1f bd 7c f4 2a be f4 c2 59 3c
       -0.06541089 -0.038841203 -0.16694826 0.013291109
000190 db 46 1d bd 0a 4b 73 3d 26 ad 3b bd 48 05 0a bd
       -0.03839765 0.059397735 -0.045819424 -0.033696443
0001a0 91 19 b7 3d a9 e8 bb 3d 5c f2 81 3d 82 99 48 3e
       0.08940423 0.09175236 0.063450545 0.19589809
0001b0 3b 43 72 bd 1a 33 45 bc 92 1a bd bd 8f 66 84 bd
       -0.059146147 -0.012036109 -0.092335835 -0.06464874
0001c0 4d 04 40 bc 0c 33 94 3d 71 41 62 3d 4b 91 ac bc
       -0.011719775 0.07236299 0.05523819 -0.021065375
0001d0 6d 54 3d bc 30 97 a8 bd 1e 48 11 3d 00 d5 86 3d
       -0.011555773 -0.08231962 0.035469167 0.06583595
0001e0 49 b3 68 bc f7 2d 6a bd 95 3b 66 3d e9 04 c1 bd
       -0.014202901 -0.05717274 0.056209166 -0.09424765
0001f0 c0 54 d4 bc eb f4 a3 3c 26 f2 80 3e b5 44 ba bd
       -0.025919318 0.020014247 0.25184745 -0.09095136
000200 69 41 54 ba 57 be d8 bc 47 c7 7c bd 79 c2 42 be
       -0.0008096905 -0.026457949 -0.061713483 -0.19019498
000210 1a 67 f3 bd b8 81 1d bd 87 c6 d7 bd cc 1c fd 3b
       -0.118848994 -0.038453788 -0.10535913 0.00772438
000220 aa 71 c1 bc 8c 92 2d bd 96 01 a7 3d 18 7f 5a 3c
       -0.02361377 -0.042376086 0.08154599 0.013335966
000230 70 98 02 bd 81 ea 6c bc f5 cf 9f bd 0a 3b eb 3b
       -0.031883657 -0.014460207 -0.078033365 0.007178669
000240 b1 87 f6 3d 1a 9c 07 3c 35 15 2b be 86 9b e6 bd
       0.120376 0.008276964 -0.16707309 -0.112601325
000250 8c 0f f0 bc 75 c8 d1 3b 07 d0 e8 bc 83 55 c5 bc
       -0.029304288 0.00640207 -0.028419508 -0.024088627
000260 17 7f bf bc e9 81 cc bc 64 4e 22 be 68 5a 19 3e
       -0.02337603 -0.02496429 -0.15850216 0.14975893
000270 bb da ab 3c 5e cf ac bc 26 9a b6 3d 80 b8 a9 bc
       0.020978322 -0.021094974 0.0891612 -0.02071786
000280 bf e8 cb bc bf df 58 3c 8c cf 37 3d 5d 67 8a bd
       -0.024891255 0.013236939 0.044875666 -0.06757996
000290 d3 cf f0 bc 60 96 85 3d 23 b3 08 bb 6c ef 69 bc
       -0.029395973 0.065228224 -0.0020858727 -0.014278274
0002a0 4f 09 85 3d 64 9c a0 3d d3 1f 8c 3d 1f 92 ad bc
       0.06495916 0.07842329 0.068420075 -0.02118784
0002b0 df d7 c4 bd 7e f5 4c 3d 4c 70 a9 3d 4f 70 d3 3d
       -0.09611487 0.050038807 0.08273372 0.103241555
0002c0 d1 c9 1e be 32 4f 9e 3d 95 a2 2c bc d7 97 5a be
       -0.15506674 0.07729949 -0.010536809 -0.21346985
0002d0 de 37 4b bd b4 87 94 bd 15 ff 71 bd f0 24 07 3e
       -0.049613826 -0.07252446 -0.059081156 0.13197684
0002e0 6e 78 2f 3e f6 6e 24 3e 57 33 17 3e 20 99 9f 3d
       0.17135784 0.16057953 0.14765678 0.07792878
0002f0 50 b5 e3 3c d4 ce 25 be b1 14 1c be 8c 3e 36 be
       0.027796417 -0.1619218 -0.15242268 -0.17797297
000300 71 ca bc bd 95 0c ff bd 74 d8 d5 bd b5 bd 9a bd
       -0.092183 -0.12453572 -0.10441676 -0.07555715
000310 c8 c1 d5 bd 8d b4 19 bd d0 8c 4e 3d 80 44 4f 3d
       -0.104373515 -0.037525702 0.050427258 0.050602436
000320 83 06 d0 3d 7e ca 2c bd a5 b5 62 3d 14 9b 4f 3d
       0.10157492 -0.0421853 0.05534901 0.050685003
000330 04 9c 9c 3d a0 40 7f 3c 0b ea aa 3d 82 fb ca 3d
       0.07646945 0.015579373 0.083454214 0.099112526
000340 ad ac 48 bd 4a 13 eb ba 94 ac 5b 3d 71 82 cc bd
       -0.0489928 -0.0017934826 0.05363138 -0.09985817
000350 78 b7 32 3d 0e 34 04 bd cc 60 04 3e c1 77 2a bd
       0.043632 -0.032276206 0.1292755 -0.041618112
000360 06 69 59 3d 69 f6 2d bd d8 33 b2 3d 3d 7b 39 3d
       0.053078674 -0.042471323 0.08701295 0.045283545
000370 1b a8 84 bc e0 dc 0c 3d df 09 b6 bc 8c b7 f2 bc
       -0.01619344 0.03439033 -0.022221504 -0.029628538
000380 cf de 7a bd f9 d2 f8 bd 53 8a 18 be 9d a5 90 bd
       -0.061247643 -0.12149615 -0.14896517 -0.07062838
000390 b0 c8 11 be 69 3e 34 be 47 3a 3c be c8 e8 a4 bd
       -0.14236712 -0.17601933 -0.18381606 -0.08052212
0003a0 d5 15 bb bd f5 e2 c0 bd a3 24 3b bc 9d d7 ff 3d
       -0.091350235 -0.094182886 -0.011422309 0.12492297
0003b0 96 b2 8b bc 86 89 cb 3c 1e fb 6c bd 1a 13 20 bd
       -0.01705293 0.02484585 -0.05785667 -0.039080717
0003c0 32 c8 0f bd 52 43 94 bd 7a ff 04 bd 3f d4 12 bd
       -0.03510303 -0.07239403 -0.032470204 -0.035846945
0003d0 da 32 1b bd dd d0 03 3d 99 0a e8 3c b2 ac 42 bd
       -0.037890293 0.03218161 0.028325366 -0.047527976
0003e0 83 5c b4 bd b7 07 02 bd e9 1c 48 bc b3 f3 68 3d
       -0.08806708 -0.03174564 -0.012213924 0.056873035
0003f0 1d 63 f8 3d 81 47 39 3d 64 53 64 be 78 c9 f8 bc
       0.12128279 0.045234207 -0.22297436 -0.030369505

bias f4 [19]
000000 86 e9 93 3e 6a f5 8b 3e 41 fb bc bd 86 9f b5 3d
       0.28889102 0.27335674 -0.092276104 0.08868317
000010 66 ac 2b bd e0 b0 f2 3d b1 b6 d2 3d 50 97 29 3e
       -0.04191246 0.118501425 0.10288752 0.16561627
000020 18 ef 09 be b2 ec ca bd 3a 88 0f 3e dc 06 d5 3d
       -0.13470113 -0.09908427 0.1401681 0.10401699
000030 d7 93 4b 3c ca b8 f2 3a b8 fa 15 3e 32 f6 fd 3e
       0.0124253845 0.0018518206 0.14646423 0.49601895
000040 6d ef 0d bc 11 cf 17 3d 4b 42 4f 3c
       -0.008663041 0.03706271 0.012650083

weight f4 [8, 79, 1, 1]
000000 fe 1a 19 3f 20 14 3f bd 3a 90 74 bd 03 d4 a9 3c
       0.5980681 -0.046650052 -0.059707858 0.020730978
000010 74 cf 6b bc fb 76 e1 bd 71 bb 89 3d 41 f0 cb 3c
       -0.014392722 -0.11009022 0.06725205 0.024894835
000020 47 51 6f bc 15 33 71 bd 98 53 40 be f6 63 b9 bd
       -0.01460678 -0.058886606 -0.18781888 -0.09052269
000030 2d 1c fd 3d 14 70 de 3d 5a 85 36 bd 50 bf f4 bb
       0.1235889 0.10861221 -0.044560768 -0.0074690953
000040 32 2a 88 be 31 0d 99 bd 2a 7b ac 3d 17 c9 e3 bc
       -0.26594692 -0.07473219 0.08421929 -0.027805848
000050 d8 f3 86 bd 1b d8 3c be fa ba 98 3d 60 24 0e be
       -0.06589478 -0.18441813 0.07457538 -0.13881063
000060 b4 b8 04 bd c4 a0 36 3d 77 25 2e bd 5a af 53 3d
       -0.03240271 0.04458691 -0.042516198 0.0516809
000070 2a 6c 05 3c 3c 2f b6 bc 17 b6 01 be 8f 43 53 be
       0.008143464 -0.02223932 -0.12667118 -0.2063124
000080 92 1b 3a bc 59 9c 28 be 09 4e d8 3d 41 d3 25 be
       -0.011359112 -0.16465892 0.10561759 -0.16193868
000090 23 02 c5 bd af 20 56 be 45 6a 16 3c ec 7f 97 bc
       -0.09619548 -0.20910905 0.00918061 -0.018493615
0000a0 7a dc 8d 3d 56 7f 1d bd 58 20 f3 bd 77 6c 76 bd
       0.06926818 -0.038451515 -0.118714035 -0.060162034
0000b0 1b 30 11 be 92 7b 1b be 39 95 9d 3d 86 bf 76 3b
       -0.14178507 -0.15183857 0.076944776 0.0037650778
0000c0 f7 a3 b7 bc fa 76 b6 3c de 17 cb 3d 7e 3d f5 bd
       -0.022417052 0.02227353 0.09916662 -0.11974619
0000d0 b5 f9 10 3e e5 49 24 bd 29 f2 bb bd 00 dd 53 3b
       0.14157756 -0.040109534 -0.09177048 0.0032327771
0000e0 3f 06 71 3d 04 cb 5b 3e 2c 7d b5 3d 58 9c 52 be
       0.058843847 0.21464163 0.08861765 -0.20567453
0000f0 be 1d 02 be 98 db b9 bd 47 79 e8 3d 80 63 87 be
       -0.12706658 -0.09075087 0.11351257 -0.264431
000100 3a e2 ef 3b bb 19 55 3d 32 62 f8 3d 42 06 9d be
       0.0073206695 0.05202649 0.12128104 -0.30668837
000110 0d 79 ce bd 67 82 b9 bd da c3 20 bd 31 a0 ac be
       -0.10081682 -0.090580754 -0.03924928 -0.33715966
000120 63 09 d3 be 91 8d 36 3e de fc f1 3d 68 df da 3c
       -0.412181 0.17827441 0.11815809 0.026717857
000130 e3 41 00 be 66 be b0 3c 38 e3 09 bd 4a 5e c8 bb
       -0.12525134 0.021575164 -0.03366396 -0.0061147558
000140 8b b5 18 3f 56 f0 e3 bc 9a 76 ac bd 61 c1 1d bd
       0.5965201 -0.027824562 -0.08421059 -0.0385145
000150 33 83 2d be 3b c4 7d be d4 6c bd 3d 6a b1 14 3d
       -0.1694458 -0.24781887 0.09249273 0.036302008
000160 7c 7f 4d bd 62 25 f7 3d 82 77 a3 3d a3 dd c4 3b
       -0.050170407 0.12067677 0.07981779 0.0060078665
000170 82 62 76 ba 6a 11 84 3d 69 2f f0 bd ec b9 e9 bd
       -0.0009398834 0.06448634 -0.11727793 -0.11412415
000180 ca 8e 3e bd 29 6c 24 3b 21 4d 66 be 10 d5 1f be
       -0.046522893 0.0025088883 -0.2249036 -0.1560862
000190 00 99 dd be 13 c9 55 3d ce c0 5f 3d 51 ff 29 bd
       -0.43280792 0.052193712 0.054627232 -0.041503254
0001a0 b9 6d 1e bd dc d2 56 3d df 6b 83 3a ae fe cf be
       -0.03867886 0.052447185 0.0010026655 -0.40623993
0001b0 9a 82 e4 3d 70 a3 7b be bf 5d 01 be f4 df 2a bc
       0.11157723 -0.24574065 -0.12633418 -0.010429371
0001c0 08 cb 8c be 1d c4 e8 bd f2 68 b9 bd 6a 1b 79 bc
       -0.2749865 -0.11365531 -0.0905322 -0.01520429
0001d0 41 56 6c be cf 2d a5 3d 16 48 22 3e b4 90 6d 3e
       -0.23079778 0.08065378 0.15847811 0.23199731
0001e0 6e 67 21 be e3 1a 9e 3d 72 69 1c be 01 be 86 bc
       -0.15762112 0.07719972 -0.15274599 -0.016448023
0001f0 8b a1 bf be 8e 9b 4b 3d 33 6f f8 bc a3 63 88 3d
       -0.37427935 0.049708895 -0.030326461 0.06659629
000200 a5 6c 84 3d 2c 0b 26 bd de a4 ac be 7d e1 82 bd
       0.06466035 -0.040537998 -0.33719534 -0.06390665
000210 20 3d 7e be e9 d7 05 3c e2 93 11 3e a3 6e 98 bd
       -0.24828005 0.008169153 0.14216569 -0.07442977
000220 e7 44 ad 3c 76 8d c6 3d 26 6b bc be 92 3d 11 bf
       0.02115102 0.0969495 -0.36800498 -0.56734574
000230 9b c8 d2 bd 81 e3 84 bc ed 95 f1 be b1 e7 3c 3e
       -0.10292169 -0.016221764 -0.47184697 0.18447758
000240 b0 91 09 bd ff 18 1a 3c e8 b6 13 bd 5f 7c 0c bd
       -0.033586204 0.009405374 -0.036063105 -0.034298297
000250 a2 b4 ec be f5 af 4d 3c ba d9 26 3e 8f c2 5d 3d
       -0.46231562 0.012554158 0.16293994 0.054140624
000260 e1 3c 3e 3e 21 09 6d 3c 62 55 11 3d 4f 4d 09 be
       0.18577911 0.0144675085 0.035481818 -0.13408397
000270 8f aa 03 bd b0 34 5a be a3 f1 80 be 85 27 a4 3c
       -0.03214508 -0.21309161 -0.25184354 0.020038376
000280 32 77 3b 3f c4 61 ef 3d ff 99 03 bd a6 5b 31 be
       0.7322875 0.11688569 -0.032129284 -0.17320117
000290 bc ef de bd 0b b0 30 bd 01 7b d2 bc 61 06 80 3d
       -0.108855695 -0.043136638 -0.025693418 0.06251217
0002a0 0d 6a 40 bc e0 42 ef 3c f3 09 1f bd f4 25 08 be
       -0.0117440345 0.029206693 -0.038827848 -0.13295728
0002b0 ed 99 37 bd b9 bb 6c bd 99 64 1e be cc 29 8e bd
       -0.04482453 -0.057796214 -0.15468062 -0.06941566
0002c0 00 a9 e8 bd 4c 11 5c bd 56 cc 03 be aa 60 fa 3e
       -0.11360359 -0.053727433 -0.12870917 0.48901874
0002d0 54 51 24 3c 9b e9 58 bd 2d 83 14 3d a8 6d 6e 3d
       0.010029156 -0.05295716 0.03625791 0.058210045
0002e0 36 94 2c be fe ef 25 be dd 3d 29 3e 55 6d d0 bd
       -0.16853413 -0.16204831 0.16527505 -0.101771034
0002f0 8e 44 5e bd 1b 52 77 bd 14 42 45 bd 87 e2 11 be
       -0.054264598 -0.060381036 -0.04815872 -0.1424657
000300 e7 f3 cc bd b2 1d 76 bd 79 73 33 be 24 7e 33 bd
       -0.10007458 -0.060086913 -0.17524518 -0.04382147
000310 3d 57 fd bc 9f e4 a2 3b 48 fe 62 bd 92 4c c6 bc
       -0.030925388 0.0049711014 -0.055418283 -0.024206433
000320 fa 2a cd 3d c0 3e cf 3d 1e ba 39 bd f4 aa 06 3f
       0.10017963 0.101193905 -0.04534351 0.52604604
000330 4e b3 ee bd df 9f af 3c 48 d8 8c 3c 47 22 99 bb
       -0.116552934 0.021438537 0.017192975 -0.0046732756
000340 8e cc cb bd fa 1a 9d 3c 7a f9 93 bd ea fe b7 3d
       -0.09951125 0.019177902 -0.07225318 0.08984168
000350 f7 ac 4a bc 25 2a 81 3d 37 57 e7 bc eb c8 f7 bd
       -0.01237034 0.063068666 -0.02823983 -0.12098869
000360 ac 21 4a 3c f0 83 af 3d c6 42 0f 3f 29 1d 2b 3d
       0.01233713 0.08570087 0.55961263 0.041775856
000370 e8 88 60 bd 3b c2 bf 3e cb 8e 91 3d 7c 9b 00 3e
       -0.054818064 0.37452874 0.07107314 0.12559313
000380 e5 3b 9b 3d 66 51 66 3c c1 a7 06 3f a6 d7 75 3d
       0.07579783 0.014057493 0.5259972 0.06002011
000390 04 67 98 3e 53 b5 61 be ed 53 10 bd 75 63 a2 3e
       0.29766095 -0.22041826 -0.035236288 0.31716505
0003a0 fa 46 76 3e c0 3e 77 3c 72 da 1c 38 c9 f5 6e 3d
       0.24050513 0.015090644 3.739674e-05 0.058339868
0003b0 3a a9 22 3e 3d 57 31 bd be 13 95 3d e4 b8 1b 3d
       0.15884867 -0.043296088 0.07279156 0.038018122
0003c0 89 95 08 3f f9 2e 84 3d c2 d5 1b be 9b 95 19 3c
       0.5335317 0.06454272 -0.15218261 0.009374048
0003d0 eb 43 a5 bd 2c 30 3e 3d ed 76 27 bc fc 56 22 be
       -0.08069595 0.04643266 -0.010221225 -0.15853494
0003e0 9b 2d 76 bd 48 89 96 3c fd 34 8f bd 43 02 7e 3e
       -0.060102087 0.018376008 -0.069925286 0.2480555
0003f0 1a fe 32 3b 1a e0 89 be 48 1d 94 bd 27 9f 75 bd
       0.00273121 -0.26928788 -0.072321475 -0.059966233

bias f4 [8]
000000 b9 71 6f 3e 55 90 4f bf 1d 28 ac 3f 6d 81 29 3c
       0.23383226 -0.8107961 1.3449742 0.010345799
000010 6c 26 f4 bc d2 07 92 3e 52 88 ed bd 10 ae 27 3f
       -0.029803477 0.2852159 -0.11598267 0.65499973

weight f4 [1, 8, 20, 20]
000000 0a 69 91 3b 3f 68 8b 3d a1 3f 07 3c df 8b 51 3e
       0.0044375705 0.06806993 0.008254916 0.20463513
000010 3f f1 5f 3c 33 5c 80 bd bc e4 ea bd 61 ca 85 3d
       0.013668357 -0.062675856 -0.11469409 0.06532741
000020 90 3f 88 3c 1d 1e 7f bd 45 6d d1 3d 1f 15 50 3c
       0.016631871 -0.062284578 0.1022592 0.012700348
000030 27 89 df 3d 7a 9c 47 bc c2 07 0e 3e 95 7b 10 3e
       0.109148316 -0.012183303 0.13870147 0.14109643
000040 25 59 92 3d f3 9f 20 3d 38 9d a0 3d 9a 6d a9 3d
       0.07145909 0.03921504 0.07842487 0.08272858
000050 0d f7 71 bc c5 30 fc bc 2a 6c ab 3d 5a f0 6d bd
       -0.014768374 -0.030784974 0.0837024 -0.058090545
000060 18 67 9a bd 18 c0 d6 bc 21 3b 71 be 5e 07 87 3d
       -0.07539195 -0.026214644 -0.23557712 0.06593202
000070 01 e7 be bd e9 ee e2 bd e1 e4 e8 bd ac 79 b6 bb
       -0.09321404 -0.11080725 -0.1137178 -0.0055687036
000080 d2 5d b4 bd ec 1c 0d be 02 57 2a be fd f3 8c 3d
       -0.08806957 -0.13780564 -0.16634753 0.068824746
000090 a5 f7 13 3e 02 dd 65 3d 89 9b 08 bc 1c bb dd 3d
       0.14449938 0.056118973 -0.008337864 0.10826704
0000a0 79 50 19 3e 44 44 2f bd e1 72 69 bc fe a0 05 bd
       0.14972104 -0.042789713 -0.014248581 -0.032624237
0000b0 6a 6b 98 bd 01 65 43 be 75 83 73 be 8e ed c5 3c
       -0.074423626 -0.19081499 -0.23780616 0.024161126
0000c0 b3 af ad 3d c2 73 ca bc 8e 33 49 be 2c 8e 75 3c
       0.084807776 -0.0247134 -0.19648573 0.01498751
0000d0 65 c0 24 bd 2a f9 8e bd d4 56 d2 bd 69 af 4b bd
       -0.040222544 -0.06981118 -0.102704674 -0.04972783
0000e0 e9 83 ea 3b bb bf 92 bd 0a fe e9 3c ca 7c 6d 3d
       0.007156838 -0.07165476 0.028563518 0.057980336
0000f0 80 fa 22 3d ec a3 14 be fc 14 fa bc 11 28 8a bd
       0.039789677 -0.14515656 -0.030527584 -0.06745923
000100 a5 e3 6f 3d 89 e3 c6 bd 26 91 8c bb 72 78 ac 3c
       0.058566708 -0.09711368 -0.004289764 0.021053527
000110 37 fe ed bb 7b 6b 54 3c a7 79 a1 bd 64 45 b6 bd
       -0.007262971 0.012965078 -0.078845315 -0.08899954
000120 ef e4 8c 3c 1c a1 f9 ba e8 80 87 3c bc a4 62 bc
       0.017199008 -0.0019045207 0.01654096 -0.013833221
000130 f0 00 5f bd 75 55 d0 bd 64 a7 36 3d 9f 30 2f 3c
       -0.054444253 -0.1017255 0.04459323 0.0106927445
000140 d6 56 df bc 24 1c 28 be 72 54 c1 bd 9d 63 d7 bc
       -0.027263086 -0.16416985 -0.09439935 -0.026292617
000150 60 82 ca bd 57 60 57 3c 42 7e 56 bd 1e 91 d6 3d
       -0.09888148 0.013145528 -0.052366503 0.10476898
000160 dd 8f 86 3d bb 70 fa 3d 27 de 63 3d d8 0b 8d bd
       0.065704085 0.12228533 0.055631783 -0.06887025
000170 3f 4f 04 ba 06 12 df bc f4 0b 75 3e 92 00 46 3e
       -0.0005047209 -0.027230274 0.23930341 0.19336155
000180 b8 0c 97 3d 12 ff 23 bd 24 ab 23 bd c1 b2 5d bd
       0.07375473 -0.040038176 -0.039958134 -0.05412555
000190 7e c5 72 bc 0a 31 37 be 31 9d 80 be ee 40 11 3e
       -0.014817594 -0.178898 -0.25119928 0.14184925
0001a0 11 e5 8a bc bc 18 18 3d 7d 6b 80 3d 62 f4 93 3d
       -0.01695493 0.037132964 0.06270502 0.07224347
0001b0 61 d0 21 3d 59 cf 87 bd bd d9 d9 bd 49 90 5a be
       0.039505366 -0.06631345 -0.106372334 -0.21344103
0001c0 23 19 b5 bd 8f 6d 77 be 65 cd 94 3d 91 8f ec 3d
       -0.08842685 -0.24162887 0.072657384 0.115508206
0001d0 87 4e 85 3e 75 52 4e 3d 17 2b a3 3c 31 37 04 be
       0.26036474 0.050371606 0.019918008 -0.12911679
0001e0 e9 f0 99 bd 89 53 07 be f8 7f 12 be 36 48 bb 3d
       -0.07516653 -0.1321546 -0.14306629 0.091446325
0001f0 b0 73 18 bd 94 46 97 ba 92 bb 78 bc 4d 66 85 3d
       -0.037219703 -0.001154142 -0.015181439 0.06513653
000200 fb 49 87 3d 14 6a 70 3d 3b ec b3 3c ae f7 11 be
       0.066059075 0.058694914 0.02196323 -0.14254639
000210 d6 f7 a7 bd 13 f3 a7 be 12 55 28 bd 7f 32 51 3d
       -0.08201568 -0.32802638 -0.041096754 0.051073547
000220 b6 6d eb 3c 0d 81 62 bd 74 bf e9 bd 76 52 f6 bc
       0.028738838 -0.055298854 -0.1141347 -0.030068617
000230 e6 e7 d1 bd de 20 7f be 6a e8 72 bd c0 eb b5 3d
       -0.10249309 -0.24914882 -0.05930368 0.08882856
000240 de d8 35 3d bf 36 e4 3d 61 bd a4 bb 03 2d 8f 3d
       0.044396274 0.111432545 -0.0050274585 0.06991007
000250 11 db a9 3d 97 bc 7a bc 54 90 bf 3d 6e 22 5b bc
       0.08293737 -0.015303752 0.093537 -0.013374908
000260 cf 2f 8a bd 83 17 4f be d5 42 24 3d 74 52 3f 3e
       -0.067474 -0.20223813 0.0401028 0.18683797
000270 44 02 17 3e 9f b7 83 3b 0d 2c 82 bd c8 ad 85 3d
       0.14746958 0.004019692 -0.06356058 0.06527287
000280 e5 4c 0e be e4 ef be bc 02 d5 a7 3d 4e d8 80 3d
       -0.1389652 -0.023307748 0.08194925 0.06291257
000290 25 ad 35 3e d9 53 82 3d e6 1f 1a 3d e9 40 3b 3d
       0.1774183 0.06363649 0.037628077 0.0457162
0002a0 9d 32 b4 3d 86 8c 79 bd 91 70 57 3d 30 00 7b bc
       0.08798716 -0.06092503 0.052597586 -0.015319869
0002b0 24 05 a6 bd 96 f3 1e bd fa 3c c7 3d eb 98 98 3e
       -0.08106449 -0.03880652 0.09728427 0.29804167
0002c0 e8 42 d6 bd 88 b0 01 3b 8c c0 10 3d 75 6b 6d 3e
       -0.1046198 0.0019789059 0.035339877 0.23185523
0002d0 e2 49 94 3d 0f 91 ec 3c be 3e 63 bd 5e db 87 3d
       0.072406545 0.028877763 -0.055479757 0.06633638
0002e0 c2 07 d8 3d 81 6d b2 3d 6e 1c c1 3c 64 25 4c 3d
       0.10548355 0.087122925 0.023573127 0.049840346
0002f0 ea 8f a9 3b c4 e2 bf 3d 46 46 91 3c 1a fc a5 bd
       0.0051746266 0.09369424 0.017733704 -0.08104725
000300 8a d7 be bd 8c 71 c2 be d4 c7 30 bc ae 12 91 3e
       -0.093184546 -0.37977254 -0.01078983 0.28334564
000310 b8 73 7b 3d eb 65 a5 3d e7 e0 87 bd 5e d2 34 3c
       0.061389655 0.0807608 -0.066346936 0.011036484
000320 ae 34 4b bd b0 6e c7 bd 99 cc 20 3d e8 4c b0 ba
       -0.049610786 -0.09737909 0.03925762 -0.0013450654
000330 f2 7f 3b 3d e2 6a c1 bd 0d a5 7e 3d 75 f7 2b bc
       0.045776315 -0.094442144 0.062169123 -0.01049601
000340 69 05 8e 3d d1 65 f6 bd 54 0f f9 3e b5 83 26 be
       0.06934626 -0.12031139 0.48644507 -0.1626118
000350 31 87 8a bc 30 04 54 be 0b fa cb 3c 25 1e 01 3e
       -0.016910167 -0.20704722 0.024899503 0.12609155
000360 67 d5 de bd 0e c7 a3 bd 1e 2b 09 be f9 21 8e 3d
       -0.10880547 -0.07996951 -0.13395354 0.069400735
000370 89 ee 26 3d 50 de 75 3d c0 b2 de 3d f3 a8 7a bd
       0.04075483 0.060026467 0.108739376 -0.06119628
000380 d3 e0 ae 3d da 51 b8 bd 73 81 e8 bd 31 35 12 3d
       0.085389756 -0.08999987 -0.113528155 0.03569526
000390 a1 c1 1b 3d 29 82 d7 3c 92 ae 30 bd 74 2c 6d bd
       0.038026456 0.026307182 -0.043135233 -0.057903722
0003a0 d0 2e c9 3c 4c 7d 5d bd e8 7c d5 3d ec a5 1d 3e
       0.024558455 -0.05407457 0.104242146 0.15395325
0003b0 a2 36 da bd e1 04 5b bd 36 49 ec bd da 31 f1 3c
       -0.10654952 -0.05347145 -0.115374014 0.029442716
0003c0 5a 5b e4 3d 11 0c 1f 3e 0c 9e 45 3d a0 dc 1b 3d
       0.111502364 0.15531947 0.04824643 0.0380522
0003d0 db 0c d0 3d 70 ec dc bd 8c c2 c7 bd c2 09 cd bd
       0.10158702 -0.107872844 -0.09753904 -0.10011627
0003e0 de 57 8d 3d 3c 82 00 bd b3 27 c9 bd 41 69 5e bd
       0.06901525 -0.0313742 -0.09822025 -0.054299597
0003f0 43 6c 0a bd 70 80 80 3d 77 f2 15 3e c7 80 3d 3e
       -0.033794653 0.062744975 0.14643274 0.18506156
