trained_models/acktr/emptyStart/acktr/MicropolisEnv-v0.pt (torch_old, 155450 bytes, 11 tensors)

weight f4 [32, 60, 3, 3]
0	0xbca5079b	-0.020145228
1	0x3d9bf941	0.07615901
2	0x3d78a7a2	0.060706742
3	0xbd5b7a5a	-0.05358348
4	0x3ce5b709	0.02804138
5	0xbce2c920	-0.027683794
6	0xbc3e62a6	-0.011620199
7	0x3dfaf4bf	0.12253713
8	0xbc6957da	-0.014242137
9	0x3c035aab	0.008017222
10	0xbd186547	-0.03720596
11	0xbdd4c4e4	-0.103891164
12	0x3d9ac560	0.075571775
13	0xbced1101	-0.028938772
14	0x3d2651e4	0.04060544
15	0x3cff2376	0.031144839
16	0xbc9c32bc	-0.01906716
17	0x3dbb88ab	0.09156927
18	0xbdc484a1	-0.095956095
19	0xbd86b470	-0.065773845
20	0xbd3ebaa4	-0.046564713
21	0xbd4b2bc0	-0.04960227
22	0xbd92abde	-0.07161687
23	0xbcc461af	-0.02397236
24	0xbb3a4aa1	-0.002842583
25	0x3ccaaa30	0.024739355
26	0x3d904c01	0.070457466
27	0x3e08b4f8	0.13350284
28	0x3e1e7f4c	0.15478247
29	0x3e0df851	0.13864256
30	0x3e4274ea	0.18989912
31	0x3d2608df	0.040535804
32	0x3e0c4ac9	0.13700403
33	0x3e078fa5	0.1323839
34	0xbd27f5b4	-0.041005805
35	0xbd0c597a	-0.03426502
36	0xbe12ac15	-0.14323457
37	0x3d24510a	0.040116347
38	0x3d8fb63d	0.07017181
39	0xbd2d3360	-0.042285323
40	0xbc806af0	-0.015675992
41	0x3d9508df	0.07277083
42	0x3d82e192	0.063906804
43	0xbc0d1551	-0.008611039
44	0x3e43436e	0.19068691
45	0xbc1e66fc	-0.009668108
46	0xbd92feca	-0.071775034
47	0x3cf97d64	0.030455299
48	0xbd53fc4d	-0.051754285
49	0x3c2aa880	0.01041615
50	0xbd3db94f	-0.046319302
51	0xbc477302	-0.012173416
52	0xbdf552c3	-0.11978676
53	0xbb68c173	-0.0035515695
54	0x39a42b52	0.00031312794
55	0xbd4b8315	-0.049685556
56	0x3ccbae99	0.024863528
57	0xbd200325	-0.0390655
58	0x3d95f8ae	0.073228225
59	0xbd5b9872	-0.05361218
60	0xbc348b76	-0.011019578
61	0xbcae9f36	-0.021316152
62	0x3d311540	0.043233156
63	0xbdb24c4a	-0.08705957
64	0x3db24d3e	0.08706139
65	0x3d26e77b	0.0407481
66	0x3cf05e4f	0.029341845
67	0x3c4cd48c	0.012501847
68	0x3d18b27f	0.037279602
69	0x3df9355a	0.12168379
70	0xbda65264	-0.081211835
71	0xbd6a2662	-0.05716551
72	0xbcdcab34	-0.026937105
73	0x3b65faae	0.0035092044
74	0xbdbab3c0	-0.09116316
75	0x3d82f8d9	0.0639512
76	0x3dd9a59a	0.10627289
77	0xbe25fa42	-0.16208747
78	0xbda69801	-0.08134461
79	0xbcf95432	-0.030435655
80	0xbd87ff36	-0.066404745
81	0xbd840715	-0.06446663
82	0x3d3579ca	0.0443056
83	0xbb52c024	-0.0032157982
84	0xbcdc5221	-0.02689463
85	0x3c16ffeb	0.009216289
86	0xbc10c2d7	-0.008835516
87	0x3d1b060a	0.037847556
88	0xbd0c29bf	-0.0342195
89	0x3d76ce00	0.06025505
90	0x3dec2266	0.115299985
91	0xbb3c3516	-0.0028718165
92	0x3e065c4e	0.13121149
93	0xbc3516f7	-0.0110528385
94	0xbd2f421f	-0.042787667
95	0x3baa7c7c	0.005202828
96	0xbda36aa5	-0.07979325
97	0xbdca86cd	-0.098889925
98	0xbcf821ef	-0.030289618
99	0xbc9f2741	-0.019427897
100	0xbd9e9f9a	-0.07745285
101	0x3d1181f4	0.035524324
102	0xbcf8f7b1	-0.030391546
103	0x3aa1afd8	0.0012335731
104	0x3d60e176	0.054902516
105	0x3d19abeb	0.03751747
106	0xbcf4b3b5	-0.029870847
107	0x3c4bce4a	0.01243932
108	0x3d5b3bff	0.053524014
109	0x3c21dff7	0.009880058
110	0xbc2090ed	-0.009800178
111	0xbd3bba12	-0.045831747
112	0xbd34d589	-0.044148955
113	0xbda51fcd	-0.08062706
114	0xbcabc045	-0.020965705
115	0xbd24631a	-0.040133573
116	0x3c523b82	0.012831571
117	0x3cdb2d21	0.026754918
118	0xbdd1c385	-0.102423705
119	0x3e5fbe1b	0.21849863
120	0xbec71a83	-0.38887414
121	0x3ece5707	0.40300772
122	0xbdbbc849	-0.09169061
123	0x3e83b999	0.25727537
124	0xbe47e67a	-0.19521514
125	0xbe0f2a85	-0.13981064
126	0x3cd66fe6	0.026176404
127	0x3bae1ce3	0.005313502
128	0x3d54bcfd	0.051938046
129	0x3ccb297c	0.024800055
130	0x3da55e28	0.080745995
131	0x3d08079e	0.03321039
132	0x3cb61903	0.022228723
133	0x3d19d2c7	0.03755453
134	0xbc43154a	-0.011906931
135	0x3d4285cb	0.047490876
136	0x3aa2b6cb	0.0012414096
137	0x3bb2ae40	0.005452901
138	0xbd0168a8	-0.03159395
139	0xbde9a523	-0.114084505
140	0x3c0c166b	0.008550267
141	0x3cfb130c	0.03064873
142	0x3d3c3c41	0.0459559
143	0xbda31526	-0.07963018
144	0xbccd4441	-0.02505696
145	0xbc6fc14f	-0.014633491
146	0xbd5d2ab0	-0.053995788
147	0x3c1d0874	0.009584535
148	0x3cfb9d4b	0.030714652
149	0xbc89b7fe	-0.016811367
150	0x3ccdd593	0.025126254
151	0x3d652831	0.055946533
152	0x3d98e0da	0.07464762
153	0x3d00fb06	0.031489395
154	0xbd225b54	-0.03963788
155	0xbd07aec6	-0.03312566
156	0xbdc51c5c	-0.0962455
157	0xbdae26ee	-0.08503519
158	0xbe1d220f	-0.15345024
159	0xbdd7ae91	-0.10531343
160	0x3bde4cb4	0.006784046
161	0xbd54f5c2	-0.051992185
162	0x3ae7accd	0.00176754
163	0x3c6ed5e2	0.014577361
164	0x3dcb4d8b	0.099268995
165	0xbc3a6e53	-0.011378842
166	0xbda68aae	-0.0813192
167	0x3cb68cf2	0.022284005
168	0xbbdac1ec	-0.0066759493
169	0xbda73178	-0.08163732
170	0x3e10c152	0.14136246
171	0xbd98acb4	-0.074548155
172	0xbcca2187	-0.02467419
173	0xbd5546b9	-0.0520694
174	0x3d0ca8b5	0.03434058
175	0x3ce90139	0.028442966
176	0x3dc2c381	0.09509946
177	0x3d9cfd15	0.07665459
178	0xbd2f1205	-0.042741794
179	0x3d30c89e	0.043160073
180	0xb8805bc0	-6.1206054e-05
181	0xbca1b448	-0.019739285
182	0xbcb273f6	-0.02178381
183	0xbc190e98	-0.009341858
184	0x3d0563ae	0.032565765
185	0xbc26a6d3	-0.01017161
186	0x3baac1b8	0.0052110814
187	0xbd86383d	-0.06553695
188	0x3d2c8320	0.042117238
189	0xbce3f5ac	-0.027827106
190	0xbdc171be	-0.09445523
191	0xbd32f810	-0.043693602
192	0x3c17af59	0.009258115
193	0xbd231bfe	-0.039821617
194	0x3c3eba9b	0.01164117
195	0x3d620da9	0.05518881
196	0xbd744d50	-0.059644043
197	0x3df854eb	0.12125572
198	0xbbf77aa4	-0.0075524617
199	0x3db7faf0	0.089834094
200	0xbcacef6b	-0.021110257
201	0x3ca07a6d	0.019589627
202	0x3c37f2a7	0.011227286
203	0xbdb072df	-0.0861566
204	0x3e161b9c	0.1465897
205	0xbdd5a732	-0.104322806
206	0xb9972912	-0.00028831564
207	0xbced58e6	-0.028973054
208	0xbe2e9b0a	-0.1705133
209	0xbd894919	-0.067033954
210	0x3ca166c4	0.019702323
211	0x3db3dda7	0.08782511
212	0xbdf858ee	-0.12126337
213	0x3c50f09e	0.01275268
214	0x3c646d79	0.013942116
215	0xbca1b836	-0.019741159
216	0xbda76646	-0.08173804
217	0xbd1b7260	-0.037950873
218	0xbd7edfce	-0.062225156
219	0xbcf930d7	-0.030418796
220	0x3a0ed807	0.00054490607
221	0x3dbf75ec	0.09348664
222	0x39365e60	0.0001739203
223	0x3d628cbf	0.055310007
224	0x3c0819e8	0.008306958
225	0x3dad9d34	0.0847725
226	0x3d8cba83	0.06871512
227	0x3df7e9a3	0.121051095
228	0xbd4263df	-0.047458526
229	0x3de9d3ba	0.11417337
230	0x3d2188bd	0.039437044
231	0x3d67050b	0.056401294
232	0x3cbd1e7d	0.023085827
233	0x3cddc24d	0.027070189
234	0x3c43b02f	0.011943861
235	0xbc9f7927	-0.01946695
236	0xbbac9d0a	-0.005267744
237	0xbb93c66b	-0.0045097372
238	0xbced00ae	-0.028930988
239	0xbc1a1128	-0.009403504
240	0x3c77e6a7	0.015130675
241	0x3d9aa27f	0.07550525
242	0x3cbfc097	0.023407264
243	0xbba1648a	-0.0049253153
244	0xbdc31ac0	-0.095265865
245	0xbd00c704	-0.031439796
246	0xbd8bc348	-0.06824356
247	0xbd3b86c7	-0.04578283
248	0x3d491806	0.049095176
249	0x3d99b303	0.07504847
250	0xbd0dcda7	-0.034619953
251	0xbcad8504	-0.02118159
252	0xbce4e384	-0.02794052
253	0x3e8c6204	0.2741853
254	0xbe4810d6	-0.19537672
255	0xbc5ce545	-0.0134823965

params f4 [32, 1]
0	0xbd1b5108	-0.037919074
1	0xbdcc62de	-0.09979795
2	0xbc6d2a97	-0.014475486
3	0xbcfb4604	-0.030673034
4	0x3e2687c7	0.16262732
5	0x3d1b8a24	0.037973538
6	0xbeb28ddc	-0.34873855
7	0xbcb67df1	-0.02227685
8	0xbda98970	-0.08278167
9	0xba2b9210	-0.00065448973
10	0x3e0157b6	0.12631115
11	0xbdd73e69	-0.10509951
12	0x3c8200b8	0.015869483
13	0x3e1d4ec4	0.15362078
14	0xbb0dacc1	-0.0021617862
15	0x3d8d27d5	0.06892363
16	0xbdb723ba	-0.08942361
17	0x3c334d6b	0.010943751
18	0xbd61032c	-0.054934666
19	0x3e30d568	0.17268908
20	0xbc8a71b1	-0.016899915
21	0xbd851368	-0.06497842
22	0xbecaf104	-0.39637005
23	0x3c22302d	0.009899181
24	0xbbf8c28e	-0.007591552
25	0xbd6482dd	-0.055788863
26	0xbe0270ef	-0.12738393
27	0xbe2e5b89	-0.17027105
28	0xbe0b1a00	-0.13584137
29	0xbcbb7f4f	-0.022887854
30	0xbdde6729	-0.1085952
31	0x3d185aa6	0.037195824

params f4 [32, 32, 3, 3]
0	0xbccab4a9	-0.024744349
1	0xbe182c07	-0.14860545
2	0x3c586533	0.0132077215
3	0xbc8eb65b	-0.017420938
4	0xbdb16125	-0.08661107
5	0x3e266d5b	0.16252653
6	0xbd1bf584	-0.03807594
7	0x3d53b2fe	0.051684372
8	0x3b136090	0.0022487976
9	0x3da3d19d	0.07998965
10	0xbe01dda8	-0.12682211
11	0xbc9a2df6	-0.018820744
12	0x3e6392ab	0.22223918
13	0xbcb166c1	-0.021655442
14	0x3dd159ba	0.10222192
15	0x3e1e1318	0.15436971
16	0x3c22d796	0.009939095
17	0xbcf8f92c	-0.030392252
18	0xbef8e2e6	-0.4861061
19	0x3f25104c	0.6447799
20	0xbd87a371	-0.06622971
21	0xbe312300	-0.17298508
22	0x3e997e60	0.2997923
23	0xbe374f08	-0.17901242
24	0xbd712c36	-0.058880053
25	0x3c3edfcc	0.011650037
26	0xbc075528	-0.008260049
27	0x3f07719d	0.52907735
28	0xbedc3888	-0.4301188
29	0xbe07248e	-0.13197538
30	0x3ea22ba1	0.3167391
31	0x3ea57295	0.32313982
32	0xbf2dc70d	-0.6788185
33	0xbf3cd398	-0.73760366
34	0x3ecd973e	0.4015445
35	0xbe60da30	-0.21958232
36	0x3e2f28b8	0.17105377
37	0x39c62dd8	0.0003779966
38	0x3f1afcb5	0.6054185
39	0xbe26640b	-0.16249101
40	0x3e2be0fd	0.16785045
41	0x3d53e84c	0.051735207
42	0xbd591817	-0.05300149
43	0x3e498146	0.1967822
44	0xbe784ef4	-0.24248868
45	0xbbd4b083	-0.0064907684
46	0x3c969709	0.018382566
47	0x3e60cbd7	0.21952759
48	0xbe035c95	-0.12828286
49	0xbd8c13ed	-0.06839738
50	0x3e05e7ee	0.13076755
51	0x3cb7eee7	0.022452785
52	0xbc366375	-0.011132111
53	0x3d16ef9d	0.036849607
54	0x3d39f26b	0.045397203
55	0xbdeb11ad	-0.11477981
56	0x3e178bb9	0.14799394
57	0xbde5479b	-0.11195298
58	0x3d671b25	0.05642237
59	0x3c5ee186	0.013603574
60	0x3e0597a2	0.13046125
61	0xbd1b3bac	-0.037898704
62	0x3c168195	0.009186168
63	0xbe9f3f95	-0.31103197
64	0xbdb76cb3	-0.089562796
65	0xbde05ee3	-0.10955598
66	0xbef8cfa5	-0.4859592
67	0x3e53285b	0.20620863
68	0xbe02e532	-0.12782744
69	0xbda1e23d	-0.0790448
70	0xbd8a7cad	-0.06762061
71	0x3ecf65b7	0.4050729
72	0x3e142988	0.14468968
73	0xbe069689	-0.13143362
74	0xbd6a0789	-0.057136092
75	0x3d2b8afb	0.04188059
76	0xbcf08266	-0.029359054
77	0x3e3d49da	0.18485203
78	0x3d0f9406	0.035053276
79	0x3e8600d5	0.2617251
80	0x3d23325f	0.03984296
81	0x3db037dc	0.08604404
82	0x3d327657	0.04356989
83	0xbe56b2a0	-0.20966578
84	0xbda5160d	-0.080608465
85	0xbe10b779	-0.1413249
86	0x3d895bbf	0.06706952
87	0xba351b29	-0.0006908649
88	0x3e082612	0.13295773
89	0xbd8c1d08	-0.06841475
90	0xbe167df5	-0.14696486
91	0xbd1d293b	-0.0383694
92	0xbde46112	-0.11151327
93	0x3d206c46	0.039165758
94	0xbd9051d3	-0.07046857
95	0x3d87be77	0.06628125
96	0xbdddbe29	-0.10827286
97	0x3dfff441	0.124977596
98	0xbd44a6e3	-0.048010718
99	0x3d5e034d	0.054202367
100	0xbdac8297	-0.084233455
101	0xbd878dfa	-0.06618877
102	0x3e73a3ad	0.23792906
103	0x3d404294	0.046938494
104	0x3bffcfe1	0.0078067635
105	0xbe2013c1	-0.15632536
106	0x3d7d9e20	0.061918378
107	0xbdd3e8bb	-0.10347124
108	0x3df06491	0.117379315
109	0x3d940883	0.07228186
110	0xbe81bcb3	-0.2533928
111	0x3d1ea1f2	0.03872866
112	0x3c4feadc	0.012690272
113	0x3d98979f	0.074507944
114	0x3d9a2f4a	0.07528551
115	0x3e15ea12	0.14640072
116	0x3db68f14	0.08914009
117	0x3e30b5ba	0.17256823
118	0x3dc7588b	0.09733685
119	0x3b58be6e	0.003307249
120	0x3d25b5b0	0.040456474
121	0xbdf6c2bd	-0.12048862
122	0xbd2d3129	-0.04228321
123	0x3ed37343	0.41298875
124	0xbe2f9a13	-0.17148618
125	0xbdca56c6	-0.09879832
126	0x3d581296	0.0527521
127	0xbc8fc4f8	-0.017549977
128	0x3cc6dd86	0.024275552
129	0x3c3c9f6e	0.01151262
130	0x3e2f2bce	0.17106554
131	0xbdd6f607	-0.10496145
132	0xbe087446	-0.13325605
133	0xbdd7b0f2	-0.105317965
134	0xbc0d18c0	-0.008611858
135	0xbcdb3366	-0.026757907
136	0x3dabfa84	0.083973914
137	0x3cbcd7b2	0.02305207
138	0xbd0eabf4	-0.034831956
139	0x3d53953c	0.051655993
140	0xbe0630c4	-0.1310454
141	0x3d33526b	0.04377977
142	0xbdd722dd	-0.105046965
143	0x3df90d62	0.12160756
144	0x3e3e9c82	0.1861439
145	0x3ef2fe8c	0.4745983
146	0x3e370d63	0.178762
147	0x3e07b885	0.13253982
148	0xbd8502d3	-0.06494679
149	0x3e65f769	0.2245766
150	0x3ef89391	0.48550084
151	0x3ddf4e32	0.109035864
152	0x3f03c744	0.5147593
153	0x3daa0020	0.08300805
154	0x3e88d863	0.2672759
155	0xbe026191	-0.12732531
156	0xbc950a22	-0.018193308
157	0x3e91ab6e	0.28451103
158	0xbeb9494a	-0.36188728
159	0x3c59fc3c	0.013304766
160	0x3e9f2170	0.31080198
161	0x3dba6298	0.091008365
162	0x3e5135f3	0.20430736
163	0x3d5c4435	0.053775985
164	0x3d60f19c	0.054917917
165	0x3d69384d	0.05693846
166	0xbdddb1dd	-0.1082494
167	0xbdb36462	-0.08759381
168	0x3d537558	0.05162558
169	0x3e839d90	0.25706148
170	0xbe4ffa17	-0.20310245
171	0x3dfec396	0.12439649
172	0xbdb16f9f	-0.08663868
173	0x3e07eb61	0.13273384
174	0x3d945452	0.07242645
175	0xbd3bf292	-0.04588563
176	0x3e179c6a	0.14805761
177	0x3e451fbf	0.19250391
178	0x3dc993d9	0.09842653
179	0x3e853cb7	0.26022884
180	0x3c4de19a	0.012565995
181	0xbd388614	-0.045049742
182	0x3d861fd1	0.06549037
183	0x3d482abd	0.048868883
184	0x3e09ea49	0.13468279
185	0x3c35979e	0.011083512
186	0xbc60960a	-0.013707647
187	0x3d1cb6db	0.038260322
188	0xbd88dca3	-0.06682708
189	0xbd2873f6	-0.041126214
190	0x3d530b66	0.051524542
191	0xbe2cc6c7	-0.16872703
192	0xbd9a6cc6	-0.07540278
193	0xbe032763	-0.12807994
194	0x3cee1c3b	0.029066196
195	0xb9486c82	-0.00019113909
196	0xbd407544	-0.046986833
197	0x3e50856a	0.20363393
198	0x3c5da5ca	0.013528297
199	0xbdb8ab35	-0.0901703
200	0x3ef90ebc	0.48644054
201	0xbea45e64	-0.32103264
202	0x3e4718fb	0.19443123
203	0xbb48bbac	-0.003062944
204	0xbe31d27e	-0.17365453
205	0xbe8e6366	-0.2781021
206	0xbeb3a25c	-0.35084808
207	0x3e2a88b1	0.16653706
208	0xbe02f3e7	-0.12788354
209	0x3d16b960	0.03679788
210	0xbd402581	-0.046910767
211	0x3c0e4040	0.008682311
212	0x3b73eda7	0.003722051
213	0xbde1e687	-0.11030298
214	0xbe17088f	-0.14749359
215	0xbdbd3572	-0.092387095
216	0xbdc1a538	-0.09455341
217	0x3cfc3892	0.030788694
218	0x3d380850	0.044929802
219	0x3da454cd	0.08023987
220	0xbd3a099a	-0.045419313
221	0xbd6c92ff	-0.057757374
222	0x3d829e69	0.063778706
223	0xbd877b06	-0.06615262
224	0xbd6c3749	-0.05766991
225	0xbe972501	-0.2952042
226	0xbc4e929d	-0.0126081975
227	0x3d9ab4de	0.07554029
228	0x3bf06cb0	0.0073371753
229	0x3e2b6eab	0.16741435
230	0xbf1105b7	-0.56649345
231	0xbda33827	-0.079696946
232	0xbdedbeee	-0.116086826
233	0x3bba0886	0.0056772856
234	0x3cff1997	0.031140132
235	0xbd3882ed	-0.045046736
236	0x3ec591fd	0.38587943
237	0xbd543847	-0.051811483
238	0x3d450fd4	0.048110798
239	0x3e421a07	0.18955241
240	0x3d949bd8	0.07256287
241	0x3e8dd3e9	0.27700737
242	0xbdf99876	-0.12187283
243	0xbdb23bfb	-0.087028466
244	0x3d9ef889	0.07762248
245	0xbc8d4c68	-0.017248347
246	0x3c828c52	0.01593605
247	0x3dcd8053	0.100342415
248	0x3d15e250	0.03659278
249	0x3e0b8c90	0.13627839
250	0xbd405608	-0.046957046
251	0x3bc81ff1	0.0061073233
252	0x3e0d88ca	0.13821712
253	0x3d23e09a	0.04000912
254	0x3e2117aa	0.15731683
255	0xbe23ab79	-0.1598338

params f4 [32, 1]
0	0xbe252845	-0.16128643
1	0xbe0da79a	-0.13833466
2	0xbcaf52f4	-0.02140186
3	0xbd3acbe0	-0.045604587
4	0xbea17eb7	-0.31541988
5	0xbd4dc70b	-0.05023865
6	0xbe6da90b	-0.23209016
7	0x3e19a037	0.15002523
8	0xbe9a8f0e	-0.30187267
9	0xbea2d40b	-0.318024
10	0xbd8fcfe8	-0.07022077
11	0x3d0650b9	0.032791827
12	0x3e46ded2	0.19420937
13	0x3cfc9d41	0.030836703
14	0xbe2b0c27	-0.16703855
15	0x3dbdd00f	0.092682
16	0xbc9a673b	-0.018848052
17	0x3e39c3ac	0.18141049
18	0xbe98de69	-0.29857185
19	0xbdaaf0a5	-0.083466806
20	0xbdda2ba0	-0.10652852
21	0xbe89dbd3	-0.26925525
22	0xbed172f2	-0.4090801
23	0xbcec0a66	-0.028813552
24	0x3e01de84	0.12682539
25	0xbdf22198	-0.11822814
26	0xbde6a580	-0.11262035
27	0xbc82461e	-0.015902575
28	0xbd46b179	-0.048509095
29	0xbd494148	-0.049134523
30	0xbe0037a9	-0.12521233
31	0x3cf9bfa5	0.030486891

params f4 [5, 60, 1, 1]
0	0x3dfcfa8c	0.123524755
1	0x3dcbbb5a	0.09947844
2	0xbd969dc2	-0.07354309
3	0xbe1b0692	-0.15139225
4	0xbe1e46c9	-0.1545669
5	0xbcda7653	-0.02666775
6	0x3cb91e15	0.022597352
7	0x3e03354f	0.12813304
8	0xbbb2b88e	-0.0054541295
9	0x3e173dfa	0.14769736
10	0x3ca4e0dc	0.020126753
11	0xbd8f5955	-0.069994606
12	0xbd915ee6	-0.070981786
13	0xbc923adb	-0.01785033
14	0x3cd510cc	0.026008986
15	0xbe17012a	-0.14746538
16	0xbe000e4c	-0.12505454
17	0x3dcd53cb	0.10025748
18	0xbd4c5d15	-0.049893457
19	0x3cc42cea	0.023947198
20	0xbe241874	-0.16024953
21	0x3dc17c79	0.094475694
22	0x3b35d2b9	0.0027744009
23	0xba1e2f20	-0.0006034244
24	0x3becd9d7	0.007228117
25	0x3e7db266	0.24775085
26	0x3d44bfed	0.048034597
27	0xbcf60209	-0.030030267
28	0x3e27c213	0.16382627
29	0xbd83c57b	-0.06434151
30	0xbe5f8109	-0.21826567
31	0xbc8ae606	-0.016955387
32	0xbdf5b21f	-0.119968645
33	0xbecfdd48	-0.40598512
34	0x3dd0c25c	0.10193321
35	0xbe6aaf68	-0.22918475
36	0x3e9ea037	0.3098161
37	0xbb16f201	-0.002303243
38	0xbdc41bb4	-0.095755965
39	0x3e051f0c	0.13000125
40	0x3e5445ac	0.20729703
41	0xbe1aea69	-0.15128483
42	0x3e321b76	0.17393288
43	0xbd98daeb	-0.0746363
44	0x3d3a49cc	0.045480534
45	0xbe9f5cac	-0.3112539
46	0x3e515edf	0.20446347
47	0x3e56ed37	0.20988928
48	0x3b8a760e	0.004225499
49	0xbe2ffe4e	-0.17186853
50	0xbd7ffe7e	-0.062498562
51	0x3e9789a2	0.29597193
52	0xbdc4354b	-0.09580477
53	0x3cb61e38	0.022231206
54	0xbd062398	-0.03274879
55	0xbdf779df	-0.12083792
56	0x3d2f4845	0.04279353
57	0xbc43380e	-0.01191522
58	0x3dd8e9c1	0.1059146
59	0xbd68d14f	-0.056840237
60	0x3dada9cd	0.084796526
61	0x3be438f0	0.0069647953
62	0xbd12207b	-0.035675507
63	0xbdf1f967	-0.11815148
64	0x3cc4edf3	0.024039244
65	0x3dde99ac	0.10869154
66	0xbe51f934	-0.2050522
67	0xbd803681	-0.06260396
68	0x3b258afe	0.0025259848
69	0xbde254de	-0.110513434
70	0xbdc8c30f	-0.098028295
71	0x3df99aa0	0.121876955
72	0xbe0f2518	-0.13978994
73	0x3e16cd29	0.147267
74	0xbe14a780	-0.14517021
75	0xbcf22570	-0.029558867
76	0xbe8830e3	-0.26599798
77	0x3d7c6a4c	0.06162481
78	0x3e1ed7e6	0.15512046
79	0xbd2868c1	-0.041115526
80	0xbe2ee23f	-0.17078494
81	0xbd15ba8c	-0.036554858
82	0x3db79980	0.08964825
83	0x3cbc9341	0.023019435
84	0x3dac37b9	0.08409066
85	0x3dfb483e	0.122696385
86	0x3e2c5cf8	0.1683234
87	0xbd096f1f	-0.03355324
88	0xbcc01d31	-0.02345142
89	0xbbcf67fe	-0.0063295355
90	0xbd001078	-0.031265706
91	0xbd8def55	-0.069304146
92	0x3d4f84b8	0.05066368
93	0x3e539f4a	0.20666233
94	0x3de2c3f8	0.11072534
95	0xbd032f68	-0.032027632
96	0xbdd26c62	-0.10274579
97	0xbde9c73e	-0.114149556
98	0x3e78736e	0.24262783
99	0x3e7fc11d	0.2497601
100	0xbd3af5ef	-0.045644697
101	0xbe3931ef	-0.18085454
102	0xbdb0ef82	-0.086394325
103	0xbd8fc197	-0.07019346
104	0xbb68a312	-0.0035497588
105	0x3e5088dd	0.20364709
106	0xbdd878f8	-0.10569948
107	0x3ec15150	0.3775735
108	0xbe4bdc17	-0.19908176
109	0x3e640f37	0.22271429
110	0xbe1b1653	-0.15145235
111	0xbca9925e	-0.020699676
112	0x3d35320e	0.04423719
113	0x3d00c48b	0.031437438
114	0x3bc17eba	0.0059049996
115	0xbe871231	-0.26381066
116	0xbd3e59e7	-0.046472456
117	0x3d1d3f7a	0.038390614
118	0x3d0c69aa	0.034280457
119	0x3cd2b378	0.025720343
120	0xbe5457e8	-0.20736659
121	0xbdfff542	-0.12497951
122	0x3b8f7acb	0.0043786517
123	0x3e178f09	0.14800657
124	0xbe7160e6	-0.2357212
125	0xbe87e45d	-0.26541415
126	0xbbfb47e5	-0.0076684826
127	0x3d3a2842	0.04544855
128	0x3cdb3562	0.026758853
129	0xbe43e9a6	-0.19132099
130	0xbe370920	-0.17874575
131	0xbb4e45bf	-0.0031474677
132	0xbc0f0453	-0.008729058
133	0xbdd5702f	-0.10421788
134	0xbe4dfee3	-0.20116763
135	0xbdcc2663	-0.09968259
136	0x3dabb854	0.08384767
137	0x3d545b00	0.051844597
138	0xbdf9cfa4	-0.121978074
139	0x3d2b9cf1	0.041897718
140	0xbe113165	-0.14178999
141	0xbdad43ad	-0.08460174
142	0xbe30140b	-0.17195146
143	0x3d696170	0.05697769
144	0xbe48c8d0	-0.19607854
145	0x3cb11fb0	0.021621555
146	0xbd86bc70	-0.0657891
147	0xbcf72df3	-0.030173277
148	0xbd4aca77	-0.04950949
149	0xbb1b8ac0	-0.0023733824
150	0xbe074109	-0.13208403
151	0xbc9be2a5	-0.019028971
152	0xbe049140	-0.12946033
153	0x3ddd4c86	0.10805611
154	0x3e6482f1	0.22315575
155	0xbe380a96	-0.17972788
156	0x3e13defb	0.14440529
157	0x3d785fe2	0.060638316
158	0xbe7868b4	-0.24258691
159	0x3dcb9591	0.09940637
160	0xbdc2251f	-0.094797365
161	0xbc584830	-0.013200805
162	0xbd7e9053	-0.062149357
163	0xbdc61fc1	-0.09674025
164	0xbdce8369	-0.10083658
165	0xbcb13e63	-0.021636194
166	0x3c288577	0.010285727
167	0x3cf38294	0.02972535
168	0xbe210369	-0.15723957
169	0xba79a947	-0.00095238205
170	0xbd4223b0	-0.047397316
171	0xbc80a80a	-0.015705127
172	0x3cb55d05	0.022139082
173	0xbe2b140a	-0.16706863
174	0x3e7ec9fd	0.2488174
175	0x3ce3604f	0.027755884
176	0xbe0f9ce0	-0.14024687
177	0xbd45466c	-0.048162863
178	0xbb167ba0	-0.002296187
179	0x3cba6b17	0.022756143
180	0x3df94680	0.1217165
181	0xbdecdc4f	-0.11565458
182	0x3ec6daea	0.38838893
183	0x3d76a2e3	0.060213935
184	0x3c951fd0	0.018203646
185	0xbe0e40df	-0.13891934
186	0x3d38621f	0.04501545
187	0x3d235baa	0.03988234
188	0xbdaa3540	-0.08310938
189	0x3eb9fcb9	0.36325625
190	0xbe6b6f6a	-0.2299172
191	0x3dbeac14	0.09310165
192	0xbaac1376	-0.0013128358
193	0x3bdafc41	0.006682903
194	0x3e200d6f	0.15630125
195	0xbe0fe7fa	-0.14053336
196	0x3e7eeeb4	0.24895746
197	0x3dadfa2d	0.08494983
198	0xbe333f0e	-0.17504522
199	0xbd94ee40	-0.07272005
200	0x3d9a30bf	0.07528829
201	0xbdd40bd4	-0.103538185
202	0x3c2c54c1	0.010518254
203	0x3e07139c	0.13191074
204	0xbd2b64ad	-0.04184406
205	0x3f12f5e0	0.57406425
206	0x3d960a34	0.07326165
207	0x3da6abe3	0.081382535
208	0xbdaf5d6a	-0.08562739
209	0xbe7cf227	-0.24701749
210	0x3e03cf92	0.1287215
211	0x3cb82423	0.022478169
212	0xbc4583e4	-0.012055371
213	0xbd24bdf8	-0.04022023
214	0x3cf5fbb5	0.03002725
215	0xbe2d07e5	-0.16897543
216	0xbdecaf12	-0.115568295
217	0xbe3b9be1	-0.18321182
218	0x3dc53ffb	0.09631344
219	0xbbae2515	-0.005314479
220	0xbcc0a4d8	-0.023516104
221	0xbc630117	-0.01385524
222	0x3dca6e45	0.098843135
223	0x3e240393	0.16016988
224	0x3d55a71c	0.05216132
225	0xbc97a970	-0.018513411
226	0x3dc4b8da	0.0960557
227	0x3e3d4430	0.18483043
228	0x3f04ba33	0.5184662
229	0xbdf3441e	-0.11878227
230	0x3d3f1c92	0.046658106
231	0x3d996cef	0.074914806
232	0xbddfc27a	-0.10925765
233	0x3be8b503	0.0071016564
234	0xbc965fa5	-0.018356154
235	0xbd9dfba8	-0.07714015
236	0xbdc568e3	-0.09639146
237	0xbe3006db	-0.17190115
238	0x39ccd6cf	0.00039069957
239	0xbe12b590	-0.14327073
240	0x3de8b3dd	0.11362431
241	0x3d788580	0.06067419
242	0xbe302b08	-0.17203915
243	0x3d5c1042	0.053726442
244	0xbde0c326	-0.109747216
245	0xbe8c54c6	-0.27408427
246	0xbd08e3d8	-0.033420414
247	0xbe4acd10	-0.19804788
248	0x3dd59210	0.1042825
249	0x3dba1f24	0.09087971
250	0x3f042e5d	0.51633245
251	0x3e57321f	0.21015213
252	0x3ce2ac84	0.027670152
253	0x3e26e6b5	0.16298945
254	0x3cc4fdf2	0.024046872
255	0xbdc37aa4	-0.09544876

params f4 [5, 1]
0	0x3d2fc185	0.042909164
1	0x3dd944c1	0.10608817
2	0xbdebbd2c	-0.11510691
3	0xbea82f1b	-0.3284844
4	0xbdab5113	-0.08365073

params f4 [8, 37, 3, 3]
0	0x3dcadef1	0.09905804
1	0x3dad1ab5	0.084523596
2	0x3c99da07	0.018780721
3	0x3daed553	0.08536782
4	0x3c928e32	0.01789007
5	0x3d9a6266	0.07538299
6	0xbb9e1cfb	-0.004825232
7	0xbe0b025c	-0.13575119
8	0xbe01f975	-0.12692817
9	0xbbd61653	-0.006533423
10	0xbd41e8d0	-0.047341168
11	0x3d8dc267	0.06921845
12	0xbd468117	-0.048462953
13	0xbcb107e9	-0.021610217
14	0xbcf715cc	-0.03016176
15	0xba00a632	-0.00049075775
16	0xbc969b64	-0.018384643
17	0xbe4f9d06	-0.20274743
18	0xbdae7f02	-0.085203186
19	0xbe42bddb	-0.19017737
20	0xbe138af0	-0.14408469
21	0xb9d5310c	-0.0004066307
22	0x3d385f06	0.045012496
23	0x3e8a0df4	0.2696377
24	0xbefefd0b	-0.4980243
25	0xbd91cf22	-0.071195856
26	0x3e23043f	0.15919589
27	0xbbcb946d	-0.006212762
28	0x3ca89c9b	0.020582488
29	0xbdaea09a	-0.08526726
30	0xbdcca88b	-0.099930845
31	0xbde66767	-0.11250191
32	0x3deb17f2	0.114791766
33	0x3d74501a	0.059646703
34	0x3aac5779	0.0013148627
35	0x3d95e3c0	0.073188305
36	0xbd6f8c5e	-0.058483474
37	0xbd8db903	-0.06920054
38	0xbe1f4c8d	-0.15556546
39	0x3bfa2bf1	0.0076346328
40	0xbdd44b15	-0.10365883
41	0xbe0facfe	-0.14030835
42	0xbe1a9609	-0.15096296
43	0x3dce758b	0.10081013
44	0xbd281751	-0.04103786
45	0x3cc5189f	0.024059592
46	0xbe4f262a	-0.20229402
47	0xbe59bddf	-0.21263836
48	0xbece65ea	-0.4031213
49	0x3e990645	0.29887596
50	0xbee24c8f	-0.44199035
51	0xbe902456	-0.28152722
52	0xbddb0d2b	-0.10695871
53	0xbe89d6f5	-0.26921812
54	0x3d397dc0	0.04528594
55	0x3d370e1f	0.0446912
56	0xbcca2cf9	-0.024679648
57	0xbe10bde7	-0.14134942
58	0xbd7507dc	-0.05982195
59	0x3e8cfe4d	0.27537766
60	0x3dbe8123	0.093019746
61	0x3c492cf4	0.012278784
62	0xbe11b7a1	-0.14230205
63	0xbd87931f	-0.06619858
64	0x3dd069c3	0.101764224
65	0x3d5ddc85	0.054165382
66	0xbd8889b2	-0.06666888
67	0x3d7c4994	0.061593607
68	0x3dc542b8	0.09631866
69	0xbbcd10a7	-0.0062580886
70	0xbda31e07	-0.07964712
71	0x3c3eae6e	0.011638267
72	0x3e6b537c	0.22981066
73	0x3dfc4cfe	0.123193726
74	0xbde6915c	-0.11258194
75	0xbdbc9f51	-0.09210075
76	0x3aff3d5b	0.0019473241
77	0xbe3beb64	-0.18351513
78	0xbd22e0f4	-0.039765313
79	0xbc671dc2	-0.014106216
80	0x3d9992ee	0.07498728
81	0xbea2d09b	-0.31799778
82	0x3cd4826b	0.025941094
83	0xbe0d6959	-0.13809718
84	0xbda75805	-0.08171085
85	0xbb9d34ae	-0.0047975397
86	0xbd470d68	-0.04859677
87	0xbc8a3b6e	-0.016874041
88	0xbe10f6e2	-0.14156678
89	0x3db4d658	0.08829945
90	0xbe730131	-0.23730923
91	0x3d46e12e	0.04855459
92	0x3e81b8ed	0.253364
93	0x3e83c251	0.2573419
94	0xbd188a6d	-0.037241388
95	0x3d4161ef	0.047212537
96	0x3c621ce2	0.0138008315
97	0x3e1318b3	0.14364891
98	0x3e606d1c	0.21916622
99	0xbddb81ee	-0.107181415
100	0x3d34b58c	0.04411845
101	0x3dcf9090	0.10134995
102	0xbd27f762	-0.041007407
103	0xbe36017d	-0.17774005
104	0x3dc54416	0.09632127
105	0xbdb8fdae	-0.090327606
106	0x3ddc6837	0.10762065
107	0xbc9ed281	-0.019387485
108	0x3ddf7657	0.109112434
109	0xbd196052	-0.037445374
110	0xbeb9fe2e	-0.36326736
111	0xbd65f73a	-0.056143977
112	0x3eace65e	0.33769506
113	0xbdd23ee4	-0.10265902
114	0x3c405074	0.0117379315
115	0xbe72ee9d	-0.23723836
116	0xbe194176	-0.14966378
117	0x3e501176	0.20319161
118	0xbcb2080d	-0.021732355
119	0x3db375d7	0.087627105
120	0x3c6b224e	0.014351441
121	0xbdd77193	-0.105197094
122	0xbcf180f1	-0.02948043
123	0xbe21741c	-0.15766948
124	0xbe95ca34	-0.2925583
125	0xbd13e498	-0.036106676
126	0x3dbef356	0.093237564
127	0xbd8f3540	-0.069925785
128	0xbcb9a204	-0.022660263
129	0x3f209c03	0.62738055
130	0x39e43c74	0.0004353259
131	0x3debd370	0.11514938
132	0x3e8a0b8a	0.2696193
133	0x3e2f0ed3	0.17095499
134	0x3dc419a1	0.09575201
135	0xbe5e2a7a	-0.21695891
136	0xbe74b74d	-0.23898049
137	0xbf0542a8	-0.52054834
138	0x3ca96d95	0.020682136
139	0x3e36b6a1	0.17843105
140	0x3e49ea75	0.19718345
141	0xbe2e99d9	-0.17050876
142	0x3f58701f	0.84546083
143	0x3ed5cb67	0.41756746
144	0xbce84a0a	-0.028355617
145	0x3d8db3bb	0.069190465
146	0x3e8fe370	0.2810321
147	0xbce59b85	-0.028028259
148	0x3c6aa90a	0.014322529
149	0xbdcebed6	-0.10094993
150	0x3dc0e9f4	0.09419623
151	0x3db4ca33	0.08827629
152	0xbdbc956c	-0.092081875
153	0xbdbe60df	-0.092958204
154	0xbd966f5d	-0.073454596
155	0x3dc8b096	0.09799306
156	0xbb571a66	-0.0032822131
157	0x3d2b79a8	0.041864067
158	0x3dc7498b	0.09730824
159	0xbe0208b6	-0.12698635
160	0x3d2f5b79	0.042811844
161	0xbdeff2c9	-0.117162295
162	0xbd3d0576	-0.046147786
163	0x3e86ebd8	0.2635181
164	0x3d04859c	0.032353982
165	0xbe034402	-0.12818912
166	0x3df680b1	0.12036265
167	0xbdfb8e07	-0.12282949
168	0x3cfa94ec	0.03058859
169	0xbdedfb7c	-0.116202325
170	0x3e6fa5be	0.2340307
171	0xbd689b81	-0.056788925
172	0xbdaf164a	-0.08549173
173	0x3dee249b	0.11628076
174	0x3d07a07c	0.033112034
175	0xbe37b63e	-0.17940614
176	0xbe478ff7	-0.19488512
177	0x3dedea89	0.11617
178	0xbd942b3e	-0.0723481
179	0x3d930a36	0.07179682
180	0xbcd4bce9	-0.025968986
181	0xbc967d5b	-0.018370321
182	0xbda022f5	-0.078191675
183	0xbe04a0d7	-0.1295198
184	0xbdd4f4ec	-0.10398278
185	0x3dddd101	0.1083088
186	0xbe09d959	-0.13461818
187	0xbe407cd9	-0.18797626
188	0x3e3b06ce	0.18264315
189	0x3d41e28a	0.047335185
190	0x3e9a85e4	0.30180275
191	0x3d2d7708	0.042349845
192	0xbe6a43a1	-0.22877361
193	0x3c93a870	0.018024653
194	0xbf3c055b	-0.7344567
195	0xbda8b1a5	-0.08237008
196	0xbdc09217	-0.094028644
197	0x3ecab7be	0.3959331
198	0x3d295850	0.041343987
199	0xbd40f18d	-0.04710536
200	0x3d9dc2c2	0.07703163
201	0xbe0d5ad7	-0.13804184
202	0x3e3b0ebf	0.18267344
203	0xbe596da2	-0.21233228
204	0x3c66b5e1	0.014081449
205	0x3dc2a2c4	0.09503701
206	0x3ce75569	0.028238969
207	0x3e1f0ebc	0.15532964
208	0xbd6439bc	-0.055719122
209	0x3ccfce4a	0.025366921
210	0xbe466adb	-0.193767
211	0xbe1156b5	-0.14193232
212	0xbd817259	-0.06320638
213	0x3daeef8c	0.08541784
214	0x3d51a683	0.05118419
215	0x3aa1fc35	0.0012358489
216	0xbe950e9d	-0.29112712
217	0xbee622a0	-0.44948292
218	0xbe34937b	-0.17634384
219	0x3c0d9503	0.008641484
220	0x3eb3ea03	0.35139474
221	0x3db4a73d	0.08820961
222	0xbe67f017	-0.22650181
223	0xbdad6424	-0.08466366
224	0xbd9a1910	-0.075243115
225	0x3a90a81a	0.0011036426
226	0xbd07d638	-0.03316328
227	0xbe353199	-0.17694701
228	0x3de7aaa9	0.11311848
229	0xbd9b96d4	-0.075971276
230	0xbda90135	-0.08252183
231	0xbd8a43a3	-0.06751182
232	0x3deea194	0.11651912
233	0xbc04d367	-0.008107043
234	0x3e0da89c	0.1383385
235	0xbbcfba10	-0.006339319
236	0xbe18ede0	-0.14934492
237	0xbd47a566	-0.04874172
238	0x3d5cb69a	0.05388508
239	0xbdaa7aee	-0.08324228
240	0x3e007ce4	0.12547642
241	0xbdc2e0e1	-0.095155485
242	0x3e45c689	0.19314016
243	0xbbd32983	-0.0064441576
244	0x3d83e652	0.064404145
245	0x3e1dbbd1	0.15403678
246	0x3d46131f	0.04835808
247	0xbe778780	-0.24172783
248	0x3d0da8e2	0.034584887
249	0x3dbf734f	0.09348165
250	0x3bb7ea14	0.005612621
251	0xbd16ad9b	-0.036786657
252	0xbc8b5a64	-0.017010875
253	0x3cbf7ed2	0.023375902
254	0x3c552cd9	0.013011181
255	0xbe3f61b4	-0.18689615

params f4 [8, 1]
0	0x3cdd22e1	0.02699417
1	0xbddeae88	-0.10873133
2	0xbe0439db	-0.12912695
3	0xbdc25a0a	-0.0948983
4	0xbe29d1b6	-0.16583905
5	0xbd715bc1	-0.058925394
6	0xbe6755c7	-0.22591315
7	0x3ea9085b	0.33014187

params f4 [1, 3200]
0	0x3f5dc2ca	0.8662535
1	0x3e415142	0.18878654
2	0x3f473315	0.7781232
3	0x3eb57847	0.35443327
4	0x3eac1db2	0.33616406
5	0x3f0ea8b3	0.55726165
6	0x3db2cc68	0.08730394
7	0x3e30287f	0.17202948
8	0x3bc1e26c	0.005916884
9	0xbe9ce42c	-0.3064283
10	0xbd43a777	-0.04776713
11	0xbe15d31a	-0.1463131
12	0xbc1b09ab	-0.009462754
13	0xbeb34e26	-0.3502056
14	0xbe4210e4	-0.18951756
15	0x3e54c34e	0.20777628
16	0x3df9d5cc	0.12198982
17	0xbeb879ab	-0.36030325
18	0xbebcc9e7	-0.3687279
19	0xbeaf6b6f	-0.34261653
20	0x3c597a70	0.01327382
21	0x3e406017	0.18786655
22	0x3d717310	0.058947623
23	0x3e07243c	0.13197416
24	0x3ebf71d0	0.3739152
25	0x3ea8b56e	0.3295092
26	0x3f14bc96	0.5810026
27	0x3e9e46f6	0.30913514
28	0x3e5efc4e	0.21775934
29	0x3d576d46	0.052594446
30	0x3da9213c	0.08258292
31	0x3ea0f34f	0.3143563
32	0xbdd2a48c	-0.10285291
33	0xba068f94	-0.0005133089
34	0x3d8081a3	0.06274726
35	0xbded8b64	-0.11598852
36	0x3edd9bbf	0.43282887
37	0x3daf7858	0.085678756
38	0x3e27d8ee	0.16391346
39	0x3e0ada12	0.1355975
40	0x3e4254bc	0.18977636
41	0x3ec5f9ae	0.38667053
42	0x3de7df84	0.11321929
43	0x3e7beb33	0.2460144
44	0xbdc971fc	-0.09836194
45	0x3e284f9b	0.16436617
46	0x3ef71ed7	0.48265716
47	0xbdc1def0	-0.0946635
48	0xbc5bf05c	-0.013424005
49	0x3e4b1fa0	0.19836283
50	0x3ef4b4b4	0.47794116
51	0x3d037a63	0.03209914
52	0xbc2f78bf	-0.01070994
53	0x3ea1c09d	0.31592265
54	0x3d95a163	0.07306173
55	0x3e973522	0.29532725
56	0xbe1d5c2c	-0.15367192
57	0xbc7e2474	-0.015511621
58	0xb9089fb2	-0.00013029462
59	0xbe7313da	-0.23738042
60	0xbd65b9e3	-0.05608548
61	0x3f7fcba4	0.99920106
62	0x3eb29850	0.3488183
63	0x3e306a8e	0.17228147
64	0x3f2216dd	0.63316137
65	0xbe4f44a5	-0.2024103
66	0xbe09fd92	-0.13475636
67	0xbeedb9ba	-0.4643076
68	0xbdf060d7	-0.11737221
69	0x3e3840c6	0.17993459
70	0xbee32233	-0.4436203
71	0xbe752519	-0.23939933
72	0xbf0afbb9	-0.5429035
73	0xbd51bead	-0.051207233
74	0x3e7c956e	0.24666378
75	0x3dc4aa6b	0.09602817
76	0x3eb15ed1	0.34642652
77	0xbe986de8	-0.29771352
78	0x3cf75745	0.03019298
79	0x3d4159c9	0.047204766
80	0x3f0266fc	0.5093839
81	0x3e1af6c1	0.15133192
82	0x3e91e9d9	0.28498724
83	0xbd98ca5d	-0.07460473
84	0xbdc3524d	-0.09537182
85	0x3e53f1c3	0.20697694
86	0x3e643f93	0.22289877
87	0xbe5b747a	-0.21431151
88	0xbd8416b8	-0.06449646
89	0x3dfd6f65	0.123747624
90	0x3eb6c2c2	0.35695463
91	0xbf15d63b	-0.58530015
92	0x3dff847d	0.12476442
93	0x3de1d061	0.11026073
94	0xbda16bf2	-0.07881917
95	0xbebb9356	-0.36635846
96	0x3d96391f	0.07335114
97	0x3d87a5d9	0.0662343
98	0xbced6128	-0.028976992
99	0x3e0a1774	0.13485509
100	0x3e7b4ca9	0.24540962
101	0x3e068d89	0.13139929
102	0xbdb32cf7	-0.08748811
103	0x3f0a94cf	0.54133314
104	0x3e9bebaf	0.3045325
105	0x3e3e9dd2	0.18614891
106	0xbed124de	-0.4084844
107	0xbb6563aa	-0.0035002031
108	0xbc51d31b	-0.012806679
109	0x3e88e3dc	0.26736343
110	0x3e3903dc	0.18067878
111	0xbe2a2e78	-0.16619289
112	0xbdad8a98	-0.084737
113	0xbe04c36c	-0.12965173
114	0x3e8c5e3d	0.27415648
115	0x3d3df572	0.046376653
116	0x3ee542ee	0.44777626
117	0x3dd92579	0.106028505
118	0xbd96aed7	-0.07357567
119	0x3e015021	0.12628223
120	0x3e777e9f	0.24169396
121	0x3f31a77a	0.69396174
122	0x3e392597	0.18080746
123	0xbc47bb98	-0.012190722
124	0xbe1aa187	-0.1510068
125	0x3e6c464d	0.23073693
126	0xbe484f40	-0.19561481
127	0x3e2aa6ab	0.16665141
128	0x3ec03144	0.37537587
129	0xbd516358	-0.051120132
130	0x3da59b27	0.080862336
131	0x3da1d012	0.079010144
132	0xbde7a23f	-0.11310243
133	0x3e9a641c	0.30154502
134	0xbd9852e6	-0.074376866
135	0x3df46f88	0.119353354
136	0x3da7fb16	0.08202188
137	0x3e991202	0.2989655
138	0xbe9c26ad	-0.30498257
139	0xbd5b39b3	-0.053521823
140	0x3e332f3e	0.1749849
141	0x3e8f8e8f	0.2803845
142	0x3eb882cc	0.3603729
143	0xbe7ee108	-0.2489053
144	0x3d0d5eef	0.034514364
145	0x3c14cc96	0.00908198
146	0xbec783d0	-0.38967752
147	0x3f12459f	0.57137483
148	0xbe65ba05	-0.22434242
149	0x3e08fb32	0.13377073
150	0xbda0caa9	-0.07851154
151	0xbc1a8332	-0.009430693
152	0x3d738ae7	0.05945864
153	0x3d894c27	0.06703978
154	0xbe864363	-0.26223287
155	0xbe2e1510	-0.17000222
156	0x3e58fd4e	0.21190378
157	0xbce1f3a9	-0.027582007
158	0xbe42efaa	-0.19036737
159	0xbd0da82a	-0.034584202
160	0x3eaf9861	0.34295943
161	0x3e9d0079	0.30664423
162	0x3f0701bd	0.5273703
163	0x3edf2365	0.4358169
164	0x3eabd551	0.33561185
165	0x3ee5ea3f	0.44905278
166	0x3e6a654b	0.22890203
167	0xbe28a57b	-0.16469376
168	0xbda5ceec	-0.08096108
169	0x3dd5f1eb	0.10446533
170	0x3dac511f	0.0841391
171	0xbe272976	-0.1632441
172	0xbef2fd1b	-0.4745873
173	0x3bccda57	0.006251614
174	0xbdea8945	-0.11451963
175	0xbe79a00d	-0.24377461
176	0x3ec8f731	0.39251092
177	0xbc1e2b59	-0.00965389
178	0x3e076c3a	0.13224879
179	0x3d0d824c	0.03454809
180	0x3e8a4d4c	0.27012098
181	0x3ea19471	0.31558564
182	0xbc983725	-0.018580982
183	0xbd7988b9	-0.060921405
184	0x3e34e98c	0.17667216
185	0x3d8c9705	0.06864742
186	0x3eb06557	0.34452316
187	0xbe3fc77a	-0.18728438
188	0x3ce89fa5	0.028396437
189	0xbe4bea45	-0.19913585
190	0xbdd8b06d	-0.105805255
191	0x3e84b857	0.2592189
192	0xbd6b6488	-0.05746892
193	0x3d272b81	0.040812973
194	0x3e1b8879	0.15188779
195	0xbe5f9590	-0.21834397
196	0xbd3ac50c	-0.045598075
197	0xbea99ec4	-0.3312894
198	0xbb0e902b	-0.0021753411
199	0x3d328044	0.043579355
200	0x3e88fb3d	0.2675418
201	0x3ec74372	0.38918644
202	0xbd688638	-0.056768626
203	0xbda76941	-0.081743725
204	0xbe65f7cd	-0.2245781
205	0xbd3e881d	-0.046516526
206	0xbeb55433	-0.354158
207	0x3e398128	0.18115675
208	0xbd7d8f9b	-0.06190453
209	0x3d99a5de	0.0750234
210	0x3e58810f	0.21142982
211	0x3e307492	0.17231968
212	0x3ecdcabb	0.40193734
213	0xbd0bf1a0	-0.03416598
214	0xbeac93c4	-0.33706486
215	0x3c3b4e68	0.011432268
216	0xbe7617ff	-0.24032591
217	0xbf04d388	-0.5188527
218	0xbcc9dd65	-0.024641702
219	0xbc0cc1fb	-0.00859117
220	0xbcf09b11	-0.029370816
221	0xbe8608b6	-0.2617852
222	0xbe917747	-0.28411314
223	0x3e286055	0.16442998
224	0x3de2d4cf	0.11075746
225	0x3def870d	0.11695681
226	0xbd3f245f	-0.046665546
227	0x3ec2c064	0.38037407
228	0xbf0ad96f	-0.5423803
229	0x3e1ff6e5	0.15621527
230	0xbe34d0c8	-0.17657769
231	0x3d928dd3	0.07155957
232	0xbee4a8a2	-0.44659907
233	0x3e9ce8e3	0.30646428
234	0x3e01863f	0.12648867
235	0xbe41a18a	-0.18909279
236	0xbe7d70b6	-0.24750027
237	0x3e714c89	0.23564352
238	0x3ddb13db	0.106971465
239	0x3dd9e834	0.10639992
240	0x3ee3fc05	0.44528213
241	0x3e152c7f	0.14567755
242	0xbd51d0b4	-0.051224425
243	0xbdda5ad7	-0.106618576
244	0x3d984b9d	0.07436297
245	0xbd5d76d2	-0.054068394
246	0xbf410e15	-0.7541211
247	0xbe8b0996	-0.2715575
248	0xbe866776	-0.2625081
249	0x3eb28140	0.34864235
250	0x3dc4eebb	0.09615847
251	0xbe874361	-0.26418594
252	0xbeb492fd	-0.35268393
253	0x3dcf679e	0.10127185
254	0xbe69ffbe	-0.22851464
255	0x3e3b2455	0.18275578

params f4 [8, 8, 3, 3]
0	0x3d93f057	0.072235756
1	0xbe86fb53	-0.2636362
2	0xbe406d97	-0.18791805
3	0x3ea8fb0d	0.33004037
4	0x3f6d8fd6	0.927976
5	0xbd434e58	-0.047682136
6	0x3e7af059	0.24505748
7	0xbd0d356c	-0.034474775
8	0x3e086dd7	0.1332315
9	0x3e70ff6e	0.23534939
10	0x3cb92cb7	0.02260433
11	0x3dd65ed5	0.104673065
12	0x3c02db4c	0.007986855
13	0x3d0d99a5	0.034570355
14	0xbd0b5599	-0.03401718
15	0x3e80c65f	0.25151345
16	0xbd624e32	-0.055250354
17	0xbc53c4ba	-0.012925321
18	0x3bb9fe29	0.00567605
19	0xbdb1d11b	-0.08682462
20	0xbc98e43e	-0.018663522
21	0x3d8f4455	0.06995455
22	0xba67d7ac	-0.00088440883
23	0x3d452a75	0.048136193
24	0x3e091a8d	0.13389035
25	0x3d7695a6	0.06020131
26	0xbdc42a4a	-0.095783785
27	0xbc88c833	-0.016697025
28	0xbc9df8c4	-0.01928366
29	0x3cda17ac	0.026622616
30	0x3d18e615	0.0373288
31	0x3d9addec	0.075618595
32	0x3e1503fb	0.145523
33	0xbbf40296	-0.0074465973
34	0xbd071023	-0.032974374
35	0x3d2afc28	0.04174438
36	0x3c165469	0.009175398
37	0x3da0527f	0.07828235
38	0xbe72724a	-0.2367641
39	0x3e182e00	0.14861298
40	0x3e3cdfc6	0.18444738
41	0x3d631a9a	0.05544529
42	0x3ebb3869	0.36566475
43	0xbc75d4b7	-0.015004328
44	0xbd853efd	-0.06506155
45	0x3cbcadfc	0.023032181
46	0x3ce3d5e3	0.02781195
47	0xbd7d5418	-0.061847776
48	0x3c545fad	0.012962264
49	0x39ce5342	0.00039353414
50	0xbda286a8	-0.0793584
51	0xbdccdcad	-0.10003028
52	0xbd63c78b	-0.05561022
53	0x3cbcad39	0.023031818
54	0xbc91e866	-0.017811012
55	0x3c96ec47	0.018423213
56	0xbd071b78	-0.03298518
57	0xbdbe7b44	-0.09300855
58	0xbc12c467	-0.008957959
59	0xbd357793	-0.044303488
60	0xbd9061e6	-0.07049923
61	0x3c96d9ed	0.018414462
62	0x3ce5a04b	0.028030535
63	0x3ff5f9b7	1.9216832
64	0x3e5c88b7	0.21536528
65	0xbc6a881d	-0.0143146785
66	0x3f883497	1.0641049
67	0x3e3f45f5	0.1867903
68	0x3cb48ac5	0.022038827
69	0x3e82227e	0.2541694
70	0xbe7fc1ae	-0.24976227
71	0x3e1fc8e3	0.15603976
72	0x3aab07e3	0.0013048615
73	0x3ab9df52	0.0014180935
74	0xbac50683	-0.0015031848
75	0x3a7bc52d	0.00096042716
76	0x3b745ac0	0.0037285537
77	0x39e914e0	0.00044456776
78	0xbbdd4083	-0.006752075
79	0x3ba8edd2	0.0051553035
80	0x3ac1a8ec	0.0014775074
81	0x3ceae9d6	0.028675955
82	0xbe2cdc50	-0.16880918
83	0xbd0acf3c	-0.03388904
84	0xbdfedf2e	-0.12444912
85	0x3f3ddd3a	0.7416569
86	0xbd43e3fe	-0.047824852
87	0xbcbb90e6	-0.022896241
88	0xbd566b07	-0.052348163
89	0x3bb4a62d	0.0055129738
90	0x3d7377aa	0.059440292
91	0xbb01c7cd	-0.0019802928
92	0xbb348e17	-0.0027550512
93	0x3d7993bd	0.06093191
94	0x3d43a7bd	0.04776739
95	0x3cc367e8	0.023853257
96	0x3cbc4e03	0.022986418
97	0xbb6d4bad	-0.0036208436
98	0x3c6d1fd6	0.014472922
99	0xbc08f139	-0.008358293
100	0x3c8baed2	0.017051134
101	0x3da38540	0.079844
102	0x3cd68dee	0.026190724
103	0xbd105313	-0.035235476
104	0x3d345447	0.044025686
105	0x3c3ad4be	0.011403261
106	0x3d1137d8	0.035453647
107	0x3d0e3505	0.034718532
108	0xbce0fd71	-0.0274646
109	0x3baa9ea3	0.0052068993
110	0x3ccd0ed4	0.025031485
111	0xbd030b8c	-0.031993434
112	0xbcef3fa7	-0.029205156
113	0x3c7e02f1	0.015503631
114	0xbc590fee	-0.013248427
115	0xbc2881b6	-0.010284832
116	0x3c967c8f	0.018369941
117	0xbd9a36aa	-0.075299576
118	0xbdfd80f7	-0.12378114
119	0xbd0925e3	-0.033483397
120	0xbd3a7fa5	-0.045531888
121	0xbd3e0d3a	-0.046399333
122	0x3ccfcffe	0.025367733
123	0xbd9c9cf9	-0.07647128
124	0xbd417d2c	-0.047238514
125	0xbcc9daad	-0.024640406
126	0xbc3ddafb	-0.011587854
127	0x3bbe1439	0.0058007506
128	0xbb9b7fd2	-0.004745462
129	0x3b0df070	0.0021658204
130	0x3cfa2e4a	0.03053965
131	0x3d6b9cfa	0.05752275
132	0xba1a566b	-0.0005887511
133	0x3c73d855	0.014883121
134	0x3cf7222e	0.030167665
135	0xbd43fe0a	-0.047849692
136	0xbd394b66	-0.04523792
137	0xbd3f5550	-0.04671222
138	0xbd244d70	-0.040112913
139	0xbd2ce7eb	-0.04221336
140	0xbd76fc54	-0.060299233
141	0x3b4fc628	0.0031703804
142	0xbc8d4e50	-0.017249256
143	0xbd282b38	-0.04105684
144	0xbe36cc16	-0.1785129
145	0xbcd8f2a1	-0.026482882
146	0xbdd4b498	-0.10386008
147	0x3e880e88	0.26573586
148	0xbe91a9f7	-0.28449985
149	0x3e753a42	0.23948005
150	0xbe019688	-0.1265508
151	0xbde6388e	-0.11241256
152	0xbe423268	-0.18964541
153	0xbdbc09eb	-0.09181579
154	0xbcf35334	-0.02970276
155	0x3e519b7b	0.20469467
156	0x3ce690a2	0.028145138
157	0x3ecc67e8	0.39923024
158	0x3eaa9061	0.33313277
159	0xbde12502	-0.10993387
160	0x3ef1825e	0.47169775
161	0x3ed340eb	0.41260466
162	0xbd54e5a5	-0.05197682
163	0x3dd1b5aa	0.10239728
164	0xbdd959a6	-0.10612802
165	0xbe31cef2	-0.173641
166	0x3f74d374	0.9563515
167	0xbd741598	-0.059590906
168	0x3d947ba4	0.07250145
169	0x3e9b4e46	0.30333155
170	0x3dda0dfb	0.10647198
171	0xbe0be290	-0.13660645
172	0x3dc68482	0.096932426
173	0xbe9e3502	-0.30899817
174	0xbdb178b7	-0.08665603
175	0x3d2c96b9	0.042135928
176	0xbf01cdb5	-0.5070451
177	0x3d06fa76	0.032953702
178	0x3daef2fe	0.08542441
179	0xbe5a0f07	-0.21294795
180	0xbe1731ef	-0.14765142
181	0xbe558e2a	-0.20855013
182	0x3ce599d5	0.028027454
183	0xbd82bcc5	-0.06383661
184	0x3e14325f	0.1447234
185	0xbc557813	-0.013029116
186	0xbd715313	-0.058917116
187	0xbdf33a85	-0.11876396
188	0xbc56bb10	-0.013106123
189	0x3d9a55a7	0.07535868
190	0x3e4220a1	0.1895776
191	0x3e609065	0.21930082
192	0x3e19164e	0.14949915
193	0x3e7cfdd6	0.24706206
194	0x3d1ceb7c	0.038310513
195	0x3e0ca830	0.13736033
196	0xbdd3d9b9	-0.10344262
197	0x3da65c76	0.08123104
198	0x3e0872a3	0.1332498
199	0xbd1d2bfe	-0.038372032
200	0x3d847648	0.06467873
201	0xbd8d2412	-0.068916455
202	0xbe828c31	-0.25497583
203	0xbd380855	-0.04492982
204	0x3c5a716f	0.013332709
205	0xbef67e44	-0.48143208
206	0xbdccc036	-0.09997599
207	0xbe11016c	-0.14160699
208	0xbdd4df3d	-0.10394142
209	0xbdf1f0ee	-0.11813532
210	0xbe29d6c7	-0.16585837
211	0xbe38e348	-0.18055451
212	0xbe57f947	-0.21091186
213	0xbe0b6e9d	-0.13616414
214	0x3d153e31	0.036436263
215	0xbd66c5a9	-0.056340847
216	0xbda77238	-0.081760824
217	0xbd86b377	-0.06577199
218	0xbd8c95af	-0.068644874
219	0xbd0b6332	-0.034030147
220	0x3bb5ff63	0.005554126
221	0xbca42933	-0.020039177
222	0xbdf382d6	-0.11890189
223	0xbcdfc3d5	-0.02731506
224	0x3b890811	0.00418187
225	0xbe65f1c2	-0.22455505
226	0xbe09d527	-0.13460217
227	0xbcb8f92b	-0.02257975
228	0x3e1e51e0	0.1546092
229	0x3cc10de3	0.023566192
230	0x3d1a4306	0.037661575
231	0xbdad531f	-0.0846312
232	0x3c8a7a83	0.016904121
233	0xbd919d28	-0.07110053
234	0xbc248f71	-0.010043965
235	0xbc3fe1f8	-0.01171159
236	0x3c4e9cdf	0.012610643
237	0x3d34d81c	0.04415141
238	0x3c897b1c	0.016782336
239	0xba4f261c	-0.0007902102
240	0x3c8923b8	0.016740665
241	0x3cbac1be	0.022797462
242	0xbd1ecb67	-0.0387682
243	0xbd2d3c54	-0.04229386
244	0x3b240d2d	0.0025032267
245	0x3d025a3f	0.031824347
246	0x3d604ebb	0.054762583
247	0x3f0b33ba	0.54375803
248	0x3e18fc3b	0.14939968
249	0xbd34cd15	-0.044140894
250	0x3e002bc5	0.12516697
251	0x3c49fb34	0.012327958
252	0xbc2ac1cb	-0.01042218
253	0x3bb5b82c	0.0055456366
254	0x3c1785ac	0.009248178
255	0xbd26b1a6	-0.040696763

params f4 [8, 1]
0	0x3f8bf98b	1.093553
1	0xbe769575	-0.24080451
2	0x3ea96e8a	0.33092147
3	0xbf651dd8	-0.8949866
4	0xbe594aa4	-0.2121988
5	0xbf834ea1	-1.0258371
6	0xbe496539	-0.1966752
7	0x3f92b0e5	1.1460234
