trained_models/a2c/trial_0/MicropolisEnv-v0.pt (torch_old, 905214 bytes, 13 tensors)

weight f4 [64, 104, 5, 5]
0	0x3be62f70	0.007024698
1	0x3c58da8b	0.013235698
2	0xbc831fda	-0.016006399
3	0xbc99c117	-0.01876883
4	0xbcde0f2c	-0.027106844
5	0x3d2f9c11	0.042873446
6	0xbcc04860	-0.023472011
7	0x3bffe781	0.00780958
8	0xbc0194bf	-0.007908999
9	0xbc9f4533	-0.019442176
10	0x3bdb75ff	0.006697416
11	0x3d6b9580	0.05751562
12	0xbc7440c3	-0.0149080185
13	0x3bcfda5f	0.0063431705
14	0xbbab0e65	-0.005220222
15	0xb92eec69	-0.00016682003
16	0xbc7a7cb6	-0.0152885225
17	0xbcff08ec	-0.031132184
18	0x3a3074e7	0.0006731287
19	0xbd03a2aa	-0.03213755
20	0x3c09ae45	0.0084033655
21	0xbc976c21	-0.018484177
22	0xbd2aed7c	-0.04173039
23	0x3cea7b30	0.028623194
24	0xbba9f9df	-0.0051872577
25	0xbc6dc164	-0.01451144
26	0x3c2c923e	0.010532914
27	0x3c4571fc	0.012051102
28	0x3d0e698e	0.034768634
29	0xbc754c53	-0.01497181
30	0xbb3cda41	-0.0028816613
31	0xbc64b407	-0.0139589375
32	0xbd0f3691	-0.034964148
33	0xbceb91fd	-0.028756136
34	0xbb2942d6	-0.002582719
35	0xbba4c7ee	-0.0050287163
36	0x38bfc2b9	9.14386e-05
37	0xbc85f721	-0.016353192
38	0x3bef56c2	0.0073040435
39	0xb9d8eff6	-0.00041377515
40	0x3b813024	0.0039425064
41	0xbc234168	-0.0099643245
42	0xbabd12ac	-0.001442512
43	0xbd49f6dc	-0.04930769
44	0x3c51d81f	0.012807875
45	0x3cdc7acf	0.026914028
46	0x3d076942	0.033059366
47	0x3c7c7641	0.015409053
48	0x3c511b1b	0.01276281
49	0xbc8d0dff	-0.017218588
50	0x3cd36f6e	0.02580997
51	0xbc6fb829	-0.01463131
52	0xbc5dbd12	-0.013533847
53	0x3c95af98	0.018272206
54	0x3c8163df	0.015794693
55	0xbac6d38e	-0.0015169249
56	0x3b58b0ea	0.0033064433
57	0xbba87875	-0.0051413127
58	0xba94b406	-0.0011345155
59	0xbc8c1265	-0.017098615
60	0xbc0a7412	-0.008450525
61	0x3c726065	0.01479349
62	0x3d251def	0.04031175
63	0x3c48c01b	0.012252833
64	0x3bd53687	0.0065067443
65	0xbbb52bda	-0.005528909
66	0x3bdc8073	0.0067291795
67	0x3cf1ef6e	0.029533114
68	0xbd0a3917	-0.03374585
69	0xbc697589	-0.014249214
70	0x3cc61448	0.024179593
71	0x3c0412b0	0.008061096
72	0x3c4e2533	0.012582111
73	0xbd003557	-0.03130087
74	0x3ce8cb37	0.028417213
75	0xbca092a7	-0.01960118
76	0xbc5d6109	-0.0135119045
77	0x3c2dbdd4	0.010604341
78	0x3cf38cc3	0.029730206
79	0xbbfabf87	-0.0076522264
80	0x3cf20d80	0.029547453
81	0x3c4b2911	0.012399928
82	0x3ccd20ae	0.025039997
83	0xbccb5804	-0.024822243
84	0x3cce4451	0.02517906
85	0x3cc34544	0.02383674
86	0xbc99d399	-0.018777655
87	0xbc031484	-0.008000497
88	0x3cb82923	0.022480553
89	0x3cc07522	0.023493353
90	0x3b441df7	0.0029925087
91	0xbcdc862e	-0.02691945
92	0xbc8b4e41	-0.017005088
93	0x3be12e5a	0.0068719806
94	0x3ca7ef3c	0.020499818
95	0x3c2185b4	0.009858537
96	0x3cb926e5	0.022601554
97	0xbc2fbc81	-0.010726095
98	0xbca883cf	-0.020570664
99	0x3c9f361f	0.019434987
100	0x3cb2c914	0.021824397
101	0x3c81c669	0.01584168
102	0xbbe071a3	-0.006849484
103	0xbc727d3f	-0.014800369
104	0xbcb0e865	-0.02159519
105	0x3bcc3c36	0.0062327636
106	0xbc84427c	-0.016144983
107	0xbc864e04	-0.016394623
108	0xbcd33cf8	-0.025785908
109	0xbcb919ab	-0.022595247
110	0x3d2807dc	0.04102312
111	0x3ab499d6	0.0013778757
112	0x3cab81b3	0.020935869
113	0xbce23998	-0.027615353
114	0xbd4b4315	-0.04962452
115	0xb9924c51	-0.0002790415
116	0x3d218ef2	0.039442964
117	0x3c0d5edc	0.008628573
118	0x3c444708	0.011979826
119	0xbc0b51f4	-0.008503426
120	0xbc97833e	-0.018495198
121	0xbc129192	-0.0089458395
122	0xbd5ec4cf	-0.05438691
123	0xbcde0d23	-0.027105873
124	0xbb96cc5f	-0.0046019997
125	0xbc4f748e	-0.012662066
126	0xbc84b5fa	-0.016200054
127	0x3c00bc24	0.007857356
128	0x3c7ae80b	0.015314112
129	0x3b98622b	0.0046503744
130	0xbc329367	-0.010899401
131	0xbd34e005	-0.044158954
132	0xba76ada6	-0.0009410031
133	0xbc10c82b	-0.008836786
134	0xbce1eae7	-0.02757783
135	0x3b6850f0	0.0035448633
136	0xbcbaf783	-0.0228231
137	0xbc9d138a	-0.019174356
138	0xbcca925c	-0.024727993
139	0x3c08b57c	0.0083440505
140	0xbd177aa5	-0.036982197
141	0x3bb311db	0.005464775
142	0x3ce71458	0.028207943
143	0x3c409075	0.011753191
144	0x3bb7c6ab	0.0056084
145	0x3badc7c8	0.005303357
146	0x3b75e41c	0.0037519997
147	0xbd232d09	-0.03983787
148	0xbb371c9a	-0.0027940632
149	0x3c6ce9ed	0.014460069
150	0x3c69e351	0.014275388
151	0x3d246ff0	0.040145814
152	0x3d0f0904	0.034920707
153	0xbb878722	-0.004135982
154	0xbcc688b0	-0.0242351
155	0x3a43c54c	0.0007468059
156	0xbbfb4804	-0.007668497
157	0x3b10fe44	0.002212421
158	0x3c3578ba	0.011076147
159	0xbca5f1c8	-0.020256892
160	0xbcfcdb05	-0.030866155
161	0xbd0b91d4	-0.03407462
162	0x3a4a4cfa	0.0007717159
163	0x3cc8b4d7	0.024500294
164	0x3c9b2262	0.018937293
165	0xbd6dab89	-0.058024917
166	0xbc992506	-0.018694412
167	0xbc88796f	-0.016659467
168	0x3c3fd5bb	0.011708672
169	0xbd1f607d	-0.038910378
170	0xbcb303e6	-0.021852445
171	0xbccb53ad	-0.024820173
172	0x3b45ec6a	0.0030200728
173	0xbbedcdb2	-0.007257187
174	0xbcdb1b08	-0.026746288
175	0xbb823f7a	-0.003974852
176	0xbcc29c04	-0.023756035
177	0xbc5b4eed	-0.013385517
178	0x3d2f1aa4	0.042750016
179	0xbb7f048f	-0.003891263
180	0xbd4b8ae3	-0.049693
181	0xbc10c36f	-0.0088356575
182	0xbb331519	-0.0027325808
183	0xbb7a4457	-0.0038187706
184	0x3ccb3217	0.024804158
185	0x3b970fdc	0.004610045
186	0xbcbce81f	-0.023059903
187	0x3b2cbcfe	0.0026357765
188	0xbc9d69c4	-0.019215472
189	0xbccc0491	-0.024904521
190	0x3c046de4	0.008082841
191	0xbc5f9c58	-0.013648115
192	0xbcc0992c	-0.023510538
193	0xbc8156df	-0.015788494
194	0x3b0f5ee8	0.0021876637
195	0xbc0be9da	-0.008539641
196	0x3bc0bc28	0.005881805
197	0x3c830ae1	0.015996398
198	0xbd37d483	-0.0448804
199	0xbcd3810a	-0.025818367
200	0xbd049795	-0.032371122
201	0xbcb9238d	-0.02259996
202	0xbcc9803b	-0.024597278
203	0x3d0de0e0	0.034638286
204	0x3ce4dc41	0.027937056
205	0x3bcefd5f	0.0063168253
206	0xbbedbead	-0.0072553963
207	0x3bd897c7	0.00660989
208	0x3b6d860c	0.0036243228
209	0xbc11abdf	-0.008891075
210	0x3d0f5e93	0.035002302
211	0xbbf0db35	-0.0073503503
212	0xbb8deeaa	-0.0043314295
213	0x3b436592	0.002981518
214	0x3d1dd093	0.03852899
215	0xbb9ff90e	-0.0048819846
216	0x3bb0b829	0.0053930474
217	0x3b8332f7	0.004003878
218	0x3bc5f136	0.0060407175
219	0x3b8b3903	0.0042487397
220	0x3a6e765e	0.00090966176
221	0x3d1a004e	0.037597947
222	0x3d464f87	0.048415687
223	0x392ab94b	0.0001628149
224	0xbc100cd1	-0.008792118
225	0x3d0619da	0.032739498
226	0x3c6a701f	0.014308958
227	0x3b4823e4	0.003053897
228	0xbd2346af	-0.03986233
229	0x3d15e274	0.036592916
230	0xbcd27c70	-0.025694102
231	0xbcc63b5b	-0.024198225
232	0x3c774b42	0.015093626
233	0x3c1c9157	0.009556136
234	0xbbfeda14	-0.007777462
235	0xbce3025b	-0.027711084
236	0xbc087830	-0.008329436
237	0x3c046069	0.008079627
238	0xba1bec6e	-0.00059480115
239	0xbc84355b	-0.016138723
240	0xbb97bf50	-0.0046309605
241	0xbc852aee	-0.016255822
242	0xbc9f3019	-0.019432114
243	0x3cd1f195	0.02562789
244	0x3bec586a	0.007212688
245	0xbccb84e6	-0.024843644
246	0xba68f59a	-0.0008886695
247	0x3d262107	0.04055884
248	0xbd06ffc6	-0.03295877
249	0xbbcb9163	-0.0062124
250	0x3c63c8d4	0.013902862
251	0xb8b49560	-8.610892e-05
252	0x3d8fb096	0.07016103
253	0x3c73271e	0.014840869
254	0x3c938f55	0.018012682
255	0x3b9bf59e	0.0047595045

bias f4 [64]
0	0x3cc76e14	0.024344482
1	0xbd2a7b3d	-0.041621435
2	0xbd086edd	-0.033308852
3	0xbd5d3619	-0.05400667
4	0xbdab9609	-0.08378226
5	0xbcc5ae14	-0.024130858
6	0xbc042f51	-0.008067922
7	0x3d29b151	0.041428868
8	0xbcc6bd35	-0.024260143
9	0xbdd31e11	-0.10308469
10	0xbd1ebf9b	-0.038756948
11	0xbd0296b5	-0.031882007
12	0xbd11e719	-0.035620783
13	0xbd9031d0	-0.07040751
14	0xbdc0ad9b	-0.094081126
15	0xbcba3654	-0.022730984
16	0xbdb817ca	-0.089889124
17	0xbd0885e9	-0.03333083
18	0xbc9a16f2	-0.01880977
19	0xbd60e4c1	-0.054905657
20	0xbd30d3b6	-0.043170653
21	0xbcaaa4eb	-0.020830592
22	0xbcfbb7d2	-0.0307273
23	0xbb81d062	-0.0039616087
24	0x3d934a5d	0.07191918
25	0xbcdeeb6d	-0.02721187
26	0xbd208d12	-0.039197035
27	0xbcf16974	-0.02946923
28	0xbd102c01	-0.035198215
29	0xbd19e680	-0.037573338
30	0xbd1cdcf7	-0.038296666
31	0xbd12ad9d	-0.0358101
32	0xbdb1a62a	-0.086742714
33	0xbd27dd58	-0.040982574
34	0xbbced66a	-0.0063121812
35	0xbce6ab95	-0.028157989
36	0xbab73686	-0.0013978041
37	0xbd74a5a0	-0.059728265
38	0xbd9aff1e	-0.07568191
39	0xbd77efbc	-0.060531363
40	0x3cbbb3c1	0.022912862
41	0xbbc01f9f	-0.0058631445
42	0xbd3d1df5	-0.046171147
43	0xbcd909fa	-0.026494015
44	0x3cc5a5af	0.024126856
45	0x3db8c49b	0.090218745
46	0x3daed96c	0.08537564
47	0xbd77384c	-0.060356423
48	0xbd4cb711	-0.049979273
49	0xbd17c491	-0.037052695
50	0xbd29f154	-0.041489914
51	0xbd719944	-0.058984056
52	0xbd970586	-0.073741004
53	0xbd3f625e	-0.04672467
54	0xbd051793	-0.032493185
55	0xbcea4c98	-0.028600976
56	0xbd1927ec	-0.037391588
57	0xbca143ee	-0.019685712
58	0xbd3d3c8a	-0.046200313
59	0xbd061fed	-0.03274529
60	0xbd1f7ac2	-0.03893543
61	0xbcfdf3e9	-0.031000094
62	0xbc3cdbeb	-0.011527042
63	0xbd45b71f	-0.04827034

weight f4 [64, 64, 3, 3]
0	0xbd816449	-0.06317956
1	0xbdd6874d	-0.10475025
2	0x3c722124	0.014778409
3	0xbd420000	-0.04736328
4	0xbddc19c4	-0.10747102
5	0xbe03ac49	-0.1285869
6	0xbd86f950	-0.06590521
7	0xbcfb3542	-0.030665044
8	0xbdb6e058	-0.08929509
9	0xbdc39b76	-0.09551136
10	0xbda04c13	-0.0782701
11	0xbcbda957	-0.023152037
12	0xbe43b87b	-0.19113342
13	0xbd78a025	-0.0606996
14	0xbdba3645	-0.09092382
15	0xbd6fc4fd	-0.058537472
16	0xbddff7e7	-0.109359555
17	0xbdec5eca	-0.11541517
18	0xbbf9891f	-0.007615223
19	0xbde303fe	-0.11084746
20	0xbc8e06ff	-0.01733732
21	0xbd4fd1cc	-0.050737187
22	0x3d507a01	0.050897602
23	0x3c044ec1	0.008075417
24	0xbcb51edd	-0.022109443
25	0xbcff3b58	-0.031156227
26	0xbcb0bf41	-0.021575572
27	0xbdea8c6e	-0.11452566
28	0xbdf9545c	-0.121742934
29	0xbe5375c0	-0.20650387
30	0xbe0493d9	-0.12947024
31	0xbde0022c	-0.10937914
32	0xbdceae17	-0.10091799
33	0xbe564574	-0.20924932
34	0xbe39fddf	-0.1816325
35	0xbe7ebb52	-0.24876145
36	0xbe83c8ba	-0.2573908
37	0xbcbfdb51	-0.023420008
38	0xbd79ae1b	-0.060957056
39	0xbc92fc1f	-0.017942486
40	0xbdcc8091	-0.099854596
41	0xbd92d51c	-0.07169554
42	0xbe052938	-0.13004005
43	0xbba7ff95	-0.0051269033
44	0xbd1d5ba2	-0.038417466
45	0xbda1bdec	-0.07897553
46	0xbcd75c60	-0.026289165
47	0xbdabe3f7	-0.0839309
48	0xbd56cf24	-0.05244364
49	0xbde0330a	-0.10947235
50	0xbd817a2b	-0.0632213
51	0xbdbe3098	-0.09286612
52	0xbd437b76	-0.047725163
53	0xbdf581e3	-0.119876646
54	0xbdcdbbe1	-0.10045601
55	0xbe4f44c5	-0.20241077
56	0xbe0bdf4e	-0.13659403
57	0xbdd469ef	-0.10371768
58	0xbe45d6e1	-0.19320251
59	0xbdec5b02	-0.11540796
60	0xbda8653d	-0.08222435
61	0xbe242fb5	-0.16033824
62	0xbd8bad38	-0.06820148
63	0xbe8e6621	-0.27812293
64	0xbe77745b	-0.2416548
65	0xbea84715	-0.3286673
66	0xbe4838df	-0.19552945
67	0xbe6ba375	-0.23011573
68	0xbe1bdbf6	-0.15220627
69	0xbdb059b2	-0.08610858
70	0xbce30141	-0.027710559
71	0xbd6c3d3f	-0.057675596
72	0xbc6e37bd	-0.014539656
73	0xbd841bda	-0.06450625
74	0xbdb72e25	-0.08944348
75	0xbdd47714	-0.10374275
76	0xbdae8d79	-0.085230775
77	0xbd022d80	-0.031781673
78	0xbdc4af33	-0.09603729
79	0xbd91c974	-0.07118502
80	0xbdfe9e76	-0.12432568
81	0x3daf0268	0.08545381
82	0x3ccafd16	0.024778884
83	0x3d4e1111	0.050309245
84	0x3de2f873	0.11082544
85	0x3e104577	0.14088999
86	0x3c94caba	0.018163074
87	0x3d85a38e	0.06525336
88	0x3bffccbb	0.007806388
89	0x3dd05c82	0.101738945
90	0xbcc89fbf	-0.024490235
91	0xbc92f05f	-0.017936883
92	0xbd3b95d4	-0.045797184
93	0xbd123139	-0.035691474
94	0xbdd5e83b	-0.10444685
95	0xbce0b00a	-0.027427692
96	0xbd08bd37	-0.033383574
97	0xbd77a19e	-0.060456865
98	0xbd989cd6	-0.07451789
99	0xbde2f834	-0.11082497
100	0xbd29de1b	-0.041471582
101	0xbcbf9423	-0.023386067
102	0x3c4b1405	0.01239491
103	0x3d553f6a	0.05206243
104	0x3dd8359d	0.10557101
105	0x3d8b0a77	0.067891054
106	0x3e2c33fe	0.16816708
107	0x3e0c1204	0.13678747
108	0xbd1238c9	-0.035698686
109	0xbd7420e4	-0.05960168
110	0xbdc7b41c	-0.0975115
111	0xbd315beb	-0.04330055
112	0xbdc70747	-0.09718185
113	0xbe2617e9	-0.16220059
114	0xbdd76301	-0.1051693
115	0xbd9968a8	-0.07490665
116	0xbe006198	-0.12537229
117	0xbca826fa	-0.020526398
118	0xbdad976f	-0.08476149
119	0xbe33a39c	-0.17542881
120	0x3d022def	0.031782087
121	0x3dd90226	0.10596113
122	0xbd283901	-0.04106999
123	0xbdafdc6a	-0.085869625
124	0xbd434af6	-0.04767891
125	0x3c88196a	0.01661368
126	0xbdba8951	-0.09108222
127	0xbd73e236	-0.059541903
128	0xbe07463f	-0.1321039
129	0xbd4e5c9d	-0.05038129
130	0xbd3d3962	-0.046197303
131	0xbd9cb25b	-0.07651206
132	0xbe410b99	-0.1885208
133	0xbe2ff5b1	-0.17183568
134	0xbdf8c3de	-0.12146734
135	0xbd9cc79b	-0.07655259
136	0xbd81b056	-0.063324615
137	0xbd820660	-0.06348872
138	0xbd9ca0ef	-0.07647883
139	0xbe0b1294	-0.13581306
140	0xbd01c363	-0.031680476
141	0x3be1227a	0.006870565
142	0x3d2d1aa1	0.042261723
143	0xbd6cf432	-0.05785007
144	0xbe1593cb	-0.1460716
145	0xbde42ace	-0.11140977
146	0x3de58ff0	0.112090945
147	0xbdcce340	-0.10004282
148	0xbdb7c91a	-0.08973904
149	0x3d64e2d8	0.055880398
150	0x3c837774	0.01604817
151	0x3d440ae7	0.04786196
152	0x3cb7ed9b	0.022452166
153	0xbe06935b	-0.13142149
154	0xbcc36021	-0.023849549
155	0xbc1f3067	-0.00971613
156	0xbd33fdb6	-0.04394313
157	0xbdda7630	-0.10667074
158	0xbd973e42	-0.073849216
159	0xbe2480c5	-0.16064747
160	0x3c7c61c5	0.015404169
161	0xbe0faac1	-0.14029981
162	0xbd81a592	-0.06330408
163	0xbd13f558	-0.03612265
164	0xbc0c52ee	-0.008564694
165	0xbd893a1f	-0.06700539
166	0xbd7b2960	-0.061318755
167	0xbe11e09d	-0.1424584
168	0xbdcb74c3	-0.0993438
169	0xbd958934	-0.0730156
170	0xbd68aa49	-0.05680302
171	0xbd226a13	-0.03965194
172	0xbd49ead4	-0.049296215
173	0xbda5e1b9	-0.08099694
174	0xbd58c94d	-0.05292635
175	0xbdbb4850	-0.09144652
176	0x3d1d3d07	0.03838828
177	0xbc4610c3	-0.012088957
178	0x3cfe2eea	0.03102823
179	0x3beb69df	0.0071842517
180	0xbe4b6c0f	-0.1986544
181	0xbe521d27	-0.20518933
182	0xbe685833	-0.22689895
183	0xbd5042ba	-0.050844885
184	0x3d678708	0.05652526
185	0x3e090114	0.13379318
186	0xbe28ebea	-0.16496244
187	0xbe37940b	-0.17927568
188	0xbbdee6a2	-0.006802396
189	0x3d42fd8f	0.047605094
190	0xbd7e8eae	-0.06214779
191	0xbb978812	-0.004624375
192	0x3deacb4b	0.11464556
193	0x3e0b9e06	0.136345
194	0x3dee56e3	0.11637666
195	0x3d93ee59	0.072231956
196	0x3d54a6f3	0.051917028
197	0x3d47733e	0.048693888
198	0x3cf6914a	0.030098576
199	0x3be6e008	0.0070457496
200	0x3d297f36	0.041381083
201	0x3b248f14	0.0025109695
202	0xbcb264bf	-0.021776555
203	0x3d761dca	0.060087003
204	0x3c3a5342	0.011372389
205	0x3a3d9be1	0.00072330056
206	0xbd6887db	-0.056770187
207	0xbe940fe0	-0.28918362
208	0xbe6accc1	-0.2292967
209	0xbe4a5912	-0.1976054
210	0xbe14c9bc	-0.1453008
211	0x3cc3bf72	0.023895
212	0xbd18fbd6	-0.037349544
213	0xbd7c9c06	-0.061672233
214	0xbda37416	-0.07981126
215	0xbe322791	-0.17397906
216	0xbd4e7bf3	-0.050411176
217	0xbbd4760c	-0.006483799
218	0xbc95736f	-0.01824352
219	0xbd7844e8	-0.06061259
220	0xbe0f4970	-0.13992858
221	0xbd0f9d92	-0.03506238
222	0xbe2cb2cc	-0.1686508
223	0xbdbdce05	-0.09267811
224	0xbd990e21	-0.07473398
225	0xbdc36379	-0.09540457
226	0xbe3f5bcc	-0.18687361
227	0xbe3f6a28	-0.18692839
228	0x3d07c793	0.033149313
229	0x3c30a2c7	0.010780997
230	0x3c02d168	0.007984497
231	0xbbda9d0f	-0.006671555
232	0xbd88ffc7	-0.06689411
233	0xbc6f3971	-0.014601097
234	0x3d02baa7	0.031916287
235	0x3c166605	0.009179597
236	0xbd1502fb	-0.036379796
237	0x3d4dc3ac	0.050235435
238	0xbaa1583b	-0.001230962
239	0x3d9f3b36	0.077749655
240	0x3df786c7	0.120862536
241	0x3dbef27f	0.09323596
242	0x3dbee985	0.09321884
243	0xbda50fe3	-0.08059671
244	0xbd09814f	-0.033570584
245	0xbc6959c9	-0.014242598
246	0xbdbc24b7	-0.0918669
247	0xbd2c0f05	-0.04200651
248	0xbd415b38	-0.047206134
249	0xbd6663ab	-0.056247395
250	0x3b795d00	0.0038049817
251	0xbd0fdc75	-0.035122354
252	0xbc700632	-0.014649915
253	0xbd2fdf54	-0.04293759
254	0xbe03a770	-0.12856841
255	0xbe480096	-0.19531474

bias f4 [64]
0	0xbe4d31c3	-0.20038514
1	0x3c4313e7	0.011906601
2	0xbe5a6733	-0.2132843
3	0x3e02e7d3	0.12783746
4	0xbd220cef	-0.039563116
5	0xbe36630d	-0.17811222
6	0x3e06daae	0.13169357
7	0xbec56675	-0.3855473
8	0xbe80b84f	-0.25140616
9	0xbe628c06	-0.22123727
10	0x3e22ef26	0.1591154
11	0x3d8e6e99	0.069546886
12	0x3df8cfa7	0.121489815
13	0xbd020b8f	-0.031749304
14	0xbe7d4bd2	-0.24735954
15	0xbe52f0fb	-0.20599739
16	0xbd0ade00	-0.033903122
17	0xbde35b9c	-0.111014575
18	0xbde3d604	-0.111248046
19	0xbe244635	-0.16042407
20	0x3e70ba12	0.2350848
21	0xbe9aba42	-0.30220228
22	0xbe8f7f51	-0.28026822
23	0xbe87317e	-0.26404947
24	0xbd13a55c	-0.03604637
25	0xbdd86d8f	-0.10567772
26	0x3aadb72b	0.0013253441
27	0xbeb30c43	-0.34970292
28	0xbe12800a	-0.14306656
29	0xbe21dce7	-0.15806924
30	0xbe1e9190	-0.15485215
31	0xbe9ce419	-0.30642775
32	0xbe11da53	-0.1424344
33	0xbe58db91	-0.21177508
34	0xbe4f38c6	-0.20236501
35	0x3d839ac1	0.06426001
36	0x3d58ebee	0.052959375
37	0xbdbfc6b8	-0.093640745
38	0xbeaeeb0e	-0.34163707
39	0xbdc23342	-0.09482433
40	0x3e4b300c	0.19842547
41	0xbdf8d20a	-0.12149437
42	0xbe239a0c	-0.15976733
43	0xbddc7a0e	-0.107654676
44	0x3b8f025a	0.004364294
45	0xbe5d2065	-0.21594389
46	0x3c7241b7	0.014786175
47	0xbdc3db61	-0.095633276
48	0x3da6bb6a	0.08141215
49	0x3e4f8eaf	0.20269273
50	0xbd5d5d5e	-0.05404412
51	0xbe6163d4	-0.22010738
52	0x3e20b3d8	0.15693605
53	0x3dcc5c07	0.0997849
54	0xbd8839c4	-0.06651643
55	0xbe02e3be	-0.12782189
56	0x3df4d3fa	0.11954494
57	0xbdda2794	-0.1065208
58	0xbd7296cc	-0.059225842
59	0x3e2cdf50	0.16882062
60	0xbea24c95	-0.31699052
61	0x3e069023	0.13140921
62	0xbb049a54	-0.0020233588
63	0x3daffd37	0.08593219

weight f4 [15, 104, 1, 1]
0	0xbf201ba0	-0.6254215
1	0x3e272c8c	0.16325587
2	0x3e8ce6bc	0.27519786
3	0x3ea4c73e	0.3218326
4	0x3e7f0c5f	0.24907063
5	0x3f160ff4	0.5861809
6	0x3de217a5	0.11039666
7	0x3f0ea474	0.55719686
8	0x3e797757	0.24361931
9	0x3ddb453a	0.10706563
10	0xbfc1f65d	-1.5153309
11	0xbda31890	-0.07963669
12	0xbe48a6c0	-0.1959486
13	0xbf1ccafc	-0.6124723
14	0xbe082f41	-0.13299276
15	0x3e9608ca	0.2930358
16	0xbe4b8520	-0.19875002
17	0xbdc50c58	-0.09621495
18	0xbdc44a9b	-0.09584542
19	0x3d477c11	0.048702303
20	0xbe998cf7	-0.2999036
21	0xbeacfce1	-0.3378668
22	0xbd852d1c	-0.065027446
23	0xbe559cd5	-0.20860608
24	0x3cc54cf7	0.024084551
25	0x3f847008	1.0346689
26	0xbf6246dd	-0.8838938
27	0x3e33a862	0.17544702
28	0x3e384082	0.17993358
29	0x3e3499ab	0.17636745
30	0x3eeab092	0.45837837
31	0x3f18e6a4	0.5972693
32	0x3e74065a	0.23830548
33	0x3eaf7e54	0.34276068
34	0x3e5bcf13	0.21465711
35	0x3e366030	0.1781013
36	0xbfae18b1	-1.3601285
37	0xbe61e8b7	-0.2206143
38	0xbe21166a	-0.15731207
39	0xbf1851ed	-0.5950001
40	0x3d89df61	0.06732059
41	0x3eb840dd	0.35986987
42	0xbdad4a21	-0.084614046
43	0xbe1b86c0	-0.15188122
44	0x3ca02db5	0.019553045
45	0xbdbd66d9	-0.09248132
46	0xbe3d742a	-0.18501344
47	0xbef88475	-0.48538557
48	0xbc06fa56	-0.008238396
49	0xbe8686d3	-0.26274738
50	0x3cb78d88	0.022406355
51	0x3f53cfc6	0.8273891
52	0xbf8d2de0	-1.1029625
53	0x3e8bf5b0	0.27335882
54	0x3e3d55e4	0.18489796
55	0x3ea9fbfe	0.33200067
56	0x3ec20353	0.3789316
57	0x3f239a93	0.63907737
58	0xbe4400c4	-0.19140917
59	0x3ef5c0ac	0.4799856
60	0x3e2dee5e	0.16985461
61	0x3ecd61a7	0.40113565
62	0xbf9d47f1	-1.228758
63	0xbe740490	-0.23829865
64	0xbe4f096f	-0.20218442
65	0xbecb6589	-0.39725903
66	0x3de4687d	0.11152742
67	0x3ea18370	0.3154559
68	0xbe27b373	-0.16377048
69	0x3db70e64	0.08938292
70	0xbd502979	-0.0508208
71	0xbd6953ce	-0.056964688
72	0xbd60d951	-0.05489475
73	0xbedf92e5	-0.4366676
74	0xbd02f8e8	-0.031975657
75	0xbceb2e03	-0.028708464
76	0xbd722bca	-0.05912379
77	0x3f3f126f	0.746375
78	0xbfb68e42	-1.4262164
79	0xbbc431a3	-0.0059873625
80	0x3d7c6f04	0.06162931
81	0x3eb7084b	0.35748515
82	0x3ee7b398	0.45254207
83	0x3f044309	0.5166479
84	0x3c373e9c	0.011184361
85	0x3efff1de	0.49989218
86	0x3e01f24e	0.12690088
87	0x3eb53e8a	0.35399276
88	0xbfbc8c03	-1.4730228
89	0xbda2f057	-0.079559974
90	0xbd125d85	-0.03573372
91	0xbf060c1e	-0.5236224
92	0x3babae6e	0.0052392995
93	0x3e6f6551	0.23378493
94	0x3ea68b7a	0.32528287
95	0x3d1677d7	0.036735382
96	0x3d6c03df	0.05762088
97	0xbd6b0d6a	-0.05738584
98	0xbe544ace	-0.2073166
99	0xbf9084f0	-1.1290569
100	0x3da39160	0.079867125
101	0xbe469c5e	-0.19395587
102	0x3e69d782	0.22836116
103	0x3f794898	0.97376394
104	0x3f18ca16	0.5968336
105	0x3eef46db	0.46733746
106	0x3f0c1547	0.54719967
107	0xbf0baead	-0.5456341
108	0x3d553224	0.05204977
109	0xbe847119	-0.25867537
110	0xbd8af29c	-0.06784555
111	0xbf2b8c11	-0.670106
112	0xbe831664	-0.2560302
113	0xbe8de3bd	-0.27712813
114	0x3d80f92d	0.062975265
115	0x3f05398e	0.52040946
116	0x3eeeef2f	0.46666858
117	0x3d7eff46	0.062255166
118	0xbe7e4560	-0.24831152
119	0xbd630fc1	-0.055434946
120	0x3d4f38e8	0.05059138
121	0x3eeb997c	0.46015537
122	0x3e9249f3	0.28572044
123	0xbe238bcc	-0.15971297
124	0x3f0b4d04	0.5441439
125	0x3f923a74	1.1424088
126	0x3e33bb7f	0.17551993
127	0xbd70106a	-0.058609404
128	0xbd0378cd	-0.032097626
129	0xbf2ea0e6	-0.6821426
130	0x3f275072	0.65357125
131	0x3ee24e66	0.44200438
132	0x3ecd3eb0	0.4008689
133	0xbf2add5f	-0.66744035
134	0x3deab804	0.114608794
135	0xbebd4411	-0.36965993
136	0xbdea1c4c	-0.114311785
137	0xbf34cdb2	-0.70626366
138	0xbe205d0e	-0.15660498
139	0xbed088eb	-0.4072946
140	0x3e656380	0.22401237
141	0x3f5990d2	0.84986603
142	0x3f071c5f	0.52777666
143	0xbdab8552	-0.08375038
144	0xbeac7d66	-0.3368942
145	0x396135ca	0.0002147771
146	0xbe1402d3	-0.14454202
147	0x3e84af09	0.2591479
148	0x3e4ea44b	0.2017986
149	0xbc8501c3	-0.016236192
150	0x3ed0603f	0.4069843
151	0x3fa25e94	1.2685113
152	0x3e1b3f19	0.15160789
153	0xbdba72b9	-0.09103913
154	0xbcab183e	-0.020885583
155	0xbf1b830d	-0.6074684
156	0x3f91ad82	1.1381075
157	0x3ededb97	0.4352691
158	0x3f134fe6	0.5754379
159	0xbf135182	-0.57546246
160	0x3de6eb62	0.112753645
161	0xbe5f0e4b	-0.21782796
162	0xbca514a0	-0.020151436
163	0xbf4b1927	-0.79335254
164	0xbd6757a7	-0.056480076
165	0xbe90ed4f	-0.28306052
166	0x3d89d83e	0.06730698
167	0x3f374b44	0.7159922
168	0x3eb7dc72	0.35910374
169	0xbdc6f356	-0.097143814
170	0xbe88c23b	-0.26710686
171	0xbd2ff8e0	-0.042961955
172	0xbf247d87	-0.6425404
173	0x3e745288	0.23859608
174	0x3e2a68f6	0.16641602
175	0xbcc376e2	-0.023860399
176	0x3f473a11	0.7782298
177	0x3fe77639	1.8082954
178	0x3df2af6e	0.11849867
179	0xbdf61530	-0.1201576
180	0x3c98dbcb	0.018659493
181	0xbf1fd114	-0.624284
182	0x3fd31b03	1.6492618
183	0x3eb997ab	0.36248526
184	0x3eedf455	0.46475473
185	0xbef58fe1	-0.47961333
186	0xba99efc3	-0.0011744428
187	0xbe192fda	-0.1495966
188	0x3e2ee973	0.17081241
189	0xbf52971a	-0.8226181
190	0x3e05b689	0.13057913
191	0xbe6c3cc5	-0.23070057
192	0x3e37989f	0.17929314
193	0x3f58afac	0.84643054
194	0x3f4258e7	0.75916904
195	0xbe82f4ca	-0.25577384
196	0xbe93b93a	-0.28852254
197	0x3cacafb5	0.021079877
198	0xbfb2e4d4	-1.3976083
199	0x3e35eb23	0.17765479
200	0x3e6b6026	0.22985896
201	0xbd9fb87a	-0.07798858
202	0x3f4ace53	0.79221076
203	0x4033b0cf	2.8076665
204	0x3d4cfd06	0.05004599
205	0xbe472fbe	-0.19451806
206	0x3bcf8845	0.0063333833
207	0xbf0ac249	-0.54202706
208	0xbe9534a8	-0.29141736
209	0x3c152654	0.009103376
210	0xbdc66155	-0.09686533
211	0xbe319a52	-0.17344025
212	0xbdb1dee5	-0.08685092
213	0xbe98d55d	-0.29850283
214	0xbe213ef9	-0.15746678
215	0xbebc91ea	-0.36830074
216	0xbebccebc	-0.36876476
217	0xbe485629	-0.19564117
218	0xbd806dab	-0.062709175
219	0xbcfc9335	-0.030831913
220	0xbe13bdfb	-0.1442794
221	0xbe82aac6	-0.25520915
222	0xbdb609e4	-0.08888605
223	0xbf5c0a06	-0.85952795
224	0xbe4268ec	-0.18985337
225	0x3d2dee0e	0.042463355
226	0x3d87b488	0.066262305
227	0x3e602c25	0.2189184
228	0x3d1ddf86	0.038543247
229	0xbea33c21	-0.31881812
230	0xbcffc752	-0.031222973
231	0xbc962e87	-0.018332733
232	0xbca64024	-0.020294257
233	0xbf13fb56	-0.57805383
234	0xbf0dde23	-0.5541708
235	0x3d6e5a23	0.05819143
236	0xbe5dd21a	-0.21662179
237	0xbdd38a8b	-0.10329159
238	0xbdafce34	-0.08584252
239	0xbdb27780	-0.08714199
240	0xbcb99a6f	-0.022656647
241	0xbe0d4255	-0.13794835
242	0xbe88ad37	-0.26694652
243	0xbde67f30	-0.11254728
244	0xbdbb352b	-0.09141
245	0xbe2ce0ea	-0.16882673
246	0xbe3a108e	-0.18170378
247	0xbe48bb36	-0.19602665
248	0xbdb26707	-0.08711057
249	0xbf12754c	-0.5721023
250	0x3a4b41c0	0.0007753633
251	0x3d13ae4d	0.036054898
252	0xbd086093	-0.033295225
253	0x3d8a31ce	0.06747781
254	0xbe81d187	-0.2535517
255	0xbe9ab9fe	-0.30220026

bias f4 [15]
0	0xbe1b17ab	-0.15145747
1	0x3d3712cc	0.04469566
2	0xbec51729	-0.38494232
3	0xbe16bb22	-0.14719823
4	0x3eae9196	0.34095448
5	0x3ec425e7	0.38310167
6	0xbef512c5	-0.47865883
7	0x3e978b33	0.29598388
8	0xbda9ffec	-0.08300766
9	0x3f5954ec	0.84895205
10	0x3e1e777a	0.15475264
11	0x3e1a5126	0.15070018
12	0xbd5e4db7	-0.054273333
13	0xbe1aa3a4	-0.15101486
14	0xbd931167	-0.071810536

weight f4 [19, 79, 3, 3]
0	0x3cfac9ab	0.03061374
1	0xbd137128	-0.035996586
2	0xbd54bf7b	-0.051940423
3	0xbd8a92ed	-0.06766305
4	0xbd38c385	-0.045108337
5	0xbdfe60cc	-0.12420806
6	0xbc509dab	-0.0127329035
7	0xbda1d921	-0.07902742
8	0xbdafd325	-0.085851945
9	0xbdc09561	-0.09403492
10	0xbd9e83d5	-0.07739989
11	0x3c23a3a7	0.009987748
12	0x3c7e762b	0.015531103
13	0x3c53efed	0.012935621
14	0x3c80d70e	0.015727546
15	0xbd9b7367	-0.075903706
16	0xbd2306f1	-0.03980154
17	0xbd7a2eac	-0.061079666
18	0x3cad56b7	0.021159513
19	0x3d473a77	0.04863974
20	0x3d8caf79	0.06869406
21	0x3d11b670	0.035574377
22	0x3d88f1db	0.06686755
23	0x3c330aa7	0.010927833
24	0x3d9a0ce5	0.07521991
25	0x3c5f3a09	0.0136246765
26	0x3db9c84e	0.09071408
27	0xbe3552e0	-0.17707396
28	0xbdd27cc9	-0.10277707
29	0x3d9d4040	0.0767827
30	0xbd9394db	-0.07206126
31	0xbd8d9abb	-0.06914278
32	0xbd91fd04	-0.07128337
33	0x3d0d2bcb	0.034465592
34	0xbcdfd099	-0.027321147
35	0xbc7a9c78	-0.015296094
36	0xbd93e90c	-0.072221845
37	0xbcd7d0e5	-0.026344726
38	0xbe827e78	-0.25487113
39	0x3e2489ee	0.16068241
40	0x3e36b3b9	0.17841996
41	0xbd8827fd	-0.06648252
42	0x3e34d21e	0.17658278
43	0x3d66fc27	0.056392815
44	0xbe1ccf9e	-0.15313575
45	0xbd7b7f31	-0.061400596
46	0xbd9321f9	-0.07184214
47	0xbd407c92	-0.0469938
48	0xbd83e9ae	-0.06441055
49	0xbd32fa37	-0.043695655
50	0x3c92347c	0.017847292
51	0x3cce72e6	0.025201272
52	0xbcd44bfe	-0.025915142
53	0x3c025aaa	0.007956186
54	0x3d9c7f95	0.07641522
55	0x3dcb1c69	0.09917528
56	0xbd53aad0	-0.05167657
57	0x3e757835	0.23971637
58	0x3e3f329f	0.18671654
59	0x3ddc7118	0.107637584
60	0x3e918f3f	0.284296
61	0x3e33901b	0.1753544
62	0x3be015b4	0.0068385247
63	0x3d84d8c3	0.064866565
64	0x3e292032	0.16516188
65	0x3e02c989	0.12772192
66	0xbdfa0c8c	-0.122094244
67	0x3d5303c2	0.051517256
68	0xbcf0fd59	-0.02941768
69	0xbe263da9	-0.16234459
70	0xbde10cc1	-0.10988761
71	0xbe1ff4d6	-0.15620741
72	0x3d9233b7	0.0713877
73	0x3d20a3c2	0.03921867
74	0x3ac78201	0.0015221239
75	0x3daa9df9	0.08330912
76	0xbc51bb03	-0.012800935
77	0xbcb656f7	-0.022258265
78	0x3ce251c5	0.027626881
79	0x3d899999	0.067187496
80	0xbc34f1a7	-0.0110439425
81	0x3dcc5968	0.099779904
82	0x3d6b6cd6	0.05747684
83	0x3dfa3673	0.122174166
84	0xbcd8e477	-0.026476128
85	0xbcf2e9b8	-0.029652461
86	0xbb0074e4	-0.0019600922
87	0xbd7dc675	-0.06195684
88	0xbc58f934	-0.013243008
89	0xbd9c1845	-0.076218165
90	0xbe2a30ad	-0.16620131
91	0xbda7b395	-0.081885494
92	0xbe7d0a0b	-0.24710862
93	0xbe27cb23	-0.16386084
94	0x3cb41e8b	0.02198722
95	0xbe18a502	-0.14906695
96	0xbe22691b	-0.15860407
97	0xbda21c1a	-0.07915516
98	0xbe0ac132	-0.1355026
99	0xbe2958a6	-0.16537723
100	0xbde22c8d	-0.11043654
101	0xbd3b47db	-0.045722824
102	0xbdcf1be5	-0.10112742
103	0xbc8b516b	-0.017006597
104	0x3be45211	0.006967791
105	0xbe33f1e0	-0.17572737
106	0xbdbcc197	-0.09216612
107	0x3d74ffbb	0.059814196
108	0xbe950dab	-0.2911199
109	0xbe612923	-0.21988349
110	0xbec19b13	-0.37813625
111	0xbc9b1277	-0.018929703
112	0xba7834b5	-0.0009468303
113	0xbe40b070	-0.18817306
114	0xbdcc2ace	-0.09969102
115	0xbda9c79c	-0.082900256
116	0xbe8babcb	-0.27279505
117	0xbca443c0	-0.020051837
118	0x3d86a172	0.06573762
119	0x3d947625	0.07249097
120	0x3d63a79b	0.055579763
121	0x3d68d539	0.05684397
122	0x3d0bff3e	0.034178965
123	0xbe422ac2	-0.18961623
124	0xbc2b1d91	-0.010444061
125	0x3b97b40a	0.0046296166
126	0x3e3b096e	0.18265316
127	0x3df948dd	0.12172101
128	0x3baecca0	0.005334452
129	0xbb426dfe	-0.0029667611
130	0xbcd28425	-0.025697777
131	0xbe2d1254	-0.16901523
132	0xbdba0469	-0.090828724
133	0x3cda98cb	0.026684185
134	0xbde2d9bf	-0.11076688
135	0xb8cad62f	-9.6720054e-05
136	0xbe114dd5	-0.14189847
137	0xbe04a87f	-0.12954901
138	0x3d924efd	0.07143972
139	0xbd32892e	-0.043587856
140	0xbd8b9690	-0.06815827
141	0x3b4f1a15	0.003160124
142	0xbd26796b	-0.040643137
143	0x3c388cf6	0.011264076
144	0x3e037758	0.12838495
145	0x3e0274a8	0.12739813
146	0xbc634bce	-0.013873054
147	0x3d6918ec	0.056908533
148	0x3e822d24	0.25425065
149	0x3e4e5980	0.20151329
150	0x3e0c284e	0.1368725
151	0x3e6a6137	0.22888647
152	0x3e4a4871	0.19754197
153	0x3d4e3c82	0.050350673
154	0xbcf9089d	-0.030399615
155	0x3d10e8bf	0.035378214
156	0xbd87b5ed	-0.066264965
157	0xbdc8413f	-0.0977807
158	0xbd1d896c	-0.038461134
159	0x3c2357c7	0.009969658
160	0xbde1f1eb	-0.1103247
161	0xbe2f99c1	-0.17148496
162	0x3e77925b	0.24176924
163	0x3e6c9745	0.2310458
164	0x3d5d0e26	0.05396857
165	0x3e5bacad	0.2145259
166	0x3e509b4f	0.20371746
167	0x3de36e09	0.11104972
168	0xbd9b79ac	-0.075915664
169	0xbd9755b8	-0.073893964
170	0xbe06c6a7	-0.13161717
171	0xbdab92ba	-0.08377595
172	0xbd9a3de6	-0.075313374
173	0xbd60f533	-0.05492134
174	0xbaffe105	-0.0019522017
175	0x3d06b494	0.032887056
176	0xbdbbad71	-0.09163941
177	0x3df2323f	0.1182599
178	0x3d210bff	0.03931808
179	0xbd8cf8c5	-0.068833865
180	0x3c480412	0.012208002
181	0x3c59a2a3	0.0132834045
182	0xbd25faeb	-0.040522497
183	0x3e7fc50d	0.24977513
184	0x3ea7943c	0.3273028
185	0x3dd69779	0.1047811
186	0x3db92a65	0.09041289
187	0xbd6750be	-0.056473486
188	0xbe192433	-0.14955215
189	0x3d196d1f	0.03745758
190	0x3d2bfd68	0.041989714
191	0x3d1c3872	0.038139768
192	0xbc29405f	-0.010330289
193	0xbdcfe1cd	-0.1015049
194	0xbd8782da	-0.06616755
195	0x3c097622	0.008389981
196	0xbd766ec1	-0.060164217
197	0xbdcfb019	-0.1014101
198	0x3ae36287	0.0017348089
199	0xbcb3d440	-0.021951795
200	0x3c5072cf	0.012722685
201	0xbdaa6aa9	-0.08321125
202	0xbd33bf4c	-0.043883607
203	0xbd23f106	-0.04002478
204	0x3c9e2090	0.019302636
205	0xbcda884b	-0.026676318
206	0x3d13f785	0.036124725
207	0x3e9d0c90	0.30673647
208	0x3ea39bc7	0.31954786
209	0x3e6ac9bd	0.2292852
210	0x3edf8734	0.4365784
211	0x3e7550db	0.23956625
212	0x3e9e03c0	0.30862236
213	0x3d714b94	0.058909968
214	0x3e32df2e	0.17467949
215	0x3d052703	0.032507908
216	0xbe522362	-0.2052131
217	0xbe68da92	-0.22739628
218	0xbdc7d111	-0.09756673
219	0x3e4c9f7c	0.19982713
220	0x3e2354f5	0.15950377
221	0x3e3378a3	0.17526488
222	0xbdae3e21	-0.08507944
223	0xbd902308	-0.07037932
224	0xbdc10984	-0.09425643
225	0x3cf0b648	0.029383793
226	0x3d262fe2	0.04057301
227	0x3c0ea7e4	0.00870702
228	0x3cb19f46	0.021682393
229	0xbd473f59	-0.048644397
230	0xbd40923b	-0.047014456
231	0x3da78014	0.08178726
232	0x3d8957ed	0.06706224
233	0xbc6898ba	-0.014196569
234	0xbaf1b062	-0.0018439407
235	0x3dc822a6	0.09772234
236	0x3d0ac67c	0.033880696
237	0x3d45b5c9	0.048269067
238	0xbd14efcf	-0.03636151
239	0xbcd5234e	-0.026017811
240	0x3d966362	0.073431745
241	0x3ca3804b	0.019958636
242	0xbcb67c07	-0.022275938
243	0x3de77e49	0.11303384
244	0x3d8e300d	0.06942759
245	0x3d8595ad	0.06522689
246	0x3dd19f71	0.10235489
247	0x3d10e2b2	0.035372443
248	0xbd685223	-0.056718957
249	0x3ca5dd78	0.020247206
250	0xbe13d4bf	-0.14436625
251	0xbd9a1cd4	-0.0752503
252	0xbc945916	-0.018108886
253	0xbda81f72	-0.08209123
254	0xbc0beb44	-0.008539978
255	0xbc5569e8	-0.013025738

bias f4 [19]
0	0x3f68bfec	0.9091785
1	0x3f051b50	0.519948
2	0xbd43d5ae	-0.047811203
3	0x3ef3f9bb	0.47651467
4	0x3f125bb6	0.5717119
5	0x3f122b2f	0.5709714
6	0x3f2f037b	0.68364686
7	0xbd553171	-0.052049104
8	0x3ed2d5ac	0.41178644
9	0x3f0f1a58	0.5589957
10	0x3eb60eb2	0.35558087
11	0x3f2c2698	0.6724639
12	0x3f0bc9ac	0.546046
13	0xbd4af2fb	-0.04954813
14	0xbcba3f9d	-0.022735411
15	0xbe9fdad5	-0.31221643
16	0x3d04ad75	0.032391984
17	0x3f0a128e	0.5393456
18	0x3edf6299	0.43629912

weight f4 [8, 79, 1, 1]
0	0x3f2018b8	0.6253772
1	0xbd139fa5	-0.03604092
2	0xbd699c60	-0.057033896
3	0x3df72d3b	0.12069174
4	0xbda22786	-0.07917695
5	0xbb01c28c	-0.0019799797
6	0x3d1b80ba	0.03796456
7	0xbe6a7696	-0.228968
8	0xbdc1820c	-0.094486326
9	0xbe2d3699	-0.16915359
10	0x3ced69f6	0.02898119
11	0x3d60177b	0.054709893
12	0x3dd26cba	0.10274644
13	0xbe33b16b	-0.17548148
14	0x3d16da3c	0.03682922
15	0xbd99bffe	-0.07507323
16	0x3e138369	0.14405598
17	0x3dcf0c43	0.101097606
18	0x3dd85338	0.10562748
19	0xbd25d84b	-0.040489476
20	0xbcfe71cf	-0.031060128
21	0x3d9e8f52	0.0774218
22	0x3d276e4b	0.040876668
23	0xbe18f295	-0.14936288
24	0x3da918d8	0.08256692
25	0xbd30b338	-0.043139666
26	0x3ddc11c1	0.10745574
27	0xbe0e74be	-0.13911721
28	0xbd469e22	-0.04849065
29	0xbe2469b1	-0.16055943
30	0xbcb839fd	-0.022488588
31	0xba1cfd13	-0.0005988639
32	0x3c8ba329	0.017045574
33	0xbd327ed0	-0.04357797
34	0xbe07ad74	-0.13249761
35	0x3dc81e2d	0.097713806
36	0xbe5c55e5	-0.21517141
37	0xbdd306c5	-0.103040256
38	0xbc36c677	-0.011155716
39	0xbe543482	-0.20723155
40	0x3d86b208	0.065769255
41	0xbe0146f4	-0.12624723
42	0xbcfcca0f	-0.030858068
43	0x3dc99727	0.09843283
44	0xbe1a5397	-0.1507095
45	0xbcf729f9	-0.030171381
46	0x3ce86190	0.028366834
47	0x3c364479	0.011124724
48	0x3e131282	0.14362529
49	0xbbc62584	-0.0060469527
50	0xbc2b58c9	-0.01045818
51	0x3ba6d94c	0.005091822
52	0xbe7a8011	-0.24462916
53	0xbdb9e43a	-0.09076734
54	0x3d8c7da4	0.068599015
55	0x3d972804	0.07380679
56	0x3e3bc0d7	0.18335281
57	0x3c8d6dd5	0.017264286
58	0xbe089e58	-0.13341653
59	0xbc22b33e	-0.00993043
60	0xbde8fbe0	-0.11376166
61	0xbea51399	-0.32241514
62	0x3d00f11d	0.031479944
63	0xbe1d261b	-0.15346567
64	0xbe39dbc2	-0.18150237
65	0xbdb7377c	-0.0894613
66	0xbd9d563b	-0.07682463
67	0xbd48aa99	-0.04899082
68	0x3d78d4eb	0.06074993
69	0x3e0d224b	0.13782613
70	0xbe23e2eb	-0.16004531
71	0xbe71e025	-0.2362066
72	0xbd614932	-0.055001445
73	0x3e314523	0.1731153
74	0x3d48728e	0.048937373
75	0xbd29fb12	-0.041499205
76	0xbd395402	-0.04524613
77	0x3bb18546	0.0054174988
78	0x3c348d4b	0.011020015
79	0xbdfcad95	-0.12337796
80	0x3f4e2212	0.8052074
81	0xbdddec9f	-0.108361475
82	0xbd16369d	-0.036673177
83	0xbdb6d758	-0.08927792
84	0xbd90c5a8	-0.0706895
85	0x3e896b9d	0.26839915
86	0xbe0fbeaa	-0.14037576
87	0xbe216981	-0.15762903
88	0xbd17e429	-0.037082825
89	0xbdff2c3c	-0.12459609
90	0xbe00f725	-0.12594278
91	0x3d09ba84	0.03362514
92	0x3d5ea6a1	0.05435813
93	0x3df70b1e	0.12062667
94	0xbe00a810	-0.12564111
95	0xbd99db7c	-0.075125664
96	0xbd13ba06	-0.036066078
97	0xbd96680e	-0.073440656
98	0xbe2e91d8	-0.17047822
99	0xbdb1ddb0	-0.08684862
100	0x3e1de799	0.15420379
101	0xbc6e46ff	-0.014543294
102	0xbdff3630	-0.12461507
103	0xbe26d91e	-0.16293761
104	0x3c8ee92d	0.017445171
105	0x3dc1ea17	0.09468477
106	0x3e2a6c6f	0.16642927
107	0x3e940da4	0.28916657
108	0xbddeec68	-0.10884935
109	0xbdbb935f	-0.09158968
110	0xbd8a5cc6	-0.067559764
111	0x3dcfdd45	0.10149626
112	0x3c822165	0.015885064
113	0xbec85d9e	-0.39133924
114	0xbe1e7fc5	-0.15478428
115	0xbe5530bc	-0.20819372
116	0x3cf7f4e9	0.03026815
117	0xb9f5d38e	-0.00046887662
118	0xbe3abe7c	-0.18236727
119	0x3dc9dc25	0.09856442
120	0xbe58cefb	-0.21172707
121	0xbe097f13	-0.13427381
122	0xbe28f5c6	-0.16500005
123	0xbc70444d	-0.014664722
124	0x3c490e90	0.012271538
125	0x3dfee80f	0.124466054
126	0xbe4ba8f1	-0.19888665
127	0xbda351b9	-0.07974572
128	0xbbc85c57	-0.0061145234
129	0x3cf7439c	0.030183606
130	0xbc56d4c8	-0.013112254
131	0xbcc57a55	-0.024106184
132	0xbf09a9cd	-0.5377472
133	0x3dea1fdc	0.11431858
134	0xbda26745	-0.07929853
135	0x3e86ab1a	0.26302415
136	0x3c07f6aa	0.008298555
137	0xbd8de10e	-0.069276914
138	0x3d87ecbf	0.066369526
139	0xbdec2ce9	-0.115320034
140	0xbe9c8609	-0.3057101
141	0xbe15bb95	-0.14622338
142	0xbca01ce3	-0.019545024
143	0xbe1fd661	-0.15609123
144	0x3ca4620d	0.020066286
145	0x3a852588	0.001015828
146	0xbdc084ef	-0.09400355
147	0x3e8f5837	0.2799699
148	0x3de66957	0.11250561
149	0x3e380d70	0.17973876
150	0x3c6dccce	0.014514161
151	0x3ca8747e	0.02056336
152	0x3db5a6ee	0.0886973
153	0x3ebf34b5	0.373449
154	0xbdab7cce	-0.08373414
155	0x3c0db364	0.008648727
156	0x3c9cf975	0.01916192
157	0xbee62387	-0.4494898
158	0xbc699400	-0.014256477
159	0xbd84546f	-0.06461417
160	0x3f73da38	0.9525485
161	0x3cde34c3	0.027124768
162	0x3e0f0a31	0.13968731
163	0x3d5e1121	0.054215554
164	0x3e7a0508	0.24415982
165	0x3c787f32	0.0151670445
166	0xbda004ff	-0.07813453
167	0xbd1752cd	-0.0369442
168	0xbb7418cd	-0.0037246228
169	0xbe06b224	-0.13153893
170	0xbd1cc632	-0.03827495
171	0xbdf01a74	-0.117237955
172	0x3cf23204	0.029564865
173	0x3d818382	0.06323911
174	0x3d345afb	0.04403208
175	0xbe553317	-0.2082027
176	0xbd1a0229	-0.037599716
177	0xbe06501f	-0.13116501
178	0xbd8e9b9e	-0.069632754
179	0xbde524ae	-0.11188637
180	0xbdb1bf85	-0.086791076
181	0xbe197fcd	-0.14990158
182	0xbdb76435	-0.0895466
183	0x3d9b8594	0.075938374
184	0xbd023f43	-0.031798612
185	0x3e2c6f42	0.16839316
186	0xbda7c914	-0.081926495
187	0x3cb6e2fa	0.022325028
188	0xbcd5edd0	-0.026114374
189	0xbdfe5201	-0.12417985
190	0xbc1bc4ad	-0.00950734
191	0xbe6bb632	-0.23018721
192	0x3ccb5ede	0.02482551
193	0x3db9e867	0.0907753
194	0xbcbcac36	-0.023031335
195	0xbdadd35d	-0.0848758
196	0xbc9ee1a7	-0.019394709
197	0x3d1c46ec	0.038153574
198	0xbdd2a653	-0.1028563
199	0xbdb44c3e	-0.088036045
200	0xbd39b67f	-0.045340057
201	0x3d5dd4db	0.054158073
202	0x3d533aba	0.051569678
203	0xbe96721e	-0.2938394
204	0xbce0cd17	-0.027441544
205	0xbc004bb1	-0.007830546
206	0xbe07c36f	-0.13258146
207	0xbdee1c84	-0.11626533
208	0xbdc35f33	-0.09539642
209	0xbd24f03f	-0.04026818
210	0x3daced06	0.08443646
211	0xbe6d9681	-0.23201944
212	0xbc9ffb73	-0.01952908
213	0x3e0e0d2a	0.13872209
214	0x3d7cd629	0.061727677
215	0xbd15f0cc	-0.036606595
216	0xbe4b9088	-0.19879353
217	0xbe1594cf	-0.14607547
218	0xbba05dbf	-0.004893988
219	0x3d7d0764	0.061774626
220	0x3cfb4b21	0.030675473
221	0xbd883f7f	-0.06652736
222	0x3b0fc876	0.0021939552
223	0xbe4119d7	-0.18857513
224	0xbd82ea44	-0.06392339
225	0x3cc4426d	0.023957456
226	0x3e4328d9	0.19058551
227	0x3cdd3d73	0.02700684
228	0xbf0b2c6f	-0.54364675
229	0x3d48cfe2	0.049026377
230	0xbe1e5bc8	-0.154647
231	0xbe9aedfd	-0.30259696
232	0x3e8fab45	0.28060356
233	0x3e7520c4	0.2393828
234	0xbe2548d6	-0.16141066
235	0xbe291072	-0.1651018
236	0xbe4b1107	-0.19830714
237	0xbdc496e6	-0.09599094
238	0xbc50ffed	-0.01275633
239	0xbb8151ca	-0.0039465176
240	0x3e9a5651	0.3014398
241	0xbd39165a	-0.04518733
242	0xbcf2f8a7	-0.029659582
243	0xbd0153f0	-0.03157419
244	0xbe158aa7	-0.14603673
245	0xbd71fefa	-0.059081055
246	0xbc046d9b	-0.008082773
247	0xbd349f0d	-0.044096995
248	0xbd6e4400	-0.05817032
249	0xbd3d99f8	-0.046289414
250	0xbd188cba	-0.037243582
251	0xbcbb7388	-0.022882238
252	0xbc04cb86	-0.008105164
253	0x3c085e9f	0.008323341
254	0x3aa6156c	0.0012671179
255	0xbd867f23	-0.06567218

bias f4 [8]
0	0x3e94d2a0	0.29066944
1	0xbdf7b916	-0.12095849
2	0xbe87c583	-0.26517877
3	0xbeb49485	-0.3526956
4	0x3e5e2c76	0.21696648
5	0xbe6d7071	-0.23187424
6	0xbb982d07	-0.0046440396
7	0x3f1122e0	0.5669384

weight f4 [1, 8, 20, 20]
0	0xbd6c1025	-0.057632584
1	0xbe14a33e	-0.14515397
2	0xbdb2c6ca	-0.08729322
3	0xbd4916a8	-0.049093872
4	0x3e1b189d	0.15146108
5	0xbad824f6	-0.0016490507
6	0x3cc836a4	0.024440117
7	0xbd8e115e	-0.06936906
8	0xbc238414	-0.00998022
9	0x3e1eeb8c	0.15519542
10	0x3d33ed3e	0.043927424
11	0x3be05d41	0.006847054
12	0x3de96968	0.11397058
13	0x3e9a752d	0.30167523
14	0x3e88520b	0.26625094
15	0x3e0b8095	0.13623269
16	0x3dae2f3f	0.08505105
17	0x3e2c9f8a	0.16857734
18	0x3df43ed8	0.11926049
19	0x3e50c277	0.20386682
20	0xbb2e74bf	-0.002661988
21	0xbc59e56a	-0.0132993255
22	0x3dd8f8fa	0.105943635
23	0x3dd55ed6	0.10418479
24	0x3e6f9be1	0.23399307
25	0x3dff36e2	0.1246164
26	0x3e1b0131	0.15137173
27	0x3bb74e1b	0.0055940277
28	0x3c9681c2	0.01837242
29	0x3e8b3265	0.27186885
30	0x3e1e7a58	0.15476358
31	0x3dd04e25	0.10171155
32	0x3e33f8ee	0.17575428
33	0x3e9bf11d	0.30457392
34	0x3e68eb5b	0.22746031
35	0x3e3e2896	0.1857017
36	0x3e16e6c9	0.14736475
37	0x3e4263b2	0.18983343
38	0x3d62bf6a	0.055358328
39	0x3d86e479	0.065865465
40	0xbd8e6de1	-0.069545515
41	0xbce55307	-0.027993692
42	0xbc802a19	-0.015645074
43	0xbe1bb20e	-0.15204641
44	0xbd0edbf0	-0.034877717
45	0x3d1ef17b	0.038804512
46	0x3d97bd03	0.07409098
47	0xbc76bce7	-0.015059686
48	0xbbb7a762	-0.0056046704
49	0x3d8ee9c0	0.06978178
50	0x3d8f21aa	0.06988843
51	0x3d8e99cd	0.06962929
52	0x3cf40824	0.029789038
53	0x3e48d6cc	0.19613189
54	0xbdc9951e	-0.09842895
55	0x3cb6a4d8	0.0222954
56	0x3d85c2a9	0.06531269
57	0x3db56dc8	0.0885883
58	0xbbdb05e1	-0.0066840504
59	0x3d5fc182	0.054627903
60	0x3d86271a	0.06550427
61	0x3e053990	0.1301024
62	0x3dcfcd48	0.10146576
63	0x3db3fc04	0.087883025
64	0x3e083c5e	0.13304278
65	0x3d56fab9	0.0524852
66	0x3d000077	0.031250443
67	0xbdad294a	-0.08455141
68	0xbd669b3c	-0.056300387
69	0x3cc5fd61	0.024168672
70	0x3e6dbc7f	0.23216437
71	0x3e625ce0	0.22105742
72	0x3e2845b7	0.16432844
73	0x3de68b27	0.1125701
74	0xbe30c53e	-0.17262742
75	0xbd315805	-0.043296833
76	0xbbc8815c	-0.0061189365
77	0x3de2a964	0.11067465
78	0x3d9f121d	0.07767127
79	0x3e186cde	0.1488528
80	0xbdd59301	-0.104284294
81	0x3d926686	0.07148461
82	0x3d50206a	0.050812162
83	0x3e5ede45	0.21764477
84	0x3e19a1f4	0.15003186
85	0x3d7de1a7	0.061982777
86	0x3e57660b	0.2103502
87	0x3e12443c	0.14283842
88	0x3e274395	0.16334374
89	0xbc69d4e7	-0.014271951
90	0x3d9c8239	0.076420255
91	0x3d447f4b	0.04797296
92	0x3e20f7c5	0.15719517
93	0x3de222c5	0.11041788
94	0xbd071527	-0.032979157
95	0xbc01dae3	-0.007925722
96	0xbdd09a29	-0.10185654
97	0x3d721cd4	0.059109524
98	0x3ceb49b2	0.028721664
99	0x3e4a4094	0.19751197
100	0xbd8cf885	-0.06883339
101	0xb9ff5b2e	-0.00048705324
102	0x3c1f7457	0.009732327
103	0x3ccef703	0.025264269
104	0xbc983ba0	-0.018583119
105	0x3ae51539	0.0017477638
106	0x3d84a0ad	0.06475959
107	0x3db99273	0.09061136
108	0x3e0e787c	0.13913149
109	0x3d355cd6	0.04427799
110	0x3d4c180d	0.049827624
111	0x3daf0e21	0.08547617
112	0x3e9840ab	0.29736838
113	0x3d963089	0.07333476
114	0x3d4f597e	0.050622456
115	0xbd21bd8d	-0.03948741
116	0x3d83f2a0	0.064427614
117	0x3dc12ed3	0.09432759
118	0x3ceeb879	0.029140698
119	0x3dda07b5	0.10646001
120	0xbd623371	-0.05522484
121	0x3e00190f	0.12509559
122	0x3d51e429	0.05124298
123	0x3e297766	0.16549453
124	0x3ce8cfdf	0.028419433
125	0x3dc3221e	0.09527992
126	0xbd19bd1e	-0.03753387
127	0x3e1e180d	0.15438862
128	0x3d368ced	0.04456799
129	0x3cae5cbb	0.021284452
130	0x3e60e0f1	0.21960808
131	0x3e2d08e8	0.16897929
132	0x3e29e2e1	0.16590454
133	0x3c0abe59	0.008468234
134	0xbd19458d	-0.037419844
135	0x3cc424e5	0.023943374
136	0x3d23b833	0.039970588
137	0x3dc9a29a	0.09845467
138	0x3dc163c6	0.094428584
139	0x3e5d6d03	0.21623616
140	0xbd844044	-0.0645757
141	0x3d55d2b2	0.052202888
142	0x3c8f062c	0.017458998
143	0x3e53735b	0.20649473
144	0x3cec969f	0.028880415
145	0x3e27ab9e	0.1637406
146	0x3d4dff69	0.050292406
147	0x3e0287cf	0.1274712
148	0x3e12d902	0.14340594
149	0x3e4a0408	0.197281
150	0x3e8704de	0.263709
151	0x3dd94fc7	0.106109194
152	0x3e079745	0.13241298
153	0x3d351d61	0.04421747
154	0xbd870b03	-0.06593897
155	0x3c582a1b	0.0131936325
156	0x3d360a64	0.044443503
157	0xbc7de32a	-0.015496055
158	0xbd4175cc	-0.04723148
159	0x3c5db1d2	0.013531165
160	0x3c2d78b3	0.010587859
161	0x3e2fdced	0.1717412
162	0x3e5f005d	0.21777482
163	0x3e7cf862	0.24704126
164	0x3db81538	0.08988422
165	0x3da1397c	0.078722924
166	0xbcbd805c	-0.023132496
167	0x3e1b9d73	0.15196781
168	0x3abe2e1b	0.001450959
169	0x3db3da21	0.08781839
170	0x3d01223a	0.03152678
171	0x3cb45c99	0.02201681
172	0x3de94bfd	0.11391447
173	0x3e26a6d0	0.16274571
174	0x3ca3fc55	0.020017782
175	0x3d59c5ee	0.053167276
176	0xbcf60c1e	-0.030035075
177	0x3df21db6	0.11822073
178	0x3b428bef	0.0029685458
179	0x3dc77fba	0.09741159
180	0xbddbf615	-0.10740296
181	0x3d9562eb	0.07294258
182	0x3e0dfe04	0.1386643
183	0x3cba9cdc	0.022779875
184	0x3e046b6a	0.129316
185	0x3e11ad6c	0.14226311
186	0x3e18db9a	0.14927521
187	0x3e3a2e94	0.1818183
188	0x3d9e09df	0.077167265
189	0x3d9b5c25	0.075859345
190	0x3d2a7430	0.04161471
191	0xbc505bb7	-0.012717179
192	0xbcc65cbf	-0.024214147
193	0x3c98866c	0.018618785
194	0x3d02c8f0	0.03192991
195	0x3ddbe95a	0.10737868
196	0x3d96421e	0.073368296
197	0x3d58396e	0.052789144
198	0xbd9a794d	-0.075426675
199	0xbdb05fd1	-0.086120255
200	0xbda4cc7d	-0.080468155
201	0x3d9f36de	0.07774137
202	0x3e55a57e	0.20863912
203	0x3deb761e	0.114971384
204	0x3e263fa4	0.16235214
205	0x3d959c81	0.073052414
206	0x3dad1458	0.08451146
207	0x3d9742cb	0.073857866
208	0x3c7fa2b6	0.015602758
209	0xbbda2cd7	-0.0066581774
210	0x3f46037a	0.77349055
211	0xbd43edf0	-0.047834337
212	0x3d8b94b5	0.06815473
213	0x3dba1df4	0.09087744
214	0xbd8ccee5	-0.068753995
215	0xbd6d1be6	-0.057887934
216	0x3d57a02b	0.052642982
217	0x3e30dd53	0.17271928
218	0xbd91cea4	-0.07119492
219	0xbd9353b5	-0.071937
220	0xbc2271fc	-0.009914871
221	0x3dc5e738	0.09663242
222	0x3ea86a81	0.32893756
223	0x3e9ceeac	0.30650842
224	0x3ea84b1c	0.32869804
225	0x3e24be3c	0.16088194
226	0x3e8bf2ff	0.2733383
227	0x3db39e6f	0.08770453
228	0x3e37a383	0.17933469
229	0x3e1540e1	0.1457553
230	0x3ddbe8ff	0.107378
231	0xbdf04270	-0.11731422
232	0x3d0bcee4	0.034132853
233	0x3d643281	0.055712227
234	0x3d8e00e5	0.06933764
235	0xbcc95de6	-0.024580907
236	0x3e1cfa68	0.15329897
237	0x3d73c8e8	0.05951777
238	0x3c5d8d50	0.013522461
239	0xbcd95184	-0.026528127
240	0x3d336e9c	0.043806657
241	0x3d64ebff	0.055889126
242	0x3e39b5e1	0.18135788
243	0x3d28af0f	0.041182574
244	0x3d2bd5eb	0.041952055
245	0x3d90fb74	0.07079211
246	0x3e18a8d0	0.14908147
247	0xbcbf6443	-0.023363238
248	0x3e0200a1	0.12695552
249	0x3da09df3	0.078426264
250	0x3b81817e	0.0039522042
251	0xbe0f76d1	-0.14010169
252	0x3dab21d4	0.083560616
253	0x3dc7b7ac	0.097518295
254	0x3d48cd3a	0.049023844
255	0xbdaa19a3	-0.08305671
