trained_models/a2c/trial_9/MicropolisEnv-v0.pt (torch_old, 905277 bytes, 13 tensors)

weight f4 [64, 104, 5, 5]
000000 f4 13 92 be 75 f3 93 bd 07 28 46 3d 2c 1e e1 3c
       -0.28530848 -0.0722417 0.048378017 0.027480207
000010 a1 78 30 bd 70 5f 6b be 95 ac 24 be 9d 91 16 3e
       -0.04308379 -0.22985625 -0.1608146 0.14703985
000020 7e ab 91 3d d7 07 9b 3d f8 ce 8c be aa 39 21 be
       0.07112788 0.07569855 -0.27501655 -0.15744653
000030 62 53 7e 3d 0c 27 3f 3d 5a 2e 05 3e 61 42 33 be
       0.06209124 0.046668097 0.13005963 -0.1750579
000040 dd 9d bf be 76 5c 13 bd e2 51 23 3d 45 bc 28 3e
       -0.37425128 -0.03597685 0.03987301 0.16478069
000050 dc b8 15 be b1 f9 44 be 78 b5 59 3c 0a 3a a0 3d
       -0.146213 -0.19235875 0.013287894 0.0782357
000060 89 54 1b 3e ad 30 bc bc 13 3c 30 3c 4d 81 ba 3b
       0.15168966 -0.02297243 0.01075651 0.0056916834
000070 bb ff f8 3c 68 9f fd bc 52 34 25 bb 81 3d 13 bc
       0.03039538 -0.0309598 -0.0025208187 -0.008986832
000080 a0 de 51 bd 7c c4 25 bd d0 f2 b2 bc 0f ba 66 bc
       -0.051237702 -0.040470585 -0.021844298 -0.014082446
000090 bf 43 3d bb 88 28 d4 bc cc ba 1f 3b a2 a1 70 bc
       -0.002887949 -0.025898233 0.0024372814 -0.014686974
0000a0 e7 c4 2e bc e1 c3 ac bc 7a 2f 2b bc e1 f2 5e bd
       -0.010667062 -0.021089496 -0.010448331 -0.054430846
0000b0 3c 79 07 bb 57 9a 6e ba 4e 67 85 3c ee ca eb 3b
       -0.0020671627 -0.0009101978 0.016284611 0.007195822
0000c0 46 86 73 3c 84 f2 d2 bc a8 35 0e 3d 1a 73 ac bc
       0.014863556 -0.025750406 0.03471914 -0.021050978
0000d0 ad 09 8e bc 4f 2e ed 3c cb 77 fd 3c 9c 7c 50 3b
       -0.017338598 0.028952746 0.03094091 0.0031812554
0000e0 da be a3 bc 24 00 39 bc cf 3c 52 3b 93 16 01 bb
       -0.019988466 -0.011291537 0.0032079702 -0.0019697293
0000f0 21 d4 8a bc 9e 0d 9c bb 07 ec 1b 3d 84 75 94 3c
       -0.016946854 -0.0047623655 0.03806689 0.018122442
000100 35 be 97 3c 82 c6 4b 3b 78 ac 04 3c 94 b0 e8 3c
       0.018523315 0.0031093662 0.00809776 0.028404512
000110 5c 1e 20 bd 7b 31 0b bc b6 30 31 3d a8 48 b5 3c
       -0.039091453 -0.008495684 0.043259345 0.022129372
000120 69 98 26 3c b5 8f 58 bd aa 14 75 3b 99 e3 09 bd
       0.010168173 -0.052871425 0.003739635 -0.03366432
000130 6a 08 8e bc 14 ad 70 3a 38 88 da 3c 3c 9b 5f bc
       -0.017337997 0.0009181064 0.026676282 -0.013647851
000140 4b 4e ac 3c 51 38 0e 3c 58 31 d1 3c 3c 62 ac bc
       0.021033427 0.008680419 0.025536224 -0.021042936
000150 c0 5d a2 3c 85 cd 65 3c 9a 77 d6 bc 8a 8e 32 bc
       0.019820094 0.01402605 -0.026180077 -0.010898242
000160 96 be bc 3c e5 52 c3 3c 0f a8 46 bc ea 9d 2a bd
       0.023040097 0.023843238 -0.012125029 -0.041654505
000170 50 41 b9 bc fb d7 ce 3b 80 93 62 3c 97 f4 e2 bb
       -0.022614151 0.006312368 0.013829112 -0.00692613
000180 00 10 56 3c 6c bf a2 bc f1 49 9d bc 84 b1 68 3c
       0.013065338 -0.019866668 -0.019200297 0.014202479
000190 ca 0b e0 3b df 30 88 3c e8 80 5b bc 46 90 94 bb
       0.006837343 0.016624866 -0.013397433 -0.0045338003
0001a0 11 c4 48 bb 31 0d 61 bc 14 ee 9c bc fc 83 a6 bc
       -0.0030634443 -0.013736055 -0.019156493 -0.020326607
0001b0 3a 80 b4 bc 14 40 7b bc bd 56 a8 3c e7 a4 26 bc
       -0.0220338 -0.015335102 0.020549173 -0.010171152
0001c0 8e 39 95 3c 2e 09 c4 bc 48 c7 2d bd f5 b6 b6 bc
       0.01821592 -0.023930158 -0.042426378 -0.022304038
0001d0 4e c9 b4 3c c5 2e fb 3a 2e 6e 69 3c 21 d1 32 bb
       0.022068646 0.0019163719 0.01424746 -0.0027285295
0001e0 23 b1 a6 bc 68 33 a3 bc 2f 73 4f bd 5f 28 ad bc
       -0.020348137 -0.019921973 -0.050646957 -0.021137415
0001f0 ab 84 d1 ba 61 65 dc 3c 9c d7 bf 3c 08 06 bb 3c
       -0.0015984973 0.02690381 0.02341824 0.022830024
000200 ff 95 84 3c 1a 50 3d 3c 29 5f 4f 3d 37 c3 11 3b
       0.016184805 0.011554742 0.05062786 0.0022241601
000210 47 84 b2 3c ad a7 21 bc 36 fc b7 bc ea 55 63 3c
       0.02179159 -0.009866637 -0.02245913 0.013875464
000220 a9 dd 0c bc b2 25 b4 bb cc 76 d6 bc ec 71 d9 3b
       -0.00859777 -0.0054976577 -0.026179694 0.006635895
000230 e2 2c 69 bd 4a b2 36 bc 58 d5 9c 3c 01 dc e3 3b
       -0.05692757 -0.011150906 0.019144699 0.0069537167
000240 49 18 4f 3c c6 ed bc bb 62 aa 02 bc b6 93 34 bd
       0.012640067 -0.0057656495 -0.007975193 -0.04408618
000250 4c 23 62 bb 0e 41 d8 3c 98 db ca bc d7 18 32 bc
       -0.0034505902 0.026398208 -0.024762914 -0.01087018
000260 4e cf 9d bc 68 37 8e bd d3 53 fa bc 3c f8 01 bd
       -0.01926389 -0.06944162 -0.030557549 -0.031730875
000270 a9 62 7e bd 0a 0e 6c bd c5 52 69 bd 51 bb 05 bd
       -0.06210581 -0.057630576 -0.0569637 -0.032649342
000280 ab e5 10 bd bf 5f 13 bd ef 89 8a bc ca 56 86 bb
       -0.03537528 -0.035979982 -0.016911475 -0.0040997015
000290 c3 f7 aa 3c f9 f4 be bd 1b 8b 0c bd 43 ff 00 bd
       0.020870095 -0.093240686 -0.03431235 -0.031493437
0002a0 ee bb f6 bc 7e 60 9b bd 1c 93 a2 bb e1 72 20 bc
       -0.030118909 -0.07586764 -0.0049613845 -0.009793014
0002b0 aa 49 21 3c 0e 82 26 bd 05 d2 7c bd f1 78 6a 3d
       0.009844223 -0.040651374 -0.061723728 0.057244245
0002c0 d3 77 10 3d 06 be 55 3d ff ff ab 3d 04 7d b5 3c
       0.035270523 0.052183174 0.08398437 0.022154339
0002d0 a6 3e d6 3c 8b 5d 61 3d 7a 3a 8a 3d 65 4d 36 3d
       0.02615292 0.05502085 0.06749435 0.044507403
0002e0 2e cf 50 3d 3c e8 57 3d 6d a1 0e 3d 76 13 98 3d
       0.050978832 0.05271171 0.034821916 0.07425587
0002f0 73 4c 1f 3d 75 0d 65 3c 3f e3 21 3d 2c f2 58 3c
       0.038891267 0.013980259 0.03952336 0.013241332
000300 09 6c 76 3c 88 09 21 3c 3c fc 62 3c 03 9e 0a 3d
       0.015040406 0.009828933 0.013854083 0.033842098
000310 ef ad 3c 3d 0b eb 81 3d a6 10 30 bc 50 f1 7a ba
       0.046064314 0.06343659 -0.010746157 -0.00095727015
000320 f7 3f 23 bd 87 98 7a bd 43 b4 64 bd 2d 91 72 bc
       -0.039855924 -0.061180618 -0.055835973 -0.01480512
000330 36 07 6b 3d 8b 63 5e bd 5c fb b9 bd 1c 59 49 bd
       0.057379924 -0.05429415 -0.09081146 -0.049157247
000340 05 ad 54 bd 0a 85 10 bd 00 91 67 bd 61 26 9f bd
       -0.051922817 -0.035283126 -0.056534767 -0.07770992
000350 a8 6b e0 bc 3d 07 9e bd d0 6c dd 3b 81 43 d0 bd
       -0.027395085 -0.07716224 0.006757356 -0.10169125
000360 1e bb 22 bd a9 2f 16 bd ef 8d a8 bd 7f 4e 41 bd
       -0.03972923 -0.036666546 -0.08230197 -0.047194
000370 32 87 0f be 78 68 75 3a 17 04 fe 3c 42 5d ea bc
       -0.14016417 0.00093615754 0.03100781 -0.028608922
000380 ba 45 f9 bc e7 0e 47 3c 16 0a 07 3c bf 61 90 3a
       -0.030428756 0.012149549 0.008242151 0.0011015459
000390 c5 c6 1b bd 79 80 fa 3c 30 65 d8 bc ae 4b c9 bc
       -0.03803136 0.030578839 -0.026415437 -0.02457222
0003a0 cd ce 83 3c 38 57 02 3c 63 00 4f bc bb ea c6 bc
       0.016089821 0.007955365 -0.01263437 -0.02428185
0003b0 00 cc 74 bb 37 57 b7 3b 88 ee f8 b9 7f db 9c bc
       -0.0037353039 0.0055951136 -0.00047479966 -0.019147633
0003c0 29 68 bb bb e3 7d 77 bc ff 41 ad bc 1a 3e ec 3c
       -0.005719204 -0.015105697 -0.021149633 0.028838206
0003d0 23 0e 0b 3c f0 9a 03 bd c6 82 68 bc 24 6e 17 3d
       0.008487257 -0.03213018 -0.014191335 0.036970273
0003e0 45 12 d1 bc e5 33 31 bc 94 38 34 bc a5 0c 00 bc
       -0.025521407 -0.010815595 -0.010999817 -0.007815515
0003f0 b5 3a 94 3d 63 95 3b 3d 2e 74 74 3d f7 7d e6 bc
       0.0723776 0.045796763 0.05968111 -0.028136237

bias f4 [64]
000000 8c e6 f8 3d c8 85 f6 bd cd 21 84 bd a6 16 4f be
       0.12153348 -0.120372355 -0.064517595 -0.20223483
000010 40 59 8e 3c 78 57 ac be ef 99 cb 3c 9c cb 91 be
       0.017376542 -0.33660483 0.024853675 -0.28475654
000020 2e 47 19 bc d8 96 7a 3c 39 7a 29 bd 69 0a cc bc
       -0.0093553495 0.015294753 -0.041376326 -0.024907308
000030 7e 31 61 bb 48 81 30 bd 94 a5 7d bd b3 b5 24 bd
       -0.0034361775 -0.043092042 -0.061925486 -0.040212344
000040 ac 38 55 bd 6d 8f 7f 3d ce 94 07 3d 65 3a 50 bd
       -0.052056 0.06239264 0.033100896 -0.05083694
000050 f7 8a 8f 3c ce cc b0 bc 80 95 1c bd 47 c8 4b 3d
       0.017522318 -0.021582033 -0.03822851 0.049751546
000060 ff 88 2b bd 69 67 49 bd aa a2 f5 3d 94 2a 18 bd
       -0.041878697 -0.049170885 0.11993916 -0.03714998
000070 90 37 9a 3e 4e a4 8f bd c6 53 ac ba 51 0b 2e 3d
       0.30120516 -0.070137605 -0.0013147525 0.04249126
000080 ed 11 84 3d 9d 3c 81 3d 4f 7c 6f bd 3d 22 79 be
       0.064487316 0.06310389 -0.05846816 -0.24329467
000090 fb e5 43 3e 50 a0 5b bc f7 43 c5 bc aa d8 3d bc
       0.191307 -0.013404921 -0.02408026 -0.011587301
0000a0 d6 70 b5 bd a8 74 d3 bd 36 1d 73 3d a9 d8 5e 3d
       -0.08859412 -0.10324985 0.05935403 0.054405842
0000b0 b7 ea b3 3c c4 6d 81 bc 71 99 f3 bd 4d 63 0d 3d
       0.021962507 -0.01579941 -0.11894501 0.03451853
0000c0 07 ec 2e 3e 65 2c e5 3c 1d b6 3c bd c9 31 f7 bc
       0.17082225 0.02797527 -0.046072114 -0.030175107
0000d0 27 0a 21 bd b2 25 05 be 21 23 36 3d b9 e6 21 3d
       -0.039316323 -0.13002661 0.044467095 0.039526675
0000e0 87 86 58 bd a8 c9 26 bd d2 ae ad bd 87 ae 74 3d
       -0.05286267 -0.040719658 -0.0848061 0.059736755
0000f0 b9 99 99 bd 06 33 6c bd d1 2c 9c 3c 34 d3 63 3d
       -0.075000234 -0.057665847 0.019064339 0.05562134

weight f4 [64, 64, 3, 3]
000000 c4 80 c5 bc bc 53 a5 bd 4a 78 38 3d 09 ec fb 3c
       -0.024109252 -0.08072612 0.04503659 0.030752199
000010 bb 3c 0f be aa a2 76 be 8c 75 c5 3d 5e a9 53 bd
       -0.1398801 -0.24085489 0.09641561 -0.051675193
000020 6c 8e 73 be 71 3a af bd 46 14 9b bd 1b a2 58 3d
       -0.23784798 -0.08556069 -0.07572226 0.05288897
000030 0e 5f b5 bd dc fb 50 3b 7b 11 34 bd 31 96 7a 3c
       -0.08856021 0.00318884 -0.043961983 0.0152945975
000040 36 59 2f bd 28 55 72 bd 3a 10 ba 3d 02 78 81 bd
       -0.042809688 -0.059163243 0.09085126 -0.06321718
000050 a1 15 97 3b 61 ac 94 bc a2 ce 02 3d ef 80 85 bc
       0.0046107327 -0.018148603 0.03193534 -0.016296832
000060 c3 01 e9 bc 05 3f 85 bd 6a 75 6e bd 63 1c e5 bd
       -0.028443223 -0.06506161 -0.058217444 -0.11187055
000070 d0 fa e7 bd 21 2a f7 bd c0 4d 71 be 0a b4 18 be
       -0.113271356 -0.12068582 -0.23564816 -0.1491243
000080 7b 7d 09 be 4d 8b 86 be 5f ef 39 bd 48 d8 d1 bd
       -0.13426773 -0.26278153 -0.045394298 -0.102463305
000090 d8 4e ec bd aa 3e 2c 3c b4 90 3f 3d 10 79 e6 3b
       -0.11538476 0.010512987 0.04676886 0.0070334747
0000a0 24 40 ed 3b 4e f1 4a bd 61 f0 93 3d 0f 90 22 3e
       0.007240312 -0.049546532 0.07223583 0.15875266
0000b0 54 54 e7 3c bf e0 e1 3c 2f 12 1c be 23 a2 4f be
       0.028238453 0.027572988 -0.15241311 -0.20276694
0000c0 c5 11 82 bd 46 4a b3 bd 6f 59 f8 3d 02 6b 25 be
       -0.063510455 -0.08754401 0.12126433 -0.16154101
0000d0 0e 73 82 3d 68 59 d6 3d 28 16 d3 3b 3d a3 f4 3c
       0.06369601 0.10466272 0.00644185 0.029862994
0000e0 97 bf 70 bd 53 56 c8 bd 09 1d 2e 3d 35 5c d2 bd
       -0.058776464 -0.0978209 0.04250816 -0.10271493
0000f0 43 63 4d bd a1 bc d6 3d 3e 13 60 3d 95 f0 4f bd
       -0.05014349 0.10485197 0.05470585 -0.050766546
000100 54 23 dd 3c 70 46 36 bd 8e 07 15 bd 3c 58 38 bd
       0.026994385 -0.04450077 -0.036384158 -0.04500602
000110 99 de 34 3c be b3 d0 3c 80 e4 29 3c e7 40 95 3c
       0.0110394 0.025476333 0.01036942 0.018219424
000120 71 b0 d0 3b 7a e9 ec 3b 6e f4 e1 bc eb 0f b4 bc
       0.0063686897 0.007229981 -0.027582373 -0.021980247
000130 d3 e0 77 3c c7 f5 14 3d 3c e8 fb bc e1 9e 52 bc
       0.015129286 0.036367204 -0.030750386 -0.0128552625
000140 75 70 77 bd c0 b1 a3 3b b3 64 b0 bd 1a 34 27 bd
       -0.06040998 0.0049955547 -0.08612957 -0.040821172
000150 3d 35 c0 bd 2d 4c 31 be 24 8f 97 be 57 ba 86 bd
       -0.093851544 -0.17314215 -0.29601395 -0.0657851
000160 f6 16 60 be 8e 68 09 be fd 8f 22 bc 6f 2a 8f 3c
       -0.21883759 -0.1341879 -0.009922025 0.017476289
000170 51 a3 ee 3c eb a8 c9 bc 5b 09 1d bd e7 fa 0f 3d
       0.02913061 -0.02461668 -0.038339 0.03515139
000180 48 a2 a6 bd 2b 41 68 bd 36 b0 c5 bc 7b 3b ed bc
       -0.081364214 -0.056702774 -0.024131875 -0.028959027
000190 5a ef 1b 3c f2 2a 13 3c 84 34 c8 bc 07 a5 03 3c
       0.009517515 0.008982407 -0.024439104 0.008034951
0001a0 e6 de 06 3d c8 e4 0c bd ce 31 0a 3d a5 af 39 3c
       0.032927416 -0.03439787 0.033738904 0.011333381
0001b0 c0 48 92 bd ba 1b f4 bd 60 87 8a bd 51 49 08 3d
       -0.07142782 -0.11919351 -0.06764102 0.033273045
0001c0 1e 6e ea bc 5f 32 f7 bd d8 f9 cd bc 25 5e e3 3d
       -0.028616961 -0.120701544 -0.025143549 0.11101941
0001d0 6e b4 8d 3d 09 52 a5 3c a1 73 63 bd 83 13 ce bd
       0.0691918 0.020180719 -0.055530194 -0.10062315
0001e0 c9 af 1c bd e7 82 11 3d 42 7a e2 bd 40 9f 83 bd
       -0.03825358 0.03552523 -0.11058475 -0.06426859
0001f0 52 c5 e3 bd 4f 56 35 bd 34 46 f6 bd 7c 0c 21 be
       -0.1112162 -0.044271763 -0.12025109 -0.15727419
000200 df 99 73 bd 50 1b 09 be 2b c4 0e be ae b0 46 be
       -0.059472915 -0.13389325 -0.1394202 -0.19403335
000210 6b 01 f1 bd 25 69 56 be 0f 69 87 be 6b 55 d6 bc
       -0.117678486 -0.20938547 -0.2644734 -0.026163777
000220 28 57 bf bb 32 2e 0c 3b b3 8e 43 bd db 9d c6 bd
       -0.0058392473 0.002138984 -0.04774351 -0.09698077
000230 b9 ea cd 3b 35 8a b7 3b b4 d6 c0 3c ca dc 97 bd
       0.0062840846 0.0056011924 0.023539878 -0.07415159
000240 49 c7 26 bd e0 d5 70 3c 77 f8 2a 3e df 0f 94 be
       -0.040717397 0.014699429 0.16696344 -0.2891836
000250 35 bd 8b be 35 04 06 be bd 4f 1a be d3 cc f1 bd
       -0.2729279 -0.13087542 -0.1506948 -0.11806645
000260 37 41 c2 bd 73 5a 66 be cc 58 31 3d 0d 8c 47 3d
       -0.09485095 -0.22495441 0.043297574 0.048717547
000270 3f 36 bd 3c 51 ca 9d 3c f8 53 83 bd ac 22 e2 bd
       0.023097156 0.019261511 -0.064125 -0.110417694
000280 d0 59 ff 3d 2c 71 8c bd c4 83 0f be ee 56 49 be
       0.12468302 -0.06857523 -0.14015108 -0.19662067
000290 15 4d 97 bd 02 1c c3 bd 33 47 10 be 82 f9 2a be
       -0.07387749 -0.095268264 -0.1408966 -0.16696742
0002a0 79 35 40 bc 28 d9 19 bd c7 b6 0d be 9f e3 4e 3d
       -0.011731499 -0.037560612 -0.13839255 0.050510045
0002b0 88 d2 25 3c c0 71 8a bd ed 47 6a bc fe fe 65 bd
       0.010120995 -0.06759977 -0.014299375 -0.056151383
0002c0 b7 b3 29 3d c3 07 77 3b ed 70 ee 3c bb dd 83 bc
       0.041431155 0.0037693835 0.029106582 -0.01609694
0002d0 3d 73 74 3d c6 b4 81 bc 90 2a a1 bd c0 68 3b 3d
       0.059680212 -0.01583327 -0.07869446 0.045754194
0002e0 70 4c 0a bb ba 2b aa bd fe 97 06 bb 1d 0b d0 bd
       -0.002110269 -0.083091214 -0.0020537372 -0.1015837
0002f0 02 27 1c bd b4 07 4e be 1f 3c 62 be f7 a2 21 be
       -0.03812314 -0.20120126 -0.22093247 -0.15784822
000300 67 9c 11 3e 1e cc 87 3d 24 16 07 3e cc bb b7 3d
       0.14219819 0.06630729 0.1319204 0.08971366
000310 17 c7 51 3d 40 ac e1 bc 88 3e d3 3c 75 b4 ee bb
       0.051215257 -0.027547956 0.025786653 -0.0072846957
000320 a1 de ce 3b 4e a3 81 bb 8a 80 05 bd 6e b5 47 3d
       0.0063131605 -0.003956235 -0.032593288 0.04875701
000330 20 5d ba 3c 23 19 1f 3a 30 2e 64 bd 95 80 e5 bd
       0.022749484 0.00060691143 -0.05570811 -0.11206166
000340 fb 70 16 bd f1 c5 0a 3c 80 7e 4b bd 07 8d 6e 3d
       -0.03672884 0.0084700445 -0.049681187 0.058239963
000350 a8 f9 6f 3c 9e 44 c4 3d 35 f5 68 3d 99 91 09 bd
       0.014646925 0.095834 0.056874473 -0.03358612
000360 51 55 d8 bc 9a 70 e3 bc 6a 00 4b 3a e8 d9 2d bd
       -0.02640787 -0.027763654 0.0007743897 -0.04244414
000370 36 be 63 bd d5 d1 ac 3c 4c 33 86 bd f9 56 35 bd
       -0.05560132 0.02109615 -0.06552753 -0.044272397
000380 d4 71 35 bd 3f b2 5d 3c 23 a1 3a bd a9 2d 51 bd
       -0.044298008 0.013531267 -0.04556383 -0.051068936
000390 13 98 35 3d 7e f7 e1 ba 7d 4e 9b 3c 10 38 2f bc
       0.044334482 -0.0017239896 0.018958325 -0.010694519
0003a0 20 6f 6c bd 30 32 38 3d 70 7b 21 3d f9 49 83 3d
       -0.057723165 0.044969738 0.03942436 0.064105935
0003b0 e4 50 38 bd eb ea ba bc 5a a9 fb 3c 1b bf ff 3d
       -0.04499902 -0.022817096 0.030720402 0.12487622
0003c0 0c 4a 76 bb 3e f6 b2 3c 97 4f 08 3d d8 bf a7 bc
       -0.0037580756 0.021845933 0.033279028 -0.02047722
0003d0 19 1f fd bc 3e 35 f9 bc 68 58 8e bc 00 7e d7 3c
       -0.030898618 -0.030420896 -0.01737614 0.026305199
0003e0 59 87 e9 3c f2 1e 18 bd b8 17 11 3d 5c 97 26 bd
       0.028506922 -0.037138887 0.03542301 -0.04067169
0003f0 ed c1 6f bd 62 37 b0 3c a8 d1 d8 3c bf 89 40 be
       -0.05853455 0.021510784 0.02646716 -0.18802546

bias f4 [64]
000000 c8 a2 01 3e 8e fd 7a be 16 49 ff 3d 66 01 cc 3e
       0.12659752 -0.24510786 0.12465112 0.39844817
000010 a2 b7 52 3e 85 f6 03 3e 4d fb df bd 44 03 3d bf
       0.20577863 0.12887008 -0.10936604 -0.7383311
000020 f4 d3 49 be e2 28 54 be 4d 98 89 be 8f 86 19 3e
       -0.1970976 -0.2071872 -0.2687401 0.14992736
000030 61 0b 20 3e 54 97 cf bd 6d 06 1e bc 07 13 08 bf
       0.1562934 -0.101362854 -0.009645087 -0.53154033
000040 f0 51 0c 3d fb 99 71 3d f9 3f 6e bb 99 5d 17 be
       0.03425783 0.058984738 -0.0036354049 -0.14781798
000050 ca 65 8e be 7b f2 bf be 46 41 a8 bd c3 f0 66 be
       -0.27812034 -0.37489685 -0.08215575 -0.22552781
000060 66 2d 6c be 13 9f 02 bd e8 e1 5f 3e a3 1c 9f bc
       -0.23064193 -0.031889986 0.2186352 -0.019422835
000070 fe 1a de 3d bf d8 76 be 4b ef 8d be 01 71 ff bd
       0.10844992 -0.2410612 -0.2772163 -0.12472726
000080 8d 69 72 3e 83 9e f4 be cc 2d a9 bd 26 a3 a2 3e
       0.23673077 -0.47777185 -0.08260688 0.31765097
000090 9a 6e ed 3d 97 8f 7b be 80 64 02 bf 13 2f 3d be
       0.11593361 -0.24566494 -0.509346 -0.18474989
0000a0 00 13 97 be 34 0a fa be ce 33 bd 3d 2a 6e 88 be
       -0.29506683 -0.4883591 0.092383966 -0.26646549
0000b0 6c 45 86 be 8f 1d 64 bd 63 7d 1c be 7b 3e c5 be
       -0.2622484 -0.05569225 -0.15282206 -0.3852423
0000c0 53 80 50 be 9d cb de 3d 15 81 f6 3d 06 b8 18 be
       -0.20361452 0.1087868 0.12036339 -0.1491395
0000d0 e9 7b fc 3d 89 79 32 be 2b 3d e7 bd 24 ac 7a bd
       0.123283215 -0.17429174 -0.11290964 -0.061199322
0000e0 88 54 c0 bd f3 cf 77 be 85 a0 a6 3d 14 b2 d4 be
       -0.09391123 -0.2420042 0.081360854 -0.41542113
0000f0 33 62 76 3e 77 6d b9 be 89 8e 20 bf 5d e5 31 be
       0.24060898 -0.36216328 -0.6271749 -0.17372651

weight f4 [15, 104, 1, 1]
000000 33 bc 0a 3e 16 2c 05 bd f4 06 8e bd 4a 32 a6 3d
       0.13548355 -0.032512747 -0.0693492 0.081150606
000010 ea b7 1a bd 37 24 f9 bd 22 f7 81 3d df 67 27 3f
       -0.03777305 -0.121651106 0.06345965 0.6539287
000020 e1 9a d2 3f 5d c7 f2 bd 34 64 05 be 13 23 90 3c
       1.6453515 -0.11854432 -0.13026506 0.01759485
000030 bb 3b 49 bd 38 e1 04 be f7 16 12 be 97 d2 84 bf
       -0.04912923 -0.12976539 -0.14266573 -1.0376767
000040 0a f7 24 be 5f 9e 7b bd c3 b5 f4 3b 6a 1b 94 3d
       -0.16109863 -0.06143033 0.0074679567 0.07231791
000050 58 2d 13 be b7 ca f7 be 2e 97 26 bf ca 11 8a 3d
       -0.14372766 -0.48396847 -0.6507443 0.06741674
000060 bc 44 28 bd 47 b1 9e 3d cd 5f 91 3d ab 5d 9f bd
       -0.041081175 0.07748657 0.07098351 -0.077815376
000070 ef 4d 00 be 2f 8f c4 bd 3c f6 47 3e b8 39 2a bd
       -0.1252973 -0.095976226 0.19527525 -0.04155895
000080 16 db 5a 3e 23 d6 f6 3e 4d 77 ee 3f e3 98 db bd
       0.21372637 0.48210248 1.8630158 -0.1072252
000090 82 65 8a bd 92 7d 12 be 00 33 40 bd 0b 68 d3 bd
       -0.06757642 -0.14305714 -0.046923637 -0.10322579
0000a0 de 31 33 3d e6 6e 4c bf 9e 47 f6 be ca dc d7 bd
       0.04374873 -0.7985672 -0.48101515 -0.10540159
0000b0 b3 06 df 3d ca 29 8a bd 24 51 df 3c c5 27 c9 be
       0.1088995 -0.06746252 0.02726037 -0.39288154
0000c0 8c 27 0f bf 53 ff 77 3e 9f 33 15 bd a5 23 f2 bd
       -0.5591972 0.24218492 -0.036426183 -0.11823205
0000d0 98 e5 92 3c d4 16 10 3e aa b3 32 bd 2d 8c ac 3d
       0.017931744 0.14071208 -0.043628372 0.08425174
0000e0 a7 da 69 3c aa 56 b6 3c 58 9c 76 be 77 9b 28 3f
       0.014273322 0.022258122 -0.24083078 0.6586222
0000f0 9d 85 f9 3f b6 ce 01 3e 77 72 e6 3d 00 db e9 bd
       1.94939 0.1267651 0.11252301 -0.11418724
000100 d4 94 b6 bd 12 8b d2 3d 5f 51 db 3d d1 32 45 bf
       -0.089151055 0.10280432 0.1070888 -0.77030665
000110 d2 06 3c bf 0e 95 a5 3d e6 d0 e4 3c 43 52 fa bc
       -0.73447907 0.080850706 0.027931642 -0.030556804
000120 f6 84 3a 3e e9 10 a6 be e8 d0 07 bf e9 c6 90 3d
       0.18214783 -0.32434776 -0.5305314 0.07069189
000130 21 ea db bc a0 9d 2b be 36 ae 23 3e 91 c7 16 be
       -0.02684504 -0.16759348 0.15984425 -0.14724566
000140 f0 13 02 be fc 64 93 3d 65 a9 a0 3d 23 ac 27 bd
       -0.12702918 0.071969956 0.078448094 -0.040935647
000150 7d ed 97 3d b1 96 24 3f be ea 01 40 2b 1a 46 bc
       0.07418344 0.64292437 2.0299525 -0.0120912
000160 31 93 d0 bd 4a 94 bb 3d f3 bf 9b 3d be 1c 5b bd
       -0.101843245 0.09159143 0.07604971 -0.053494208
000170 2e 68 1d bc 50 9e 50 bf 8b 8d 02 bf c9 8a 24 3b
       -0.009607358 -0.81491566 -0.5099723 0.0025107136
000180 50 3e 11 3e 6e a3 02 bd 70 c3 49 3d 46 ba 20 bf
       0.14183927 -0.03189414 0.04925865 -0.6278423
000190 db 3b fb be 12 aa 96 3e 32 56 80 3e 37 d4 83 3d
       -0.49069104 0.29426628 0.25065762 0.06436961
0001a0 4e 10 18 be 77 ef 83 3d 51 21 66 3d 19 65 89 ba
       -0.1484997 0.06442159 0.056184117 -0.00104824
0001b0 d8 d2 93 3b 94 f3 dd bd 2e 37 6f 3a 19 bb f0 bd
       0.0045112185 -0.108374745 0.0009125349 -0.11754436
0001c0 31 ac 0f be e6 a1 21 3d 78 ae fe 3d b7 2d 5c be
       -0.1403053 0.03946104 0.12435621 -0.21501814
0001d0 d8 d2 d5 bd 3d 5f 14 3e 91 99 a8 3d bb c3 c4 be
       -0.10440606 0.14489456 0.082324155 -0.3843058
0001e0 c9 16 de be d9 81 0a 3e 7c 40 b8 3d 65 49 17 be
       -0.4337676 0.13526095 0.089966744 -0.14774092
0001f0 d4 d3 c3 bd ee 4d c5 3d b6 6c 84 3c 51 93 aa bb
       -0.095618874 0.096340045 0.016165119 -0.0052055498
000200 f4 6b 9f 3c da b0 06 bd 9e af 9a be 63 05 0c 3d
       0.019460656 -0.032883503 -0.3021211 0.034184825
000210 d6 8f e3 bd 63 91 e5 bd de bd 1f 3d 03 3b 75 be
       -0.11111419 -0.11209371 0.03899943 -0.23948292
000220 94 d3 13 bd 1e 78 03 be d4 a4 44 bd d6 fa 8f bd
       -0.03609045 -0.1283879 -0.048008755 -0.07030265
000230 64 25 94 3e bd 7f da 3d 82 18 3d bd 3c 05 58 bc
       0.28934777 0.106688954 -0.04616595 -0.013184842
000240 37 d1 97 bc dd 72 0d 3d 6e 0e 99 be 1f ab 24 bd
       -0.018532379 0.03453337 -0.2989382 -0.040202256
000250 31 c3 6a bc d1 67 ea 38 85 cc 5a be 97 19 8a bd
       -0.014328764 0.00011177327 -0.2136708 -0.06743162
000260 bb e3 aa bd 79 b1 0b bd 43 08 79 be a6 26 b1 3b
       -0.083442174 -0.034104798 -0.24319558 0.0054062186
000270 86 fb 85 3c 83 48 64 3d 66 69 02 3d fe ec dc bc
       0.016355287 0.055733215 0.031838797 -0.026968475
000280 f7 8c 2f 3d 6b 4c a5 bd e9 f9 54 3d 07 b4 75 be
       0.042859044 -0.08071216 0.051996145 -0.23994456
000290 3d b0 b1 bd ab 30 c2 3d 3b 18 00 3e bf f8 31 bd
       -0.08676193 0.09481939 0.12509243 -0.043450113
0002a0 e3 6a 2f be d2 39 fc 3b bc 66 01 3c df c8 93 3d
       -0.17130618 0.0076973224 0.007898029 0.072160475
0002b0 bf fa 0b bf 1a 03 9d bd 40 d2 3d bd be 34 e0 bb
       -0.54679483 -0.07666607 -0.04634309 -0.006842225
0002c0 d3 1c 32 3e 2c 87 ac 3b 2f 99 a4 bd f0 94 8d bd
       0.17393808 0.005265137 -0.0803703 -0.06913173
0002d0 79 d3 7d be 98 41 4c bd e3 fd ba bd 5f c0 98 bc
       -0.24787702 -0.049867243 -0.09130456 -0.018646417
0002e0 33 6d 8c bd d3 5d ed 3d 33 99 9c bd 06 ed 40 bd
       -0.068567656 0.11590161 -0.07646408 -0.047101043
0002f0 04 ed 58 3e b7 17 90 be 64 b8 21 bd c6 e1 c3 3d
       0.21184164 -0.28143093 -0.03948249 0.09564547
000300 78 cf d1 3d c8 cd 8f 3d 06 ab 7d 3e f6 56 1b be
       0.1024465 0.070216715 0.24772272 -0.15169892
000310 34 93 6d bc cc f1 11 3f cb 04 0d bf 74 67 13 be
       -0.014500428 0.5700958 -0.5508544 -0.14394933
000320 b3 33 1b 3d bd 82 80 bd 0e 53 3d 3e 4c 3b 34 bd
       0.0378911 -0.06274936 0.18488714 -0.044001862
000330 c1 7c 34 bd 39 50 b7 bd a1 30 4d be 94 a2 0d bd
       -0.044064287 -0.08950848 -0.20038082 -0.034578875
000340 46 a8 88 bd 19 b4 a2 3d f1 fd 8e bd fe 8e 0a be
       -0.066727206 0.07944507 -0.06982029 -0.1353111
000350 39 d2 d9 3d 12 0f 5b be cc 5e 33 be 42 26 5d be
       0.106358 -0.21392468 -0.17516631 -0.21596625
000360 19 df 84 bd 08 38 be bd 35 ee e5 3d 4a d6 4d 3c
       -0.06487865 -0.09288031 0.11227075 0.0125632975
000370 5a 63 09 bc 76 51 c2 bd 13 71 aa bd ec bf 61 bd
       -0.008385504 -0.09488194 -0.083223484 -0.05511467
000380 ac 0c 02 3f dd f6 b8 3d 1d b1 a0 3d bf 41 6d 3e
       0.50800586 0.090314604 0.07846282 0.23169611
000390 3e 5e 9d 3d 54 63 18 bf 7e f7 7c bd 0f c4 1f bd
       0.07683991 -0.5952656 -0.061759464 -0.039005335
0003a0 11 82 35 3d f8 58 c5 bc 87 17 c0 be 11 f6 d3 3d
       0.044313494 -0.024090275 -0.3751795 0.10349668
0003b0 d6 04 40 be fb 0a 00 bd 2a 18 de 3d 31 1c 9a 3c
       -0.18751845 -0.03126047 0.10844453 0.01881227
0003c0 08 f8 e1 bc 57 27 04 3d 0e 22 99 bd 61 d4 53 3d
       -0.02758409 0.03226408 -0.074771985 0.051716212
0003d0 1b 6f 9d 3d a7 48 03 be 33 06 2b bd e9 43 28 bd
       0.07687207 -0.12820683 -0.04175396 -0.04108039
0003e0 22 4c a6 bd d8 73 90 3d fe a8 2e 3f ad 79 9f 3d
       -0.0811999 0.070533454 0.6822661 0.0778688
0003f0 13 87 b5 bc 64 02 a4 3d c0 44 5c be 93 93 c4 be
       -0.022159135 0.080082685 -0.21510601 -0.3839384

bias f4 [15]
000000 cf f5 c7 bb a9 e6 a1 3e eb 66 e5 3e 42 83 03 bd
       -0.0061023007 0.31621292 0.44805083 -0.0321076
000010 96 1a 11 3f 8c 34 0e 3f f7 82 b0 3d c0 4f 78 bd
       0.5668119 0.5554893 0.086187296 -0.06062293
000020 24 7f 27 3e 85 5a 16 3f 1d 6a f6 3e b8 2e af 3e
       0.16357094 0.5873187 0.48127833 0.3421533
000030 54 a9 55 be 32 07 16 3f ef 8e e4 3a
       -0.20865375 0.5860473 0.0017437617

weight f4 [19, 79, 3, 3]
000000 75 dd 4d 3e b0 a8 8f 3d b0 63 bb 3b 61 0e ee 3d
       0.2010401 0.070145965 0.005718671 0.11623836
000010 ac 1e 2d 3d 53 2f a1 bd c8 5f d2 3c 69 68 31 3d
       0.04226558 -0.078703545 0.025680438 0.043312464
000020 39 8f 8b 3d a8 3c fc 3b 3a 40 e1 3c 69 04 38 bc
       0.06814427 0.0076976605 0.027496446 -0.01123152
000030 09 65 76 3d 02 1a eb bc 0c 7f 18 3c 3f 02 e7 bd
       0.06015495 -0.028698925 0.009307634 -0.11279725
000040 b9 42 86 bc 80 ce 99 bc d5 52 0e 3e da 43 e6 bb
       -0.016389238 -0.018775225 0.13898785 -0.0070271315
000050 fa c5 df bd 14 d5 12 3e a3 e1 5d 3e 82 a4 d1 3c
       -0.10926433 0.14339095 0.21668105 0.025591139
000060 82 a4 95 3d 61 cb 1f 3e 23 c2 e0 3d e0 6e 58 be
       0.07306768 0.15604927 0.10974529 -0.21136045
000070 f1 b3 54 bd 24 e2 0e 3e 8c 01 c3 3e a1 8d f3 3d
       -0.051929418 0.13953453 0.38087118 0.11892248
000080 1b 8d 00 3e 89 9d cc 3e 6b 6d d2 3e 85 e1 00 3f
       0.12553827 0.3996394 0.41099104 0.50344115
000090 11 fb 93 3c 39 59 31 be ce cc 5e be aa e9 b2 bc
       0.018064054 -0.17319192 -0.21757814 -0.021839935
0000a0 46 ea 99 bd 82 9b 82 bd 24 55 6b 3d 60 05 3e 3e
       -0.07515387 -0.06377317 0.057454243 0.18556738
0000b0 18 c7 97 3e 6b 75 49 3e 7d fe a0 3e 9e 3d 7c 3c
       0.29644084 0.19673698 0.3144416 0.01539555
0000c0 22 73 3b 3d 22 e8 ba bc a9 09 3e bd 16 15 04 3e
       0.045764096 -0.022815768 -0.04639593 0.12898669
0000d0 39 5b e8 3d 53 09 53 3e 9a 15 12 3e 06 b0 b6 3d
       0.11345524 0.20609026 0.14266053 0.089202926
0000e0 17 6a 11 3d 92 ec 71 3d 3e 62 ab bd 64 13 84 bd
       0.035501566 0.0590635 -0.083683476 -0.06449011
0000f0 7f 89 0f 3e f8 4f 28 bd c8 58 f3 bc f6 0f 48 bd
       0.14017294 -0.04109189 -0.02970542 -0.048843347
000100 08 e4 4e bd 3b 3e d0 3d 75 5f 34 be 26 e4 73 bc
       -0.050510436 0.101681195 -0.17614539 -0.014885938
000110 12 4c 20 3e 06 83 62 bd 73 62 fb bd e8 7d 30 bd
       0.15654019 -0.055300735 -0.12274637 -0.043088824
000120 88 8c 96 bd aa 85 85 be c9 a5 fb bd 1c 71 88 bc
       -0.07351023 -0.2607854 -0.122874804 -0.016655497
000130 31 24 b9 bd df 36 83 be 0e 45 75 be 7c 2a 8e 3c
       -0.09040106 -0.256278 -0.23952124 0.017354243
000140 21 a3 5f bc 13 56 c1 bc 32 6c c7 3d d3 7f 7d 3d
       -0.013649733 -0.023600614 0.097374335 0.06188948
000150 aa 97 fd bd 6c 60 32 be 8e 9e c7 3d ca 04 c5 bd
       -0.12382443 -0.17419595 0.09747039 -0.09620054
000160 3c 07 2f be a6 6e 44 bd 99 9d f4 3d bd 00 87 3e
       -0.17092603 -0.047957085 0.11944122 0.2636775
000170 dd d6 43 bc a6 03 88 be 18 66 65 be 7a 0d 10 be
       -0.011953083 -0.26565284 -0.22402227 -0.14067641
000180 ca 1a e1 bd e6 dd 2b be e0 23 08 bd 4f 35 ef bc
       -0.10991438 -0.16783866 -0.033237338 -0.029200224
000190 2b ac 0c be 8d 93 82 bc ea 9c 89 bd 44 15 87 bd
       -0.13737552 -0.015939498 -0.06719382 -0.06595853
0001a0 c0 25 cc 3b b8 18 b1 3c ca e3 b9 bd 61 b9 b6 bd
       0.006230086 0.021618232 -0.090766504 -0.08922077
0001b0 c9 9b 94 bd ec 45 1b bd ad 28 14 3c 05 b7 ba 3d
       -0.07256276 -0.03790848 0.009042901 0.091169395
0001c0 cf f8 3c 3d ae 76 17 bc b0 aa 3a 3e 83 bb f3 3d
       0.04613572 -0.009244604 0.18229175 0.119009994
0001d0 9c 79 78 3e ea 0b ca bd 64 d3 70 bd d4 a9 01 3e
       0.2426514 -0.09865554 -0.058795348 0.1266244
0001e0 d1 ee 27 bd e6 af ac bd 8c dc d4 bd db 1d b3 bd
       -0.040999237 -0.084319875 -0.103936285 -0.08745929
0001f0 13 50 1b bd b5 3c b6 bd 84 02 a6 3e 2d 8e 92 3d
       -0.03791816 -0.08898298 0.32423794 0.07156024
000200 14 63 cd bd 73 37 91 3e 23 cc 20 3e 45 4c 1b 3d
       -0.10028663 0.28362617 0.15702872 0.037914533
000210 50 26 48 3e 64 d1 0d 3e b6 2e c3 3d a1 92 78 bb
       0.19545865 0.13849407 0.09530394 -0.0037929195
000220 f4 ae 19 be 34 04 ca bd 0a 2f b5 3d f4 f8 41 be
       -0.15008146 -0.09864083 0.088468626 -0.18942624
000230 f8 bd 04 be 79 d2 b1 bd 23 56 95 be bb f3 8b be
       -0.12963092 -0.086827226 -0.2916728 -0.2733439
000240 0b 02 ab bc 3c 5d aa 3d cf f6 38 3d 12 c3 66 be
       -0.020874998 0.08318564 0.04515725 -0.22535351
000250 96 42 69 bb a6 12 a9 3d 5e 77 59 3e 55 42 55 3e
       -0.0035592667 0.0825551 0.21236941 0.20826085
000260 88 a5 5a 3e 7c 3b c4 bc 35 39 61 be 4c 39 55 be
       0.21352208 -0.023954146 -0.21994479 -0.20822638
000270 05 80 3a be a5 8e 14 be 05 47 07 be ba 77 3d bb
       -0.18212898 -0.1450754 -0.13210686 -0.0028910474
000280 ab c3 1c be 7f de 33 be e5 3c 59 3e c3 a2 4e 3e
       -0.15309016 -0.17565344 0.21214636 0.20179276
000290 9c d0 6c bd f7 48 4e bd b3 9e 7c ba 38 42 da bd
       -0.057816133 -0.050362553 -0.0009636685 -0.106571615
0002a0 72 65 a2 bc b1 d0 58 bd 14 2a 28 3d 4b 97 34 3d
       -0.019823764 -0.0529334 0.041055754 0.044089597
0002b0 20 34 13 be 68 4b 3e 3e 03 5f 05 3e 01 8f c8 38
       -0.14375353 0.18583453 0.13024525 9.56338e-05
0002c0 a3 03 7a bd e4 15 28 3d 73 a3 dc bd 4f ab 89 bd
       -0.061038624 0.0410365 -0.10773363 -0.06722128
0002d0 3f 40 f1 3b 25 d4 91 bd c5 38 e9 bc d2 ba 4d be
       0.007362395 -0.071205415 -0.028469453 -0.20090798
0002e0 4b b6 4a be 5a 6f 80 be bc 8a cc 3c ed 37 6d be
       -0.19796102 -0.25084955 0.024968497 -0.23165865
0002f0 e3 c6 39 3d 20 d1 07 3c f1 29 5b 3b 2f e5 02 bd
       0.04535569 0.008289605 0.0033441747 -0.031956848
000300 37 a9 e6 3d 1e 14 78 3d 5c db 4f 3c 2d 10 2d 3e
       0.11262744 0.06056606 0.012686577 0.16900702
000310 d2 7a 2c bc cc 95 86 3d f5 55 c7 3d 7a 88 cf 3d
       -0.0105273295 0.0657154 0.09733192 0.10133453
000320 ee fc b1 3d 14 2d d8 3c 90 9c 89 3c 16 76 86 be
       0.08690821 0.026388682 0.016798288 -0.26261967
000330 d1 18 5c 3e 8d 49 78 3e d5 da 64 be 27 01 0e 3e
       0.21493842 0.24246807 -0.22349103 0.13867627
000340 5b c6 42 3e 8e 60 33 bd 6f e1 c4 bd 1b 48 f5 bd
       0.19020979 -0.043793254 -0.096133105 -0.11976644
000350 95 a5 cc 3b 6e 2f fe 3d bf b5 34 3e ef 3a 9d bd
       0.006245325 0.1241139 0.17647456 -0.07677256
000360 42 8b 02 3e 79 1f 07 bd e9 b9 05 3e 1a 8b 27 3e
       0.12748435 -0.032989 0.130592 0.16361657
000370 0b 41 9f be e5 f6 a2 be c6 6a ae bb f6 ac 44 be
       -0.3110431 -0.3182899 -0.005322787 -0.19206604
000380 d7 0f 75 be a3 4d 54 3c 44 85 74 bc b0 c5 4d be
       -0.23931824 0.012957963 -0.014924351 -0.20094943
000390 5c 99 10 bd 25 46 0d be 6d de 65 be f3 62 b4 bd
       -0.035302505 -0.1379629 -0.2244813 -0.088079356
0003a0 77 af 3a 3e 51 18 04 3b 25 86 54 3d 6c c4 13 be
       0.18230997 0.0020156095 0.051885743 -0.14430398
0003b0 05 cb b7 be 38 5a 5d 3e b3 d4 07 be e1 d4 03 bd
       -0.3589708 0.21616447 -0.13264732 -0.03218544
0003c0 cc 9b 83 3e e6 ed 2c 3e 95 91 c7 3d 92 e9 db 3d
       0.257048 0.16887626 0.097445644 0.107379094
0003d0 1f 12 51 3d 6b c4 c9 3c a5 d5 09 bd ec 72 84 3c
       0.051042672 0.024629792 -0.033651013 0.01616808
0003e0 32 c1 ce 3d 47 f7 04 bd 89 51 30 bd 75 77 19 3e
       0.10095443 -0.032462385 -0.043046508 0.14986975
0003f0 ca 30 ad 3e c0 a7 38 be cb 85 52 be dd 9b 66 3d
       0.33826286 -0.18032742 -0.2055885 0.056300987

bias f4 [19]
000000 08 ad aa 3e 48 6b e5 bd 1d d4 bc 3e a5 2e 9d 3e
       0.33335137 -0.11202103 0.3688058 0.3069965
000010 2f 5f 88 bd 1f 89 a1 3e e5 08 b0 3e 1f a1 9e 3e
       -0.0665878 0.31549928 0.34381786 0.309823
000020 4a 18 af 3e 2e d1 ee bd d8 d1 81 3e e0 d4 68 3e
       0.3419822 -0.116609916 0.2535541 0.22737455
000030 e5 2b 77 3e 4b 60 32 3f 83 0f 3e bd 2f 4e 09 3f
       0.24137838 0.6967818 -0.046401512 0.53634924
000040 33 e3 8f 3e 01 31 6e 3e d8 8b 06 3f
       0.28103027 0.23260881 0.52557135

weight f4 [8, 79, 1, 1]
000000 69 54 24 3f c6 6a bc bd 9d 42 26 3e aa cc c3 3c
       0.641913 -0.09200053 0.16236348 0.023901302
000010 5e 87 8d 3c 81 61 9d bd 10 53 f1 3d 09 d4 0a be
       0.017276462 -0.07684613 0.11783421 -0.13557447
000020 c8 96 39 3d b2 72 ec bc 4d 3e 97 bc 30 80 bb bc
       0.04530981 -0.028863285 -0.018462325 -0.022888273
000030 62 f3 0b 3d 17 7f 17 be ee e8 4c bd 44 96 a1 bd
       0.034167655 -0.14794575 -0.050026827 -0.07889989
000040 9a d7 28 be cd 10 47 bd 38 fa b8 bd 87 49 6d bd
       -0.16488495 -0.048600007 -0.090321004 -0.05793145
000050 fc dd 99 bd 4e 61 36 bd b6 1c 7e bc 2b 36 74 bd
       -0.07513043 -0.04452639 -0.015509775 -0.05962197
000060 9f 8e 40 be a2 0c 38 bc 0f a6 4b 3d ce 06 d8 bd
       -0.18804406 -0.011233481 0.049718913 -0.10548173
000070 12 45 40 be 3d 6d 25 be 53 2c ec bd 45 4e 02 be
       -0.18776348 -0.16154952 -0.11531892 -0.1272517
000080 e0 49 1a 3d c2 36 02 3d 61 96 93 bd 0c 99 21 bc
       0.03766811 0.031790502 -0.07206417 -0.009863149
000090 86 2e ee 3c 9e 25 b1 3c dd 46 83 bd 39 07 0b 3c
       0.029074918 0.021624383 -0.064100005 0.008485609
0000a0 6d 23 15 bc a6 cb fb bd 3c 77 a7 bd fa 7a 40 bc
       -0.009102684 -0.12294702 -0.08177039 -0.01174807
0000b0 4f 88 0e be 94 fb b2 bd 43 21 c9 bd f7 10 ba bd
       -0.13919185 -0.08739391 -0.09820797 -0.09085267
0000c0 8f cc 21 be 42 c4 e9 bc 23 6e 78 bc 60 9c a1 bd
       -0.15800689 -0.028535966 -0.015162977 -0.07891154
0000d0 82 fa fd 3c 1e a6 59 bd e0 f4 1f bd 79 af 2a be
       0.03100324 -0.053136937 -0.03905189 -0.166685
0000e0 74 7e bf 3c c4 47 2e bd b0 35 c6 3d b2 36 8a bd
       0.023375727 -0.04254891 0.09678209 -0.067487136
0000f0 2d ca 02 3c bc 70 02 bc cd 18 b5 bd bb 43 dd bd
       0.007982773 -0.007961448 -0.08842621 -0.10803934
000100 09 6b bf 3d a3 10 5e bc 46 d6 36 bd 10 e3 9b bb
       0.09346587 -0.013553771 -0.04463794 -0.0047572926
000110 26 95 96 3c d8 09 dc ba d1 93 31 b9 0e 2c 6c 3d
       0.018381666 -0.0016787602 -0.00016935101 0.0576592
000120 36 d7 b0 3d b4 5e 21 3c e2 d7 60 bd 28 4c 51 3d
       0.08634798 0.009849239 -0.054893382 0.05109802
000130 45 20 05 bc 64 c8 f6 bd e1 f1 40 bc 22 1a 12 be
       -0.008125369 -0.1204994 -0.011776418 -0.14267781
000140 66 57 37 3f d5 e2 f3 3d 20 09 be bd 89 dd 4f bd
       0.71617734 0.11908499 -0.09279084 -0.05074838
000150 f2 54 c7 3d 86 ae 92 bd 49 f6 13 3e 7d 7f 88 be
       0.09732999 -0.07162194 0.14449419 -0.26659766
000160 07 60 ac 3d 99 f3 f7 bd f5 96 5e bb 7b 87 67 3c
       0.08416753 -0.121070094 -0.003396449 0.014131422
000170 5e 3f ec 3d d7 52 56 bc dc d2 b8 bd 21 ca 80 be
       0.11535524 -0.013081274 -0.09024593 -0.25154212
000180 b3 9e 91 bd a3 ef b6 3d 67 02 30 be 11 c9 85 3c
       -0.071103476 0.08932426 -0.17188416 0.016331227
000190 09 db 92 3d 32 a3 37 3e 57 dd 08 be 98 ba 4f bd
       0.07170684 0.17933348 -0.13365684 -0.05071506
0001a0 bb 01 da bd db bd 48 bd c8 fb a5 3a f7 3c b1 bd
       -0.10644861 -0.049009185 0.0012663538 -0.08654206
0001b0 2a 4e 3e 3e 96 ed 0b 3e 35 06 f3 3c d8 be 51 be
       0.18584505 0.1366485 0.029666046 -0.20482957
0001c0 77 4c 10 be 47 cf 61 3b 7f ad 86 3d 71 38 f3 bd
       -0.14091669 0.0034455822 0.065760605 -0.11876
0001d0 9d 70 ca bb 43 8c c6 bd 90 9e 54 bd f7 4b 48 be
       -0.0061779753 -0.096947215 -0.05190903 -0.19560228
0001e0 e7 7c aa be 43 e2 df bc 0a 09 5d b9 88 7d 38 3e
       -0.33298418 -0.02732957 -0.0002107957 0.18016636
0001f0 87 ff ce bd e3 77 c0 be 64 dd a1 be 3f c6 5b bd
       -0.10107332 -0.37591466 -0.3161422 -0.05365586
000200 d2 74 c2 3d 67 90 e5 3c 9e 6a 58 3e 6e b6 6e 3c
       0.09494938 0.028022958 0.21134421 0.014569862
000210 0a ba 65 3d 15 6b 03 be 34 d1 07 3d c1 67 ee 3c
       0.056085624 -0.12833817 0.033158496 0.029102208
000220 b3 17 81 bd 83 60 c6 3b 46 14 49 be 33 a6 da bd
       -0.063033484 0.0060539856 -0.1963664 -0.10676231
000230 37 56 28 be 42 11 6d be 80 b1 aa bd 77 9e 8c 3d
       -0.16439138 -0.23151115 -0.08334637 0.06866162
000240 8c 53 38 bd fa cc 7f bd 4f f5 bd 3d 84 4b 76 3b
       -0.04500155 -0.06245134 0.092753045 0.0037581632
000250 fc 8e b6 3d c4 e5 d9 3e 8e 01 f7 3c 59 39 af bd
       0.08913991 0.4255811 0.030152109 -0.0855586
000260 a9 77 19 3e d8 28 af bb 44 94 fe 3d 19 99 39 bf
       0.14987053 -0.005345445 0.12430623 -0.72499233
000270 07 81 7a 3d cb 4d 73 3d 38 53 42 3c dd 65 0e 3c
       0.061158206 0.05940036 0.011860661 0.008691278
000280 48 fb d9 3d 4a 45 4e be d8 8f 14 be 73 8a aa bd
       0.10643631 -0.20143619 -0.14507997 -0.08327188
000290 c0 af 21 3d 93 e4 4b bd 04 3e 23 bb d9 02 bd bc
       0.03947425 -0.049778532 -0.002490879 -0.023072647
0002a0 04 32 cc bb 70 3b e8 bd b9 de f7 bc eb 37 2b bd
       -0.0062315483 -0.11339462 -0.03025757 -0.041801374
0002b0 b5 a8 a6 3d 04 30 7b 3c e3 af 8b bc 47 24 53 bc
       0.08137647 0.015331272 -0.017051643 -0.012887067
0002c0 31 d3 4f bd 59 38 47 3d 3b 66 c1 ba 2c 66 92 bd
       -0.050738517 0.04863772 -0.0014755198 -0.07148394
0002d0 6d 3f 05 3d 7e 81 02 be f1 14 28 3c df fb 32 bd
       0.03253119 -0.1274471 0.010258899 -0.043697234
0002e0 2d c7 7d 3b 04 1f 23 be e3 37 37 3c 30 c5 25 3c
       0.0038723454 -0.159298 0.011182758 0.010117814
0002f0 51 18 b2 3d 0b 7f f6 bd 12 34 f2 bd 7c 84 c9 bd
       0.08696044 -0.1203595 -0.11826338 -0.098397225
000300 79 21 16 3d 0f 66 02 be fd 8c 86 bc db ed 92 3d
       0.036653016 -0.12734245 -0.01642465 0.071742736
000310 53 67 e4 3b 1c 50 05 3e 5b 48 0b 3d 16 31 10 3b
       0.006970325 0.1301884 0.03400455 0.0022001914
000320 0a f1 c3 bd 51 49 44 3c b9 4f 01 3d 77 38 03 3e
       -0.09567459 0.011980371 0.03157017 0.12814508
000330 90 63 ca bb df ab b3 bc 37 87 1d 3d 48 40 15 bd
       -0.0061764196 -0.02193254 0.03845903 -0.036438257
000340 82 0d 72 be 66 50 51 bc 76 9e 05 bc c6 5a 2a 3d
       -0.23637965 -0.012775516 -0.008155456 0.041590475
000350 07 d9 e4 bd e1 ac 12 3d dd 75 ae 3d 15 77 1d bd
       -0.11174207 0.0358094 0.085185744 -0.038443644
000360 5d 3d b5 bd 51 e7 ec bc 6a 7a d4 bd c7 82 e8 3d
       -0.08849595 -0.028918894 -0.10374911 0.11353069
000370 37 46 b5 bd 35 66 12 be c8 d8 ca bd 51 8f bb 3e
       -0.08851283 -0.14296801 -0.09904629 0.3663278
000380 b0 94 67 3e 82 f3 30 3e 44 5a 45 3e 32 5c 2c 3e
       0.22615314 0.17280391 0.19272715 0.16832045
000390 0d 7c 47 3d 4a c1 10 3e 4c e0 8c bc ab d2 94 3e
       0.04870229 0.14136234 -0.017196797 0.29066977
0003a0 13 aa e4 3d 94 87 62 3e 85 f0 46 be aa 01 fb 3d
       0.111652516 0.22122031 -0.19427688 0.12256177
0003b0 1e d1 06 3e 62 c5 80 bd 8f 1c aa 3d 8e 42 5e 3d
       0.1316571 -0.06287648 0.08306228 0.05426269
0003c0 68 a1 18 3f 50 e7 0f be 00 9e f1 3d 57 df bf bc
       0.59621286 -0.14053082 0.11797714 -0.023421926
0003d0 f2 85 c4 38 6c f5 ff bc 87 c1 83 bd 71 19 e6 bc
       9.3709576e-05 -0.031244956 -0.06433397 -0.028088303
0003e0 f4 04 b6 3d e8 be d9 3d 7d 7e b7 bd f9 e9 6e bd
       0.088876635 0.106321156 -0.089596726 -0.058328602
0003f0 ff ca d3 bd 46 a8 89 3d 3f 3e d5 bd 5e 0a 24 be
       -0.10341453 0.06721549 -0.10412263 -0.1601958

bias f4 [8]
000000 fc 2f 26 3d ad 8e 14 bc 6a b8 2a 3f e9 d8 13 3e
       0.040573105 -0.00906722 0.66687644 0.14438213
000010 b0 c9 dc 3d 34 78 13 3e 29 80 68 be e0 35 4f bf
       0.10780656 0.14401323 -0.22705139 -0.8094158

weight f4 [1, 8, 20, 20]
000000 49 56 7f bd 4a 35 24 be 93 ca 87 bd 1d 70 b3 bc
       -0.062338147 -0.16035953 -0.06630435 -0.021904046
000010 38 43 b1 bd 23 05 8e bd 31 66 e1 bd f8 7e 26 bd
       -0.08655399 -0.069345735 -0.110058196 -0.04064843
000020 93 b3 d7 bd 7d 62 c7 bd 45 42 65 bd cd 67 2b bd
       -0.10532298 -0.09735582 -0.055971403 -0.04184704
000030 c1 ea 53 3c 0e 8b e2 bd 1e 58 84 3d c8 22 11 3c
       0.012934388 -0.11061679 0.064621195 0.00885839
000040 ec f2 c1 3c 93 14 1b bd 73 67 5f bd 46 d4 d8 3d
       0.023675404 -0.037861418 -0.054542016 0.10587363
000050 3f be 17 bb 1f b4 52 3d 7b 12 45 be a7 1b 39 bc
       -0.0023154167 0.051441308 -0.19245331 -0.011298097
000060 92 25 82 bd c3 bc 15 be ec 19 0f be 94 8a 46 bb
       -0.06354822 -0.14622788 -0.13974732 -0.0030295001
000070 1a 51 2b bd d4 61 a6 bd dd f5 a0 bd d0 b1 91 3d
       -0.04182539 -0.08124128 -0.07859395 0.07113993
000080 a5 9c 89 3d 4b 70 9f bd 73 24 87 3b ae 87 0d 3d
       0.06719331 -0.0778509 0.004124218 0.034553222
000090 fc 5e 19 bd e3 5c 7b bd 0f 7d 1a 3d 99 c4 a7 bd
       -0.0374441 -0.06136788 0.03771692 -0.08191795
0000a0 09 a5 1b bc 27 2d 7c bd c8 3d 0f bd bb b3 38 bd
       -0.009499797 -0.061566498 -0.03497103 -0.04509328
0000b0 ac 2f 1b bb cf da d9 bc ae a7 ce 3c 2d be ae bc
       -0.0023679538 -0.026593594 0.02522644 -0.021330917
0000c0 3a de ea bc 28 e5 a5 bd 0d d5 09 be 93 a5 07 3d
       -0.028670419 -0.08100349 -0.13460179 0.03311689
0000d0 c3 41 84 3c ac d8 ed 3c 4c f4 87 3d b4 ff 2f bd
       0.016144639 0.029033981 0.06638393 -0.042968467
0000e0 93 ec 20 3d 18 87 04 3d 7a 1f 6c bc 2d 46 a8 bd
       0.039288115 0.032355398 -0.0144118015 -0.0821651
0000f0 88 b9 75 bd ca c1 46 3d cb e7 75 bd 52 a9 8e bd
       -0.05999139 0.048524655 -0.060035508 -0.06965889
000100 18 e8 ef bc 0c 77 2a bc cd 64 ea 3c 2c c0 46 3d
       -0.029285476 -0.01040436 0.028612519 0.048523113
000110 8f 7a bb bd 49 74 06 be a5 f7 fd 3c 8f 01 88 bc
       -0.091542356 -0.13130297 0.031001875 -0.016602306
000120 1b 8f 98 3c bf f2 53 bd da 0d 82 3c cc f9 37 3c
       0.018622926 -0.051745173 0.015875746 0.01122899
000130 a4 f7 53 3d 30 b0 cd 3c db 77 6b 3d dc 86 c2 3b
       0.05174984 0.025108427 0.05748735 0.0059364866
000140 6a 2f 6e bd 9d 2e 7e 3d ce 1e 61 bd 02 e4 8e bd
       -0.058150686 0.062056173 -0.05496102 -0.06977083
000150 d1 f1 2d 3d 1d 56 9b 3d 50 54 dd bc 50 68 21 bc
       0.042466942 0.07584784 -0.027017742 -0.00985153
000160 be 9b d0 bc 47 08 3a be 90 c5 40 be d3 00 50 bc
       -0.025464889 -0.1816722 -0.18825364 -0.012695509
000170 a4 b9 8d bd 93 84 13 be bf 76 87 bd cf d0 89 bd
       -0.06920174 -0.14406042 -0.06614446 -0.0672928
000180 87 7f 7b bd 23 5c 9e bc 27 a9 12 3d ae 90 5f 3c
       -0.061400916 -0.019331044 0.035805847 0.013645334
000190 c5 a6 ca bc 68 30 8d 3d 62 6f 6d 3d e0 40 e1 bb
       -0.024737725 0.068939984 0.05796755 -0.006874189
0001a0 fe 69 d9 3c 4d af 82 bc ef 64 fe bc c3 34 91 bd
       0.026539799 -0.01595273 -0.031053988 -0.070901416
0001b0 d3 ae 1b bb 8e 71 43 bd af 0a cf bd cd ca f0 bc
       -0.0023755326 -0.047715716 -0.101094596 -0.029393578
0001c0 b7 36 1a be b7 df 0a bd 87 06 e7 bc a4 e0 91 bd
       -0.15059935 -0.033904757 -0.028201355 -0.07122925
0001d0 94 35 d0 bc 62 ae f9 bc d3 95 ea 3c 37 00 19 3e
       -0.025416173 -0.03047866 0.028635895 0.14941488
0001e0 8b 53 38 be bf a5 de 3c 5e be 87 3c e4 e0 4e bd
       -0.18000619 0.027178643 0.016570266 -0.05050744
0001f0 d1 20 17 bc 68 a6 29 bb 4b 78 cf bd be 76 db bd
       -0.009224133 -0.002588654 -0.10130366 -0.10716008
000200 2f 72 e2 3d d7 03 d8 3b 51 0c a6 bd a0 79 9a bd
       0.11056935 0.0065922546 -0.08107818 -0.075427294
000210 46 02 c5 3b 4f 6a c3 bd d9 bc 40 bb 5c bd ab 3d
       0.006012234 -0.09541761 -0.0029409437 0.08385727
000220 ba 99 fb 3c 74 93 92 3c 18 05 c1 bc 37 69 8f 3d
       0.030712951 0.017892577 -0.023562 0.0700249
000230 2d 39 b6 bd 23 28 91 bd 6e c7 b9 bc ff d3 d9 bd
       -0.08897624 -0.070877336 -0.022678103 -0.10636138
000240 94 4a ab 3d c5 3b de 3d be 85 98 3d 32 e3 84 3d
       0.08363834 0.10851244 0.07447384 0.064886466
000250 af 12 b2 3c c0 2f 30 3d e2 7b 46 be a7 f6 cf bd
       0.021737425 0.043014288 -0.19383195 -0.10154467
000260 33 56 33 3d b8 fe 91 bb 6a 36 01 bd 84 65 70 bd
       0.043783378 -0.0044554137 -0.031546034 -0.058690563
000270 87 3e b9 3d ad 66 dc 3c cf a1 89 3d fb c8 4d 3d
       0.09045129 0.026904428 0.06720316 0.050240498
000280 45 33 70 bd 79 ad 52 bd 6d 77 a6 bc 03 ee 35 be
       -0.058642644 -0.051434968 -0.020320619 -0.17766576
000290 c0 fb 89 bd 60 f3 7e 3b 56 92 a1 3d e0 31 e4 3d
       -0.067374706 0.0038902387 0.078892395 0.111423254
0002a0 bd f5 b1 bd cf 3d 07 be 93 32 16 be fe dc 98 be
       -0.08689449 -0.13207172 -0.1466773 -0.29856104
0002b0 23 37 a1 bd fd 3e e3 bd 48 f3 0d bd c4 68 1a bc
       -0.078718446 -0.110959984 -0.03465584 -0.009424392
0002c0 4f d9 41 bc 91 96 14 be d8 45 1b 3d 7e 79 95 3b
       -0.011831596 -0.14510562 0.037908405 0.004561602
0002d0 d2 90 55 bd 8d 0b 23 be 6f e5 e3 bd fd cf 62 be
       -0.052140065 -0.15922375 -0.11127745 -0.22149654
0002e0 78 8a 94 bd 2b 99 68 bd 09 16 64 bd a3 56 28 3d
       -0.07252973 -0.056786697 -0.055685077 0.04109825
0002f0 a7 70 a7 bd a7 d1 2c be 1a f4 9c be 40 3f aa be
       -0.081757836 -0.16876851 -0.30654985 -0.3325138
000300 d9 2c fc bc 33 ad a4 3d 73 28 26 3d 0d 41 7e bd
       -0.030783104 0.08040848 0.04056592 -0.062073756
000310 9a 0c c1 bc f5 fe f1 bc ef 0b 2d 3d 11 14 25 bc
       -0.02356558 -0.029540518 0.04224771 -0.010075585
000320 26 67 19 be f4 be 46 be 43 69 85 be 1a 6a 82 be
       -0.14980754 -0.1940878 -0.2605687 -0.25471574
000330 b8 32 56 be f2 fe a1 bd 09 3a 58 bd 84 65 11 be
       -0.20917785 -0.07909955 -0.05278972 -0.14198881
000340 4d 70 78 be fb 45 74 be b9 24 a1 3e 5b 0d 80 be
       -0.2426159 -0.2385482 0.3147333 -0.2501019
000350 a3 85 0a 3d 67 60 9c 3d 18 32 6c 3c 1d a1 80 bc
       0.033818852 0.07635575 0.01441624 -0.015701825
000360 dc f9 de bc 76 97 a7 bd 1f a0 5c bd 26 e5 e5 3c
       -0.027218752 -0.08183186 -0.05386364 0.028063368
000370 f4 29 30 be f4 c6 b4 bd 9a d0 c5 bd b4 f6 90 be
       -0.17203504 -0.0882701 -0.09658928 -0.2831322
000380 dd 6e 6e be 26 92 3f be 66 26 2e bb 5a 05 16 be
       -0.23284478 -0.18708095 -0.002657318 -0.14650479
000390 fb 72 a1 bd 88 76 18 be a0 72 51 be 47 06 8c bd
       -0.07883259 -0.14888966 -0.20453882 -0.06837135
0003a0 b6 3e b2 3a 8e f9 a3 3d 55 23 64 bd 4c fb af 3d
       0.0013599012 0.08006583 -0.055697758 0.08592853
0003b0 ce 5f 39 bd 72 9e e9 bc ae 52 c9 bd 10 8d 0e 3d
       -0.045257382 -0.028517935 -0.09830223 0.034802496
0003c0 fe fb 19 be b5 75 a7 3b 72 89 9f bd 04 7e 03 be
       -0.15037534 0.0051104673 -0.077898875 -0.1284104
0003d0 df b5 ed bd 5e 58 2e be c4 01 28 bd 8f 3f b7 bd
       -0.11606955 -0.17025897 -0.04101731 -0.0894767
0003e0 5e 29 01 be 68 7b f7 bd 68 07 f2 bd fd be d6 bd
       -0.12613437 -0.12084085 -0.11817819 -0.10485647
0003f0 75 b8 d6 bc a6 c3 63 bc 9e d0 af 3d cf 40 d3 3d
       -0.026211003 -0.013901627 0.085847124 0.10315096
