trained_models/a2c/trial_3/MicropolisEnv-v0_weights.pt (torch_old, 893296 bytes, 13 tensors)

base.conv_0.weight f4 [64, 104, 5, 5]
000000 b7 bf 20 bb 83 57 4b 3c e0 16 25 bc 7b cc 9b bc
       -0.0024528333 0.012411001 -0.010076255 -0.019018402
000010 52 ba 30 bd ea 6a d4 3c bb a5 04 bd ee d0 6b 3c
       -0.04314644 0.025929887 -0.032384615 0.014393074
000020 ca db 99 bc 31 65 e8 bc ec f4 e1 bc 41 20 ec 3c
       -0.018781561 -0.028368564 -0.027582608 0.028823974
000030 22 3f e6 bc 78 da b1 bc 80 e0 75 39 d1 be b1 bc
       -0.028106276 -0.02171062 0.00023448654 -0.021697434
000040 e0 13 ff bc 04 62 11 bd ba f7 a6 bc 37 4b 15 bc
       -0.031137407 -0.035493866 -0.020381797 -0.009112171
000050 82 2a a3 3b 3f c1 2b 3b a3 78 d5 bc 8c 59 4b 3c
       0.0049794326 0.0026207713 -0.0260585 0.012411486
000060 8c 15 fb 3b a2 b0 1f bc 5d 22 84 3c 9d f1 df 3b
       0.0076624807 -0.009746702 0.016129667 0.0068342225
000070 0b 67 d6 3c c7 c9 b1 bc f6 61 a8 bb d2 d9 83 bc
       0.026172182 -0.02170266 -0.005138631 -0.016095076
000080 f9 02 2e bd 54 4f 18 bd 17 fa 82 bb 2a 82 8c bb
       -0.042483304 -0.03718503 -0.003997098 -0.0042879777
000090 78 1b 3b 3b 6c 2e 6b bc 72 07 d7 3b c6 d2 6d 3b
       0.0028550308 -0.01435433 0.006562167 0.003628896
0000a0 31 83 91 3b 79 82 e5 bb fe a9 5a 3b 8c 34 41 bd
       0.004440688 -0.007004079 0.0033365483 -0.047169253
0000b0 a5 e9 83 3c 8d 67 cb 3c c6 7d 0a 3d 93 0a 89 3c
       0.016102621 0.02482965 0.033811353 0.016728675
0000c0 8b ab 6a 3c 07 8e 8b bc 61 a5 b0 3c 53 94 da bc
       0.014323126 -0.017035497 0.021563234 -0.026682055
0000d0 cb 50 ad bc 16 f8 b5 3c 44 28 d9 3c 0e 86 18 3a
       -0.02115669 0.022213023 0.026508458 0.00058183155
0000e0 63 c5 bf bb cf 0c 60 bb 88 69 14 3c 99 74 e3 ba
       -0.0058523878 -0.0034187322 0.009058364 -0.0017353474
0000f0 61 98 4e bb c5 37 70 3c d4 fa 45 3d e0 0a e5 3c
       -0.003152393 0.014661734 0.04833491 0.027959287
000100 30 e8 d3 3c 3c b2 40 3b e3 0b 4d 3c 24 a9 21 3d
       0.025867552 0.002940311 0.012515041 0.039467946
000110 d4 94 a8 bc 9b 89 1d 3a 7c b0 e6 3c a0 3a 0e 3c
       -0.02057878 0.00060095795 0.028160326 0.0086809695
000120 9b 2f 51 3c c4 70 cf bc e8 4e 13 3d 2a b6 f3 bc
       0.012767698 -0.025322326 0.035963923 -0.029749949
000130 72 e9 98 bc 04 5e ab 3b 9a e7 a4 3c 54 34 35 bc
       -0.018666003 0.0052297134 0.020129967 -0.011059839
000140 ea fc 94 3c 64 33 da 3a 6a 62 99 3c 23 5c 11 bd
       0.018187005 0.0016647396 0.018723685 -0.03548826
000150 85 12 98 3c b5 01 97 3c a3 80 d3 bc 21 c7 0f bc
       0.018563518 0.018433431 -0.025818175 -0.008775503
000160 63 c3 98 3c 86 a2 b3 3c 84 9b 0f bc 84 7b 06 bd
       0.018647855 0.021928083 -0.008765105 -0.032832637
000170 70 5f 81 bc 13 0d 27 3c 5b 4d b9 3c d7 50 a6 bb
       -0.015792578 0.010195988 0.022619894 -0.005075555
000180 67 f4 83 3c cb 48 66 bc f2 e3 a3 bc c7 da 94 3c
       0.016107751 -0.014055441 -0.020006154 0.018170727
000190 e5 b0 84 3c 04 e2 7c 3c f9 60 6e bb 7a 56 23 bb
       0.016197631 0.015434746 -0.0036373718 -0.002492337
0001a0 ce 35 9d bb 6d 43 1c 3b 7b 6a 7c bc 3b 8a 55 bc
       -0.004797674 0.00238439 -0.015406246 -0.013033445
0001b0 a0 1f 66 bc cf a9 0b bc 66 ee ee 3c 32 39 88 bb
       -0.014045626 -0.008524372 0.029166412 -0.004157209
0001c0 a4 1a 90 3c 95 56 a5 bc 00 cd 21 bd 60 93 2f bc
       0.017590828 -0.020182887 -0.039502144 -0.010716289
0001d0 21 61 f0 3c bd 39 65 3b a0 ce 95 3c 31 4e 17 3a
       0.02934319 0.0034977042 0.018287003 0.00057718443
0001e0 b6 22 98 bc 6d d9 55 bc a2 5f 40 bd 4b db 79 bc
       -0.018571239 -0.013052327 -0.046966203 -0.015250037
0001f0 6e 2c 9f 3b 36 30 88 ba 5f 86 46 bc d5 93 35 3c
       0.0048575914 -0.0010390345 -0.0121169975 0.011082609
000200 c2 e5 99 3c 17 6f ef 3a 75 45 a6 3a 2f a0 1b bd
       0.018786315 0.001826736 0.0012685495 -0.03799456
000210 8a 82 86 3b 82 ef 94 bb b5 bb 09 bd 79 4d ee 3b
       0.004104917 -0.004545153 -0.033626277 0.007272419
000220 0c 62 95 bc 9a 80 75 bc ec 4a ad bc 80 81 0a 3b
       -0.018235229 -0.014984274 -0.02115389 0.0021134317
000230 67 9c 19 bd 3b b2 b1 3b dd 02 02 3d 5e 45 5a 3c
       -0.037502673 0.005422858 0.031741012 0.0133222025
000240 c2 4d ec 3b 25 a2 1f 39 c5 8d df 39 17 9d 2b bd
       0.007211418 0.00015223825 0.000426395 -0.04189786
000250 32 a9 44 bb 43 22 8b 3c 4b 6f 3c 3b b6 32 bb 3c
       -0.0030008075 0.01698411 0.002875286 0.02285133
000260 89 27 a2 3c b4 47 67 bc 6e dc f4 bc 47 65 cb 3a
       0.019794242 -0.014116216 -0.029890265 0.0015517854
000270 74 24 86 bc fa 24 33 bc 36 ab c3 3a 85 a5 d6 bc
       -0.016374804 -0.010934109 0.0014928344 -0.026201973
000280 12 24 b8 bc 6e bf 0a bd 94 df 76 bb 12 24 a7 3c
       -0.022478137 -0.033873968 -0.0037669884 0.020402942
000290 82 8f 9a 3c ba e4 33 bd c9 e2 bc bb 87 89 cb bb
       0.018867258 -0.043919303 -0.0057643396 -0.006211463
0002a0 20 e4 9a 3c 39 79 0e bd d5 d9 2e bc 19 8a 3e bc
       0.018907607 -0.034783576 -0.010672052 -0.011629605
0002b0 23 1d 9d 3c b9 85 9c 3b ba 4d a5 bc 90 14 c7 39
       0.019178933 0.004776683 -0.020178664 0.00037971558
0002c0 a3 c0 51 bc d7 ed 70 bb 5d 61 1d 3d 61 97 55 bc
       -0.012802276 -0.0036762857 0.03842293 -0.01303658
0002d0 d7 33 3f bd 72 a8 1e b9 53 35 e7 3b b3 fd 08 bc
       -0.046680298 -0.00015130805 0.0070559173 -0.008361268
0002e0 ca 2f 84 3c 17 51 1e 3b 27 c8 86 bc 83 8c 4d 3c
       0.016136069 0.002415722 -0.016452862 0.012545708
0002f0 34 26 9e bc d2 22 e4 bc 38 0e 6d 3b ca 30 2c bc
       -0.019305326 -0.027848635 0.0036171805 -0.010509679
000300 7a 1d 94 bc ef 23 68 bc b9 b4 23 3c 14 91 0f bc
       -0.018080462 -0.0141687235 0.009991818 -0.008762617
000310 52 c4 22 3c 0b 6f 95 3c cb 12 2d bd df 34 87 bc
       0.009934502 0.018241426 -0.04225425 -0.016504703
000320 62 99 83 bc 84 9b 0f bc 71 c7 87 bc 68 ad 23 3d
       -0.01606435 -0.008765105 -0.016574593 0.039960295
000330 1c f5 d0 3c e3 4a 86 3c 98 cf 04 bb 35 2a 91 3b
       0.025507502 0.01639313 -0.0020265337 0.0044300803
000340 e5 3d 54 3b 10 eb 89 bc c6 da 14 3d b0 8a 5a bc
       0.0032385525 -0.01683572 0.03634145 -0.01333873
000350 4d 72 84 bc 57 32 8c bb d9 4b 02 3d 90 e0 38 bc
       -0.016167784 -0.004278462 0.031810615 -0.011284009
000360 90 00 d0 bb 79 d3 14 bc bc 58 9d ba 72 c3 aa 3b
       -0.0063477233 -0.009083622 -0.0012004594 0.005211287
000370 6a f9 60 bc 7b ff a4 3c 29 46 d3 3c 29 ae 90 bc
       -0.01373134 0.020141354 0.02579029 -0.017661171
000380 8b 8d 27 bc 42 51 f0 3c f4 df 7c 3c 90 e2 9d 3b
       -0.010226618 0.029335622 0.015434254 0.004818268
000390 33 8c 1c bd d6 41 14 3d d6 67 b3 bc 9c 86 ac bc
       -0.038219642 0.0361956 -0.021900099 -0.02106028
0003a0 25 b5 8d 3c e3 ed 3c 3c d0 0f bd bb ce cf b1 bc
       0.01729829 0.011531326 -0.0057697073 -0.021705534
0003b0 8f a8 48 bb bf ea 2b 3c 5f 8e 0a 3b 16 e1 55 bc
       -0.0030618047 0.01049298 0.0021141989 -0.013054153
0003c0 57 1b 84 3a 55 c4 24 bc 49 b0 87 bc db 89 ea 3c
       0.0010078949 -0.010056575 -0.016563552 0.028630188
0003d0 7f 4f 26 3c 2b 15 a7 bc 99 a9 11 3b 72 ab 3d 3d
       0.010150789 -0.020395836 0.0022226332 0.04630608
0003e0 6a 71 f3 bc 99 4d 46 bb ea b2 3c bb ca 91 ad bc
       -0.029717166 -0.0030258654 -0.0028793165 -0.021187682
0003f0 cc e1 5a 3d 6e c4 ed 3b 3a 09 79 3c ef b3 93 bc
       0.053437993 0.0072560823 0.015199954 -0.018030135

base.conv_0.bias f4 [64]
000000 ef bd 7a bc dc f2 ed bb 0f 81 5c bc 7d 19 a5 bc
       -0.015304073 -0.007261617 -0.013458504 -0.020153755
000010 15 1d 38 bc f8 9b 06 bd 7e cd 97 bc dc 8b ba bc
       -0.011237402 -0.032863587 -0.018530603 -0.022771768
000020 fd 40 30 ba 54 f4 d9 bb 24 89 11 bc 22 9a 1b bd
       -0.0006723551 -0.0066514406 -0.0088827945 -0.03798879
000030 dc 70 ab bc 2a b2 fd 3b 7e cd ae 3c 8e a3 72 bc
       -0.020927839 0.007742186 0.02133822 -0.014809502
000040 78 77 59 3d 50 2d 51 bc 7f 04 bd 3c 3c b3 7b bc
       0.05309245 -0.012767151 0.023073433 -0.015362557
000050 07 8f d6 3b bd c4 87 3c 6b 0c 1a bd 89 b3 16 3c
       0.006547812 0.016573304 -0.0376095 0.009198078
000060 08 e9 9d bc 8e 10 88 3c 9c e9 0a bb f0 65 42 3d
       -0.019276157 0.016609456 -0.002119637 0.047460496
000070 89 be 0e bc 6d 1d 1a 3c 4c 37 10 bd a2 11 d8 3b
       -0.008712419 0.00940643 -0.035208985 0.006593899
000080 2e 11 1c 3d c9 c5 86 3c 1b b9 aa bc 17 0f a3 3d
       0.03810232 0.016451733 -0.020840218 0.079618625
000090 f1 14 40 bc 01 6e 15 3d 57 53 44 3c 4c 50 2e bd
       -0.011723743 0.03648186 0.01198276 -0.042557046
0000a0 26 06 27 bd 1e a1 8b bb 2f 8a b1 bc b8 4e 98 bc
       -0.040777348 -0.00426115 -0.021672336 -0.018592224
0000b0 67 03 c6 3b 75 e3 52 bd 3b 52 1d bc d6 0b a2 3d
       0.006042886 -0.05148645 -0.009602125 0.07912414
0000c0 76 3a 3b bc 54 f0 06 3c 31 41 91 3b 9d 5c 8f 3b
       -0.011427512 0.00823601 0.0044328202 0.004375054
0000d0 df 9b ce bc 60 ab ba 3c e2 3a 8b 3c be 50 5a bd
       -0.02522081 0.022786796 0.016995851 -0.053299658
0000e0 37 b0 56 bd 6f b4 4c 3d 01 64 9c 3c a2 1a 9c bc
       -0.052414145 0.049976762 0.019090654 -0.019055668
0000f0 be ae 31 bd 6a 97 8a bc 3f cc b5 3c 73 74 9c bc
       -0.043379538 -0.016917903 0.022192119 -0.019098496

base.conv_1.weight f4 [64, 64, 3, 3]
000000 2a 88 a3 3c c4 d9 c1 bc b2 8b df 3d 7e 45 25 bd
       0.019962389 -0.023663409 0.10915317 -0.040349476
000010 c9 7f 4d bd 1b bf 86 bd 90 fc c4 3c c6 ae 74 3d
       -0.050170694 -0.06579419 0.024046212 0.05973699
000020 d8 50 e4 bc 8e 2a 80 bd f5 2f 01 bd f4 ba 89 3d
       -0.02787058 -0.06258117 -0.031539876 0.067251116
000030 ac ad f9 bd 1a d6 6a bb 59 d4 41 bc 59 49 30 bb
       -0.121913284 -0.003583318 -0.011830413 -0.0026899187
000040 f0 d6 42 bd 81 b7 f6 bc c3 0d d5 3d 89 54 32 bd
       -0.04756826 -0.030116798 0.104030155 -0.04353765
000050 92 3c c4 3c 6b 77 48 3c aa 3c 79 3d 39 68 79 3c
       0.023954663 0.012235503 0.06084887 0.0152226025
000060 1c f0 0a 3d 42 41 03 bc cd 4d 3a bc c3 84 2d bc
       0.033920392 -0.008011164 -0.011371088 -0.010590735
000070 00 cb 8c bc fd 87 e6 39 99 d8 5a bc e1 c0 51 3b
       -0.017186642 0.00043970338 -0.013357305 0.0032005834
000080 bd 0d f0 bb 7e 50 88 bd b3 24 71 bd 21 1e 53 bc
       -0.0073258565 -0.06655978 -0.05887289 -0.012885601
000090 16 d6 a7 bd 71 74 c2 bb 83 06 17 bd 8c b4 35 bc
       -0.081951305 -0.005934291 -0.036871444 -0.011090409
0000a0 24 25 91 bd 01 4e ac bd e9 4c 68 bd 7e 2c 09 bd
       -0.07087162 -0.084133156 -0.056713972 -0.033489697
0000b0 bb 6e 7a bd 74 5f 03 bd 6d 55 5a 3a 41 48 3a bd
       -0.061140757 -0.032073453 0.00083287695 -0.045479063
0000c0 bf e8 37 3c ee 1f 96 bd a4 4c 90 bc 18 82 d5 bc
       0.011224925 -0.07330309 -0.01761467 -0.02606301
0000d0 83 2b cc bc c9 ca 87 bd 69 64 09 3d 20 f3 19 3d
       -0.024923092 -0.06630475 0.033543024 0.037585378
0000e0 94 a4 2b 3d 29 ff 5a 3d 7f 55 d8 bb 80 63 f1 ba
       0.041905 0.053465996 -0.006601989 -0.0018416494
0000f0 f0 30 8d 3c 89 15 2e bb ad d1 77 3d 2a 68 da bd
       0.01723525 -0.002656313 0.060502697 -0.10664399
000100 fb 7b e8 ba 21 0c 61 bd 7e 01 95 bd bd 49 7d bd
       -0.0017737144 -0.054943208 -0.07275675 -0.0618379
000110 9b 06 25 3c 14 d4 de 3c 29 db 00 3c 71 50 b3 3c
       0.010072376 0.027200736 0.007864752 0.021888943
000120 d5 90 10 bc 17 da 1c 3c a2 2d 18 bd bf fb e9 bc
       -0.008823593 0.009573481 -0.037152894 -0.028562425
000130 9f d3 6e 3c 35 be 02 3d 22 d0 3a bd ff 25 84 bc
       0.014576822 0.031919677 -0.045608647 -0.0161314
000140 74 62 9b bd ef 7e 21 3d bd 95 8c bc 19 92 78 3c
       -0.07587138 0.039427694 -0.017161245 0.015171551
000150 a2 c2 0a bd b6 cf 9c ba d5 42 ce bd e2 6e 12 3c
       -0.033877023 -0.0011963758 -0.10071341 0.008937569
000160 33 8f 4e bd 2a e4 02 3d f6 53 d8 3b 2b bd 17 3d
       -0.050429534 0.031955875 0.006601806 0.03704564
000170 57 07 0f 3d 81 f8 01 3c f9 a0 41 bc f5 cc 2f 3d
       0.03491911 0.007932783 -0.011818164 0.04292007
000180 50 1d 55 bd 6c 14 16 bd 05 fa 8f bc ec 68 df bc
       -0.052029908 -0.03664057 -0.017575273 -0.02727171
000190 6d 93 5d 3d 19 81 1c 3d 13 b8 b6 bc ea 6e 3a 3d
       0.054095674 0.038209055 -0.02230457 0.045515932
0001a0 db f7 59 3d 4c c4 b3 bc 81 dc 89 3d 8f 03 f5 3c
       0.05321489 -0.021944188 0.06731511 0.029908923
0001b0 ab 15 d7 3c e0 97 64 bc 21 04 96 bc ba 58 d2 3c
       0.02625545 -0.013952225 -0.018312516 0.025677074
0001c0 a0 de b9 bc c1 eb a9 bd ef 22 29 bc 4d 4e 05 3c
       -0.022689164 -0.082969196 -0.01032327 0.008136344
0001d0 54 4c 5a bd 0b 81 67 3d 74 5c f3 bc 93 1e 44 bd
       -0.05329545 0.05651955 -0.029707171 -0.04788072
0001e0 19 0c 91 bc 54 03 5b 3d a5 f3 96 bd 02 be 34 bd
       -0.017705964 0.05346997 -0.0737069 -0.044126518
0001f0 97 b4 97 bd ed 71 87 bb a4 5b 6b bd 4f b5 9e bc
       -0.07407492 -0.004133454 -0.057460442 -0.019373564
000200 a2 e1 83 bd dd 3b 1b 3d 36 aa 94 bc fe b1 63 bd
       -0.064395204 0.037898887 -0.01814757 -0.05558967
000210 ee d3 9a 3c 5c 16 3b bd 36 10 98 bd f8 98 f7 bc
       0.018899884 -0.04567562 -0.07424967 -0.030224308
000220 3e 75 a8 3c 56 6d 95 3c 3c 35 17 bd 57 e8 80 bd
       0.020563718 0.018240612 -0.036916003 -0.06294315
000230 68 c5 5b 3c 4f f6 ee ba ce 65 75 3d e0 f9 81 bd
       0.013413765 -0.0018231365 0.05991154 -0.06346488
000240 cf fd 43 bd 1d fa 03 bd dc 79 ef 3d 8d 84 4a bd
       -0.047849473 -0.03222095 0.11693165 -0.049442817
000250 24 41 ab bc e1 4d 8e 3d 81 22 bb bc d7 1e 11 3c
       -0.020905085 0.06948448 -0.022843601 0.00885745
000260 3f 8f 01 bd 6e d8 f4 bd e7 5f b0 3d 19 d2 03 bc
       -0.03163075 -0.11955343 0.08612042 -0.008045697
000270 99 02 90 bc 74 05 fd bb d2 7e 9f bd a2 72 0d be
       -0.017579364 -0.0077215973 -0.07787861 -0.1381326
000280 12 9d 86 3d 15 ee 17 be 35 b6 b2 bc 92 bd 70 bd
       0.065729275 -0.14836915 -0.021815399 -0.05877454
000290 73 21 de 3c 7f 73 14 3d 3c cf db ba b7 15 43 bd
       0.02711556 0.03624296 -0.0016770135 -0.04762813
0002a0 57 3e d8 3c ed 8d b7 3c 95 ab 4a 3c f1 81 80 3d
       0.026396913 0.022406543 0.01237001 0.06274784
0002b0 bc 99 df 3c d5 14 4e bd cf 22 30 3c e9 1d 26 bd
       0.027294986 -0.050312836 0.0107504865 -0.04055587
0002c0 60 80 7f 3d 3e f3 ad 3c a8 67 10 3d 26 cb 91 bc
       0.062378287 0.021234151 0.035255104 -0.017797064
0002d0 c7 0e 66 bc 52 00 f6 bb 35 f5 4a bd b3 e6 40 bd
       -0.014041609 -0.0075073624 -0.049550254 -0.047095012
0002e0 c1 60 20 39 e6 70 fc bc 70 9f 68 3b bd 9e c3 bd
       0.00015294833 -0.030815553 0.0035495423 -0.09551761
0002f0 8b ab 89 3c e8 86 72 3b fb 6e 8f bd 34 f9 6b bc
       0.01680543 0.003700668 -0.0700359 -0.014402676
000300 8c 14 86 bc 1e 1b 89 3c a6 9f 53 bc 54 cd 08 3c
       -0.01636722 0.016736563 -0.012916481 0.008349735
000310 66 a3 e3 bc f9 30 e3 bc 97 b2 f3 3c 0c e8 c6 bc
       -0.027787875 -0.027733313 0.029748244 -0.02428057
000320 83 f0 b6 3c 3e 4f fa 3b 13 33 27 bd 76 ab 61 3d
       0.022331482 0.007638841 -0.040820193 0.05509516
000330 6c 7a 1b 3d 6b f0 a1 bb 21 0a 46 bd 1d da ea bd
       0.037958547 -0.00494199 -0.048349503 -0.11467383
000340 36 8d 8e bd 4c c8 78 3c 1a 05 12 be 81 95 3e 3d
       -0.069605276 0.015184473 -0.14259759 0.046529297
000350 83 86 6b 3d a4 38 a1 bc 8e 2d 36 bc 3f 2e f9 bc
       0.057501327 -0.019680329 -0.0111192595 -0.03041756
000360 72 81 88 bd 0d fb 8e bd 63 27 5d bd b3 9c b1 bd
       -0.06665315 -0.06981478 -0.05399264 -0.08672466
000370 f9 4d da bd 2e 98 1c bd 5b b5 d8 bd 4d 6a b8 bd
       -0.10659403 -0.038231067 -0.10581466 -0.0900465
000380 df fb d5 bd 90 c5 49 bc c0 85 a4 bd 76 a2 9b bd
       -0.10448431 -0.012315169 -0.08033323 -0.07599346
000390 03 7c c1 3c e0 2c 1a bc eb 7b d1 3b 5e 05 f2 bc
       0.023618704 -0.009410113 0.006392946 -0.029543575
0003a0 95 86 6a bd fa 57 01 3d 68 93 0f 3d e1 f1 a6 3c
       -0.057257254 0.03157804 0.035052687 0.020379009
0003b0 cc a5 df bc 7b 26 29 bc fd 8c 78 bc 43 68 5f 3d
       -0.027300738 -0.010324116 -0.015170333 0.05454279
0003c0 3f 23 c9 3c 12 be c4 3a 64 6f e5 bc ec 46 ca bc
       0.02455294 0.0015010259 -0.028007217 -0.024692021
0003d0 a9 20 29 bd 2f d9 83 bd 67 05 c9 bc b1 d2 79 ba
       -0.041290913 -0.06437909 -0.024538709 -0.00095299917
0003e0 68 2a 0e bc 81 8f 73 bd e7 1d d1 3a df 3e a0 bd
       -0.008677103 -0.059463028 0.0015954346 -0.07824492
0003f0 5c ac 59 bc e4 13 7c 3d 1c 4f 12 bd 20 c7 09 be
       -0.013285723 0.061542407 -0.035719976 -0.13454866

base.conv_1.bias f4 [64]
000000 e3 44 f7 bd f9 b4 3b be 76 48 24 be 5e 0b 87 bd
       -0.12073686 -0.18330754 -0.16043267 -0.06593965
000010 ea 28 99 3e 7b 89 10 be 49 45 29 ba 50 13 82 bd
       0.29914027 -0.14114945 -0.00064571627 -0.0635134
000020 9d ca 85 3d dc 3c da ba b6 aa 1d bd 4d 44 06 be
       0.06532786 -0.0016650218 -0.03849288 -0.13111992
000030 56 a2 e8 bd 7e 6b 30 be 16 87 e5 b9 a0 81 82 bd
       -0.11359088 -0.17228505 -0.0004377893 -0.0637238
000040 e2 af 79 bb a7 8e 09 bd 29 e3 92 bb 62 6f 0b bd
       -0.003809922 -0.03358331 -0.004482646 -0.03404177
000050 34 48 36 be a7 95 34 ba 91 b0 96 3b 24 bc 00 bd
       -0.17800981 -0.0006888755 0.004598685 -0.031429425
000060 ea d5 22 be 78 0b b2 bd 00 be 84 3c 1e f8 ed bd
       -0.15901914 -0.08693594 0.01620388 -0.1161959
000070 8b 04 62 3c 20 4e 90 bd d3 f9 fa ba f8 8e a7 bd
       0.013795028 -0.07046151 -0.001914794 -0.08181566
000080 ec 2c b1 bc 60 c1 5b bd 9a e4 1d be 8a cd 72 37
       -0.021627866 -0.053651214 -0.15419236 1.447218e-05
000090 a8 fc 06 bd f5 dc 0f bd b1 05 3e bc b6 29 d2 bb
       -0.032955796 -0.03512283 -0.011598037 -0.0064136637
0000a0 b6 a1 a6 bd 65 cd d7 bd 5c 14 72 be 20 07 fd 3d
       -0.08136313 -0.10537223 -0.23640579 0.123548746
0000b0 16 a2 73 bd b7 be 28 bc e1 b8 f7 3c 5b 5f 06 bd
       -0.05948075 -0.010299376 0.030239524 -0.03280578
0000c0 af a3 03 bd 18 a8 9d bd d5 fd 04 be 80 f1 00 be
       -0.032138523 -0.07698077 -0.12987454 -0.12592125
0000d0 f4 3c 25 be 03 c0 ea bc cc 3b 14 3c f4 01 fd bb
       -0.16136533 -0.028656011 0.00904746 -0.00772118
0000e0 4a eb 14 bc de 42 33 be e0 81 65 3c 8a 73 31 3c
       -0.0090893 -0.17505977 0.014008015 0.010830769
0000f0 e3 be fb bd db aa ce bc 08 6d 94 bd 8a 10 ac bb
       -0.12292268 -0.025227955 -0.072473586 -0.005250995

base.input_compress.weight f4 [15, 104, 1, 1]
000000 92 82 f0 bd fa 7b 75 3d d3 aa 7f 3d 5d 25 8b 3e
       -0.11743654 0.059932686 0.06241877 0.27176943
000010 27 30 d4 3c 8a 9f 83 3c 40 10 7c 3c 70 4b ca 3e
       0.025901867 0.016067285 0.015384734 0.3951068
000020 3b ff 10 be d0 e8 c3 bd d7 1e c8 bd 96 35 41 3d
       -0.14159863 -0.0956589 -0.09771507 0.047170244
000030 8a 77 ad bc 57 62 f5 bd dc 8c 17 be 15 aa f2 3d
       -0.021175165 -0.119816475 -0.14799827 0.11848847
000040 73 2c 5e 3d cf 1c f8 bd 37 58 9c bd 0f 35 53 3d
       0.05424161 -0.1211487 -0.07634013 0.051564272
000050 d4 3e 4e be a4 c5 0b bd 01 80 a3 3b 98 ef 5e 3e
       -0.20141155 -0.03412403 0.0049896245 0.21771085
000060 86 b7 2c bd 2d 9b d2 3e 6a 8c 25 bd 43 8d b4 3c
       -0.04216721 0.41134015 -0.040417112 0.022040015
000070 25 82 48 bd 31 8a 6d 3d 0a 29 65 3e e6 c6 81 3d
       -0.04895224 0.057993118 0.22378936 0.06336765
000080 23 76 ea 3d f8 98 12 3e d9 6e 25 be bc a4 9d bd
       0.11448314 0.14316165 -0.16155566 -0.07697436
000090 99 ea e1 b9 42 88 df bd df fa ad bb 6e a2 c9 bd
       -0.00043090133 -0.10914661 -0.005309447 -0.09845434
0000a0 7b bd 20 3d 3b 6d 8f 3e 0f d0 82 be 5d aa 57 be
       0.039243203 0.28013024 -0.2554936 -0.21061082
0000b0 c0 fa 0f 3d 82 48 b9 bd 83 3f 80 bd 91 e6 ed bd
       0.035151243 -0.09047033 -0.06262114 -0.11616243
0000c0 b7 20 b9 3d 28 c5 a6 3e 53 6e e8 bb c5 d7 20 3e
       0.09039443 0.32572293 -0.00709323 0.1570731
0000d0 94 8a 96 bd 5e a2 54 3e 49 bf b2 3b 43 4a 54 3e
       -0.073506504 0.20765063 0.005454932 0.20731454
0000e0 b2 b1 ec 3c f4 fc d1 3d bf 3e be be e2 9d 39 3e
       0.028893325 0.10253325 -0.37157246 0.18126634
0000f0 bf 4b d1 be 39 35 03 3e f2 7f 31 3e 02 08 b8 bd
       -0.40878102 0.12813272 0.17333964 -0.08985902
000100 cf e3 14 bd b2 2f c9 3d 50 db cc 3d f9 26 bb 3e
       -0.036350068 0.0982355 0.10002768 0.3655317
000110 32 bb 76 be e6 60 63 bc 88 67 fe bc 0c 50 52 bd
       -0.24094847 -0.013878083 -0.031055227 -0.05134587
000120 b5 f8 47 3d 56 17 9f be f8 78 8b bd 78 92 66 3e
       0.04882117 -0.3107249 -0.06810182 0.22516811
000130 24 bb ef bd 71 8a 03 bb 4a 3e f7 3d 15 0c ef bd
       -0.11705616 -0.0020071531 0.120724276 -0.11672226
000140 75 d6 eb bd 80 9e 08 3e 88 a8 16 3d 92 7e 50 3c
       -0.11515514 0.13341713 0.036781818 0.012725489
000150 d1 30 c5 bd b6 31 86 bd 09 1e 1f bf 3f 07 76 bd
       -0.096284516 -0.0655245 -0.62155205 -0.060065504
000160 68 4c e2 3c 42 67 f7 3d 8f c8 03 3e 23 c8 71 bd
       0.027624324 0.12080242 0.12869476 -0.059028756
000170 dd 38 7e bc 4c f8 ef 3e d8 ae 3d 3e 8d c9 7d bd
       -0.015516487 0.46869123 0.18523729 -0.061959792
000180 7a 6c 8d 3d 33 51 51 bd 99 ef a7 bd ee 58 75 be
       0.06905456 -0.05110283 -0.081999965 -0.23959705
000190 36 83 df 3d 5c db ce bd 2a e4 b7 3d 1f 8a f0 3c
       0.109136984 -0.10100433 0.08979066 0.029362736
0001a0 8b d4 3b 3f eb 7f 23 3d 40 ec b2 bd be 04 86 be
       0.7337119 0.039916914 -0.08736467 -0.26175493
0001b0 4a 63 fd bc 2a 77 39 be 2a cb 0b bb d0 e6 8d be
       -0.030931134 -0.18111864 -0.0021330812 -0.27715158
0001c0 d0 73 02 bc 7f 54 91 be 9f d8 05 3d 66 36 51 be
       -0.007962182 -0.28384778 0.03267729 -0.20430908
0001d0 11 8b ac bd 52 6d 72 3e b9 b9 a6 3d 66 5a b8 3d
       -0.08424962 0.23674515 0.081408925 0.09001617
0001e0 45 c8 a6 3e 2f 1e 6f 3d cf 93 29 3d 63 d5 0d be
       0.3257467 0.058378395 0.041400727 -0.13850932
0001f0 9b 20 9e bd e1 00 0e 3f 10 cd 9c 3c 51 97 98 3e
       -0.07721063 0.5547009 0.01914075 0.29802945
000200 d6 78 a0 bc 43 56 93 be ff 4e 1e 3f c6 0c 8f bc
       -0.019588869 -0.2877675 0.6183929 -0.017462146
000210 06 0c 8f be 7c 80 bc be 6f 5f 6b 3c 9f f1 89 be
       -0.2793886 -0.36816776 0.014366015 -0.26942155
000220 a4 ec 8f bd 35 c4 99 be e0 2a b0 3d 59 75 c6 be
       -0.070275575 -0.30032507 0.08601928 -0.38761404
000230 e6 8f 2c 3e 60 93 e1 3d 2c 46 e6 bc 4a c0 99 3d
       0.16851768 0.11014438 -0.028109632 0.07507379
000240 c1 b4 9e bc ef a9 5c 3d 6d d7 d7 3e 07 71 ee bd
       -0.0193733 0.053873 0.42156544 -0.11642652
000250 61 e2 76 bd 18 74 9a 3c a5 90 3e be d3 65 f3 3e
       -0.060274485 0.018854186 -0.18609865 0.47538623
000260 6d ee 1f 3d 2a f2 6d 3e 93 6e 07 3b d4 79 83 be
       0.03904574 0.2323691 0.0020665273 -0.25678885
000270 11 71 87 3f ea 17 85 bb e7 58 28 be ff e5 ae be
       1.058138 -0.0040616887 -0.16440164 -0.34159848
000280 d8 0e b8 3c bb 40 0d be 09 40 6f 3c a1 a5 dc be
       0.022468016 -0.13794224 0.0146026695 -0.43095115
000290 ae b6 a9 3d fb 8c c2 be 0c f7 5f 3b 2e e8 e8 bc
       0.082867965 -0.37998185 0.003417435 -0.028431024
0002a0 f7 7a 27 be 35 3b bf 3d f1 61 f6 3b d1 75 b8 bd
       -0.16355501 0.09337465 0.0075189997 -0.09006847
0002b0 34 88 74 3a c1 a4 1f be 31 5f 9e bd 2b 09 28 3a
       0.0009328157 -0.15590192 -0.07733 0.00064100575
0002c0 b1 f7 4f 3e f3 5c 33 3f 83 11 ab 3c 3e 9c 43 3e
       0.2030933 0.70063704 0.020882374 0.1910257
0002d0 cc a2 b3 bc c0 cc b3 be 78 28 a6 3f 61 6e a5 bd
       -0.021928214 -0.3511715 1.29811 -0.08077694
0002e0 7c ea 8a be f7 4b 92 be c1 11 d9 bd 2a bd 1c be
       -0.27132022 -0.28573582 -0.105990894 -0.15306535
0002f0 93 98 2d 3e fe 60 00 bf 8a d5 e8 3d 58 26 e7 be
       0.16952734 -0.50148 0.11368854 -0.4514644
000300 48 ba aa bc 7b f7 78 3d 2b 11 79 3e 54 23 94 bd
       -0.020840779 0.06078289 0.24322955 -0.07233301
000310 40 37 68 bc 75 12 3e 3e 2b 92 6e bf 47 64 61 be
       -0.014173329 0.18561728 -0.93191785 -0.22010909
000320 01 25 9b 3c 2b cb 93 bd f9 e9 62 3e dd 6e a1 3f
       0.018938543 -0.072164856 0.22159566 1.2611958
000330 6d b9 c4 3d b0 52 1a be 01 36 c9 3c f2 ea c8 be
       0.0960568 -0.15070605 0.024561884 -0.3924175
000340 4e ff d7 be a1 e1 f8 bd 32 77 b3 bd e8 95 5a be
       -0.4218697 -0.1215241 -0.08762969 -0.21346247
000350 55 10 80 3d 38 5c 68 be ff 34 17 be 27 4d 98 be
       0.06253115 -0.22691429 -0.1476631 -0.29746363
000360 9e 96 a9 be c3 f6 39 be ab 16 1b 3e 40 d6 14 3d
       -0.33122724 -0.18160538 0.15145366 0.036337137
000370 c6 c4 3b bd 95 24 0b be 06 d4 ab bd 21 80 54 bf
       -0.045841955 -0.13588174 -0.0839005 -0.8300801
000380 2d da 3c bf 2b 43 d1 3d 6a 10 b1 3d 12 e5 4d 3e
       -0.7377041 0.102178894 0.08645709 0.20106915
000390 c1 9f 02 3e 7e 61 0c bf 43 90 66 bd 47 a2 59 3e
       0.12756254 -0.5483626 -0.056289922 0.2125331
0003a0 86 02 25 be 85 01 81 be b9 e6 32 bf 24 83 a4 bd
       -0.16114244 -0.25196472 -0.69883305 -0.080328256
0003b0 c8 2d 48 be 6f 98 b9 bd 9c 18 9c 3d 1f 80 bc bb
       -0.19548714 -0.090622775 0.07621881 -0.005752578
0003c0 18 61 f5 bc 93 67 85 bd 5b e9 78 be 85 6c 73 bd
       -0.029953524 -0.06513896 -0.24307768 -0.059429664
0003d0 6b ea c3 3d 7d 0e c6 bd 44 86 87 bd a8 b5 9c bd
       0.09566196 -0.09670732 -0.06617406 -0.07651836
0003e0 45 c9 a7 bd 56 66 40 bf 93 86 14 bf f7 65 c4 3d
       -0.08192686 -0.7515615 -0.58017844 0.09589761
0003f0 9f 1d 48 bc 5f 6f 4d 3d 87 62 2a be 6a 06 db be
       -0.0122140935 0.05015504 -0.16639148 -0.4277833

base.input_compress.bias f4 [15]
000000 8e 76 87 3e f4 de 18 3f d0 6d 0e bf 43 c1 8c 3e
       0.26457638 0.597152 -0.5563631 0.27491197
000010 d6 0f ea 3e ea ae 4a 3e ac 25 8f bf fa e1 23 be
       0.45715207 0.19793287 -1.1183372 -0.16004172
000020 3c e4 00 be d0 97 f0 3e e7 b8 81 3d 29 ef 6a 3d
       -0.12587065 0.46990824 0.063340954 0.057356987
000030 67 ac 7a be 7c 7f af 3d fa 0f b4 3e
       -0.24479829 0.085692376 0.3516844

base.actor_compress.weight f4 [19, 79, 3, 3]
000000 13 b2 6b bd e6 ff 4c bb 90 b8 12 bd 9c c4 11 bd
       -0.05754287 -0.0031280457 -0.035820544 -0.035587892
000010 b4 a4 eb bc 19 5c a3 bd 71 47 eb 3c 52 c4 ae bc
       -0.02876506 -0.079765506 0.02872059 -0.021333847
000020 50 81 e5 3c 25 e2 fc bb d2 ab 43 ba fc c4 99 3d
       0.028015763 -0.007717388 -0.0007464263 0.07508275
000030 d6 fb a3 3c aa be 78 3d 35 7a 9b 3d 90 b4 0c 3d
       0.020017546 0.060728706 0.075916685 0.034351885
000040 60 13 9c 3d e3 d3 09 3e db bb 9d 3c 76 96 11 3c
       0.07620883 0.13459735 0.019254616 0.00888597
000050 4e a6 e8 bb 53 c9 27 3d 9e 24 ce 3c 27 15 35 3c
       -0.007099903 0.040963482 0.025163945 0.011052406
000060 0b 14 83 3d 56 c8 1d 3d 94 47 14 3e bb 16 67 3b
       0.06400307 0.038521133 0.1448043 0.003526135
000070 6b ec 3e 3d ad 57 4e 3d f9 ca 46 3d 87 42 0e bb
       0.046612184 0.050376583 0.048533414 -0.0021707134
000080 7c b3 5c bc b8 9b b6 3c 50 fe 54 3d 4d 19 57 3d
       -0.013470527 0.02229105 0.052000344 0.052514363
000090 52 bc 7c 3e c9 43 f0 3e 36 c2 cf 3d 92 6e 93 3e
       0.24681213 0.46926716 0.10144465 0.28795296
0000a0 2f f7 0c 3f 3f 61 c9 3d 1c 66 75 3e 7b af af 3e
       0.5506467 0.09833001 0.23964733 0.34313568
0000b0 ed d7 92 3e 21 53 a3 bd 06 f1 71 bd a3 6e 00 bd
       0.28680363 -0.0797484 -0.05906775 -0.03135551
0000c0 f1 1a cf bd 01 77 3a bc fb b8 50 bb 15 3c 99 3d
       -0.101125605 -0.011380912 -0.0031848538 0.07482163
0000d0 0f 2c ec 3c 74 bc ff 3c c1 e0 9d bc 6b 38 8b bd
       0.028829603 0.031217791 -0.01927221 -0.0679787
0000e0 13 02 db bd a9 86 c8 3c 88 88 79 bd b3 2d aa bd
       -0.10693755 0.024478273 -0.060921222 -0.08309498
0000f0 ea d7 ac 3d b3 01 19 3c 7f d5 06 bd b5 8e 75 3c
       0.0843962 0.009338784 -0.03291845 0.014987637
000100 8c a6 23 3d 28 2c a6 3d 53 e6 2d bd 4f e2 df 3d
       0.039953753 0.08113891 -0.042455982 0.10931837
000110 a9 b0 61 3d d4 a1 dd bb 4f d1 90 3c ac f7 e9 3c
       0.055100117 -0.006763676 0.017677931 0.028560482
000120 c5 4e fc bc 9a f4 79 bd a6 5a b1 bc 96 5a 39 3b
       -0.030799279 -0.061024286 -0.02164967 0.0028282753
000130 14 21 3d bd d2 5c d3 bc da b0 a6 ba 9e 0f 36 3d
       -0.046174124 -0.025801096 -0.0012717501 0.044448487
000140 e0 94 3d bc 7d 5e 6a 3d 27 3e 9f 3c 8b b8 d0 3d
       -0.011571139 0.057219017 0.019438816 0.10191449
000150 27 5f b1 bc 5c 1e 09 bd aa 30 01 3d 76 8a 5e bd
       -0.021651817 -0.03347622 0.03154055 -0.054331265
000160 19 41 bc ba b1 f0 ca ba 8f 52 b7 bc 3a 5b de 3c
       -0.0014362662 -0.0015483109 -0.022378234 0.02714311
000170 5f 00 01 bd 22 5e a5 bd 93 70 71 bc fc 3e 59 bd
       -0.031494495 -0.08074595 -0.014736312 -0.053038582
000180 fb 06 86 bd b7 09 34 bd 2c 77 5d bd f6 54 4e bc
       -0.065443 -0.043954577 -0.05406873 -0.012593498
000190 08 dd e8 3b 3d 46 0f bd 07 00 47 3d b8 0c 1c bb
       0.007106427 -0.034979094 0.04858401 -0.0023811292
0001a0 5c be 89 bc 16 99 02 3d c3 c7 fd 3a 49 50 69 3d
       -0.016814403 0.031884275 0.0019361902 0.05696133
0001b0 55 5e 46 bd 68 d1 f5 3c e7 6e 9d bd d0 63 b2 bc
       -0.048429806 0.03000708 -0.076871686 -0.02177611
0001c0 81 8d 6e 3c 08 17 0f bd d5 95 84 bb e9 3c 05 bd
       0.014560104 -0.034934074 -0.0040461817 -0.03252879
0001d0 c9 d6 4c 3c da 8d a0 bd e6 3e 48 3c a0 7e d7 3c
       0.012502381 -0.07839556 0.012222027 0.026305497
0001e0 8b 94 2b 3b 9d 04 f1 3b d5 54 ad 3c b0 92 24 bd
       0.0026181068 0.0073552863 0.021158615 -0.040178955
0001f0 a5 8b f0 3c e0 88 3c 3c 2c 64 d3 3d ed 8f ab 3d
       0.029363463 0.011507243 0.10321841 0.08377061
000200 1d 65 41 3d 00 5a d8 3d 08 55 c7 3d 59 37 1f 3c
       0.04721557 0.10564041 0.09733015 0.009717786
000210 cb 01 08 bd 8a 4d 02 3d 42 5b 6e bd f2 6e 94 bc
       -0.033204835 0.03181223 -0.0581925 -0.01811931
000220 3c 09 e0 bd 0f 9d 83 bd b7 36 7a 3d 8b 24 3e bd
       -0.10939261 -0.06426441 0.061087336 -0.04642157
000230 40 ec 24 bd bb b8 a1 3c 12 90 0d bd c8 ef 06 3d
       -0.040264368 0.019741407 -0.034561224 0.032943517
000240 6b cf 2c 3c 7c 7a e6 3b ee dc 20 3b c2 e5 c0 bc
       0.010547499 0.0070336442 0.0024545747 -0.023547057
000250 2b 46 84 3d e7 b4 89 3d 8b 70 0d 3d a7 65 22 3d
       0.06458696 0.067239575 0.034531157 0.039647724
000260 dd 74 6f 3d 0f ae 91 3d bb 56 ad bd 92 f1 83 3d
       0.05846106 0.07113277 -0.08463808 0.0644256
000270 6d 18 b6 3c d2 ab 53 bd ed 22 78 3d 3d af 74 3c
       0.022228444 -0.051677532 0.060580183 0.014934358
000280 e7 c7 42 bd 8c 86 14 3c b3 b7 d4 3d 6b 4f dc 3c
       -0.047553923 0.009065282 0.103866 0.026893338
000290 db fd a6 3b 26 c6 63 3d 56 dd 33 3d ba c3 0d 3d
       0.00509618 0.05560889 0.043912254 0.034610488
0002a0 79 5d 08 3c f0 ce de 3c 34 fc da 3c 60 8c 7d bc
       0.008323067 0.027198285 0.026731588 -0.015475363
0002b0 79 68 ae 3a 7c 79 24 bd 22 2d a2 3c f4 dd 9f 3d
       0.0013306282 -0.04015492 0.019796912 0.07806006
0002c0 2e 73 f2 bd 8d 28 c8 3d 2d 62 d3 3c 5d d1 0c bd
       -0.11838375 0.097733594 0.02580365 -0.034379352
0002d0 e8 68 fe bc a2 e3 4d bb e0 40 1f bb 8f af f2 bb
       -0.031055883 -0.0031416197 -0.0024300143 -0.007406182
0002e0 28 65 9d 3d ca 92 8f bc fb f8 03 3c 92 4d 7f bb
       0.0768531 -0.01752605 0.008054967 -0.0038956148
0002f0 ac 1f c8 bc 96 b1 eb bc 45 aa 26 bc 21 86 25 bc
       -0.024429165 -0.028771203 -0.010172431 -0.01010278
000300 ad 01 cd 3c 7f 09 0f bd 7b 02 05 bd 6f 72 f4 3c
       0.025025213 -0.034921166 -0.03247307 0.029839722
000310 fe 24 c0 bc 4a 6a 58 bd 78 47 a5 3d 1a 8e 81 3c
       -0.02345514 -0.05283574 0.08070272 0.01581483
000320 79 33 9b 3d de 97 94 bd 05 5a 47 bd 2c d6 aa bc
       0.07578177 -0.07255529 -0.048669834 -0.020854078
000330 19 3e 4b 3d 3e 11 94 3c 8a e0 6c 3d 0f 40 5c bb
       0.049619768 0.018074628 0.057831325 -0.0033607518
000340 5e 80 4f 3d 2e ed 29 3d 39 b0 33 3d 62 c3 a3 bd
       0.05065953 0.041485958 0.04386923 -0.07996251
000350 81 73 c5 3d 85 33 87 bc e5 aa d6 3d 47 60 f8 bb
       0.09641171 -0.016504059 0.10481814 -0.0075798365
000360 f2 af 7f 3c de d3 7e bc f4 ff b3 3d 29 f6 49 3d
       0.0156059135 -0.015553443 0.087890536 0.049307022
000370 f7 80 cf 3c bd c5 2a 3d 13 d8 ae b9 3b 19 11 3c
       0.02533005 0.041692484 -0.00033348854 0.008856113
000380 6e 99 46 3c e4 5e 72 3d 6b 24 fc 3c cb b9 90 bc
       0.012121541 0.059172526 0.030779084 -0.017666718
000390 3a 07 e7 3c b4 cb 7b bc e6 a5 0b bd 7f 8e 05 3d
       0.028201688 -0.015368391 -0.03409376 0.032606598
0003a0 43 a8 68 3d 75 e5 d3 bc f2 43 f3 bc 55 4a 01 3e
       0.056801092 -0.02586625 -0.029695485 0.12626012
0003b0 6e 73 21 3d 3f 15 83 3d 83 c0 f7 3c 52 a4 1b 3d
       0.039416723 0.06400537 0.030243164 0.037998505
0003c0 6e 0d ab 3d b5 1d 83 3d f1 ea 12 3d d5 9e 33 3d
       0.08352171 0.064021505 0.03586859 0.043852646
0003d0 52 cb fa bc fc 45 1f bc ee b6 79 3d 3d 92 02 3d
       -0.030614529 -0.009721275 0.06096547 0.031877745
0003e0 c6 a0 08 bd 9d 0d d1 ba 6e 8a 30 bd c4 c0 c7 bb
       -0.03335645 -0.0015949492 -0.043100767 -0.0060959775
0003f0 32 fb b4 3c 29 90 5b bd 85 69 9a bb 13 a7 c5 bc
       0.022092436 -0.05360428 -0.004712286 -0.024127519

base.actor_compress.bias f4 [19]
000000 2b f3 15 3f e7 c8 89 3e 55 6b e0 3d b1 6b 85 3e
       0.5857417 0.2691109 0.10957972 0.26058725
000010 a4 d0 be bc d8 04 f1 3d d4 a2 28 bc 84 95 c2 3e
       -0.023292847 0.11768502 -0.0102927275 0.38004696
000020 50 d4 aa 3e 7d 23 40 3e 45 5c b1 3e 7b 62 0e 3e
       0.33365107 0.18763538 0.3464071 0.13904755
000030 e2 f6 50 bd 06 33 75 3e 1d 83 32 3e 7d 8b 6d 3e
       -0.051016696 0.23945245 0.17432828 0.23197742
000040 9a 50 99 3e 9a 7e a5 3e 46 83 8b 3e
       0.29944307 0.32323152 0.2724859

base.critic_compress.weight f4 [8, 79, 1, 1]
000000 c4 08 78 3f ad ae 45 bc 75 a4 18 3d d9 9b 90 3c
       0.96888375 -0.012065572 0.037266213 0.017652439
000010 51 06 3e bd 69 51 63 bc c8 f7 2c 3b 91 b6 8a ba
       -0.046392743 -0.01387439 0.0026392806 -0.0010582973
000020 c7 17 62 bc 3c a7 87 3c 9f a2 d9 ba 2e 22 f9 ba
       -0.013799614 0.016559236 -0.0016604251 -0.0019007379
000030 ca c5 cf bb d2 1e 51 bc e2 04 04 bc 5c 5d 35 bd
       -0.006340717 -0.012763696 -0.008057805 -0.044278488
000040 06 ca 9e bb 51 b8 87 3a 78 a3 2f ba 5d 8e 2d bd
       -0.0048458604 0.0010354613 -0.0006700079 -0.042372096
000050 63 52 52 39 f3 0a 8f bc 83 43 61 3d 35 34 fa bc
       0.00020057852 -0.017461276 0.054996025 -0.030542472
000060 ca f8 6c 3b bd 5c 34 3b 75 61 80 bc c2 81 b8 bc
       0.0036159032 0.0027521097 -0.015671471 -0.02252281
000070 75 07 52 3c 5d c5 30 bc 23 5c 47 bd 4b a4 08 3d
       0.012819161 -0.010789243 -0.048671853 0.033359807
000080 2b 85 31 bc e3 56 c9 bc 11 16 48 bd 23 39 0b bd
       -0.010834972 -0.024577564 -0.04884917 -0.033990037
000090 fb 99 51 3b 9c f1 ce bb d1 5a 13 bc 85 6a bc bb
       0.0031982649 -0.006315423 -0.00899382 -0.005750003
0000a0 e1 0b f9 3b 00 33 be bb 52 e4 33 3c f5 ef 7d bd
       0.007600293 -0.0058044195 0.010979729 -0.06199642
0000b0 86 ff 99 3b e8 61 77 bd 30 81 5f bd b9 8f f9 bc
       0.00469965 -0.060396105 -0.054566562 -0.03046404
0000c0 9c 04 72 3b 93 dd d1 b9 9d 2d d9 b9 e1 bf 11 bb
       0.0036929017 -0.00040028672 -0.0004142345 -0.0022239613
0000d0 01 bc c4 bc 0f 4c 33 3d 07 ea 4d bc fc 38 43 bd
       -0.024015428 0.043773707 -0.0125680035 -0.047661766
0000e0 33 05 40 bd 8a f3 25 ba c1 d1 c1 3b 8e 24 80 bb
       -0.04687996 -0.00063305406 0.005914897 -0.0039106077
0000f0 20 36 ba bc a3 0b 33 3c 6a 81 9c 3c 2f 19 b2 39
       -0.022730887 0.010928067 0.019104678 0.0003396957
000100 c3 3b c0 3d 6e 81 e7 3c 1e 43 86 bd f8 45 42 3e
       0.09386399 0.02825996 -0.0655577 0.18972003
000110 7a 87 5a be c5 09 09 be 36 15 a1 bd a6 38 49 be
       -0.21340743 -0.13382633 -0.07865374 -0.19650516
000120 bd 35 67 be a0 66 ce 3d 9a 3f 0c bd f5 a6 92 bd
       -0.22579093 0.10078168 -0.034240343 -0.07160751
000130 ef 87 56 be 58 40 0e 3e 82 6a 19 be e4 f6 ad 3c
       -0.20950292 0.13891733 -0.14982036 0.02123589
000140 db 91 77 3f 0c 3d 8c 3b 4e a6 4d bd 67 84 f9 3d
       0.9670693 0.0042797383 -0.05020743 0.12183457
000150 b3 26 47 bd 3b c1 e0 bb e7 ec 8b 3d e0 60 6f bd
       -0.04862089 -0.0068589724 0.06832295 -0.058441997
000160 aa eb 59 3d 17 06 b3 bc 6a 7d dc 3c 5e e9 c9 bc
       0.053203262 -0.02185349 0.02691527 -0.024647411
000170 ab 19 3a bc 29 6b 26 3c 36 b4 92 bd c6 cb 1a bc
       -0.011358659 0.010157385 -0.07163279 -0.009447997
000180 fd 5a 99 3c 0d 34 81 ba 77 48 38 bd bd 5e 6b 3c
       0.018720144 -0.0009857431 -0.044990983 0.014365849
000190 65 4c 62 bd b8 01 0d bd 7b 5c 4b 3c 7a 83 1d bd
       -0.055248637 -0.034425467 0.012412186 -0.038455464
0001a0 4e c0 fc bc 95 31 c9 bc 18 bb 4d bd b9 6d d2 3d
       -0.030853417 -0.024559775 -0.050227255 0.10274834
0001b0 95 f8 13 bd 99 e3 4b 3d ae dd 7b bc ee ef f7 bc
       -0.03612574 0.0497776 -0.015372677 -0.030265775
0001c0 9f 00 9f bd e5 27 28 3c b0 d7 d5 3a 82 53 04 be
       -0.0776379 0.010263418 0.001631489 -0.1292248
0001d0 d5 b9 8d bc 33 14 00 be 9a aa 31 bd 42 2e 63 bd
       -0.017300526 -0.12507705 -0.04337559 -0.055464037
0001e0 52 b3 cf bc 99 c2 aa bb 54 98 c1 bd 9e 16 bf 3b
       -0.025354061 -0.005211186 -0.094528824 0.0058315536
0001f0 8e d5 21 be 91 5e d1 bd a1 64 f1 bc ef 97 56 bd
       -0.15804121 -0.10223115 -0.029466929 -0.05239099
000200 50 c8 00 bd 95 9f 38 bc a0 4a 6e bc 73 05 75 3d
       -0.031441033 -0.011268516 -0.014544159 0.05981965
000210 d1 d3 77 3d a2 15 f5 3d 16 b8 87 bd ee 76 a1 bc
       0.06050474 0.11967017 -0.066269085 -0.01971003
000220 8a 82 b6 bb 4e 82 51 bc 2e 9c b8 bc 64 e0 ed bb
       -0.0055697607 -0.012787415 -0.02253541 -0.0072594155
000230 6e b1 8c bd 3c 3b 21 bd d1 bf 1a 3e 19 39 18 be
       -0.068697795 -0.03936313 0.15112235 -0.14865531
000240 a4 97 33 be 7b 0f 22 be 61 2f 22 be 76 0f 6e be
       -0.17538315 -0.15826218 -0.15838386 -0.23248085
000250 75 0e 23 be b0 9a c5 bd f9 75 a1 3e 41 a8 f0 bd
       -0.15923484 -0.09648645 0.31535318 -0.11750842
000260 2c 15 c2 bd 60 3a 72 3f 56 53 af 3e c0 88 cd 3e
       -0.094766945 0.94620323 0.34243268 0.40143394
000270 b6 59 4e be 1e 81 aa 3e 68 b5 76 bc 77 83 14 bd
       -0.2015141 0.33301634 -0.015057899 -0.036258187
000280 34 f8 7a 3f b7 d0 57 3b 05 b5 4d 3d 25 eb a2 3b
       0.9803498 0.00329308 0.05022146 0.004971879
000290 9b 11 74 3c ec 47 66 bd 75 7f f1 bc 6f 7d 4c bc
       0.014896776 -0.056220934 -0.029479722 -0.012481078
0002a0 a0 ac 8a bc e3 79 c7 3b a4 12 04 ba 0e 0b 1a bc
       -0.016928017 0.006087528 -0.0005038178 -0.00940205
0002b0 ac 04 02 bd 23 a5 d1 bc 79 87 c4 3b ea 09 02 bc
       -0.031742737 -0.025591439 0.005997595 -0.007936934
0002c0 8a 23 2f bc 64 7a d1 3c a2 3d 4c 3c aa 8d 45 bd
       -0.0106896255 0.025571056 0.012465866 -0.048230805
0002d0 7f 85 01 3c 5a 46 bf 3c a3 e1 2d bc 1e 0c c7 bc
       0.007905363 0.023348976 -0.010612878 -0.02429777
0002e0 4f 12 14 bc f4 d7 cc bb 02 ee 2c bd 89 39 c0 3b
       -0.009037568 -0.0062513296 -0.04221917 0.0058662337
0002f0 8e 7a b4 bd 5b 0b d3 bc 95 89 fd bc 21 31 f4 bb
       -0.08812438 -0.02576225 -0.030949393 -0.0074521457
000300 6d 13 eb 3a 59 4d 4c bd f4 08 5e bc 0f fc 9f bc
       0.0017934866 -0.049878452 -0.013551939 -0.01952937
000310 4a 53 0b bd af f6 05 bc 8d da 45 bc 0c a4 a4 ba
       -0.034014978 -0.00817649 -0.012076032 -0.0012561097
000320 54 6f 43 bb a8 99 b4 3d ad 50 01 bd 6a 9d b3 bb
       -0.0029820995 0.0881837 -0.03157108 -0.0054814117
000330 83 18 fd bc eb a9 a3 3a 4c 67 d3 3b 5f 89 8e bc
       -0.030895477 0.0012486553 0.006451523 -0.017399488
000340 5f 6d a6 3a ed 40 1d bc 39 88 07 bd 59 1b 0d 3a
       0.001269739 -0.009597999 -0.033088896 0.0005382798
000350 ef b3 84 bc 9a 76 ea bc cf 7e ab 3c ff dd 22 bc
       -0.01619908 -0.028621007 0.02093449 -0.009940623
000360 f1 ac b3 3c 7b 30 79 bc 09 e5 a5 bc 33 59 9b bc
       0.02193305 -0.015209313 -0.020250814 -0.018963432
000370 8a 9f 39 b9 a7 ee eb bc 0d 4e 34 be 27 34 31 be
       -0.00017702408 -0.028800322 -0.17607899 -0.17305051
000380 98 64 ca bd 33 64 8b bd 82 33 a8 be dd 46 01 be
       -0.09882468 -0.06806221 -0.32851797 -0.12624688
000390 50 8c 84 bd 3c 1c 9a 3e f3 5c d4 bd 1a e4 0e be
       -0.06472075 0.30099666 -0.10369291 -0.13954201
0003a0 43 2a 0f 3f c0 ce da 3e de 87 15 3f 6c 25 3f bd
       0.5592386 0.42735863 0.5841044 -0.046666548
0003b0 d5 75 ee 3e 10 0c 7a 3a 25 f5 86 bd fe 6c 83 bb
       0.46574274 0.00095385406 -0.06589726 -0.0040107956
0003c0 2e 2f 76 3f 34 4e 0d bd 08 c3 44 bd 99 64 70 bd
       0.9616574 -0.03449841 -0.04803756 -0.058689687
0003d0 7d 69 0e bc b4 79 19 bd ce de 33 bd 24 20 ab bb
       -0.008692143 -0.03746958 -0.043913655 -0.0052223373
0003e0 17 f8 f3 3b a6 12 81 bc 7d c8 40 bb 03 a6 5b bc
       0.007445346 -0.015755963 -0.0029416375 -0.0134062795
0003f0 52 1b 63 bd c8 ee d1 ba 8f 6b b6 bc f5 30 18 ba
       -0.055445977 -0.0016016597 -0.022268085 -0.0005805635

base.critic_compress.bias f4 [8]
000000 51 ee 14 3c a3 a0 93 be f5 bb 0e 3d 42 67 cd 3d
       0.009090022 -0.28833494 0.03484722 0.100294605
000010 7c 4b ff 3e 35 0c 87 3d 74 36 f4 bd ea 5b 2a 3e
       0.49862278 0.06594125 -0.119244486 0.16636625

base.critic_conv_1.weight f4 [1, 8, 20, 20]
000000 95 47 f0 bc b3 fe 28 bd 37 0e a8 bd d2 7f 9e bd
       -0.029331008 -0.041258525 -0.08205836 -0.077392235
000010 ba 84 4d bd d1 e8 60 bb 82 fb 37 3d c1 3a d0 3c
       -0.050175406 -0.0034318457 0.04491759 0.025418641
000020 f8 ed ee bc af 3a 84 bd 9b 95 2c bd 43 ce e2 bc
       -0.029166207 -0.064565055 -0.042134862 -0.027686244
000030 a3 43 aa bc 76 c2 6d 3d 4e b8 3b 3d 0c 0d 6e 3d
       -0.020784205 0.05804678 0.045830064 0.05811791
000040 62 af 35 bd fa ab e7 bd dc 3d 8f bd e8 72 93 bd
       -0.04435671 -0.11312099 -0.069942206 -0.07199651
000050 67 f9 56 bd a5 f8 d6 bc 84 fc ea bc 37 26 4c 3d
       -0.052483942 -0.02624161 -0.028684862 0.049841132
000060 f0 4d a7 3d c9 38 92 3d c0 81 3b 3d a8 0f 4b 3c
       0.08169162 0.07139737 0.045778036 0.012393869
000070 1d 2a 32 3d e3 d2 26 3d 3e c7 d1 3b 46 53 c6 3c
       0.043497194 0.04072846 0.0064019253 0.02420963
000080 90 18 c8 bb d6 b3 b4 3d cf 54 e1 3c 38 64 15 3d
       -0.0061064437 0.088233635 0.02750626 0.03647253
000090 cf 2a 5a bd ce b4 b9 bd 91 82 0f bd e9 e9 98 bd
       -0.05326348 -0.09067689 -0.035036627 -0.0746649
0000a0 f4 78 67 bd 2f d1 8b 3c 9b f0 0a bd 02 ad ab bc
       -0.056511834 0.01706752 -0.033920866 -0.02095652
0000b0 df f9 77 3d 74 ce 92 bd 5a 47 d1 3c 86 86 82 3d
       0.06054103 -0.07168284 0.025546718 0.063733146
0000c0 91 08 8f 3a 44 0e 0b bd f0 c9 30 bd c5 8d 3c 3c
       0.0010912587 -0.03394915 -0.043161333 0.01150841
0000d0 86 13 0a 3d 6f 00 4a 3d 6e d7 b9 3c 62 8d 8d bb
       0.033710025 0.04931682 0.022685733 -0.0043198327
0000e0 c3 31 90 bd e5 55 7d bd 88 1c 83 bd 07 1b c2 bd
       -0.07040741 -0.061849494 -0.06401926 -0.09477811
0000f0 ba d7 af bc 6c 35 92 3c f6 98 86 bc b4 c6 20 bc
       -0.021465171 0.01784774 -0.01643036 -0.0098129995
000100 24 24 f4 bc 08 12 83 bd d5 da 89 3b 5b 90 c1 bc
       -0.02980239 -0.063999236 0.004206995 -0.023628404
000110 15 03 80 bd 57 3a 0e bd 9e a2 09 3d bc d7 ad 3c
       -0.06250588 -0.034723606 0.03360235 0.021221034
000120 08 47 2a 3d c7 54 3e 3d 76 68 de 3c c8 83 0d bd
       0.041571647 0.04646757 0.02714942 -0.034549505
000130 71 e9 7d 3c 80 34 ea bc e8 0b 2b 3d 44 45 8d bd
       0.015497551 -0.028589487 0.0417594 -0.06897977
000140 df 71 46 3d 6a e2 5d 3d 86 55 97 bc 33 21 b2 bc
       0.04844844 0.054171003 -0.018473398 -0.021744346
000150 af 2d 1a 3d 64 b4 aa bd 44 d2 34 bd c8 b9 5b 3c
       0.037641224 -0.08335188 -0.044145837 0.013410993
000160 75 1a d5 3c c5 e3 c0 bd 19 a9 0a be 4f 1c 72 3c
       0.026013592 -0.094184436 -0.13541068 0.014777257
000170 41 cb 95 3d b2 c5 ac 3d 00 35 92 3d ee d9 6b 3d
       0.07314158 0.08436145 0.07139015 0.05758088
000180 a3 14 28 3d f0 c4 17 3c 3e 3d c2 3c a7 93 a5 bd
       0.041035306 0.009263262 0.023710843 -0.08084803
000190 56 d9 a2 3c 05 64 b1 bb 70 7d 6c bd d4 88 b8 bb
       0.019879024 -0.0054135346 -0.057736814 -0.0056315456
0001a0 7a f4 cf 3c 43 c4 aa bb c4 30 c1 3c 4f e6 3c bd
       0.02538513 -0.0052113845 0.023582824 -0.046118077
0001b0 1f 29 84 3d ed 8d 85 bd c3 81 f9 bc 53 45 df 3c
       0.06453156 -0.06521211 -0.030457383 0.027254736
0001c0 59 f9 18 bb 64 25 86 3c 3b 75 69 bc fc ce 76 3d
       -0.0023341982 0.016375251 -0.014249141 0.06025599
0001d0 09 be 92 3d ba 8f 16 3d c0 04 6b 3d e9 4e 80 bd
       0.071651526 0.036758162 0.057377577 -0.06265051
0001e0 c3 17 a9 3c be 05 21 bb 2c 71 43 bd 96 7a a2 bd
       0.020641213 -0.0024570073 -0.04771535 -0.07933538
0001f0 ce 39 24 bc c4 34 06 3c 29 9c d2 bc 8a cb fd 3c
       -0.010023547 0.008191291 -0.025709229 0.030980844
000200 f5 8b f8 3d 7b 34 29 3c bc 20 13 be 80 2c cb bd
       0.1213607 0.010327454 -0.14367956 -0.09920597
000210 bb 82 90 bd 24 f7 fb bb d4 dc 6e bd 05 62 4f 3d
       -0.07056185 -0.0076893736 -0.058316067 0.050630588
000220 70 8b 81 3d f9 5a 96 3d bb a1 36 3d ff 31 00 bc
       0.06325424 0.073415704 0.044587832 -0.00782442
000230 82 4c 36 bc fa 85 05 3d a4 80 76 bd e1 4a db 39
       -0.011126639 0.032598473 -0.060181275 0.00041826724
000240 45 c0 40 bd f9 24 90 3d 2a 7f c5 bc b2 8a 8f 3d
       -0.047058363 0.07038302 -0.024108488 0.07008876
000250 1c 43 b2 3d 34 59 14 3c 51 e7 12 be 53 5f 05 be
       0.08704206 0.009054471 -0.14346053 -0.13024645
000260 f9 51 75 bb cc 7c 85 3d 6e 4b ee bb d7 52 9e 3d
       -0.0037432893 0.06517944 -0.0072721755 0.07730644
000270 d3 de a4 3d 3c a7 7b 3d e3 07 23 3d 9d a8 84 bc
       0.08050313 0.061438784 0.039802443 -0.016193682
000280 c7 4a 89 3d 31 1d bf 3d d4 51 42 3d b7 cc 3d bd
       0.06703716 0.0933174 0.04744132 -0.04633781
000290 0a 79 ab bc 9d c7 44 3d 31 7e bc 3d 5b d7 0b 3e
       -0.02093174 0.04804193 0.092037566 0.1365637
0002a0 88 0e e6 3d 90 e4 2d 3d c0 83 5a bd 3f f2 e5 bc
       0.1123324 0.042454302 -0.053348303 -0.028069614
0002b0 c7 bc e6 3d 6f bb de 3d 2f 18 b0 3d 3f 4a cf 3d
       0.11266475 0.10875594 0.08598363 0.10121583
0002c0 92 5a 58 3d b2 0b f6 3c ab 08 4e 3d f3 dc f0 3c
       0.05282075 0.030034874 0.050301235 0.029402232
0002d0 e8 3d e5 3b 71 4d 9a 3d 8a 95 4e bc 12 ce 24 bd
       0.006995905 0.07534302 -0.012608895 -0.040235586
0002e0 b2 d8 0c bd 40 4d b1 3d 05 14 e0 3d f0 c1 15 3e
       -0.034386344 0.086573124 0.109413184 0.14624763
0002f0 81 99 72 3d ba f8 02 3e 0a ac 4a 3d 18 6b 6b 3d
       0.059228424 0.12790194 0.049480475 0.05747518
000300 e6 87 63 3d 0a b7 14 3e ae 18 b7 3d 08 c6 ba 3d
       0.055549525 0.14522949 0.08940254 0.09119803
000310 2c 8f b5 3d 0b 23 63 3d ce 46 99 3d fc 7b d3 3c
       0.088651985 0.05545334 0.07484208 0.025815956
000320 a4 01 20 3c 79 22 98 3c 8a d3 31 3b 9c e4 9c bc
       0.009766016 0.018571125 0.0027134144 -0.019151978
000330 23 08 55 bd 13 61 9f 3d 16 34 9c 3d 03 b8 fb 3c
       -0.052009713 0.07782187 0.07627122 0.030727392
000340 aa 5b 4e 3d 31 b7 06 bd 16 c9 55 3f d6 bd 76 bc
       0.050380386 -0.03288955 0.8350996 -0.015059909
000350 59 24 d6 3d b8 95 8d 3d ab 68 df 3d 09 90 97 3d
       0.104561515 0.06913322 0.10908636 0.074005194
000360 c6 a9 97 3d 3c 21 1a 3c f0 f2 2b 3c 0f d9 58 bd
       0.074054286 0.009407338 0.0104949325 -0.05294138
000370 f8 b8 03 3c 53 86 8f 3d b6 c7 31 bb c6 89 2e ba
       0.008039705 0.07008042 -0.0027127094 -0.0006658103
000380 c8 95 97 3c 4c 34 62 3c dc 65 55 3d f2 29 ce bc
       0.018504038 0.013806414 0.052099094 -0.025166485
000390 29 28 36 bd 40 d0 bd bd 94 d4 58 bd 9a 37 8c 3d
       -0.044471893 -0.09268236 -0.052937105 0.06846543
0003a0 d6 2c 8d 3d 74 8a 2a 3c f4 ab 4f 3d 94 cf 4c 3d
       0.068933174 0.010408986 0.050701097 0.05000265
0003b0 60 d1 99 3d 26 37 61 bd ce a2 0b b9 c1 1e 1c bd
       0.07510638 -0.054984234 -0.00013316722 -0.038115267
0003c0 13 3f be bc a1 ee 8b 3c 98 67 47 bc b3 b8 95 bd
       -0.023223436 0.01708156 -0.012170695 -0.07310619
0003d0 92 69 e7 3c ee 76 8d 3d 73 a4 8c 3d 51 8b d8 3d
       0.028248582 0.0690745 0.06867304 0.105734475
0003e0 61 71 60 3d 40 92 d1 bc ef f7 92 3c fa 8d b5 3d
       0.054795627 -0.025582433 0.01794049 0.088649705
0003f0 c5 9a 83 3d 1a 8e a5 3d fb 9c 58 3d d0 5d e7 bb
       0.06426004 0.08083744 0.052884083 -0.007060744
