trained_models/a2c/trial_6_1convpass_pop/MicropolisEnv-v0_weights.pt (torch_old, 893296 bytes, 13 tensors)

base.conv_0.weight f4 [64, 104, 5, 5]
000000 2e 79 36 bc 4e 32 93 3b c3 1d 34 bc d8 82 ee bc
       -0.01113729 0.004492081 -0.010993424 -0.029115126
000010 4f 18 50 bd 89 c7 a9 3c 40 f5 26 bd 3a 96 99 3b
       -0.050804432 0.020725029 -0.040761232 0.004687098
000020 ae e2 cb bc 55 4d da bc 92 f0 d3 bc cd a9 6e 3c
       -0.024888363 -0.026648203 -0.025871549 0.014566851
000030 6f 0b 36 bd 2e 84 f7 bc 2e d5 9b b9 ee 26 68 bc
       -0.044444498 -0.030214395 -0.00029722735 -0.014169438
000040 95 1d 15 bd cf e8 1d bd 94 ab 80 bc 14 1c a7 3a
       -0.036405165 -0.0385521 -0.015706815 0.0012749457
000050 b4 87 80 3c 88 aa 7d 3b 51 1e 70 bc 99 a6 af 3c
       0.015689708 0.003870638 -0.0146556655 0.021441745
000060 00 f1 99 3c 80 64 a2 bc 16 71 4d 3c bf 4e b1 3b
       0.018791676 -0.019823313 0.012539169 0.0054109986
000070 cb 0d d5 3c f3 72 98 bc c1 1c 80 bc fd 5a dc bc
       0.026007554 -0.0186095 -0.01563871 -0.026898855
000080 43 9d 43 bd 2b 19 22 bd 92 7e 57 bb a7 84 2c bc
       -0.0477574 -0.039574783 -0.0032881838 -0.010529674
000090 be fc 96 bb d1 df ab bc 07 4c 38 3b 16 61 0d bb
       -0.004607766 -0.020980747 0.0028121488 -0.002157276
0000a0 08 76 2d 3c bf 1a 8d bb df d2 23 3a fb 7d 43 bd
       0.010587223 -0.004306167 0.0006249379 -0.047727566
0000b0 b3 f1 33 3c 20 18 f6 3c 5a 1a fc 3c 14 c1 01 3c
       0.010982919 0.0300408 0.030774284 0.007919569
0000c0 50 cb db 3b a2 4f cf bc 52 47 c7 3b 6a 1b 2b bd
       0.0067075863 -0.025306527 0.0060815 -0.04177419
0000d0 85 f8 c4 bc a4 5d df 3c e4 1f 08 3d b7 2f 7c bc
       -0.024044285 0.027266331 0.03323354 -0.0153922355
0000e0 89 4d e6 bc 7d cf 12 bc 1b d5 6b 3c fa 45 16 3c
       -0.028113144 -0.008960602 0.01439407 0.009171957
0000f0 b5 15 18 3a d9 d6 ba 3b 86 50 63 3d fe e1 25 3d
       0.00058015744 0.0057018814 0.055496715 0.040498726
000100 58 b4 2e 3d cd 41 ce 3b 3f 93 a0 3b b9 e1 4b 3d
       0.042652458 0.006294465 0.0049003656 0.049775813
000110 0b 93 c9 bb 9e a8 8c 3c 0e 5b 0d 3d 37 87 39 3c
       -0.006151562 0.017170247 0.034510665 0.011323742
000120 7d e5 78 3c e6 6e e9 bc 33 3d f4 3c 1c bc 04 bd
       0.015191433 -0.028495263 0.029814338 -0.032405958
000130 79 68 ac bc 80 30 f3 bb 01 3d 04 3c c3 de b5 bc
       -0.02104591 -0.007421553 0.008071185 -0.022200948
000140 1f d3 1e 3c aa 3c 5c bb 32 a5 3d bb 4a 6c 30 bd
       0.00969389 -0.0033605495 -0.0028937575 -0.043072022
000150 0f 9e 7a 3c 56 58 d7 3b 3b c5 f8 bc c4 27 ee bc
       0.015296473 0.0065718098 -0.030367484 -0.029071696
000160 92 8d 8f 3c b5 7c c6 3c e3 e1 90 bc 80 7d fe bc
       0.01752356 0.024229387 -0.017685836 -0.031065702
000170 94 a2 b6 bc 8b cc ef 3c df 17 2d 3d d1 be 18 bc
       -0.02229432 0.029272338 0.042259093 -0.009322838
000180 bc 99 c4 3c 41 15 4a bc d0 c0 da b9 09 c0 19 3d
       0.023999088 -0.012334169 -0.00041723857 0.037536655
000190 5b a3 62 3c 81 49 5e 3c 4f 47 8f bb dc b9 41 bb
       0.013832892 0.013567329 -0.0043725143 -0.0029560244
0001a0 9a f5 3e bc d1 fa 80 bb 63 f5 b2 bc 60 c4 97 bc
       -0.011655236 -0.0039361496 -0.021845525 -0.018526256
0001b0 51 ac a4 bc 58 cb 8a bc 60 17 89 3c 99 3b 89 bc
       -0.020101698 -0.016942665 0.016734779 -0.016752051
0001c0 0d a4 80 3b ab 0f 05 bd 10 0e 50 bd 66 bc dd bc
       0.0039258064 -0.032485645 -0.05079466 -0.027067374
0001d0 02 e8 82 3c 95 8e 0d bc f1 a0 f8 3b e9 91 44 bc
       0.01597977 -0.008639951 0.007587545 -0.011997678
0001e0 93 72 d6 bc 1f 41 b1 bc ab 1b 65 bd ad 66 ce bc
       -0.02617768 -0.021637497 -0.05593459 -0.025195444
0001f0 14 1b f2 bb d5 f5 5d bb 88 6d 93 bc 07 db a9 3b
       -0.007388482 -0.003386845 -0.017996565 0.005183581
000200 fd 2e 31 3c 78 f8 e5 bb 7d 4a 95 3b 54 7a 23 bd
       0.010814426 -0.007018145 0.004555999 -0.039911583
000210 b0 08 c5 ba ba 49 34 bc d0 86 34 bd b8 6e 47 3c
       -0.0015032496 -0.011003906 -0.04407388 0.0121723935
000220 fb 5c ad bc d8 f8 c9 bc 1f 06 f5 bc b2 06 39 bc
       -0.0211625 -0.02465479 -0.029910145 -0.0112931
000230 69 67 17 bd f4 fd 7c 3b 28 02 b4 3c b0 44 cd b9
       -0.036963854 0.0038603516 0.021973684 -0.00039151823
000240 53 7a 5b bb 68 ff 6a 3b 3c 1b fb ba 0f 73 44 bd
       -0.003348966 0.00358578 -0.0019157897 -0.04796129
000250 d5 ff 39 bc 70 a7 74 3c ee 79 be 3b ab c6 87 3c
       -0.011352499 0.014932498 0.005812875 0.016574224
000260 1e 80 df 3b 68 c5 4c bc ac 63 b6 bc ab 7c 35 3c
       0.0068206927 -0.012498237 -0.022264324 0.011077086
000270 fc 7a b0 bc d2 c3 a6 bc 7c 1a d9 3a a9 ba aa bc
       -0.021543019 -0.020357046 0.0016563679 -0.02084096
000280 85 9f 51 bc d0 27 31 bd 4e 30 85 bc 11 d9 94 3c
       -0.01279438 -0.04325086 -0.016258385 0.018169912
000290 32 bc ba 3c d8 9a 1f bd 63 5f a5 bb 41 d1 0c bc
       0.022794817 -0.03896603 -0.0050467714 -0.008594812
0002a0 84 b3 5b 3c b7 af 0f bd d2 62 d0 bb 85 7e 61 bc
       0.013409499 -0.035079684 -0.0063594365 -0.013763075
0002b0 d4 30 7e 3c d0 fd 73 3a 4b ce 6a bc 3e 8d fb 3a
       0.015514571 0.00093075354 -0.014331411 0.0019191874
0002c0 47 4e 8a bc 07 0b 4c bc 85 8d c3 3c f8 4a 9b bc
       -0.016883029 -0.012453801 0.023871193 -0.018956646
0002d0 33 f7 42 bd da 7d 49 bb 50 a6 8c 3b cf 19 11 bc
       -0.04759903 -0.003074518 0.004292287 -0.008856251
0002e0 3a 1c 78 3c d4 c1 06 3c 1a a3 9e bc 8a 29 47 3c
       0.0151434485 0.008224923 -0.019364882 0.0121559
0002f0 3a 4d bc bc ec 00 0b bd ca 22 7a 3c 81 c5 6c bc
       -0.022986043 -0.033936426 0.015267083 -0.0144513855
000300 18 b9 c6 bc 3a da a5 bc c9 fb 18 bb ad 10 c0 3b
       -0.024258181 -0.02024566 -0.0023343435 0.005861363
000310 74 7d 2e 3c b6 c4 66 3c e4 b5 44 bd b0 09 0b bd
       0.010650028 0.0140849855 -0.048025027 -0.033944786
000320 f9 8c c9 bc 89 6b 5b bc aa b3 9a bc 4f 51 32 3d
       -0.024603354 -0.013392338 -0.018884499 0.043534573
000330 5f c3 09 3d 63 3f 0c 3b bf db 22 bc 56 56 43 3c
       0.033633586 0.0021400086 -0.009940087 0.01192244
000340 09 2d 44 3c 58 ba a0 ba 29 01 fd 3c 15 a0 0f bc
       0.011973628 -0.0012262566 0.030884342 -0.008766194
000350 a8 67 b8 bb dd e0 ab 3b 32 b4 3c 3d d5 0c 3f bc
       -0.005627591 0.0052453117 0.046070285 -0.011660774
000360 12 5a c1 3a 6b dd 83 bb e6 86 5c bb 8c 17 c3 3b
       0.0014751574 -0.004024198 -0.0033649742 0.0059537347
000370 cd 2e ba bc 05 cb c2 3c 1f fe ff 3c 60 a2 63 bc
       -0.022727394 0.023778448 0.031249104 -0.013893694
000380 c9 f5 95 bb 3e 0d c2 3c f9 39 31 3c 8e cd bd 3b
       -0.004576419 0.023687955 0.010817044 0.0057923263
000390 b8 c1 36 bd 0c 05 e2 3c c0 6b d2 bc e0 82 dc bc
       -0.04461834 0.027590297 -0.025686145 -0.026917875
0003a0 bf 9d 68 3c b4 2a 58 3b 6e 6a 68 bc 3d ea 0f bd
       0.014197766 0.0032984437 -0.014185531 -0.035135496
0003b0 47 f6 30 bc f2 df c1 3b b5 ba 4f bc ae b2 ed bc
       -0.010800905 0.005916589 -0.012678792 -0.029015865
0003c0 2e da 15 bc 0c c0 8d bc c9 07 bd bc ea 20 84 3c
       -0.009146256 -0.01730349 -0.023075001 0.016128976
0003d0 06 c5 14 bb 19 79 06 bd 69 e7 17 bc 6f 3f 1a 3d
       -0.0022700443 -0.03283033 -0.009271481 0.03765815
0003e0 f1 b6 20 bd 37 af 31 bc 1f 24 97 bb dc cf b7 bc
       -0.039236967 -0.010844997 -0.0046124603 -0.022437982
0003f0 e6 3c 56 3d c4 e8 11 39 71 10 34 3c 77 ce 9d bc
       0.05230417 0.0001391499 0.010990248 -0.01926349

base.conv_0.bias f4 [64]
000000 c8 13 11 bd da 98 45 3d b7 ba b0 bd bb fa 97 3d
       -0.035419255 0.048241474 -0.08629363 0.0742087
000010 54 5d bc be f5 ec 43 be 91 64 d1 bd 76 fa c4 bd
       -0.36789954 -0.1913336 -0.1022426 -0.09618084
000020 a8 6d b6 bf f9 11 33 be ff d9 23 be 72 c4 3b be
       -1.4252214 -0.17487325 -0.16001128 -0.18336657
000030 37 a9 b5 bd 52 36 a3 bd 47 d6 a7 3e fd a6 83 bd
       -0.08870166 -0.07969345 0.32780668 -0.06428335
000040 ff c0 1d be ba 72 06 bc f9 4d 0e 3e d0 8e 53 bd
       -0.15405653 -0.008206064 0.13896932 -0.05164987
000050 64 64 66 3d 06 d8 02 be e1 99 0b bd 05 e4 77 be
       0.056248084 -0.12777719 -0.034082297 -0.24208076
000060 60 7b 3a 3d 19 03 79 3e 0e 25 dd bd 40 71 93 bc
       0.045527816 0.24317588 -0.10798083 -0.017998338
000070 3a e0 02 be 61 1b 90 be 97 e8 2a 3e 75 b2 a0 bc
       -0.12780848 -0.28145888 0.16690288 -0.019616345
000080 01 9f 00 3e 8d a7 14 be 9c 62 26 3e 0d 8c f8 bc
       0.12560655 -0.1451704 0.16248554 -0.030340219
000090 31 5a 36 bd de 65 e6 3e 3c d9 2b be fe fc b7 3e
       -0.044519607 0.44999593 -0.16782087 0.35935205
0000a0 2d f3 df 3e 67 0c 80 bc 0c 59 98 bd 77 2d 81 3c
       0.43740216 -0.015630914 -0.07438859 0.01576875
0000b0 5d 40 53 be 93 9c 73 3e 43 aa 52 be 7b 90 6b be
       -0.20630021 0.23790197 -0.20572762 -0.23004334
0000c0 f6 1a ad 3d bb de 45 be 40 fc 8f bd ec 54 5b bf
       0.08452408 -0.19323246 -0.07030535 -0.85676455
0000d0 e6 03 f0 3d 1c 9d e3 bc f5 1a f3 bc 05 26 78 bd
       0.117194936 -0.027784877 -0.02967594 -0.060583133
0000e0 55 24 74 3e b7 48 95 3d c3 f3 99 bd 34 08 e1 bd
       0.23841985 0.0728926 -0.07517197 -0.10987893
0000f0 56 d0 87 be 89 fa 25 bb 4b 9d f5 3e f6 2e 6b bc
       -0.26526135 -0.0025326333 0.47971568 -0.014354458

base.conv_1.weight f4 [64, 64, 3, 3]
000000 25 eb 1d bc 86 35 5b bd 02 d5 ad 3d f8 e3 9a bd
       -0.009638582 -0.05351784 0.08487894 -0.07563013
000010 6e 20 a5 bd 6f 96 b6 bd 95 31 cb bb 3e 11 d9 3c
       -0.08062826 -0.08915412 -0.006200979 0.02649748
000020 a1 55 57 bd cc 71 43 3d b5 88 82 3d 6d 3d fa 3d
       -0.052571896 0.047715947 0.06373731 0.12218747
000030 38 83 0d 3d 46 b1 5b 3d b1 e7 df 3c a4 aa c3 3d
       0.034548968 0.053635858 0.027332159 0.095540315
000040 0d 6a 39 bd 91 bf 81 bc 22 db 2a 3d 15 7c bf bd
       -0.045267154 -0.015838416 0.041712888 -0.09349839
000050 b0 b7 2d bc 78 b9 1f bd 11 75 f4 3c 00 3d 47 3b
       -0.010602877 -0.038995236 0.029840978 0.003040135
000060 71 60 40 bd 2d 64 7a bd 95 8e f2 bc 83 ce 99 bd
       -0.046966974 -0.06113069 -0.029609004 -0.07510092
000070 e0 a9 28 bd fc 14 27 3b 4b 08 10 be f5 e6 99 bd
       -0.04117763 0.0025494685 -0.14065664 -0.07514755
000080 02 89 bd bd 84 1b 0d be 12 ff f6 bd 23 3d 01 be
       -0.09254648 -0.13780028 -0.120603696 -0.12620978
000090 17 df 18 be 5b 70 1d be a4 14 98 bd 20 9f 05 be
       -0.14928852 -0.15374891 -0.07425812 -0.13048983
0000a0 2b 5a 63 be 20 5e f6 bd e2 b3 9d bd 6c 23 07 be
       -0.22202365 -0.12029672 -0.077003255 -0.13197106
0000b0 b1 54 02 be be a7 13 bd 26 0e 8a bd a6 3e c7 bd
       -0.1272762 -0.036048643 -0.0674098 -0.09728746
0000c0 08 b2 dd bc b8 5f a8 bd 70 cb 13 bd 3c c3 81 3c
       -0.027062431 -0.08221382 -0.036082685 0.015840165
0000d0 c5 83 64 bb 93 54 9d bd 03 68 24 bd 00 24 c4 bc
       -0.003486858 -0.07682147 -0.040138256 -0.023942947
0000e0 d6 87 34 bd 06 94 9a 3d 59 1e 4c bb c2 58 8a bc
       -0.044074856 0.075477645 -0.0031146018 -0.016888026
0000f0 9d fb 89 3d 66 a8 86 3c 7a 96 1a 3d e0 67 c8 bd
       0.067374445 0.01643772 0.037741162 -0.097854376
000100 a0 93 c7 3c 28 79 2f bb d2 dc 0b bd 0a 37 e4 bc
       0.024362385 -0.0026775096 -0.034146138 -0.027858276
000110 f4 83 f8 3d 09 74 d9 3c 60 ba 2d 3c f9 57 65 3d
       0.12134543 0.026544588 0.010603517 0.0559921
000120 30 29 60 bd 6d 21 c3 bc 81 95 8c ba 7f a6 de bd
       -0.05472678 -0.02381965 -0.0010725708 -0.108716
000130 79 13 94 bd a0 e0 52 3d 58 79 ad bd f4 09 c4 bd
       -0.072302766 0.05148375 -0.0847041 -0.09572211
000140 8b 61 ab bd b4 40 65 3d 3c 6b 9f bd a9 d3 05 bd
       -0.08368214 0.05596991 -0.07784125 -0.032672558
000150 24 28 bd 3c bc 60 8c 3d 18 78 45 be e8 d3 9f 3d
       0.02309043 0.06854388 -0.19284093 0.0780409
000160 83 fb 4f 3c 90 fa d3 bd c8 67 b4 bd 70 7a 04 bd
       0.012694242 -0.103505254 -0.08808857 -0.032343328
000170 1d 07 08 bb a5 df 1d bd f8 13 a9 bd 99 5d 55 bd
       -0.0020756193 -0.038543362 -0.08255762 -0.052091215
000180 45 28 97 bd bb 0d 6b bd 29 94 a8 bd d6 63 f0 bd
       -0.07380728 -0.05738614 -0.08231384 -0.11737792
000190 45 e5 64 bd e5 ec 77 bd 83 fd c1 bd ab 64 ca bc
       -0.05588271 -0.060528655 -0.09472182 -0.024706205
0001a0 1c 36 38 bd ad e6 26 be 3c fe 6f 3c 84 d6 25 bc
       -0.044973478 -0.16298933 0.014648017 -0.010121945
0001b0 f9 80 ad 3d 48 6b 60 bc a1 64 dc 3c f7 23 58 3d
       0.08471865 -0.013697453 0.026903452 0.052768674
0001c0 1b 22 5c bd 4d 03 0f be 65 9f c1 3c bd c0 96 bd
       -0.053743463 -0.13966103 0.023635576 -0.07360981
0001d0 0b f9 02 be 23 c2 27 3d dc 4c f8 37 6d b3 d1 bd
       -0.12790315 0.040956628 2.9599694e-05 -0.10239301
0001e0 4c e1 df 3d 1c 47 33 3e 1a 23 c0 3c cc 3b a3 3d
       0.10931644 0.17507595 0.023454238 0.0797039
0001f0 d3 74 52 3d fc 96 c3 3c 85 ca e5 bc c2 07 63 bd
       0.051380944 0.023875706 -0.02805067 -0.05542732
000200 f7 f3 9d bc ee a9 68 3d 14 08 76 bd 69 04 24 be
       -0.01928137 0.056802683 -0.060066298 -0.16017307
000210 e4 09 23 3d e4 91 c5 bd eb 3f 05 be 24 b1 91 bb
       0.039804354 -0.09646967 -0.13012664 -0.0044461656
000220 73 ab cb 3c 03 ce 1d 3d a2 03 80 ba 63 3a e0 bd
       0.024862027 0.038526546 -0.0009766708 -0.109486364
000230 61 10 08 3d 16 05 49 3d 8a 4c 0f bb 70 e5 77 bd
       0.033218745 0.049077116 -0.002186569 -0.060521543
000240 b9 e2 88 3d c6 a3 2f 3b 9a dd bf 3d b0 f3 0c 3e
       0.06683869 0.0026800497 0.09368439 0.13764834
000250 28 0f 80 3d b7 21 fe 3d e6 bf 0f 3e 1d f3 09 3d
       0.06252891 0.12408774 0.14038047 0.033679117
000260 70 44 5a bd ff f3 08 be e7 1a 45 3c 76 27 a5 3c
       -0.053287923 -0.13374327 0.01203034 0.020160418
000270 6e 65 ef ba 6a e6 5a bd 7d eb 33 bd ac e4 07 be
       -0.0018264481 -0.053442396 -0.04392575 -0.13270825
000280 2b ec e8 3c e6 15 e2 bd 60 88 e7 3c 8a 1d 13 bd
       0.028432926 -0.11039333 0.02826327 -0.035916843
000290 be 7c ec 3c 0d f7 8d 3d 32 a5 e5 3c b3 06 4b bd
       0.028868075 0.06931887 0.028032873 -0.049566936
0002a0 a3 6e c2 3d 14 32 a1 3d db 24 f0 3c 63 1c a0 3d
       0.094937585 0.0787088 0.029314449 0.07817914
0002b0 43 a0 af 3c 45 82 87 bd 9a 98 e4 3c cd d9 1b 3d
       0.021438723 -0.06616644 0.027904797 0.038049508
0002c0 64 ed 10 3e 63 50 14 3d fd 1f cd 3d 6e f4 86 3d
       0.14153057 0.036209475 0.10015867 0.0658959
0002d0 c8 eb d8 bd fa 57 a0 bd 6a 10 9a bc e2 b9 ec bd
       -0.10591847 -0.0782928 -0.018806655 -0.11558892
0002e0 70 c1 98 bc a0 c4 74 3d 70 3a 49 bd 14 5f f5 bd
       -0.018646926 0.05975783 -0.049127996 -0.11981025
0002f0 08 d1 9e 3d 50 85 77 bd e6 25 cd bd 90 b0 03 bd
       0.07754713 -0.06042987 -0.10016994 -0.032150805
000300 26 f4 04 be e6 ad e5 bd fc e5 94 bd b3 96 ee bd
       -0.1298376 -0.11214809 -0.072704285 -0.11649837
000310 09 1c 21 be 72 ff d6 bd 61 56 10 3b 76 f1 b9 bc
       -0.15733351 -0.10497941 0.0022024142 -0.022698145
000320 7f 33 34 3c aa 71 91 bc 0d 95 1c bd 4a d5 3f 3d
       0.010998606 -0.017754395 -0.038228083 0.046834268
000330 d3 c1 7e 3c 04 80 e8 bb 82 7b 84 bd 69 b0 e2 bd
       0.015549141 -0.007095339 -0.0646887 -0.11068804
000340 61 a6 c9 bd 4b bd 77 3b 2f 8c 24 be 2a 60 9b bc
       -0.098461874 0.0037802036 -0.16069101 -0.018966753
000350 9d c8 93 bd ce 3a 92 bd 23 bd bc bd 0e ba d2 bd
       -0.07215998 -0.07140122 -0.092157625 -0.10289393
000360 40 1c 4b 3d a9 5f 7e bc 5d 9e 6e bc 84 c8 c9 3c
       0.04958749 -0.015525737 -0.014564124 0.024631746
000370 b8 d3 1a bd 24 0c ef bb 17 15 e8 3c f9 ad ba 3c
       -0.037799567 -0.0072951484 0.028330369 0.022788035
000380 6c 8f 64 bd 36 b6 18 be 45 85 53 be 9e cb 35 be
       -0.05580084 -0.14913258 -0.20656307 -0.17753455
000390 d5 ba dd bd 97 3b c3 bd 5d 6e 87 3b c6 46 92 bd
       -0.10826651 -0.0953285 0.0041330294 -0.07142405
0003a0 6c 58 4d bd fe da 98 3d b0 fb 72 3d 28 bd 26 3d
       -0.050133154 0.074636444 0.05932206 0.040707737
0003b0 97 33 f0 bc f3 ff f4 bb e8 77 ab bc dd 95 89 3d
       -0.029321475 -0.0074768006 -0.0209312 0.06718037
0003c0 73 ca 68 3d 05 96 0b 3c 2c ea 5d 3c 13 5e a6 bc
       0.056833696 0.008519654 0.0135446 -0.02030853
0003d0 be c4 ef bc 9b 8e e5 bc 1f b9 a6 bc a6 60 9d 3c
       -0.029268619 -0.028022101 -0.020351944 0.019211125
0003e0 78 39 ab 3c 53 eb 26 bd 7b 8a 05 3d ec 2f 54 bd
       0.020901427 -0.040751766 0.03260277 -0.051803514
0003f0 37 38 c6 3b 44 c0 84 3d 42 cc a7 b8 0f 3e bb bd
       0.006049182 0.06481984 -8.0012265e-05 -0.09142696

base.conv_1.bias f4 [64]
000000 d4 b9 31 be 16 74 be be 44 b0 75 be 0b fb bd bd
       -0.17356044 -0.37197942 -0.23993021 -0.09276398
000010 6f 2a aa be 4d db 25 be a1 fe 4d be 7e ea 40 3e
       -0.332355 -0.16196938 -0.20116664 0.18839452
000020 24 77 74 be 2f 6d 84 be 74 9e e7 bc 8b ea a4 bd
       -0.23873574 -0.2586455 -0.028273799 -0.08052548
000030 dc d7 46 be dc 6a 97 bb af 19 db 3d b0 36 ca bd
       -0.19418281 -0.004620893 0.10698258 -0.09873712
000040 bb 41 b6 be 84 35 77 be 54 84 79 bd f5 96 44 3e
       -0.35597023 -0.24141508 -0.060917214 0.1919821
000050 e7 60 85 be e4 5b 99 be d5 29 54 bd bb 86 a2 be
       -0.26050493 -0.2995292 -0.051797707 -0.31743416
000060 74 9a ed bd f5 0a 34 be 26 b9 f0 3d 77 e9 77 be
       -0.11601725 -0.17582305 0.11754064 -0.24210154
000070 01 96 08 be 98 15 2d be a3 02 8c 3d b5 8d 94 bd
       -0.13338472 -0.16902769 0.068364404 -0.07253591
000080 54 da e9 bd 0a 85 af 3e 2f 18 85 be 08 51 83 be
       -0.11418596 0.34281188 -0.25995013 -0.2564776
000090 56 dc 75 be 89 b9 d8 bd ca c5 cd 3d a3 01 97 be
       -0.24009833 -0.10582263 0.10047491 -0.29493436
0000a0 67 f1 bc 3e 88 3c b7 bd 79 62 17 3d 0b 78 78 3f
       0.36902925 -0.08947092 0.036959145 0.9705817
0000b0 74 7b 37 be 6b 1a 12 3e 14 7b 40 be c9 b5 40 be
       -0.17918187 0.1426789 -0.1879695 -0.18819346
0000c0 f3 ae 85 be 30 ae 4c be 9a 9a 20 be 29 a4 a3 bd
       -0.26110038 -0.19988322 -0.15683976 -0.079902954
0000d0 5f 50 89 be 54 5a b1 bd e1 1d bb be e9 49 fd bd
       -0.2681913 -0.08659807 -0.36546233 -0.12367613
0000e0 97 c6 1b be 22 72 50 be 60 08 df bd 88 29 96 bd
       -0.15212475 -0.20356038 -0.10890269 -0.0733214
0000f0 2c 93 94 3d 8e 15 d0 bd ae 2d cf bd 6c e8 6c be
       0.07254633 -0.10160361 -0.101161346 -0.23135537

base.input_compress.weight f4 [15, 104, 1, 1]
000000 7c cc 6b be 64 89 ae 3d 6c 6a c4 3d 91 65 1a 3e
       -0.23027223 0.08522299 0.09590611 0.15077807
000010 e8 ea 87 bc c3 3b 83 3d 06 5c ea bd ad e6 81 bd
       -0.016591504 0.06407883 -0.11443333 -0.06342826
000020 66 d3 29 be 74 e8 21 bf c7 65 2b bf 4f 6e b4 bd
       -0.16584548 -0.6324532 -0.66952175 -0.08810102
000030 3e be 16 be 1c d0 53 be f6 80 0c be e0 5f c9 be
       -0.14721009 -0.20684856 -0.1372107 -0.3933096
000040 8e 30 01 3f 28 f2 61 be 99 98 f2 bd e7 25 9d 3c
       0.50464714 -0.22065032 -0.11845512 0.019183112
000050 11 b0 80 be 70 02 72 3d de 70 4a be 02 eb 21 be
       -0.25134328 0.059084356 -0.19769618 -0.15812305
000060 45 3b 13 bd 10 c8 b8 bd 0c 0d db bd 49 49 6b 3d
       -0.035945196 -0.09022534 -0.10695848 0.057442937
000070 ce 77 21 3b bd 95 3c bc ec 83 45 3e 30 48 0c 3e
       0.002463806 -0.01151031 0.19288605 0.13699412
000080 ad 45 40 bc 59 7b 62 be 81 8c 1a be 7b 45 30 bf
       -0.011735362 -0.22117366 -0.1509266 -0.6885602
000090 b0 6d 03 bf 4f be 81 be 93 7d 0e be 26 48 38 be
       -0.51339245 -0.25340506 -0.1391509 -0.17996272
0000a0 ee 64 4b 3d cf a3 9d be 3e c3 08 3e 4a 20 90 be
       0.0496568 -0.3078904 0.13355729 -0.28149635
0000b0 a3 f8 20 bb 0f 74 fa bd 30 e4 f4 bd cb 88 90 3c
       -0.0024562262 -0.12229168 -0.11957586 0.017643353
0000c0 07 83 78 3d 59 49 57 bd 92 7d df bd 4e 93 8d be
       0.060671832 -0.052560184 -0.109126225 -0.27651447
0000d0 43 57 b1 bd fa 64 84 3e 62 a1 32 3d 0f 86 27 3e
       -0.08659222 0.2585829 0.043610938 0.16359733
0000e0 35 86 9f 3c da 0f 46 3e 17 74 f8 be 9a 92 4d bd
       0.019473175 0.19341984 -0.4852607 -0.05018864
0000f0 a6 a6 5e be 68 f7 1c bf e3 c1 fa be 52 44 71 be
       -0.21743259 -0.6131501 -0.4897605 -0.23561218
000100 9e 23 2e be 00 20 33 3c 7f 23 e3 3d 6b 87 90 bd
       -0.17005774 0.010932922 0.11090755 -0.07057079
000110 57 59 01 3e 15 25 87 bd e9 70 aa bd 10 b4 ab bd
       0.12631737 -0.0659887 -0.08322317 -0.083839536
000120 4d 6e d1 bc a6 09 03 3e b6 69 b6 3b ca bf 18 be
       -0.02556529 0.1279665 0.005566801 -0.14916912
000130 13 9e 84 be 28 44 a1 be 83 f1 94 be 07 c5 03 bd
       -0.2590185 -0.31497312 -0.2909051 -0.03217032
000140 cc 4f d3 bd c6 2d eb 3d 49 3f dd 3d 87 58 ee 3d
       -0.103179544 0.1148334 0.10803086 0.11637979
000150 e9 0b 35 be 3e 39 bf bd 54 b3 70 be fe ef a4 bf
       -0.17680325 -0.0933709 -0.23505908 -1.288574
000160 a3 b2 3f bf b1 61 18 bd f4 81 ca bc 8f cf 0b be
       -0.74881953 -0.03720254 -0.02472017 -0.13653396
000170 55 28 9d bb 3e 01 90 3e 28 0f 27 3f c6 3d d8 bd
       -0.0047960677 0.28125948 0.652575 -0.10558657
000180 8a 55 0d 3d bc 0f b2 bd af 6a 2b be db d1 74 3d
       0.034505405 -0.08694407 -0.16739915 0.059770446
000190 73 91 eb bc 2e 5b 10 be 14 44 e1 be 4b 54 bd bd
       -0.028755879 -0.14097282 -0.43997252 -0.09244593
0001a0 eb e3 7b 3e 32 8c df bb 03 1b 55 3e 95 1b 19 be
       0.24598663 -0.0068221325 0.20811085 -0.14951928
0001b0 19 4d f5 bd 65 35 40 bd 4f 3e 09 bc 7e 52 ff bd
       -0.11977596 -0.04692592 -0.008376672 -0.12466906
0001c0 fc 4b 41 3d a9 00 f0 3e c0 0d 2d 3e 00 a8 28 be
       0.047191605 0.46875504 0.16899776 -0.16470337
0001d0 a5 bf 7c bc 99 28 74 3e c3 e1 a3 3d cf b7 07 bc
       -0.015426551 0.23843612 0.08002045 -0.0082835695
0001e0 b5 c5 9f be f6 d8 b4 3d 5d 64 08 bd 7d f3 11 be
       -0.31205526 0.088304445 -0.03329884 -0.1425304
0001f0 75 97 44 3d ba f8 4f bf 2d ae 2e be f3 90 71 3c
       0.047996003 -0.812389 -0.1705863 0.014744031
000200 04 db 07 ba 72 61 2e bd 07 d3 bb 3d a4 89 e4 bc
       -0.0005182477 -0.0425734 0.0917111 -0.027897663
000210 61 98 9e 3c d6 8c 8b be 2a c3 6a bd 09 c9 28 be
       0.01935977 -0.27255887 -0.05731503 -0.16482939
000220 24 a3 43 bd 3d 1b 11 be 53 9d 08 3e 84 d1 78 3e
       -0.047763005 -0.14170547 0.13341264 0.24298674
000230 b7 5e da 3e 81 f2 10 3e 30 28 0a 3d 37 a8 8f 3d
       0.42650387 0.14155008 0.033729732 0.07014506
000240 1a ea a9 bc 22 3d 2f 3d 88 38 8a bd 06 5c a7 bd
       -0.020741511 0.04278291 -0.06749064 -0.08171849
000250 51 ed 08 be 5d 4f d2 3a aa 56 62 bd 6f 80 a9 bf
       -0.13371779 0.0016045381 -0.05525843 -1.324232
000260 e8 3c 67 be 31 c8 57 bd b0 ab 71 3d 29 72 33 3c
       -0.22581828 -0.05268115 0.059001625 0.010952511
000270 7e 66 1a 3f d5 0c 59 bc 1c 0f 3a 3e a8 b9 49 be
       0.6031264 -0.013247688 0.18169826 -0.19699728
000280 4a 89 0d bd 3f 11 b0 bb 6d b4 99 3c a3 f8 81 be
       -0.034554757 -0.0053731496 0.018762792 -0.25385007
000290 9f 2d 1d 3e 93 06 1e 3e c0 51 a5 3e c8 b7 ab bb
       0.15349434 0.15432195 0.32288933 -0.0052404143
0002a0 0e 2c b7 bd 27 37 c9 3d 5c 75 ca 3b 6c c7 81 be
       -0.0894395 0.098249726 0.006178541 -0.2534746
0002b0 b7 51 b4 be ab dc da bd d8 2d 25 be 66 fc b9 bb
       -0.35218593 -0.1068662 -0.16130769 -0.00567584
0002c0 ec 7f a7 3e 8f 70 de bf 22 9e a5 be 08 3e 84 3d
       0.32714784 -1.73781 -0.32347208 0.06457144
0002d0 23 a0 6a 3d a4 35 ca bc cb 7a 3b 3f b9 44 cb bd
       0.057281625 -0.024683781 0.7323424 -0.09925217
0002e0 80 a8 d3 3d 45 a6 44 bd 8f a5 cd bd 79 66 3e 3c
       0.10334873 -0.04801013 -0.100413434 0.011621111
0002f0 32 b4 36 3e e5 22 99 be b5 d0 48 3e 08 77 97 be
       0.17842177 -0.29909435 0.19610865 -0.29583
000300 3d d2 7a 3e 48 8d d0 3d 32 9c a5 3e 8e bb 85 bd
       0.24494262 0.10183197 0.3234573 -0.06529914
000310 e3 77 7f bc fa 5e bd 3e 12 c5 28 bf cc 47 24 be
       -0.015592548 0.36986524 -0.65925705 -0.16043013
000320 63 78 a7 bd 0b a8 86 bd c0 ea aa 3e f0 36 ee bf
       -0.08177259 -0.065750204 0.33382225 -1.8610516
000330 90 8a 1e bf 23 e4 25 be f7 e2 60 bc 9f 21 fd 3b
       -0.6193018 -0.16200309 -0.013725988 0.007724955
000340 39 f2 06 3f 86 35 da bb 3b c7 8b bd 73 f9 29 be
       0.5271335 -0.0066592125 -0.068251096 -0.16599064
000350 4f 1e 52 bd d4 50 68 be 34 b2 34 be 13 9e 82 be
       -0.051298436 -0.22687083 -0.17646104 -0.25511226
000360 a1 d7 70 bd 09 4d 83 be ac 7f 94 3e da cc ec bb
       -0.05879939 -0.2564471 0.29003656 -0.0072265686
000370 fd 23 7f 3d c3 d6 aa bd 94 ca b2 bd b3 cc 74 be
       0.06229018 -0.08341744 -0.08730045 -0.23906212
000380 91 a2 ba 3e 69 dd 1d bc 39 85 29 bc f3 5e 52 3e
       0.36452153 -0.009635308 -0.010346704 0.20544033
000390 cd 68 08 3e 6a 0c b8 bf 7a 09 0a be bf 72 8b bd
       0.13321228 -1.4378788 -0.13480178 -0.068089955
0003a0 31 60 0f 3e f2 61 2c be b5 11 92 3e a9 b5 e0 3c
       0.14001538 -0.16834238 0.28529134 0.027430372
0003b0 16 a0 29 be ce 97 7c bd f0 4f 2e bd e8 10 75 3b
       -0.16564974 -0.06166821 -0.042556703 0.003739411
0003c0 21 09 1e bd b1 26 2c bc 77 cd b7 3d ea b2 49 be
       -0.038582925 -0.010507272 0.08974736 -0.19697157
0003d0 ca 81 b6 3e 4d c1 16 be 4b ac 4e 3c e6 71 00 bd
       0.35645896 -0.14722176 0.01261432 -0.031358622
0003e0 21 88 ad bd 85 9e 2a bd ac 6f fa 3e 36 8d f7 bc
       -0.0847323 -0.041655082 0.48913324 -0.030218702
0003f0 b0 23 ea bd 09 ed 63 3d 61 03 27 be 0b 7d ca bf
       -0.11432588 0.055645976 -0.16309883 -1.581941

base.input_compress.bias f4 [15]
000000 b8 b3 72 3e eb a0 06 3f 9e bd 16 3f 19 f5 16 3f
       0.2370137 0.5258929 0.5888308 0.5896774
000010 10 18 2a 3e f1 6c c8 3c fb eb 99 3e 09 40 fe 3d
       0.16610742 0.02446601 0.3006285 0.124145575
000020 aa 64 1c bf ee a0 70 3f dd 97 14 3f 70 48 b6 3f
       -0.610911 0.9399556 0.58044225 1.4240856
000030 39 eb 08 be 38 8f 8c bf 0d e3 2e 3f
       -0.1337098 -1.0981207 0.683152

base.actor_compress.weight f4 [19, 79, 3, 3]
000000 58 b1 8e 3c d0 e9 22 3e 76 4d 51 3e e5 55 07 bd
       0.017418548 0.15909505 0.20439705 -0.0330409
000010 95 c5 ab 3d 7b ac 01 3e 55 ba 17 be 4e 3d 67 3c
       0.08387295 0.12663452 -0.14817174 0.014113737
000020 89 de 95 3d e9 0d 7c ba 7e 06 b4 bc 4f ae 0e 3e
       0.07317836 -0.000961511 -0.021975752 0.13933681
000030 40 bf 18 3e 2c 02 d2 3d 71 c1 fe 3d 9e 99 5c bd
       0.14916706 0.102543205 0.1243924 -0.05385744
000040 fb 52 76 bd cd 2e 0a 3c ab d5 26 bc 96 80 88 3d
       -0.06013773 0.00843401 -0.010182778 0.06665151
000050 02 39 ea 3d a6 0d b7 3d ea f9 3c bd ec 41 1a 3d
       0.114366546 0.0893815 -0.046136774 0.037660524
000060 e2 18 96 3d 57 81 fa 3c bf 8e 8a 3e 68 76 c5 bd
       0.07328965 0.030579252 0.27062032 -0.09641725
000070 a1 b5 ba 3d 2e b8 ce 3d 18 ef 13 bb c7 82 e8 3c
       0.09116674 0.10093723 -0.002257293 0.028382672
000080 e5 3e bf bc d7 cc 90 bd e9 0b 00 3e 80 7d eb 3a
       -0.02334542 -0.0707032 0.12504543 0.0017966479
000090 d3 8f 9b bc cc 7a 17 be dc 09 12 3d e1 0c b3 3d
       -0.01898948 -0.14792937 0.035653934 0.08742691
0000a0 bc 0d ae 3b 4b bd b0 3d a3 85 fd 3d 5e 3b 6e bd
       0.005311696 0.08629855 0.12379005 -0.058162086
0000b0 92 86 85 3d 93 33 8e 3d 1e 1c d6 3d 58 35 67 bd
       0.06519808 0.06943431 0.10454582 -0.056447357
0000c0 43 22 34 3d c4 2c 75 3d db 88 4f 3c ce ac a9 3d
       0.043977987 0.059857145 0.012666906 0.08284913
0000d0 13 0e 0e 3d 73 8b b0 bc 3f 7b 64 be 57 01 29 be
       0.03468139 -0.02155087 -0.2231264 -0.16504417
0000e0 c9 4d 00 be 33 f9 13 be 3a 49 2f be 0f c4 68 3d
       -0.12529673 -0.1445053 -0.17117777 0.0568276
0000f0 c6 83 f1 3c 58 63 cf bc dd c0 bd 3e c2 fc 3e bd
       0.02948178 -0.025315925 0.37061206 -0.046627767
000100 cd 1c e8 bb 3d 3c 71 3d 51 fe 2a bd 22 28 68 3d
       -0.0070835114 0.05889534 -0.04174644 0.0566789
000110 dd 9e 74 3c 62 3a 77 3b 22 49 38 3d 77 67 8e 3b
       0.014930454 0.0037724008 0.04499162 0.00434583
000120 79 dd 10 bd b6 56 89 be 90 12 09 be d6 f3 a1 bd
       -0.035367463 -0.26823968 -0.13385987 -0.07907836
000130 b6 34 14 be 10 e1 43 bd dc 0b 3f be 04 2c 04 be
       -0.14473233 -0.04782206 -0.18656868 -0.12907416
000140 cd 61 70 bd 0a 83 fd 3d da 1a 0b 3d 3e 10 93 3b
       -0.05868702 0.12378509 0.033961155 0.00448802
000150 9c 95 a7 bb ef a3 e2 bd e8 53 35 be 2f d7 13 bf
       -0.0051142704 -0.11066424 -0.17707789 -0.5775022
000160 70 7f 42 be 27 1a ad be d9 af d5 3d 2a 6c 40 be
       -0.18993926 -0.33809015 0.10433931 -0.18791261
000170 03 0b 84 3e 84 67 b3 bd 58 cb 45 be af ab bf 3a
       0.2578965 -0.087599784 -0.1931585 0.0014623309
000180 8c ba 98 be ba cc 04 bf 5b 17 ec be 88 d9 0b be
       -0.29829824 -0.5187489 -0.4611157 -0.136572
000190 8a 76 bb bd 70 01 be bc da bf 24 3d 68 fe c7 b9
       -0.09153469 -0.023194045 0.040222026 -0.00038145785
0001a0 0b 8b 3f bd c7 23 68 bd 6f b1 2a bd 15 e8 80 3d
       -0.04676346 -0.056674745 -0.04167312 0.06294266
0001b0 24 8e b7 3c 61 d0 83 3d ce e8 05 bd d6 23 60 bc
       0.022406645 0.064362295 -0.032692723 -0.013680419
0001c0 88 3f d0 3d 3e ee 44 3d a4 0b 3f bd 0e a3 f0 3a
       0.101683676 0.048078768 -0.04664196 0.0018359141
0001d0 25 1f 2b 3d 0c ad 00 be 41 ef 6b bc 73 2d 94 3d
       0.04177775 -0.12566012 -0.014400304 0.07235231
0001e0 4f 36 e4 bd 2a 99 75 bc 48 f9 76 3d 4d 44 bd bd
       -0.11143171 -0.01499013 0.060296327 -0.09241543
0001f0 c4 df d1 3d 94 a0 7f 3d 4b 92 4e 3e bc 99 0e 3e
       0.10247758 0.062409 0.20172994 0.13925833
000200 c1 4c f2 3c 93 61 0b bd 13 d8 95 bd 9c 12 50 be
       0.029577615 -0.0340286 -0.073166035 -0.20319599
000210 cf 36 17 be 06 35 1a be f5 13 66 bd ea 7a 5f 3e
       -0.14767002 -0.1505929 -0.056171376 0.21824232
000220 fb 5d 82 bd 8f e3 d3 bc b7 81 f1 3d 31 db 62 3d
       -0.063655816 -0.025865344 0.11792319 0.05538482
000230 3b ef 11 3e 99 16 b8 bd e8 60 03 be c9 e0 a6 3d
       0.14251415 -0.08988685 -0.12829936 0.08148343
000240 6d 66 7b bd 7f 6e 79 bd 3e 23 01 bd 33 4b 1f 3d
       -0.061376978 -0.060896393 -0.03152775 0.038890075
000250 e6 d3 2f bb 6b ba 71 be 80 c7 7f bd d5 af 11 3e
       -0.0026829182 -0.23606269 -0.062446117 0.14227231
000260 0c f4 71 be c1 92 51 bd ea 03 06 be c9 6e 3e bc
       -0.23628253 -0.051165346 -0.1308743 -0.011623093
000270 42 e2 59 bc e4 d4 13 3d c4 75 24 3e 85 fd b3 3d
       -0.013298573 0.0360917 0.16060549 0.087885894
000280 c3 06 30 bb 43 87 e5 3d 65 e9 c0 3d c3 da de 3d
       -0.00268595 0.1120744 0.094195165 0.10881569
000290 71 2d 28 bd 2f 32 dd bd 92 1a d3 bd 53 ae 9f 3c
       -0.04105896 -0.108005874 -0.10307802 0.019492304
0002a0 16 54 eb bd 14 04 01 bd 17 d0 4d 3c 22 8a ce bd
       -0.114906475 -0.03149803 0.0125618195 -0.100849405
0002b0 d8 e7 53 be 2d 53 2c bf 6b 38 c9 be d7 78 50 be
       -0.2069391 -0.67314416 -0.39300856 -0.20358597
0002c0 b9 5c 56 be 08 0f 05 3b f3 d6 4c 3d 11 fa 21 be
       -0.20933808 0.0020303149 0.05000968 -0.15818049
0002d0 57 2d 44 be 09 bb dc bd 2d 1d 45 be 52 97 b3 bd
       -0.19157921 -0.107778616 -0.19249411 -0.087690964
0002e0 16 84 4a be 15 c5 15 be e0 de 89 bd ab f6 31 be
       -0.1977695 -0.14625962 -0.06731963 -0.17379253
0002f0 38 27 d7 bd 82 a2 38 bc a5 39 26 3d 87 a8 35 3d
       -0.10505527 -0.011269214 0.040582318 0.044350173
000300 3a d9 2f 3d 0f 35 c3 bd 6c 38 8a bc 1f 5d 90 ba
       0.042931773 -0.095316045 -0.016872607 -0.001101408
000310 d4 9e 09 be 10 d5 5c bd e5 44 31 3d d6 91 cb bc
       -0.13439494 -0.05391413 0.043278594 -0.024849813
000320 ef 92 f3 3d 2e cb d7 3d 8e a8 df 3d f7 8e 44 bd
       0.1189326 0.105368 0.10920821 -0.047987904
000330 80 3d 9c bd e2 fa 2b bd 0f 82 8f bc c5 7e 86 bd
       -0.07628918 -0.041987307 -0.017518071 -0.06567148
000340 dd 6f 28 3e d7 22 8d 3d 61 6b 4a 3d f0 4b e3 bd
       0.16448922 0.06891411 0.04941881 -0.11098468
000350 bd 34 2a bd 6f f5 7f 3e bd cd c8 3e 1b 81 90 be
       -0.0415542 0.24995969 0.39219466 -0.282235
000360 5f 94 15 bd 2a 0b 00 be 53 27 81 bd b3 f1 41 3d
       -0.03651845 -0.12504259 -0.063063286 0.047349643
000370 ea f0 cb bd 3f 4f 6a bd a6 11 89 bc 12 07 83 bd
       -0.0995806 -0.05720448 -0.016732048 -0.06397833
000380 fd 7e 9c 3c 30 89 b2 bd 97 c8 5f 3d 83 70 b3 3c
       0.019103521 -0.08717573 0.054634657 0.021904236
000390 f1 67 32 bd 1a 5b 70 bd ce 8e 90 bd 6f 79 de bb
       -0.043556157 -0.05868063 -0.07058488 -0.0067893784
0003a0 79 81 12 3e 2d 9b fa 3c 67 2d e8 3d db d3 a0 bd
       0.14307202 0.030591572 0.11336785 -0.07852908
0003b0 db cb 7a 3e 4c 82 5c 3e 27 28 da bd ad fa e8 bd
       0.24491827 0.2153408 -0.1065219 -0.113759376
0003c0 f6 23 ff 3d 1e 4f 26 be a9 fb 64 be e9 0f 51 3a
       0.12458031 -0.16241118 -0.22361626 0.0007975088
0003d0 86 a4 cf 3b 7a e2 bc 3d b2 4a 30 bd aa 4c e4 bc
       0.0063367514 0.092228845 -0.043039985 -0.027868588
0003e0 11 5c bd bc f0 5f 53 be f6 7e c9 bd db 92 31 3d
       -0.02311519 -0.20642066 -0.09838669 0.043352943
0003f0 2a af 95 3c da 30 34 bd 81 5b a8 bd 92 1e e4 bc
       0.018272001 -0.0439919 -0.08220578 -0.027846608

base.actor_compress.bias f4 [19]
000000 0c 14 d5 3e 41 a1 ff bc b4 d2 9b be 40 a8 9f ba
       0.41616857 -0.031204822 -0.3043419 -0.001218088
000010 1a 73 f2 bc 58 b4 05 be 2f 23 5d be f6 8b a9 bd
       -0.0295959 -0.13057077 -0.21595453 -0.082786486
000020 59 97 62 be 98 22 4d 3e 8e 2d a6 bd 7c 77 89 3c
       -0.22128047 0.20032728 -0.081141576 0.016780607
000030 68 28 79 3e f4 a3 06 bd 09 44 4a 3e 89 d6 ae bd
       0.2433182 -0.0328712 0.19752516 -0.08537013
000040 da 3f 52 be 97 b7 b7 3d 9b 38 8c be
       -0.2053217 0.08970564 -0.27386937

base.critic_compress.weight f4 [8, 79, 1, 1]
000000 50 69 0b 3f 7f 4f 7b bd a6 e4 0e bd ad 81 28 3c
       0.5445757 -0.06135511 -0.034886025 0.010284823
000010 7e 1a 92 bc 8a c2 b1 bc 94 b6 bb bd 5f a8 66 bd
       -0.017834898 -0.021699209 -0.091656834 -0.056312915
000020 a9 ac 69 bd ff 76 46 be 93 e2 ce bd c8 f1 05 3d
       -0.057049427 -0.19381331 -0.10101809 0.032701284
000030 ac 3a 86 bd fd 44 43 bd 43 5c 0e bd d4 02 f5 bd
       -0.065541595 -0.047673214 -0.034755956 -0.1196343
000040 0f 25 41 bc 0c da cf bd f9 2a 28 bd c3 0e c4 bd
       -0.011788621 -0.10149011 -0.041056607 -0.09573128
000050 31 81 d9 bd 94 b8 20 bd db 3d 2e bd b7 15 8c bd
       -0.106203444 -0.039238527 -0.04253946 -0.06840079
000060 10 3b 9f bd 43 19 05 bd a5 e9 22 3e 79 fd 45 bd
       -0.07774937 -0.032494795 0.15909441 -0.048337433
000070 6e 66 9f bd ea 1f 02 bd d2 19 f1 bd 73 a3 bb bd
       -0.07783209 -0.031768717 -0.11772503 -0.09162035
000080 a0 04 12 bc d8 b7 d5 be fa 04 7d bd 95 ad 90 bd
       -0.0089122355 -0.41741824 -0.061772324 -0.07064358
000090 a7 65 35 be c8 49 41 bd 5e 02 8b bd 06 96 0e bd
       -0.17714559 -0.047189504 -0.06787561 -0.034811042
0000a0 96 d6 36 be 38 0a 8e bd a5 aa a4 bd 54 cf 6b be
       -0.17855296 -0.06935543 -0.0804036 -0.23028308
0000b0 6f 13 a0 3d 77 24 1c be 70 64 00 ba c3 6e 74 bd
       0.07816207 -0.15248285 -0.0004897779 -0.059675943
0000c0 e3 b2 4d bc 5c 3a 5b bc 2d 94 54 bd 50 e1 52 bd
       -0.012554857 -0.013380613 -0.051899124 -0.051484406
0000d0 d7 d1 bc bc ac ef 15 bb ed d1 8a bd 05 6c 87 bd
       -0.023049278 -0.0022878451 -0.067783214 -0.066124
0000e0 0b 79 a0 3c 18 6f 2d bd 12 84 4a be 54 ce f1 bd
       0.019588968 -0.042342275 -0.19776943 -0.11806932
0000f0 36 ff ec bc aa a4 b5 bc 37 07 0a bd fe ac 36 3b
       -0.028930288 -0.022173245 -0.033698287 0.0027874107
000100 8a 3b 91 bd 85 55 f8 be 27 07 93 bc 27 3f 76 be
       -0.07091434 -0.48502746 -0.017947746 -0.24047528
000110 f8 bf e7 bd c9 99 69 be ed cc a0 3c 7e 69 f6 be
       -0.11315912 -0.2281257 0.019628966 -0.4812736
000120 3a 78 d1 be c6 85 17 3e 4b b4 9d bd e6 1c d6 be
       -0.40912038 0.14797124 -0.07700404 -0.41818923
000130 9b 8c 48 be e5 7d 82 be ae bc 0a 3e 8c 03 5d 3b
       -0.19584887 -0.25486675 0.13548538 0.0033724038
000140 ba b8 f5 3e 69 73 d9 3c cc 07 4d be 84 cf ed 3c
       0.47992498 0.02654429 -0.20022506 0.029029615
000150 fc 3e 4b 3c 97 d4 01 bf bb 89 81 3d 07 5d 8e bd
       0.012405153 -0.5071501 0.06325098 -0.06951337
000160 ed 39 3d 3d cc 37 07 be ae e7 16 bd 7b 56 11 3d
       0.04619782 -0.13204879 -0.03684204 0.035482865
000170 39 21 35 3d 1d 04 00 3d 68 00 a7 3c 11 ef 6d 3d
       0.044221137 0.031253923 0.020385936 0.05808932
000180 75 3e 3d 3c 14 49 c4 3d f0 35 db 3c f3 3e 39 bd
       0.011550535 0.09584251 0.026759118 -0.04522605
000190 71 c7 8d bc 9a 99 01 bc 32 e4 b3 bd 6d d8 ad 3c
       -0.017307015 -0.007910157 -0.08783759 0.021221364
0001a0 72 dd 06 be c4 2e c4 3d 3e 65 50 3d 00 33 8a bd
       -0.13170412 0.09579232 0.050877802 -0.06748009
0001b0 71 2b 08 3d 47 cc 47 3d d6 46 1c bd 1f 61 0b bd
       0.033244554 0.0487788 -0.038153492 -0.03402817
0001c0 47 2e 99 bb aa 38 25 bd 4f 1b 8d bd 6e ad c6 bd
       -0.004674706 -0.040337242 -0.06889974 -0.09701048
0001d0 5d 3c 84 3d 99 2b 19 3c d7 8d 86 3d 95 ff 87 3d
       0.06456826 0.009348773 0.065700226 0.06640545
0001e0 7f fc 4b bb 19 19 c2 bd ce dd 30 3e ec ae 0e bd
       -0.0031125841 -0.09477443 0.17272112 -0.034834787
0001f0 f9 33 9b bd 6b aa 71 3d 64 0f 94 ba 8a 39 33 bc
       -0.07578272 0.059000414 -0.0011296091 -0.010939011
000200 f3 aa 36 3c c6 ae 81 bd 68 5b 7e bd 76 58 ff bb
       0.011149156 -0.063321635 -0.06209889 -0.007792528
000210 12 49 e0 bd a8 ec 12 bd 2c 37 d6 ba aa 5e e7 bb
       -0.10951437 -0.035870224 -0.0016343347 -0.0070608454
000220 63 17 b5 3a 88 fc 9a bd 6d 84 c1 bc bf 2f 71 bd
       0.0013816174 -0.07567698 -0.023622716 -0.058883425
000230 c6 de 96 3d e1 06 d2 3d db 59 d0 bb 79 32 88 3e
       0.073667094 0.10255218 -0.006358368 0.26601008
000240 83 91 75 3c 39 a5 e6 3d a6 59 10 bd ba 12 9e bd
       0.014988306 0.112619825 -0.035241745 -0.077184156
000250 da 7f 37 3d 07 b5 b9 bd e5 62 41 bd d2 04 e9 3d
       0.044799663 -0.09067731 -0.047213454 0.113778725
000260 ff 43 96 3c e7 21 6e bd 67 7e 30 bd 1c 51 32 bd
       0.01834297 -0.0581378 -0.043089297 -0.043534383
000270 2c 07 2d be 4c 3c ac 3d 3c 09 6c bd f0 8e 8d bd
       -0.16897267 0.08409938 -0.057625994 -0.06912029
000280 de c2 84 3e 86 9d 2c be e7 4c 6a 3c 1b 35 cc 3b
       0.25929922 -0.16856965 0.0143005615 0.0062319166
000290 5a 30 74 be fc f1 dd 3c 13 c7 30 bd d1 ce 26 be
       -0.2384657 0.027092926 -0.043158602 -0.16289832
0002a0 a0 aa 1f be 48 f0 1d be 48 da a4 bc 4b 01 af bd
       -0.15592432 -0.15423691 -0.020123616 -0.085451685
0002b0 23 4f e6 bd 62 23 40 3d ef 08 e5 bd 46 aa a4 bd
       -0.11245563 0.046908744 -0.111833446 -0.080402896
0002c0 b7 1e 6b bd fd 75 36 be f9 0f de bd 3e 66 87 3d
       -0.05740234 -0.17818446 -0.1084289 0.06611298
0002d0 43 b6 70 3c 80 ed 04 be 22 5a 1e be 3c 04 ec bc
       0.014691892 -0.12981224 -0.1546407 -0.028810613
0002e0 81 e5 12 be af 9d c3 bd 30 c4 d5 bd ee ae 1e 3c
       -0.14345361 -0.0955156 -0.104378104 0.009685261
0002f0 59 ef f5 bd 2a 03 00 be c2 59 28 bd 58 11 22 be
       -0.120085426 -0.12501207 -0.041101225 -0.15826929
000300 e5 1d 1e bd 9b 5d c0 bd c6 43 8b be 11 02 2e bd
       -0.03860273 -0.09392854 -0.27200145 -0.04248244
000310 7b 1a 0b 3c ca f3 cb bb 7f 99 8f bd a8 9f 99 3c
       0.0084902 -0.0062241303 -0.07011699 0.018752888
000320 25 fb cc 39 65 e0 8f be 4b 41 87 bd 65 6d ae 3c
       0.0003909703 -0.28100887 -0.066042505 0.021292398
000330 fa 34 1c bc 1c 42 0b be 20 dd e2 bc a5 84 52 bd
       -0.009534115 -0.13599437 -0.027693331 -0.05139603
000340 f7 2e 4a bd ce c7 79 bd 38 be b3 bd a1 da 2e be
       -0.049361195 -0.060981564 -0.08776516 -0.17075588
000350 5f ff 8b bd 45 46 b6 bc 98 be b8 bd 51 0f 8d bd
       -0.068358175 -0.022250304 -0.09020728 -0.06887687
000360 63 ca 55 be 5e 91 09 be dd e4 8b bd 0c 1d 17 bd
       -0.20877986 -0.1343436 -0.068307616 -0.036892936
000370 a2 31 5a bd ba 38 9b bd fd 49 41 be 0f 04 9f be
       -0.05326999 -0.07579179 -0.1887588 -0.31057784
000380 f1 ae 2e be 79 ea 34 be 89 d8 a9 be 71 d7 1d be
       -0.17058922 -0.17667569 -0.33173016 -0.15414216
000390 d2 29 a5 bd 1a 17 b2 be 05 8c b8 be 76 8d 66 be
       -0.08064617 -0.3478325 -0.36044326 -0.225149
0003a0 a3 3a 68 be 89 33 a0 be aa e8 83 be 9d 45 a1 be
       -0.22678618 -0.31289318 -0.25763446 -0.31498423
0003b0 63 6d e0 bd 62 0a 58 b9 d4 06 81 3d 00 2e 2b 3a
       -0.10958364 -0.00020603233 0.063001305 0.0006529987
0003c0 59 99 2d 3f 1b 05 16 bd db 5b 1e bc ef b5 da bc
       0.67812115 -0.036625963 -0.009665455 -0.02669808
0003d0 67 5a 97 3d df e1 84 bd 46 d4 32 bd 04 85 52 be
       0.0739029 -0.06488394 -0.04365947 -0.20558554
0003e0 69 9c b0 bc 84 f3 5a bd 1e 63 96 bd 56 ca 3f bd
       -0.021558957 -0.05345489 -0.07343124 -0.046823822
0003f0 ba 60 92 bd 78 3b b8 bd f5 6a ed bc 67 d8 97 3c
       -0.071473554 -0.08995718 -0.028981665 0.018535806

base.critic_compress.bias f4 [8]
000000 bc 0e 3c 3e cf 9b a9 be ba b4 d2 be 1a 3b 3f be
       0.18364996 -0.33126685 -0.41153508 -0.18674889
000010 cf c7 5a 3f e6 e0 3c 3e 69 82 81 be 0a bd b6 3f
       0.85461134 0.18445167 -0.25294808 1.427644

base.critic_conv_1.weight f4 [1, 8, 20, 20]
000000 46 f5 08 3d 59 ab 95 bd c2 3a 68 bc 4a 68 1d 3d
       0.033437036 -0.073080726 -0.014174165 0.038429536
000010 71 29 86 bd 20 5a 4f 3d 78 c8 f9 3c 25 b5 a6 bb
       -0.06550873 0.05062306 0.030491099 -0.005087512
000020 84 ed 83 bd 2b e4 1b 3d a1 bc 86 bd ff 59 c7 bd
       -0.06441787 0.038059395 -0.06578947 -0.09733962
000030 41 21 95 bd f6 d4 98 bc 8f 43 6e 3a fb a5 19 be
       -0.07281733 -0.018656235 0.00090890465 -0.15004723
000040 6a d1 de bd ec 44 05 bd fd f6 39 3d f9 b7 ca 3c
       -0.10879786 -0.032536432 0.045401562 0.024745928
000050 d2 9d 2a 3d f2 b2 93 3c 2f 4d 05 be b7 b3 bb 3d
       0.041654415 0.018029664 -0.13017724 0.09165137
000060 74 71 0b be 4d 77 df bc a4 55 c8 3c 4c 3b df bd
       -0.13617498 -0.027278567 0.0244549 -0.10899982
000070 49 11 9e 3c 42 3d 19 bc e1 74 06 3e 6c 12 e0 3d
       0.019295352 -0.009352984 0.13130523 0.10941014
000080 10 e0 83 3c 7a 5a 96 3c 52 c9 83 3a 1c c8 4c 3d
       0.016098052 0.01835369 0.0010054505 0.049995527
000090 40 8d ff bd 02 d7 1b 3e 2b ac 46 3e 57 de 55 bd
       -0.12478113 0.15218738 0.19401614 -0.052213993
0000a0 91 9c fc 3d 19 0a 09 3d 83 65 ab bc 27 62 26 3d
       0.1233455 0.033456896 -0.020922428 0.04062095
0000b0 1a f2 cd 3c 18 db 91 3c 31 9e 99 bc 10 47 ae 3d
       0.025139857 0.017804667 -0.01875219 0.08509648
0000c0 a6 8a 30 3e ed ef 90 3d 3b 84 fb 3d 28 f8 c8 3d
       0.1724039 0.07077012 0.1228108 0.09812957
0000d0 e6 ab dd bb 17 d6 76 3d 87 ba 12 bc 47 9e 94 bd
       -0.0067648767 0.060262766 -0.008955604 -0.072567515
0000e0 37 4b ee bd c1 c1 24 bd d9 a2 09 3c a4 8e 48 ba
       -0.1163544 -0.04022384 0.008400642 -0.00076506496
0000f0 45 ed 09 be 2e 41 8d bd e2 21 96 3c a6 7d ca bc
       -0.13469417 -0.06897198 0.018326703 -0.024718117
000100 f5 f6 3d 3e 39 2b d7 3d 51 e0 fe 3d 18 8d c5 3d
       0.18551238 0.10506291 0.12445129 0.09646052
000110 d5 44 8f 3d 79 51 7e 3d 5d 19 8e 3d e2 80 f0 3d
       0.069955505 0.062089417 0.069384314 0.117433324
000120 17 a6 02 be 1e c1 0c 3d ce c7 af bd 4d 6c f4 bc
       -0.12758671 0.03436386 -0.085830316 -0.029836798
000130 f3 f7 92 bd 73 f0 d5 bd c7 b0 25 be 1e 0c 23 bc
       -0.07176199 -0.10446253 -0.16180716 -0.009951619
000140 8a 59 fc bd c6 45 dc bd d6 67 18 3d 00 e6 38 3e
       -0.12321766 -0.10755496 0.0372084 0.18056488
000150 74 b7 e0 3d d7 83 46 3d da 5f 23 3e 23 56 e6 3d
       0.10972491 0.048465576 0.15954533 0.11246898
000160 22 1c 0e 3b 5f 30 23 3e ca 08 0a 3e 1f b7 b9 bd
       0.002168425 0.15936421 0.13479915 -0.09068131
000170 46 1c f4 3d 79 7d a5 3d 7e cb b7 bd 20 bc 2c bd
       0.11919455 0.08080573 -0.0897436 -0.042171597
000180 52 dc 85 3d be 05 b3 bb 25 32 11 be c4 6d 71 be
       0.065361634 -0.005463331 -0.14179285 -0.23577029
000190 d2 b9 51 3d 80 26 79 3c db f0 02 3e 04 3b 23 3e
       0.051202603 0.015206933 0.12787192 0.15940481
0001a0 10 7d 8b 3d 74 a7 e1 3d aa b2 be 3d 36 6a d0 3d
       0.06810963 0.11018267 0.09311421 0.10176508
0001b0 60 19 a7 3d 2a 2b 4a 3d 92 28 1e 3e 1b f3 dd bd
       0.08159137 0.04935757 0.15445164 -0.10837384
0001c0 36 5c 99 bd 1e 51 41 bd a9 7d 0f be f6 44 9a 3d
       -0.07488291 -0.0471965 -0.1401278 0.075326845
0001d0 f0 62 63 3c b9 c6 21 3d 8b b9 b6 bd 59 ec 2b bd
       0.013878569 0.039496157 -0.08922108 -0.041973446
0001e0 b3 a7 46 3c 74 da 11 3e 2b 44 4c 3c c4 70 10 3e
       0.012124944 0.1424349 0.012467424 0.14105517
0001f0 2f c9 b5 3d a6 67 6e 3e 9c 27 08 3e d2 dc 64 3e
       0.08876263 0.23281726 0.1329636 0.22349861
000200 3a de e3 3d e5 51 b7 bb 73 83 4b 3d a3 e5 c1 bd
       0.11126371 -0.0055944794 0.049685907 -0.09467628
000210 6c 85 82 bd 94 aa 85 bd 64 4f f4 3b f2 0e ea 3c
       -0.063731045 -0.06526676 0.007455753 0.02857158
000220 d1 48 76 bc fa 50 93 3d f1 fc 01 bd 17 6e 92 3d
       -0.015032009 0.071931794 -0.031735364 0.07149904
000230 62 a0 98 3d ff 50 ec 3d 7e df c7 3c 56 c3 27 bc
       0.074524656 0.11538886 0.024398562 -0.010239443
000240 42 09 ba 3d c6 07 12 bd 81 f4 24 3d 18 e3 7b 3d
       0.09083797 -0.035651945 0.04027224 0.06149587
000250 00 0f 76 3d 62 bd a1 3d 5a 13 a3 bc f0 32 37 be
       0.0600729 0.0789745 -0.019906688 -0.17890525
000260 72 22 83 bd 3b 3c 0a be d4 8b 1d bd 87 1a 9e bd
       -0.06403054 -0.13499539 -0.03846343 -0.077199034
000270 d2 b9 0f be 05 8c 2d be 84 e5 fb bd 9d cb 19 3e
       -0.14035729 -0.16947944 -0.12299636 0.15019079
000280 a2 f8 a3 3d 9a 6d c1 3d 3a 0c f7 3d 95 ff 4a 3d
       0.08006407 0.09444733 0.12062879 0.04956015
000290 f4 53 5e 3d 15 65 af 3d 3b b3 39 3e f7 56 93 3d
       0.054279283 0.08564202 0.18134777 0.071943216
0002a0 05 79 9a 3d 67 4e 97 3d 89 f7 43 3d a5 e6 e7 bd
       0.07542614 0.07388001 0.04784349 -0.11323289
0002b0 7d 57 db 3d 7d ef 2b 3c 03 7c 20 3d 58 51 4a bc
       0.107100464 0.01049411 0.039180767 -0.012348495
0002c0 31 11 1b bd 01 dc 13 be cc 72 e5 bd a6 1b af 3d
       -0.037858192 -0.14439394 -0.112035364 0.085501954
0002d0 58 43 24 3d e1 3c 7e ba 37 3d 4c bd bd aa e8 3d
       0.040103287 -0.0009698403 -0.049863067 0.11360691
0002e0 fc fe 0a 3e a1 33 4b 3d 4f a2 45 3d cc 5b f3 3d
       0.13573831 0.049609784 0.048250493 0.11882743
0002f0 9a a4 c5 3d d1 de 04 3e 33 9b 35 bd 4a e1 be 38
       0.09650536 0.12975623 -0.044337463 9.1018694e-05
000300 63 f7 fe 3d 9b 7f 22 bc 20 b4 5c bd c3 4c 9a 3d
       0.12449529 -0.009918119 -0.053882718 0.075341724
000310 40 4a f1 3d 87 32 2a bd 7b 58 16 3c 35 1e 13 3e
       0.1178174 -0.041552093 0.009176369 0.14366992
000320 6b 9e 40 3e ee b1 c2 bd 85 32 9c 3d 7e 54 9e bb
       0.18810432 -0.09506594 0.07626823 -0.0048318496
000330 fd ba 7f 3d fb 6b 9d 3d 0f 0d ea 3d 6b 37 0f 3d
       0.062434185 0.07686611 0.11428272 0.03496496
000340 23 a9 8b 3c 5c 67 b0 3c ce e2 13 3f 9d c1 3c be
       0.017048424 0.02153366 0.5776795 -0.18433233
000350 21 c3 4d bd 17 c9 1d be b0 e0 9f bd 6e ed 10 be
       -0.050234918 -0.15408741 -0.078065276 -0.14153072
000360 fd cf 66 be 03 b8 f1 3c be ad fa bd 4e d7 f6 3c
       -0.22540279 0.029506689 -0.1224017 0.030131962
000370 60 3b 3b 3d 97 14 78 bd 23 67 dc bc 9e e0 5c 3e
       0.04571092 -0.06056651 -0.026904648 0.2157006
000380 f5 bc 9f 3c e6 93 d8 3d ed 74 31 3e 9b 41 b8 3d
       0.019499281 0.105750844 0.1732976 0.08996888
000390 1d 5a d7 3d 51 8e c1 bd a5 e5 95 bd b3 22 30 be
       0.105152346 -0.09450973 -0.07319192 -0.17200737
0003a0 87 dd 62 bc d5 c2 ac bb 98 2e 88 3d 40 08 53 3b
       -0.013846762 -0.005272249 0.06649512 0.0032200962
0003b0 6e 62 19 be 43 28 b6 bd d3 8d 43 bd 9e af ee 3d
       -0.14978954 -0.08894398 -0.047742676 0.1165459
0003c0 40 6f ef bd 49 28 8d bd f3 87 01 be b3 38 0f bd
       -0.11691141 -0.068924494 -0.12649517 -0.034966182
0003d0 75 52 cd 3c e6 63 a2 3d 5c 72 e6 bd 43 81 d7 bd
       0.025063733 0.0792921 -0.11252281 -0.105227016
0003e0 7c 7e f3 ba 4d 9c 99 bd c9 e6 23 be 8b 4a 0d be
       -0.0018577124 -0.07500515 -0.16006006 -0.13797967
0003f0 dd e9 17 bd ca 3f 92 3d 02 40 fb 3c fa 32 49 bd
       -0.037088264 0.07141073 0.03067017 -0.04912088
