trained_models/a2c/trial_7_constantMap/MicropolisEnv-v0_weights.pt (torch_old, 953200 bytes, 13 tensors)

base.conv_0.weight f4 [64, 104, 5, 5]
0	0x3b142238	0.0022603404
1	0x3b90f88c	0.0044241603
2	0xbcc763b6	-0.024339538
3	0xbd1e2349	-0.03860787
4	0xbd823f8d	-0.063597776
5	0x3cd6dce3	0.026228374
6	0xbd3663f2	-0.04452891
7	0xb8c995f7	-9.61236e-05
8	0xbd0ae55a	-0.033910133
9	0xbd28be9d	-0.041197408
10	0xbd0675a5	-0.03282704
11	0x3c507f41	0.012725652
12	0xbd36d0cd	-0.04463272
13	0xbd0dc0a0	-0.03460753
14	0xbc020090	-0.007934704
15	0xbd1f4aba	-0.038889624
16	0xbd681a23	-0.05666555
17	0xbd5bc0e2	-0.053650744
18	0xbd01e87c	-0.031715855
19	0xbc1fe5db	-0.009759392
20	0xbca6c160	-0.02035588
21	0xbcd37e1b	-0.025816968
22	0xbd2f6bc6	-0.04282739
23	0x3abc9ace	0.0014389397
24	0x3c4e29a9	0.012583175
25	0xbc2cf7ed	-0.010557157
26	0x3c6a9e56	0.014319977
27	0x3bb29157	0.0054494548
28	0x3cb8707d	0.022514576
29	0xbcded872	-0.027202819
30	0xbb56c780	-0.003277272
31	0xbc6f2c25	-0.014597927
32	0xbd2f88f5	-0.04285522
33	0xbd2451db	-0.040117126
34	0xbc223a1e	-0.0099015515
35	0xbb348b3e	-0.0027548815
36	0x3bc5588d	0.006022519
37	0xbc60c680	-0.013719201
38	0x3b5135b9	0.003192289
39	0xbaf4a130	-0.001866376
40	0x3b9375cd	0.004500127
41	0xbbb76c97	-0.0055976617
42	0x3b9de414	0.004818449
43	0xbd46e042	-0.048553713
44	0x3c5bfbd6	0.013426742
45	0x3c9c1769	0.019054132
46	0x3cfe5fae	0.031051483
47	0x3c90cbbd	0.017675275
48	0x3c7bc9a7	0.015367902
49	0xbc91f495	-0.017816821
50	0x3cb0ac76	0.02156661
51	0xbcc29c3f	-0.023756145
52	0xbc7f154d	-0.015569043
53	0x3ce882d7	0.028382702
54	0x3cfd56de	0.03092521
55	0x3bc05e96	0.0058706505
56	0x3a827878	0.0009954115
57	0x3baa9743	0.00520602
58	0x3c984bf7	0.01859091
59	0x3bdbaf45	0.0067042434
60	0x3b7e7b6f	0.0038830896
61	0x3c9e917e	0.019356485
62	0x3d51a5ee	0.051183634
63	0x3d138de8	0.036024004
64	0x3d03f1c3	0.032212984
65	0x3c418ea1	0.011813791
66	0x3ca20cc1	0.019781472
67	0x3d314197	0.043275442
68	0xbc408386	-0.011750108
69	0x3ba321cf	0.0049783955
70	0x3d0ba25a	0.034090377
71	0x3c8aef08	0.016959682
72	0x3c8ccab5	0.017186502
73	0xbc9ac017	-0.018890424
74	0x3d0caf19	0.034346674
75	0xbd135a2d	-0.03597467
76	0xbccc12f7	-0.024911387
77	0x3b0ee6c3	0.0021805025
78	0x3ca8af39	0.020591365
79	0xbb9913ab	-0.004671534
80	0x3c649b0a	0.01395298
81	0xbba557cf	-0.005045868
82	0x3c46ebaa	0.012141148
83	0xbd2620f6	-0.040558778
84	0x3c8e01d5	0.017334858
85	0x3cb10bd6	0.02161209
86	0xbcbc9f66	-0.023025226
87	0xbc1d6caa	-0.009608427
88	0x3c7d0409	0.015442857
89	0x3ca979e8	0.020688012
90	0xbb5cca80	-0.0033690035
91	0xbcdbd8bd	-0.026836747
92	0xbc74a44d	-0.0149317505
93	0x3c148a20	0.009066135
94	0x3cc8134e	0.024423268
95	0xba45e9be	-0.0007549784
96	0x3ca58723	0.02020604
97	0xbc5afcd1	-0.01336594
98	0xbca3d1b8	-0.019997463
99	0x3caf78c0	0.021419883
100	0x3c43521b	0.011921431
101	0x3c2b58d4	0.01045819
102	0xbbf0003b	-0.007324246
103	0xbc0117aa	-0.007879177
104	0xbc45ee82	-0.0120807905
105	0xbabd94e7	-0.0014463932
106	0xbca43b3b	-0.020047775
107	0xbc781d68	-0.01514373
108	0xbc8b32c2	-0.016991977
109	0xbc4d5d92	-0.012534516
110	0x3d04fbe4	0.032466784
111	0xbb059005	-0.0020380032
112	0x3c8e581d	0.017376
113	0xbcb3a39d	-0.021928603
114	0xbd262d87	-0.040570762
115	0xbb6d04a6	-0.00361661
116	0x3d0d47ab	0.034492176
117	0x3bac4f76	0.005258496
118	0x3c922fd4	0.017845072
119	0x3a15c595	0.0005713341
120	0xbc194762	-0.009355398
121	0xbbc83fac	-0.006111106
122	0xbd34cace	-0.044138722
123	0xbc7fae4d	-0.015605521
124	0x3b920e42	0.004457266
125	0xbaa19ed1	-0.0012330656
126	0xbc079f45	-0.008277719
127	0x3c7ec669	0.015550234
128	0x3cdc0ce1	0.02686161
129	0x3c20db95	0.009817977
130	0xbb37a37e	-0.0028021033
131	0xbd1a7a07	-0.03771403
132	0x3c02928c	0.00796951
133	0x3b98f565	0.004667925
134	0xbcc001a1	-0.023438277
135	0x3bbcdb23	0.005763428
136	0xbc92cb48	-0.017919198
137	0xbc45e812	-0.012079256
138	0xbc79c8f3	-0.015245664
139	0x3c23e0b6	0.010002306
140	0xbd1969a6	-0.03745427
141	0x3becd146	0.007227096
142	0x3d1407e0	0.036140323
143	0x3c956425	0.01823623
144	0x3c562428	0.013070144
145	0x3b00bf16	0.0019645146
146	0x3b7d9bbe	0.0038697566
147	0xbd14f595	-0.036367018
148	0x3a1a6619	0.00058898475
149	0x3ca2167b	0.01978611
150	0x3ba0cabe	0.0049069813
151	0x3cb81af1	0.022473784
152	0x3c891cfd	0.016737456
153	0xbc9928a8	-0.018696144
154	0xbd025617	-0.031820383
155	0x3af8d758	0.0018985076
156	0xbc973338	-0.01845704
157	0xbc801243	-0.015633708
158	0xbb8d7909	-0.004317407
159	0xbcf3f846	-0.029781472
160	0xbcb7a6a4	-0.022418328
161	0xbd17cef4	-0.0370626
162	0xbc1af817	-0.009458563
163	0x3c55d067	0.013050175
164	0x3c5b96dd	0.013402668
165	0xbd36d63c	-0.044637904
166	0xbc1a78ed	-0.009428245
167	0xbc4ed134	-0.01262312
168	0x3c3ab89f	0.011396556
169	0xbd2a93e8	-0.04164496
170	0xbc474838	-0.012163214
171	0xbc727648	-0.014798708
172	0x3c66e5c0	0.014092863
173	0xba8868a7	-0.0010407165
174	0xbcd7b24b	-0.026330134
175	0xbaac4467	-0.0013142944
176	0xbc72768f	-0.014798774
177	0xbb95175f	-0.004549905
178	0x3d16b1a8	0.03679052
179	0xbc5de358	-0.0135429725
180	0xbd3635d5	-0.044484932
181	0x3af28424	0.0018502516
182	0x3c124a68	0.008928873
183	0xbc081256	-0.008305153
184	0x3c7ca80f	0.015420928
185	0x3b810012	0.003936776
186	0xbc86b754	-0.01644484
187	0x3c45d331	0.012074278
188	0xbcadc18c	-0.021210454
189	0xbcfbd7a9	-0.030742483
190	0x3a8877a1	0.0010411629
191	0xbc609e8a	-0.013709674
192	0xbcb09ce2	-0.021559183
193	0xbc9567f5	-0.018238047
194	0x3bbbcb3a	0.0057310136
195	0xbc3f763f	-0.011685907
196	0x3bd1a161	0.0063974117
197	0x3c632dfd	0.013865945
198	0xbd3f4625	-0.046697754
199	0xbcaf4115	-0.021393338
200	0xbcd4ec34	-0.025991537
201	0xbc8f5542	-0.017496709
202	0xbcbcc4c7	-0.02304305
203	0x3d0815ed	0.033224035
204	0x3ca6db9c	0.02036839
205	0x3bf51790	0.0074796155
206	0xbc118fc8	-0.008884378
207	0x3af4e115	0.0018682802
208	0xba91ea50	-0.0011132453
209	0xbcae9332	-0.021310423
210	0x3cd499bb	0.02595221
211	0xbcab05bd	-0.02087676
212	0xbc92e205	-0.01793004
213	0xbbe3a38d	-0.006946987
214	0x3cef1b37	0.029187782
215	0xbcc28af5	-0.0237479
216	0xbc8513f3	-0.016244864
217	0xbc3082d5	-0.01077338
218	0xbb3eaacc	-0.0029093502
219	0x3b7aa87f	0.0038247404
220	0xbce41d78	-0.027846083
221	0x3c0775ab	0.0082678
222	0x3cbdbb98	0.02316074
223	0xbc8bfcfd	-0.017088408
224	0xbbe550c1	-0.006998152
225	0x3cf6df67	0.030135823
226	0x3c7decb6	0.015498331
227	0x3b9435ff	0.0045230384
228	0xbd1dbc96	-0.038509928
229	0x3d0d4cd4	0.034497097
230	0xbcad6060	-0.02116412
231	0xbcab7cc0	-0.020933509
232	0x3c8ab6d2	0.016932879
233	0x3c329688	0.010900147
234	0xbc099950	-0.008398369
235	0xbca81efd	-0.020522589
236	0xbb36d17a	-0.0027895854
237	0x3c23c1f3	0.009994972
238	0x3a861c34	0.0010231794
239	0xbc868467	-0.016420556
240	0x3b181955	0.0023208458
241	0xbc303429	-0.010754623
242	0xbc9467dc	-0.01811593
243	0x3cd75cd3	0.02628938
244	0x3bb9cc67	0.0056701186
245	0xbcb01902	-0.0214963
246	0xba1b367b	-0.0005920899
247	0x3d2f8e89	0.04286054
248	0xbd079507	-0.033101108
249	0xbc13e942	-0.009027781
250	0x3c4527bd	0.0120334
251	0xbcf10d8d	-0.029425407
252	0x3d8614ed	0.0654696
253	0x3a9d4347	0.00119982
254	0xb9d28fab	-0.00040161362
255	0xbd1048cc	-0.035225675

base.conv_0.bias f4 [64]
0	0xbd95ccf2	-0.07314481
1	0xbcf9bb1e	-0.030484732
2	0xbe0e4533	-0.13893585
3	0xbd195b65	-0.037440676
4	0xbd0456e6	-0.032309435
5	0xbd811324	-0.06302479
6	0xbdcb41cf	-0.09924661
7	0xbd1ce869	-0.03830758
8	0xbd134f34	-0.035964206
9	0xbdba16d4	-0.09086385
10	0x3dbe4c36	0.0929188
11	0xbd26c32e	-0.04071348
12	0xbd7c88be	-0.061653845
13	0xbdc374df	-0.09543776
14	0x3e4aeb52	0.1981633
15	0x3c96fe08	0.018431678
16	0xbbfb0126	-0.007660049
17	0xbdebdb1c	-0.11516401
18	0xbd010cbb	-0.03150628
19	0xbd63798d	-0.05553584
20	0xbd9b6a3e	-0.075886235
21	0xbc963441	-0.018335463
22	0xbd2db226	-0.042406224
23	0xbe085669	-0.13314213
24	0xbd04afeb	-0.03239433
25	0xbdb5e70c	-0.08881959
26	0xbd3039d9	-0.043023918
27	0xbd23856e	-0.03992217
28	0xbd896b98	-0.06709975
29	0xbdd66030	-0.10467565
30	0xbdd1b641	-0.1023984
31	0xbd9b2cba	-0.0757689
32	0xbdd41a41	-0.1035657
33	0xbd9cb92b	-0.076525055
34	0xbd4f0e0c	-0.050550506
35	0x3e1486de	0.14504573
36	0xbd2ed923	-0.042687546
37	0xbe2d1968	-0.16904223
38	0xbe07ebdc	-0.13273567
39	0x3e3692d9	0.17829455
40	0x3dbca2ad	0.092107154
41	0xbd0e43ee	-0.03473275
42	0xbdcb8b7e	-0.099387154
43	0xbda080ca	-0.078370646
44	0xbd7c12c5	-0.061541338
45	0xbd0325dc	-0.032018527
46	0x3daa702b	0.083221756
47	0xbd89b4ba	-0.06723924
48	0xbde27190	-0.110568166
49	0x3e0fe37d	0.14051624
50	0x3d8de944	0.069292575
51	0xbe037876	-0.12838921
52	0xba310640	-0.00067529455
53	0xbcec7104	-0.028862484
54	0x3e6dc2cb	0.23218839
55	0xbde1d6fd	-0.11027334
56	0xbdf62932	-0.12019576
57	0x3c767938	0.015043549
58	0xbc411396	-0.011784455
59	0xbd762e3f	-0.060102697
60	0xbdd34bb9	-0.10317177
61	0x3dd65b88	0.10466677
62	0x3e067497	0.13130413
63	0xbcc925d2	-0.024554167

base.conv_1.weight f4 [64, 90, 3, 3]
0	0xbd8dcd1d	-0.06923888
1	0xbd5e4d17	-0.054272737
2	0xbdd08137	-0.10180896
3	0xbd504b53	-0.050853085
4	0xbdf98a40	-0.12184572
5	0xbe43cfb1	-0.19122197
6	0x3cd53f77	0.026031239
7	0xbbae43ee	-0.0053181564
8	0x3da8f1aa	0.08249219
9	0xbe084384	-0.13307005
10	0xbe09a60e	-0.13442251
11	0xbe35bc6b	-0.17747657
12	0xbe38f2c6	-0.1806136
13	0xbe5d18e1	-0.21591522
14	0xbd9eb947	-0.077501826
15	0xbe324f77	-0.17413126
16	0xbde6e280	-0.1127367
17	0xbe15f374	-0.14643651
18	0xbcb9280c	-0.022602104
19	0xbdf5b27d	-0.119969346
20	0xbc07c58a	-0.008286843
21	0xbd8a1796	-0.0674278
22	0xbd661cb3	-0.056179713
23	0x3cbb551c	0.022867732
24	0xbda65581	-0.08121777
25	0xbd5203a9	-0.05127302
26	0x3d8faea3	0.07015731
27	0xbb3ca3ad	-0.0028784082
28	0x3c8f4671	0.017489644
29	0xbd37ac82	-0.04484225
30	0xbd2f2a70	-0.04276508
31	0x3d975a91	0.07390321
32	0xbc999fe9	-0.018753009
33	0xbc7d916e	-0.015476568
34	0x3d83e5c6	0.0644031
35	0xbd5bf5f7	-0.053701367
36	0xbd5f93fe	-0.054584496
37	0x3b888715	0.0041664937
38	0xbd7a5fa6	-0.061126374
39	0xbd504838	-0.050850123
40	0x3c9e1e88	0.019301668
41	0x3df49552	0.11942543
42	0xbda41d1e	-0.08013366
43	0xbd39fbc3	-0.045406114
44	0xbce5de61	-0.02806014
45	0xbd9a7c02	-0.07543184
46	0xbda5c1ee	-0.0809363
47	0xbd34b6bd	-0.044119585
48	0xbdd5b7b8	-0.10435432
49	0xbda0a156	-0.078432724
50	0xbda6b91e	-0.08140777
51	0xbc9744e4	-0.018465467
52	0xbd62d02f	-0.05537432
53	0xbddee67a	-0.10883804
54	0xbc96e167	-0.018418027
55	0x3d7b5c6b	0.061367434
56	0xbd122acb	-0.03568534
57	0x3cfd050d	0.030886197
58	0x3d9cc8d2	0.07655491
59	0xbd4e2f5f	-0.050338145
60	0x3cc8b362	0.024499599
61	0xbddde774	-0.10835162
62	0xbd1e29d1	-0.038614098
63	0xbe24dee1	-0.16100647
64	0x3bfb0278	0.0076602064
65	0xbd1381d3	-0.036012482
66	0xbdbeda9b	-0.093190394
67	0xbdbdd9a4	-0.09270027
68	0xbd6615d7	-0.05617317
69	0xbe1f067a	-0.15529814
70	0xbda40643	-0.08009007
71	0xbd48c7d4	-0.049018696
72	0x3c57d671	0.013173685
73	0x3c38be17	0.01127579
74	0x3c2ffcfb	0.010741468
75	0x3dc639ee	0.09679018
76	0x3c093bf2	0.0083761085
77	0xbd51a55b	-0.051183086
78	0x3d9feec3	0.07809212
79	0xbda88c9c	-0.08229944
80	0xbbf65793	-0.007517764
81	0xbe6f05c7	-0.23342048
82	0xbe0dd85a	-0.13852063
83	0xbd18e4fd	-0.037327755
84	0xbd658b90	-0.0560413
85	0xbe10a800	-0.14126587
86	0xbcf0d463	-0.029398149
87	0xbdc3e3bf	-0.095649235
88	0xbafdab72	-0.0019353463
89	0x3d7985a6	0.060918473
90	0xbd4c046c	-0.049808905
91	0x3dd32047	0.10308891
92	0x3d481412	0.048847266
93	0xbe44e7e4	-0.19229084
94	0xbe126147	-0.14294921
95	0x3d5d404c	0.054016396
96	0xbe2331b6	-0.15936932
97	0x3d735705	0.05940916
98	0x3d2287ac	0.039680168
99	0xbcde0f4b	-0.027106902
100	0x3d328f13	0.043593477
101	0xbc14a3f5	-0.0090722935
102	0xbd855f11	-0.06512273
103	0x3c9d6d80	0.019217253
104	0x3bd0763a	0.00636175
105	0xbda391cb	-0.07986792
106	0xbe01ee4e	-0.12688562
107	0xbd0880dd	-0.03332602
108	0xbe0717c5	-0.13192661
109	0xbd50dd7c	-0.050992474
110	0xbe131896	-0.14364848
111	0xbc9c40ae	-0.01907381
112	0xbdfc0b7e	-0.123068795
113	0xbe701879	-0.23446836
114	0xbd015862	-0.03157843
115	0xbe1b0f97	-0.15142666
116	0xbe1ae610	-0.15126824
117	0xbe300aae	-0.17191574
118	0xbe405d48	-0.18785584
119	0xbdbc617f	-0.091982834
120	0x3d7341a9	0.05938879
121	0x3b9f2ecc	0.0048578735
122	0xbd968f64	-0.07351568
123	0xbe3c7627	-0.18404447
124	0xbe33c405	-0.17555244
125	0xbddc5c9d	-0.10759852
126	0xbe81e623	-0.25370893
127	0xbe614bae	-0.22001526
128	0xbe12685a	-0.1429762
129	0xbddb8705	-0.10719112
130	0xbe237f8f	-0.15966628
131	0xbd655432	-0.055988498
132	0xbe67c0ff	-0.22632216
133	0xbe221c2d	-0.1583106
134	0xbe45b54a	-0.19307438
135	0xbd9b7b1e	-0.07591842
136	0xbd3d8fd7	-0.046279754
137	0xbd96d1d4	-0.0736424
138	0xbda14da9	-0.078761406
139	0xbd575049	-0.0525668
140	0xbe0042e5	-0.12525518
141	0xbd57da82	-0.05269862
142	0xbd46cee2	-0.048537143
143	0xbd91dcc4	-0.07122186
144	0xbe069b5d	-0.13145204
145	0xbda6ec97	-0.08150595
146	0x3b20e0cd	0.0024548054
147	0xbe07802d	-0.13232489
148	0xbdc93fe4	-0.09826639
149	0xbd0dd994	-0.034631327
150	0xbe159e1a	-0.14611092
151	0xbd866642	-0.06562473
152	0xbda7647e	-0.08173464
153	0xbb2ad5c2	-0.002606735
154	0x3c8a37d6	0.016872328
155	0xbdc27fee	-0.09497057
156	0xbb01fa83	-0.0019833155
157	0xbb368e0f	-0.002785567
158	0x3ba6d1de	0.005090936
159	0x3d35b58f	0.0443626
160	0x3b5ef78c	0.003402206
161	0x3dff1ca1	0.124566324
162	0xbd3cc300	-0.046084404
163	0xbc034759	-0.008012616
164	0x3a241b99	0.0006260216
165	0xbd746393	-0.059665274
166	0xbd90e524	-0.07074955
167	0xbd05ab59	-0.032634113
168	0x3cda9bba	0.026685584
169	0xbd9123e8	-0.07086927
170	0xbd543be9	-0.051814947
171	0x3ded8934	0.11598435
172	0x3d7ee7f3	0.062232923
173	0x3d081470	0.033222616
174	0x3d2445f1	0.040105764
175	0x3d1e481f	0.038643
176	0x3d39d5ed	0.04537003
177	0x3cf9a448	0.030473843
178	0xbcd8c738	-0.026462182
179	0x3c313cb3	0.0108176945
180	0xbcbcd481	-0.023050549
181	0xbd07696f	-0.033059534
182	0xbd7348ab	-0.059395473
183	0xbcfbc4a8	-0.030733421
184	0xbde0317a	-0.10946937
185	0xbd46f4d6	-0.048573337
186	0x3d25f6fd	0.04051875
187	0xbd68fceb	-0.056881826
188	0xbdd66b4e	-0.104696855
189	0x3c633444	0.013867442
190	0x3b146f7a	0.0022649453
191	0xbda142dd	-0.07874081
192	0xbb719173	-0.0036860376
193	0xbc763108	-0.015026338
194	0xbd32c90d	-0.04364877
195	0x3db97b55	0.09056727
196	0x3d6a09a8	0.057138115
197	0xbd04d77e	-0.032432072
198	0xbc50fc47	-0.01275546
199	0x3d0326b5	0.032019336
200	0xbd84f730	-0.0649246
201	0xbc11a10b	-0.008888493
202	0xbd7d544c	-0.06184797
203	0xbd66889a	-0.056282617
204	0xbc6a8366	-0.014313554
205	0x3bc4edc8	0.006009791
206	0xbdc731c8	-0.09726292
207	0xbd1e31e0	-0.038621783
208	0xbe003f5c	-0.1252417
209	0xbcbd2b6e	-0.023091998
210	0xbe1d4850	-0.15359616
211	0xbe80c427	-0.25149652
212	0x3c6c6c9c	0.014430191
213	0xbdca10c9	-0.09866483
214	0xbda58697	-0.080823116
215	0xbdbe6bb5	-0.09297887
216	0xbe293072	-0.16522387
217	0xbe1c6598	-0.1527313
218	0xbe25c502	-0.16188434
219	0xbdcf9ed9	-0.1013772
220	0xbdfebca6	-0.124383256
221	0xbcf88ae4	-0.030339666
222	0xbd1aea75	-0.037821252
223	0x3cf960ee	0.030441727
224	0x3c58860e	0.013215555
225	0x3b9e2fdf	0.004827484
226	0xbcbcc93b	-0.023045173
227	0xbc97f2f5	-0.018548468
228	0xbb1910c1	-0.0023355933
229	0x3d2a2e70	0.041548193
230	0x3db99694	0.090619236
231	0xbda13116	-0.078706905
232	0x3c371839	0.011175209
233	0xbc0ba892	-0.008524077
234	0xbe0fcabe	-0.14042184
235	0xbda9edab	-0.08297285
236	0xbe1cce72	-0.15313128
237	0xbdea3932	-0.114366904
238	0xbcc39f36	-0.023879629
239	0xbd8d3da3	-0.06896522
240	0xbc3dc65e	-0.011582939
241	0x3d9d8b8e	0.076926336
242	0x3dcd97da	0.10038729
243	0x3d3c3c73	0.045956086
244	0xbd4386eb	-0.04773609
245	0xbcec4a27	-0.028843952
246	0x3baada47	0.005214009
247	0xbcfbbc67	-0.030729486
248	0xbd146bc8	-0.0362356
249	0x3cedbb99	0.029020118
250	0xbdae1a71	-0.08501137
251	0xbcc4bf13	-0.024016893
252	0xbdd8fe6f	-0.10595404
253	0xbdbd8e7c	-0.09255692
254	0xbd1c6471	-0.038181726
255	0x3dda0073	0.10644617

base.conv_1.bias f4 [64]
0	0xbd32c568	-0.043645293
1	0xbd1c8270	-0.038210332
2	0xbf003041	-0.5007363
3	0xbe50709a	-0.20355454
4	0x3e2cfc6f	0.16893171
5	0xbe8303c1	-0.25588802
6	0xbe879f38	-0.26488662
7	0xbe1252f8	-0.14289463
8	0xbc8b77ca	-0.017024893
9	0x3cedf206	0.02904607
10	0x3d76ae4e	0.060224824
11	0xbe2be6d1	-0.16787268
12	0xbe152130	-0.14563441
13	0xbee3e2c0	-0.44508934
14	0xbe8d7077	-0.27624866
15	0xbe49fb4e	-0.19724771
16	0xbe3f4024	-0.18676811
17	0x3daee970	0.085406184
18	0xbe9c85ef	-0.30570933
19	0xbe1f07e6	-0.15530357
20	0xbe80707c	-0.2508582
21	0xbe3f4404	-0.1867829
22	0xbe1db2a9	-0.15400185
23	0xbe1f4adb	-0.15555899
24	0xbd416233	-0.04721279
25	0xbe12aa80	-0.14322853
26	0xbd5b90e6	-0.053604983
27	0xbda0b01e	-0.07846092
28	0xbd38200c	-0.044952437
29	0xbeaf018a	-0.34180862
30	0xbe2a08cb	-0.16604917
31	0x3d6abad0	0.057307065
32	0x3e23ea65	0.16007383
33	0xbe4a6ca1	-0.19768001
34	0xbeb28eb7	-0.34874508
35	0xbe4f443d	-0.20240875
36	0xbe32e3ba	-0.17469683
37	0x3e0fbd85	0.1403714
38	0xbcc78c6f	-0.024358956
39	0xbeb7d987	-0.35908148
40	0xbe24a0dc	-0.16076988
41	0x3d44105e	0.04786717
42	0xbe56584d	-0.20932122
43	0x3d9b14b9	0.07572312
44	0x3e2b1347	0.16706572
45	0xbe391b98	-0.18076932
46	0xbdfae2e4	-0.12250307
47	0xbd71cf6b	-0.0590357
48	0xbe992163	-0.29908285
49	0xbeeedbbd	-0.46652022
50	0xbd7674b2	-0.060169883
51	0x3dc370c7	0.09542995
52	0xbeaa18ec	-0.3322214
53	0x3e14dd53	0.14537553
54	0xbe424269	-0.18970646
55	0xbd5584ab	-0.052128475
56	0x3e589b6b	0.21153037
57	0xbe80f163	-0.25184163
58	0xbd638a1d	-0.055551637
59	0xbe7ad955	-0.24496968
60	0xbd38c02e	-0.04510515
61	0xbed372a9	-0.41298416
62	0xbe66f79b	-0.22555391
63	0x3c6f3c38	0.01460176

base.input_compress.weight f4 [15, 104, 1, 1]
0	0x3e240dd0	0.16020894
1	0xbe7eb368	-0.24873126
2	0xbc406e0c	-0.011744987
3	0xbd8634b1	-0.06553019
4	0xbde59dd1	-0.11211742
5	0xbddf4fe6	-0.10903911
6	0xbd4e1898	-0.050316423
7	0xbe49f2f3	-0.19721584
8	0xbf0d8cbd	-0.55292875
9	0xbd72a906	-0.059243225
10	0x3edbb5fe	0.42912287
11	0xbe0d8d53	-0.13823442
12	0x3e894246	0.26808375
13	0xbe12ac92	-0.14323643
14	0xbe1b1abe	-0.1514692
15	0x3ebd3d48	0.36960816
16	0x3d8697e0	0.065719366
17	0x3da54cbb	0.08071276
18	0x3dcbeb21	0.09956957
19	0x3dbca9df	0.09212088
20	0xbda461dc	-0.08026478
21	0xbf4ffd5d	-0.81245977
22	0xbe5f156a	-0.21785513
23	0x3d85c45a	0.06531592
24	0x3db9b498	0.09067649
25	0xbe5415a1	-0.20711376
26	0x3dfe681c	0.12422201
27	0xbe108321	-0.14112522
28	0x3b33d626	0.0027440875
29	0xbd1ea5ab	-0.038732212
30	0x3d581abe	0.05275988
31	0xbdf11f0d	-0.117735006
32	0x3d586c07	0.052837398
33	0xbd3e3775	-0.046439607
34	0xbf0de520	-0.5542774
35	0xbe3ee945	-0.18643673
36	0x3e717415	0.23579438
37	0xbdbf53d0	-0.09342158
38	0xbc5bd96b	-0.013418536
39	0xbd63046c	-0.05542414
40	0x3e0d95b9	0.13826646
41	0x3ebeb19d	0.37244883
42	0x3ea02619	0.31279066
43	0xbd1e5852	-0.038658448
44	0xbe45bb33	-0.19309692
45	0x3d98d2c6	0.07462077
46	0xbe57974d	-0.2105381
47	0xbea107a0	-0.3145113
48	0xbeae0cca	-0.33994132
49	0xbe83c981	-0.25739673
50	0x3dc32553	0.095286034
51	0xbe7cfdf0	-0.24706244
52	0x3e8541e2	0.26026827
53	0xbc37524a	-0.011189053
54	0x3cc03d70	0.023466796
55	0xbd936081	-0.07196141
56	0xbe0a4b79	-0.13505353
57	0x3dca4ccd	0.0987793
58	0xbd2f6890	-0.042824328
59	0xbd14b18c	-0.036302134
60	0xbedbd05a	-0.42932397
61	0xbe540ae0	-0.20707273
62	0x3e9087e5	0.2822868
63	0x3d51cc24	0.051220074
64	0x3e5bcced	0.21464892
65	0xbd650802	-0.05591584
66	0x3d0bb1fe	0.034105293
67	0x3eab6df2	0.3348232
68	0x3f060257	0.5234732
69	0x3dd9ed4d	0.10640965
70	0x3b378169	0.0028000718
71	0xbdf55ec5	-0.119809665
72	0x3ddd37a2	0.10801627
73	0x3d750653	0.059820484
74	0x3da32aa1	0.07967115
75	0xbd62cfca	-0.055373944
76	0x3e0e6944	0.13907343
77	0xbecd8fb2	-0.40148693
78	0x3e09574d	0.13412209
79	0xbe396848	-0.18106186
80	0xbcde4e0e	-0.027136829
81	0xbdacbede	-0.084348425
82	0xbe57fa27	-0.2109152
83	0xbe615df2	-0.22008494
84	0xbc99798e	-0.01873472
85	0xbe38b9c4	-0.18039614
86	0xbef36552	-0.4753824
87	0x3dd4ae87	0.10384851
88	0x3f09d9a5	0.53847724
89	0xbcbd5c86	-0.023115408
90	0x3dd4800c	0.103759855
91	0x3c1a4b8f	0.009417429
92	0xbe429019	-0.19000281
93	0x3e916757	0.28399155
94	0x3ec83b77	0.39107868
95	0xbc9550f7	-0.018227084
96	0xbdf4635f	-0.11933016
97	0xbe1a7047	-0.15081893
98	0x3d93b356	0.0721194
99	0xbec7fab9	-0.39058474
100	0xbeb5c44e	-0.3550133
101	0xbdc57512	-0.0964147
102	0xbed31f02	-0.41234595
103	0xbdf7891b	-0.12086698
104	0xbf3b328c	-0.73124003
105	0xbcf0078c	-0.029300474
106	0xbd2b9cb4	-0.04189749
107	0x3dd7a9a9	0.10530407
108	0xbe0ff464	-0.14058071
109	0xbe162744	-0.14663416
110	0xbd47d272	-0.04878468
111	0x3d994e60	0.07485652
112	0xbf0b762d	-0.54477197
113	0x3e920031	0.2851577
114	0x3e7de78d	0.24795361
115	0xbe2118d0	-0.15732121
116	0xbe94aca4	-0.29037964
117	0x3bd2e6c4	0.006436201
118	0xbda84c74	-0.08217707
119	0x3d23db2b	0.040003937
120	0x3cc50ea9	0.024054842
121	0xbe3c2a6c	-0.18375558
122	0xbd022ec8	-0.031782895
123	0xbd9eef5c	-0.07760498
124	0xbde348be	-0.11097859
125	0xbf1c6820	-0.6109638
126	0xbd58584a	-0.052818574
127	0x3e940d22	0.2891627
128	0x3e21c159	0.15796413
129	0x3bbe72a3	0.0058120056
130	0xbf810804	-1.0080571
131	0xbdbd5dcd	-0.09246407
132	0xbe3b28a4	-0.18277222
133	0x3c8edcb6	0.017439228
134	0x3cd15e30	0.025557607
135	0xbe0a3110	-0.13495278
136	0xbdfc5922	-0.12321688
137	0xbbd78c99	-0.00657804
138	0xbf385006	-0.71997106
139	0x3ecbef6f	0.3983111
140	0x3ea3c646	0.31987208
141	0xbe5047cc	-0.20339888
142	0xbdd9fb93	-0.10643687
143	0x3dbad0ed	0.09121881
144	0xbda6b911	-0.08140767
145	0xbc8f69ee	-0.017506566
146	0x3e056a27	0.13028775
147	0x3cc70b37	0.02429734
148	0xbe1b3dc7	-0.15160285
149	0x3d52603c	0.051361308
150	0xbea21805	-0.3165895
151	0xbf7672cb	-0.9626891
152	0xbc06f0c4	-0.008236114
153	0x3ea15183	0.315075
154	0x3da6d84d	0.08146725
155	0xbe9d2607	-0.30693075
156	0xbf922038	-1.1416082
157	0xbea91a3d	-0.3302783
158	0x3dd08242	0.10181095
159	0x3e03fef9	0.12890233
160	0xbc0dcd33	-0.00865488
161	0xbdc021c5	-0.09381441
162	0x3dd50fdd	0.10403416
163	0xbd3f6396	-0.046725832
164	0xbf3cea5a	-0.7379509
165	0x3d325fdc	0.04354845
166	0x3e988719	0.2979057
167	0xbe3c0dc0	-0.1836462
168	0xbe10552a	-0.14094988
169	0x3e2c0fd0	0.16802907
170	0x3db0203a	0.08599897
171	0x3c94066f	0.018069474
172	0x3e8f0809	0.27935818
173	0xbcd5f66b	-0.026118478
174	0xbe09771d	-0.13424344
175	0xbdb18476	-0.08667843
176	0xbd8952e2	-0.06705262
177	0xbfc3724c	-1.5269256
178	0x3d363733	0.044486236
179	0x3ed87e42	0.42283827
180	0x3d8ed231	0.069736846
181	0xbe852f29	-0.26012543
182	0xbfe6dea7	-1.8036698
183	0x3b5a4bd4	0.0033309357
184	0xbe5799c7	-0.21054755
185	0x3e161e8f	0.14660095
186	0x3c4814f2	0.012212025
187	0xbd0a7ae6	-0.03380861
188	0xbd046e53	-0.032331776
189	0x3d03e74a	0.032202996
190	0xbf97a6f8	-1.184783
191	0x3dce36aa	0.1006902
192	0x3eb3545d	0.35025302
193	0xbe372e80	-0.17888832
194	0xbe40d06b	-0.18829505
195	0xbd5865f5	-0.05283161
196	0xbe64a070	-0.22326827
197	0x3e851c97	0.25998375
198	0x3f434df0	0.762908
199	0xbe5eb19c	-0.2174744
200	0xbe167ad2	-0.1469529
201	0xbd01e93d	-0.031716574
202	0xbe15f82f	-0.14645456
203	0xc00ccfbe	-2.2001796
204	0x3de45986	0.11149888
205	0x3ee50275	0.44728437
206	0xbceff34c	-0.029290818
207	0xbde18445	-0.110115565
208	0x3f991a4f	1.1961154
209	0xbd9d1ae9	-0.07671148
210	0x3e2e2c9a	0.17009202
211	0xbe4c747a	-0.19966307
212	0x3e0f4fcd	0.13995285
213	0x3d39b5c1	0.04533935
214	0xbe107038	-0.14105308
215	0xbdc13b62	-0.094351545
216	0xbe24b53d	-0.16084762
217	0x3d9c52bc	0.07632968
218	0x3bb1d5ba	0.0054270895
219	0xbd13e1a6	-0.036103867
220	0x3db6922c	0.08914599
221	0xbde61fca	-0.11236532
222	0x3dcc12c6	0.09964518
223	0x3e476484	0.19471937
224	0x3d92aecd	0.07162247
225	0x3dd15296	0.1022083
226	0x3b6008dd	0.003418497
227	0xbdc1b028	-0.09457427
228	0x3e2f123d	0.17096801
229	0x3f62ea2a	0.88638556
230	0x3d968bd5	0.073508896
231	0xbf505caa	-0.81391394
232	0x3d92ed2f	0.071741454
233	0x3a220706	0.0006180856
234	0x3f9da5e2	1.2316248
235	0xbda34175	-0.07971469
236	0x3df039ea	0.11729796
237	0xbe54e29f	-0.20789574
238	0x3d3e4515	0.0464526
239	0x3e442867	0.19156037
240	0xbe310e55	-0.17290623
241	0xbe6247f3	-0.22097759
242	0xbd48b5db	-0.049001556
243	0xbe38af5f	-0.18035649
244	0x3e9193f5	0.28433195
245	0xbd8a51dd	-0.067538954
246	0xbc89b7f8	-0.016811356
247	0x3d963286	0.07333855
248	0x3c39c1a0	0.011337668
249	0x3e528cdd	0.20561548
250	0x3c68b98d	0.014204395
251	0xbe2c4ac2	-0.16825393
252	0xbcdceec6	-0.026969325
253	0x3d21b689	0.03948072
254	0xbd429c0b	-0.047512095
255	0x3fa5834f	1.2930697

base.input_compress.bias f4 [15]
0	0x3eb2a6c9	0.34892872
1	0xbf1caf1d	-0.612047
2	0x3f0e68f5	0.556289
3	0x3ec3934d	0.3819832
4	0x3f0764b1	0.5288802
5	0x3e320542	0.17384818
6	0xbece1cd9	-0.40256384
7	0xbcefda9d	-0.029279048
8	0x3db47aa0	0.08812451
9	0x3f07c58d	0.53035814
10	0x3ead2d68	0.33823705
11	0xbdb0a649	-0.086254664
12	0x3f576908	0.8414464
13	0xbf16d50a	-0.5891882
14	0x3e440d9e	0.1914582

base.actor_compress.weight f4 [19, 79, 3, 3]
0	0x3d8eca8f	0.06972229
1	0xbd2ac722	-0.041693814
2	0x3c35d4a0	0.011098057
3	0x3d13cc69	0.036083613
4	0xbd5e5525	-0.05428042
5	0xbd82c830	-0.06385839
6	0xbcba85ac	-0.022768818
7	0xbd3ea8ab	-0.046547573
8	0xbd100465	-0.03516044
9	0xbc6f431e	-0.014603404
10	0x3c5ca106	0.013466125
11	0xbbc0284b	-0.0058641783
12	0xbcf3551a	-0.029703666
13	0xbbb86c79	-0.0056281653
14	0x3cefa72c	0.029254518
15	0xbd0229af	-0.031778034
16	0xbda101d7	-0.07861679
17	0xbd93c42c	-0.07215151
18	0xbca2325e	-0.019799408
19	0xbda0df74	-0.0785512
20	0x3d5d9dd8	0.05410561
21	0xbd030cb2	-0.03199453
22	0xbdac9500	-0.08426857
23	0xbccce2b6	-0.025010448
24	0x3ba4c402	0.0050282488
25	0x3d202294	0.039095476
26	0x3cbf7706	0.023372184
27	0x3cd049bf	0.02542579
28	0xbcbe7352	-0.023248348
29	0x3cf82f9f	0.030296145
30	0xbcb4b536	-0.022059064
31	0x3c391ca6	0.011298334
32	0xbc285e48	-0.010276385
33	0xbca8c08b	-0.020599624
34	0xbc249fd0	-0.010047868
35	0x3bbca5ec	0.005757084
36	0x3d86e5ec	0.06586823
37	0x3d1f15f3	0.03883929
38	0x3d318655	0.043341
39	0x3cd4c82c	0.025974356
40	0xbb24aad3	-0.0025126233
41	0xbd140d66	-0.03614559
42	0xbc0ac56c	-0.008469921
43	0xbb537ded	-0.0032271103
44	0xbcadc71b	-0.021213105
45	0xbddb3ed1	-0.10705341
46	0xbd83f559	-0.06443281
47	0xbd67d952	-0.056603737
48	0xbd9410cd	-0.07229767
49	0xbd6f1075	-0.058365304
50	0x3cf2dd03	0.029646402
51	0x3cdbde3e	0.026839372
52	0xbdb269ba	-0.08711572
53	0xbc341c21	-0.010993035
54	0xbd141dd8	-0.036161274
55	0xbd7a704d	-0.061142255
56	0xbd504263	-0.05084456
57	0xbd634ef1	-0.055495206
58	0xbde0b837	-0.10972636
59	0xbdd17774	-0.10227862
60	0xbd89f6fa	-0.0673656
61	0xbd95e651	-0.0731932
62	0xbd52b2d0	-0.05144006
63	0xbd0e4bba	-0.034740187
64	0x3d7997f7	0.06093594
65	0xbbe9e52f	-0.0071379165
66	0xbd93692b	-0.071977936
67	0xbca8954e	-0.020579007
68	0x3c771f6a	0.015083173
69	0xbd03d24e	-0.032182984
70	0xbc09e840	-0.008417189
71	0xbc89deb5	-0.016829828
72	0x3cb6b0e3	0.022301143
73	0xbcba46d0	-0.022738844
74	0x3c012965	0.007883404
75	0xba5c86f8	-0.0008412446
76	0xbc9402d0	-0.018067747
77	0x3d07a3bb	0.03311513
78	0x3d7b6730	0.061377704
79	0xbd60e4cc	-0.054905698
80	0x3d8c268e	0.06843291
81	0x3bb69f16	0.0055731637
82	0xbd6159cf	-0.05501729
83	0xbd481544	-0.048848405
84	0x3c9e53ff	0.019327162
85	0xbd985d37	-0.07439654
86	0xbd4db681	-0.050222877
87	0xbba3cd56	-0.004998843
88	0x3d6d98d1	0.058007065
89	0xbba3e09d	-0.005001141
90	0xbc29bcbc	-0.010359939
91	0xbd9d19ee	-0.07670961
92	0xbe00b822	-0.12570241
93	0xbcdf7c30	-0.027280897
94	0xbdc938f1	-0.09825314
95	0x3c220a18	0.009890102
96	0xbd08c777	-0.03339335
97	0x3d3df565	0.046376605
98	0x3dfb4b1e	0.12270187
99	0xbaca0da6	-0.0015415445
100	0xbc49beef	-0.0123135885
101	0xbd84ed81	-0.06490613
102	0x3c7a824c	0.015289854
103	0xbd288438	-0.04114172
104	0x3d460b3e	0.048350565
105	0x3d2f32cc	0.042773053
106	0x3cc51b2f	0.024060814
107	0x3cb6cfd4	0.022315897
108	0x3d7503af	0.059817966
109	0x3cc54d3a	0.024084676
110	0x3ce3020e	0.02771094
111	0xbd481ce6	-0.048855685
112	0xbd551525	-0.052022118
113	0x3c0073f9	0.00784015
114	0xbd9c00c2	-0.07617332
115	0xbd43cc12	-0.04780204
116	0xbdd34535	-0.103159346
117	0x3cfc4a41	0.030797126
118	0xbce4b093	-0.027916228
119	0xbd070eeb	-0.03297321
120	0x3d2943ce	0.04132443
121	0x3c2e0b21	0.0106227705
122	0xbd9a16d5	-0.07523886
123	0x3dd43b55	0.10362879
124	0xbba2f2d4	-0.004972795
125	0xbe027998	-0.12741697
126	0xbd997818	-0.07493609
127	0x3c3b67d5	0.01143833
128	0x3cbf7201	0.023369791
129	0x3cdfad0f	0.0273042
130	0xbd7a18c3	-0.06105877
131	0x3ba47e62	0.005019949
132	0xbd170ebb	-0.036879282
133	0xbd8be58a	-0.068308905
134	0x3d748c92	0.05970437
135	0x3e112d17	0.14177357
136	0x3e10c87c	0.14138979
137	0x3e23a43d	0.1598062
138	0x3d2fbc26	0.04290404
139	0xbc958f34	-0.018256761
140	0xbd9b5969	-0.07585413
141	0x3dc13d94	0.09435573
142	0xbb409d06	-0.0029390468
143	0x3cc70ae2	0.024297182
144	0xbb6731c3	-0.0035277463
145	0x3d851c34	0.0649952
146	0xbc21c1be	-0.009872852
147	0xbd23fbea	-0.040035166
148	0xbcc2e937	-0.023792846
149	0x3d4beca7	0.049786236
150	0x3d13200d	0.035919238
151	0xbcdaaf36	-0.026694875
152	0x3c5b77f0	0.013395295
153	0x3c9b6ec6	0.01897372
154	0xbcd592e6	-0.026071023
155	0x3c85593b	0.0162779
156	0x3cb493d7	0.022043152
157	0x3c5b8b7f	0.013399958
158	0x3db54f4b	0.088530146
159	0xbdbd7909	-0.09251601
160	0x3c1d6962	0.009607645
161	0xbd1e1438	-0.0385935
162	0xbc6dd6c8	-0.01451654
163	0xba7b4c02	-0.0009586216
164	0xbc78e5bf	-0.0151914945
165	0xbd1e9ba2	-0.03872264
166	0xbcf022f0	-0.029313534
167	0xbd5bb634	-0.05364056
168	0xbd93f8b6	-0.07225172
169	0x3d1c1ad9	0.03811154
170	0xbc9331b6	-0.01796804
171	0x3d4aa3c9	0.049472604
172	0x3debceee	0.11514078
173	0x3db00410	0.08594525
174	0x3c3e3f4e	0.011611773
175	0x3d3c4f02	0.045973785
176	0x3ced1c2a	0.028944094
177	0xbd35889e	-0.04431974
178	0x3d4076bf	0.046988245
179	0xbd355d51	-0.044278447
180	0xbd36fb21	-0.04467309
181	0xbca99238	-0.020699605
182	0x3aa5aca4	0.0012639952
183	0x3d5d213b	0.05398677
184	0x3c2e6792	0.01064481
185	0x3d4b2b83	0.049602043
186	0x3d75aeda	0.059981205
187	0xbca544d7	-0.020174427
188	0x3c62f092	0.013851302
189	0x3d386cfa	0.045025803
190	0x3d64b5ec	0.055837557
191	0x3d8f5cbf	0.07000112
192	0x3bb0b467	0.0053925994
193	0x3cecc28c	0.02890136
194	0x3dc01483	0.09378912
195	0xbc55b0d6	-0.013042649
196	0xbc58c72a	-0.013231078
197	0x3d4199b4	0.047265723
198	0x3d5d0635	0.053960998
199	0xbd669caf	-0.05630177
200	0xbd3378d8	-0.043816417
201	0xbd2c0eca	-0.04200629
202	0xba8714ac	-0.0010305843
203	0xbd819bb9	-0.0632853
204	0x3c104b3d	0.008807001
205	0xbd55a43c	-0.05215858
206	0x3bd65492	0.0065408433
207	0x3c19da6e	0.009390457
208	0xbd820f17	-0.063505344
209	0xbdd78520	-0.105234385
210	0xbb2b4d39	-0.0026138558
211	0x3b9fa831	0.004872345
212	0xbe1c112f	-0.1524093
213	0xbdae392c	-0.085069984
214	0xbd560add	-0.052256454
215	0x3c4ac954	0.012377102
216	0xbd9bb3ac	-0.07602629
217	0x3d100db3	0.035169315
218	0xbcce51e6	-0.025185537
219	0xbde14eaa	-0.11001332
220	0xbd847961	-0.06468464
221	0xbda85881	-0.08220006
222	0xbdbbcdd8	-0.09170121
223	0x3cf8af45	0.030357013
224	0x3ced12cd	0.028939629
225	0xbe0fe9fe	-0.14054105
226	0xbd19cac3	-0.037546884
227	0xbd6f5151	-0.05842716
228	0xbd42708b	-0.04747061
229	0x3cd3562e	0.02579793
230	0xbda9db46	-0.08293776
231	0xbd69f024	-0.05711378
232	0xbba54115	-0.005043159
233	0xbd5f1018	-0.054458708
234	0xbcfe9cf8	-0.031080708
235	0xbd3a7b0e	-0.04552751
236	0xbc252c23	-0.010081324
237	0xbd5d7325	-0.05406489
238	0xbc6d2097	-0.014473102
239	0xbdf765b0	-0.12079942
240	0xbdd36d23	-0.103235506
241	0xbdd25450	-0.102699876
242	0xbda9b315	-0.0828611
243	0x3d811ebf	0.063046925
244	0xbc93dafe	-0.01804876
245	0xbc243342	-0.010021986
246	0x3ce5ac8b	0.028036376
247	0x3ce97f37	0.028503044
248	0xbce1c38b	-0.027559062
249	0xbd7ab005	-0.06120302
250	0xbcd53557	-0.026026411
251	0x3c6301bb	0.013855393
252	0xbd47482e	-0.04865282
253	0xbd1fa98d	-0.038980056
254	0xbd4b004c	-0.04956083
255	0x3cae4ea8	0.02127774

base.actor_compress.bias f4 [19]
0	0xbe2b58c7	-0.16733085
1	0x3cd70522	0.026247565
2	0x3ec22cfe	0.3792495
3	0x3db29d7b	0.08721443
4	0xbf21d6b3	-0.6321823
5	0x3e221c17	0.15831028
6	0xbec4c919	-0.38434675
7	0xbf105102	-0.5637361
8	0xbee86ca0	-0.45395374
9	0xbe24ec22	-0.16105703
10	0x3e010a46	0.12601575
11	0xbef68ab2	-0.4815269
12	0xbd83bcd5	-0.06432501
13	0x3f38365c	0.71957946
14	0x3dffc9bf	0.12489652
15	0x3e7b596f	0.24545835
16	0xbd54f319	-0.05198965
17	0xbee55cdd	-0.44797412
18	0x3e396796	0.18105921

base.critic_compress.weight f4 [8, 79, 1, 1]
0	0x3f15489b	0.5831391
1	0xbdfdf147	-0.123995356
2	0x3d30319a	0.043016054
3	0xbd5a1e04	-0.05325128
4	0xbc394560	-0.011308044
5	0xbdc1b0ae	-0.09457527
6	0xbd684240	-0.056703806
7	0xbdb21e38	-0.0869717
8	0xbcbe04c3	-0.02319563
9	0xbd478918	-0.048714727
10	0xbe0e98f1	-0.1392553
11	0xbdc40474	-0.09571162
12	0xbd89294a	-0.066973284
13	0xbe37e805	-0.17959602
14	0xbe09e30c	-0.13465518
15	0xbdcf256f	-0.10114562
16	0xbd90ab44	-0.07063916
17	0x3cd80cd9	0.026373314
18	0xbd57195b	-0.052514415
19	0xbdbd837d	-0.09253595
20	0xbd91b7a5	-0.071151055
21	0xbe4ffd86	-0.20311555
22	0xbd1dcafb	-0.038523655
23	0xbe8aea8b	-0.27132067
24	0xbe9db84f	-0.3080468
25	0xbe20c175	-0.15698798
26	0x3c9d47c0	0.019199252
27	0x3d1ec1ff	0.038759228
28	0xbd8cbe78	-0.068722665
29	0xbe5dcea7	-0.21660863
30	0xbd93c147	-0.07214599
31	0xbc232875	-0.009958376
32	0xbd8b3e44	-0.067989856
33	0x3d94ac5a	0.07259436
34	0xbdc43021	-0.09579492
35	0xbc0d18ff	-0.008611917
36	0xbd37dd7a	-0.04488895
37	0xbda2431c	-0.07922956
38	0x3d52eb1e	0.051493756
39	0xbe86b883	-0.26312646
40	0xbe0ecf9e	-0.13946387
41	0xbde8854b	-0.113535486
42	0xbd76c49b	-0.06024609
43	0xbd90fe42	-0.07079746
44	0xbe1e1a5d	-0.15439744
45	0xbd5c4671	-0.053778116
46	0xbe1709bc	-0.14749807
47	0xbddfde32	-0.10931052
48	0xbcaf0ea3	-0.021369284
49	0xbe11144d	-0.141679
50	0xbd7b962a	-0.061422504
51	0x3d654653	0.05597527
52	0xbe0e1b37	-0.13877569
53	0xbd53c771	-0.051703874
54	0xbd49f3ff	-0.04930496
55	0xbdca3874	-0.09874049
56	0xbe7ae70f	-0.24502204
57	0xbe8f7ac1	-0.2802334
58	0xbe4a960d	-0.19783802
59	0x3d39f6d8	0.045401424
60	0xbd45e2ba	-0.048311926
61	0x3c99d09f	0.018776236
62	0xbcd13195	-0.025536338
63	0xbe0082e5	-0.12549932
64	0xbeb2b83e	-0.3490619
65	0xbd43c96f	-0.047799524
66	0xbe3762a7	-0.17908727
67	0xbde35c90	-0.11101639
68	0xbdb8ecfd	-0.09029577
69	0xbcdec8b5	-0.027195314
70	0xbd8cf462	-0.0688255
71	0xbd0c1f57	-0.034209576
72	0xbeaa042f	-0.33206317
73	0xbce73aa2	-0.0282262
74	0x3e1eba0e	0.15500662
75	0xbf026dbf	-0.5094871
76	0xbd840380	-0.0644598
77	0xbed38e8c	-0.41319692
78	0xbea95727	-0.33074304
79	0xbd2ae170	-0.0417189
80	0x3ea7c589	0.32767895
81	0xbe751429	-0.23933472
82	0x3d904b21	0.0704558
83	0xbe6bc284	-0.2302342
84	0xbda035ee	-0.07822786
85	0x3ce1e973	0.027577138
86	0xbd71c829	-0.05902878
87	0x3dacec83	0.084435485
88	0xbdfe5fe5	-0.12420634
89	0xbe05969b	-0.13045733
90	0xbcbbf469	-0.022943692
91	0xbdb49be6	-0.08818798
92	0xbd6b30b8	-0.05741951
93	0xbe03f4fa	-0.1288642
94	0xbe29cb03	-0.16581349
95	0xbe1490cf	-0.14508365
96	0x3e23b5c9	0.15987314
97	0xbe71ef84	-0.23626524
98	0x3e58a599	0.2115692
99	0xbc172940	-0.009226143
100	0xbdf4cd6c	-0.119532436
101	0x3d0e1a79	0.034693215
102	0xbe07569f	-0.13216637
103	0xbe795d47	-0.24351989
104	0x3d8f3587	0.069926314
105	0xbd462de9	-0.048383627
106	0x3c730b25	0.0148342
107	0xbe466f9f	-0.19378518
108	0xbd43175e	-0.047629707
109	0x3aae4459	0.0013295516
110	0x3e3ce2ec	0.18445939
111	0x3def42c8	0.116826594
112	0xbd9982f8	-0.074956834
113	0xbdb7c756	-0.08973567
114	0x3e2d6d3a	0.16936198
115	0x3e336276	0.17518029
116	0x3d3c0280	0.04590082
117	0xbd7cc032	-0.06170673
118	0xbba62a1c	-0.005070938
119	0xbd56b47f	-0.05241823
120	0xbd727c8f	-0.05920082
121	0x3d8e9ccb	0.069635
122	0xbd3f801b	-0.04675303
123	0xbddda54e	-0.10822545
124	0x3d99b992	0.07506098
125	0xbd2ee28b	-0.042696517
126	0xbebd0a77	-0.36922047
127	0x3a4d941f	0.0007842201
128	0xbe29a31f	-0.16566132
129	0xbd89629c	-0.06708261
130	0xbcba2a02	-0.022725109
131	0xbe6383c3	-0.22218232
132	0xbe1fa809	-0.15591444
133	0xbd7d10b1	-0.061783496
134	0xbdb69e5d	-0.08916924
135	0xbcef6059	-0.029220747
136	0xbdc3fbf9	-0.09569544
137	0xbdbd33df	-0.09238409
138	0xbcfcc427	-0.030855251
139	0x3dc089a5	0.094012536
140	0xbc287bf2	-0.010283457
141	0x3d320cdb	0.04346929
142	0xbe39499d	-0.18094487
143	0x3e049b29	0.12949814
144	0xbdb58f87	-0.08865266
145	0x3e1b11dc	0.15143532
146	0xbd59ed46	-0.053204797
147	0x3eaef1f6	0.34168977
148	0x3e3baf0b	0.18328492
149	0x3df499ca	0.119433954
150	0x3c837875	0.01604865
151	0x3dcd70ec	0.10031304
152	0x3de1fdf6	0.11034767
153	0x3e7f65fb	0.24941246
154	0xbdbc397b	-0.09190651
155	0x3dca09d7	0.09865158
156	0xbe6a247f	-0.22865485
157	0xbed6ddd3	-0.41966113
158	0xbd8919d5	-0.0669438
159	0x3d0445e1	0.032293204
160	0x3f0c4234	0.5478852
161	0xbde053cf	-0.10953485
162	0xbcf8cff8	-0.030372605
163	0x3d22be15	0.039732058
164	0x3e8b42e1	0.27199462
165	0xbd3229b1	-0.04349679
166	0xbc3a6044	-0.011375491
167	0xbd933fc4	-0.07189897
168	0xbde3051b	-0.11084958
169	0x3b983f38	0.004646208
170	0xbd2a6ef7	-0.04160973
171	0xbe555c9e	-0.20836112
172	0x3cb727b0	0.022357792
173	0xbe5bb601	-0.21456148
174	0xbe150ae2	-0.14554933
175	0xbde6e8a0	-0.112748384
176	0xbe6b6c4a	-0.22990528
177	0xbd963b2e	-0.073355064
178	0xbc33b940	-0.01096946
179	0xbe25d81e	-0.16195723
180	0xbdf5bf7f	-0.119994156
181	0xbe10cb61	-0.14140083
182	0xbd8962a7	-0.067082696
183	0xbd82c6a8	-0.06385547
184	0x3e333844	0.17501932
185	0xbc1570cf	-0.009121134
186	0xbdc55fea	-0.09637435
187	0xbea5bd94	-0.323712
188	0xbd824bd0	-0.06362116
189	0x3d0bb2d6	0.034106098
190	0xbdefe1f7	-0.11713021
191	0x3d575320	0.05256951
192	0xbe123e97	-0.14281689
193	0x3d053afa	0.032526948
194	0xbe2163a4	-0.15760666
195	0xbd1e468c	-0.038641497
196	0xbe0cfe14	-0.13768798
197	0xbe6db7e4	-0.2321468
198	0xbc6474c7	-0.0139438575
199	0xbe4094c4	-0.1880675
200	0xbcdf134e	-0.027230885
201	0xbe258601	-0.161644
202	0xbd938fc8	-0.072051585
203	0xbda42757	-0.08015316
204	0xbdc0505f	-0.093903296
205	0xbcf2c5bd	-0.029635305
206	0x3ba59bde	0.005053981
207	0xbe876838	-0.264467
208	0xbcc901e3	-0.024537032
209	0x3cd67da4	0.026182957
210	0xbdbf2d4e	-0.09334813
211	0xbd9c7e24	-0.07641247
212	0xbd281be8	-0.04104224
213	0xbc245a03	-0.010031226
214	0xbdb38f50	-0.08767569
215	0xbea1482d	-0.31500378
216	0xbdcfe815	-0.10151688
217	0xbd8d2ce1	-0.068933256
218	0xbd38a000	-0.045074463
219	0xbd5976e9	-0.053091917
220	0xbe26c49a	-0.16285935
221	0xbd477b30	-0.048701465
222	0xbe454ba7	-0.1926714
223	0xbe57d202	-0.21076205
224	0xbe829372	-0.25503117
225	0xbe1febf1	-0.15617348
226	0x3bb84fb9	0.005624738
227	0xbd8cd77c	-0.06877038
228	0x3d1ba9b7	0.03800365
229	0xbea054a5	-0.3131458
230	0xbde233cc	-0.11045036
231	0xbdc118eb	-0.09428581
232	0x3c9a557c	0.01883959
233	0xbdba0b96	-0.09084241
234	0xbe7cc8fa	-0.24686041
235	0xbe82d979	-0.25556543
236	0xbea22fde	-0.31677145
237	0xbc8bb2dc	-0.01705306
238	0x3da11230	0.07864797
239	0x3d8dc183	0.06921675
240	0x3ebe41bf	0.37159535
241	0xbbf4201c	-0.007450117
242	0xbbba0aab	-0.0056775413
243	0xbe0c9344	-0.13728052
244	0x3d87978e	0.06620704
245	0xbe2d6c82	-0.16935924
246	0xbda78e41	-0.0818143
247	0xbdc7e290	-0.0976001
248	0xbe17286c	-0.14761513
249	0xbdd66b29	-0.10469658
250	0xbe8088d8	-0.25104403
251	0xbe2f5635	-0.17122729
252	0xbb41c22c	-0.0029565198
253	0xbc170d95	-0.009219547
254	0x3d8c15d0	0.06840098
255	0x3c0f31b8	0.008739881

base.critic_compress.bias f4 [8]
0	0xbd210f4a	-0.03932122
1	0x3f6c8324	0.92387605
2	0xbf571c13	-0.8402721
3	0xbeb7d605	-0.3590547
4	0x3eda42f5	0.4262921
5	0xbe0bcd1b	-0.1365246
6	0x3f02da87	0.51114696
7	0xbd232694	-0.039831713

base.critic_conv_1.weight f4 [1, 8, 20, 20]
0	0x3de75044	0.11294606
1	0x3e107023	0.14105277
2	0x3d9cc423	0.076545976
3	0x3d87ff0f	0.066404454
4	0x3df9ddd8	0.122005165
5	0x3da7646b	0.0817345
6	0x3c03bd4d	0.008040738
7	0xbd8513c0	-0.06497908
8	0xbe1bf913	-0.15231733
9	0xbdabd4fd	-0.08390234
10	0x3d31a7f8	0.043373078
11	0xbc24889c	-0.010042336
12	0xbda34305	-0.07971767
13	0xbcc304f9	-0.023806082
14	0x3c1da584	0.0096219815
15	0x3ba0c32b	0.0049060783
16	0x3d2f36c0	0.042776823
17	0x3d8085cc	0.0627552
18	0x3d2d2ef3	0.042281102
19	0x3d6a8a23	0.057260644
20	0x3d64033b	0.055667143
21	0xbca2046c	-0.0197775
22	0x3e4ff475	0.20308097
23	0x3e5d2d8b	0.21599405
24	0x3db19a44	0.08672002
25	0x3d13ef24	0.036116734
26	0x3c901568	0.017588332
27	0x3d296161	0.041352633
28	0x3dc12d8c	0.094325155
29	0x3d052ea7	0.032515194
30	0x3cbcac39	0.02303134
31	0xbd37edb7	-0.044904437
32	0xbe066465	-0.13124235
33	0xbd6e9deb	-0.05825607
34	0xbc97293d	-0.018452281
35	0xbc32c113	-0.01091029
36	0x3dd637b5	0.10459844
37	0xbd1f5155	-0.038895924
38	0xbe0408c6	-0.12893972
39	0xbd679164	-0.05653514
40	0x3e16ff8c	0.14745921
41	0xbd3c0ee9	-0.045912657
42	0x3e123a83	0.14280133
43	0x3dd26e6a	0.10274966
44	0xbe36795f	-0.17819737
45	0x3d2132da	0.039355136
46	0xbcdbaf7b	-0.026817074
47	0xbcbca168	-0.023026183
48	0x3e0e7ea5	0.13915499
49	0x3bfc9087	0.0077076587
50	0xbdc9f8d7	-0.098619156
51	0x3d2b9400	0.04188919
52	0x3d9e1243	0.07718327
53	0xbe1a8dcc	-0.15093154
54	0xbdefc419	-0.117073245
55	0xbca4c628	-0.02011402
56	0x3d5bf630	0.05370158
57	0xbc1cbc63	-0.009566399
58	0xbd04fda6	-0.03246846
59	0x3cee61c8	0.02909936
60	0xbd7c263b	-0.061559897
61	0xbda22e30	-0.07918966
62	0x3e846055	0.25854746
63	0x3d56f2df	0.052477714
64	0x3e13ecd1	0.14445807
65	0x3debd633	0.11515465
66	0x3dc08124	0.093996316
67	0x3cf95e30	0.03044042
68	0x3d8b0ed1	0.067899354
69	0xbd86f27c	-0.06589219
70	0xbdbafeef	-0.09130656
71	0xbddf7d04	-0.10912517
72	0xbd56c74f	-0.05243617
73	0xbd6f01c3	-0.05835129
74	0xbda73b73	-0.08165636
75	0x3b1d65bf	0.0024016944
76	0x3cf79505	0.030222425
77	0xbc7089b2	-0.014681267
78	0x3be6b13f	0.0070401723
79	0x3e1b6ff8	0.15179431
80	0x3d40a6e7	0.04703417
81	0x3e0c15f1	0.13680245
82	0x3d98e89b	0.07466241
83	0x3d40b7f2	0.047050424
84	0x3d571f78	0.052520245
85	0x3d4734cf	0.048634347
86	0x3a6b6352	0.00089793385
87	0xbd31dcc0	-0.043423414
88	0x3d803f37	0.06262057
89	0xbca479d1	-0.020077618
90	0xbc8db0bf	-0.017296193
91	0x3df6341a	0.12021656
92	0x3d74ce8b	0.059767287
93	0x3d3d1a4e	0.046167664
94	0xbd52c146	-0.05145385
95	0x3d82ddac	0.06389937
96	0xbc8cc85b	-0.01718538
97	0xbde3773e	-0.11106728
98	0x3a46b7f8	0.0007580514
99	0x3d7b7881	0.06139422
100	0x3d0cd237	0.034380164
101	0x3d6677f2	0.056266733
102	0x3d45c640	0.04828477
103	0x3ccc9efc	0.024978153
104	0x3c8339a2	0.016018692
105	0xbd62e235	-0.05539151
106	0xbdabfb9a	-0.083975986
107	0x3d76b806	0.060234092
108	0xbda9c59b	-0.082896434
109	0xbc8488b3	-0.016178465
110	0xbca98f47	-0.020698203
111	0xbd26898a	-0.04065851
112	0x3c5c8ccc	0.013461303
113	0x3de4eb33	0.11177673
114	0xbd55bf8d	-0.05218463
115	0x3d10504e	0.035232835
116	0x3ba3e2fd	0.0050014243
117	0x3cc3d23e	0.023903962
118	0x3d3e46e1	0.046454314
119	0x3db1fd50	0.08690894
120	0x3d7ca957	0.061684933
121	0x3dcf939d	0.10135577
122	0x3d174956	0.036935173
123	0xbdc0b755	-0.09409968
124	0x3d0f63ab	0.03500716
125	0xbe076a6b	-0.13224189
126	0x3d792a70	0.060831487
127	0xbd2941f9	-0.041322682
128	0x3d39648c	0.045261905
129	0x3c9ab416	0.0188847
130	0x3d3b03d6	0.045657955
131	0xbdc0e747	-0.09419113
132	0x3e042fca	0.12908855
133	0x3d9145ea	0.07093413
134	0xbb246be1	-0.0025088715
135	0xbc612b35	-0.0137432115
136	0x3cb9a3dc	0.022661142
137	0x3d345328	0.044024616
138	0x3e4311c5	0.19049747
139	0x3d9b8421	0.07593561
140	0xbd24a62d	-0.04019754
141	0xbc87d77f	-0.016582249
142	0x3df86046	0.12127738
143	0xbc4b263a	-0.012399251
144	0xbdc5b001	-0.09652711
145	0xbda7e139	-0.08197255
146	0x3d75983c	0.059959635
147	0x3d479c72	0.048733182
148	0x3d845b10	0.06462681
149	0x3c03bc39	0.008040481
150	0xbc79d677	-0.015248886
151	0x3cc17189	0.023613708
152	0xbd4c0aca	-0.049814977
153	0xbd61ae03	-0.05509759
154	0xbd8a231a	-0.06744976
155	0xbdf0ca48	-0.11757332
156	0xbd2f960f	-0.042867716
157	0x3d8c6af9	0.06856341
158	0x3d890c51	0.06691802
159	0x3dd2bf50	0.10290396
160	0x3d4e0611	0.050298754
161	0xbdb24c46	-0.08705954
162	0x3e0cb791	0.137419
163	0xbc4d2576	-0.012521138
164	0xbd2b6e4d	-0.041853238
165	0x3d99e8e9	0.07515127
166	0xbd5d8c1c	-0.054088697
167	0xbca19cf1	-0.019728156
168	0x3bc2d967	0.0059463265
169	0xbd211be6	-0.039333247
170	0xbdeea112	-0.116518155
171	0xbdb08b61	-0.086203344
172	0xbd5ed6ae	-0.054403953
173	0xbd26923f	-0.040666815
174	0xbc8fdb57	-0.017560644
175	0xbd05f942	-0.032708414
176	0x3c71d75e	0.01476082
177	0x3d0a570d	0.033774424
178	0x3ad3b645	0.0016152343
179	0x3d0233b6	0.031787597
180	0xbd2c04ad	-0.041996647
181	0xbcf8ce49	-0.030371802
182	0x3d0652f3	0.03279395
183	0xbd446636	-0.04794904
184	0xbd3e175b	-0.046408992
185	0xbe11bdd8	-0.14232576
186	0x3ce5fdcb	0.02807512
187	0x3d1adc86	0.037807964
188	0x3d06ae26	0.032880925
189	0xbcdad207	-0.026711477
190	0x3c890a6c	0.016728602
191	0xbe3c045f	-0.18361042
192	0x3d6c41d4	0.057679966
193	0x3db1431b	0.086553775
194	0x3ae4783d	0.0017430853
195	0xbd8ca5e7	-0.06867581
196	0x3c60251e	0.013680724
197	0x3db6b888	0.08921915
198	0xbd1f1811	-0.03884131
199	0xbccfd19b	-0.025368502
200	0xbd759f73	-0.059966516
201	0x3dd08ae0	0.10182738
202	0xbc1c629a	-0.009544993
203	0xbe075c05	-0.13218696
204	0xbc39601c	-0.011314418
205	0x3cedd3dc	0.029031686
206	0x3dad4da8	0.084620774
207	0xbd447fc1	-0.047973398
208	0x3d014de7	0.031568434
209	0xbdee36de	-0.11631559
210	0x3ea4bb41	0.32174113
211	0xbdf4dbbe	-0.11955975
212	0xbd6deb31	-0.058085624
213	0x3d57426f	0.05255359
214	0x3aeecbed	0.0018218734
215	0xbd3c65bf	-0.04599547
216	0x3c198f99	0.009372615
217	0xbdc94bdd	-0.09828923
218	0xbdc819c8	-0.097705424
219	0x3c2ccb4c	0.010546517
220	0xbc83a34a	-0.016069073
221	0x3d6a5137	0.05720636
222	0x3d830319	0.06397075
223	0x3c6e9167	0.014561034
224	0xbe14b607	-0.14522563
225	0x3dc40e78	0.09573072
226	0x3c19eb87	0.009394533
227	0xbc9bd115	-0.019020597
228	0xbc3edd0e	-0.011649383
229	0xbd47740d	-0.04869466
230	0xbd4d0684	-0.050055042
231	0xbbfa98b7	-0.0076475996
232	0x3d3b86d0	0.045782864
233	0xbd345943	-0.04403044
234	0xbd9c1547	-0.07621246
235	0xbde53f58	-0.111937225
236	0xbd9495d1	-0.07255138
237	0xbde3f9e5	-0.11131648
238	0xbdc0afdc	-0.094085425
239	0xbcda8df9	-0.026679026
240	0x3be85e20	0.0070912987
241	0x3df5d9d0	0.12004435
242	0x3d3ba433	0.04581089
243	0xbd4a85cf	-0.049444016
244	0xbc51608a	-0.012779364
245	0xbcce6621	-0.025195183
246	0xbbe3d3fc	-0.0069527607
247	0xbddc18dd	-0.1074693
248	0x3cbe0d5c	0.02319973
249	0xbc8f3a07	-0.017483724
250	0xbd8d9bec	-0.06914505
251	0xbc8340cb	-0.016022107
252	0x3ce93d10	0.0284715
253	0x3ca54cd1	0.02017823
254	0xbce70288	-0.02819945
255	0xbd8e135e	-0.06937288
