trained_models/acktr/acktr/MicropolisEnv-v0_weights.pt (torch_old, 325192 bytes, 11 tensors)

base.main.0.module.weight f4 [64, 60, 3, 3]
00000000: bfc9 be3d cd50 933e 1259 febd 0eae d0bd
00000010: 6ad7 5e3e d66c 06bd 3991 66be d717 78bc
00000020: 54e6 b0bc fe70 853e 8610 6cbd 9fb9 9abd
00000030: 4648 303d 3eb8 453d 5d92 ecbd 87d8 183d
00000040: ae21 273e 3ee6 23be 6665 323e a3fe 38bd
00000050: 60b8 2fbd de5b 9fbd 5d17 223e ae1c a2bd
00000060: 2e17 8dbd 66f1 103d 5e08 0cbd d9b1 e6bd
00000070: 023b 133e cacf ad3d 0488 e23d aa58 b53d
00000080: b83d 5e3d 70d0 02bd d33c c7bc 7455 173e
00000090: e653 aa3e 13a5 06bd 1223 7e3c 5ec6 3e3e
000000a0: e5c3 7c3e 7d98 153e 46fe 8ebd c507 2c3e
000000b0: 1541 a03e 4aa2 4f3e c8e9 f0bd 1507 9c3d
000000c0: 21e2 a33d 366b 823c 6c60 27bc 70fd 86be
000000d0: ad78 b03d 9d9d d93c ed8e 9d3d b346 a0bd
000000e0: 7e12 a6bd e57c 603c 8e4e 03bd 8bd9 21bd
000000f0: 0591 f2bb 9c7a 533d 07ad 893c b1dd b63b
00000100: 49e2 1d3d 59f3 b73d 0cf9 70bd aeaf 083d
00000110: 39e4 babc b4fb 913d 9ad4 713a 6953 fdbc
00000120: 5536 e3bd 9610 a0bd 4dd2 6fbe 52dc f93d
00000130: 443c 1bbd 7573 85bc 8377 56bd b452 99bc
00000140: db03 8bbd e462 c13d ffaa 2e3c 59ec 50bd
00000150: 0d69 493b 7d04 18bd c16d 4dbc 8b08 93bc
00000160: 146a 0c3d fece 91bd 9dcb 1ebe 7266 3ebe
00000170: 2482 343d 400f 6cbd 7f0b 0bbe b00d 9fbd
00000180: ea65 413d f3f2 323d 82e5 a1bc e54d 9abc
00000190: 6c99 323d 40e5 19bd f082 3a3c 112f 33bc
000001a0: 9db8 99bc 2c11 643b 4af5 bf3c 2d68 8ebc
000001b0: 4296 cb3c 71a8 95bd c4c6 0cbd a88f acbc
000001c0: 4d71 f0bc fac9 debb 4953 243d b8d1 81bc
000001d0: 8dd3 b8bd 5dcd 95bc 687f 4f3d 603a 8cbb
000001e0: 01cc 733d 8071 00be 41a5 a13d e36b 77bb
000001f0: 64cf e43d 35e8 01bd 1af1 9e3e 0ab0 7d3e
00000200: c7a2 87be b807 653d 229e e5bc 8171 0f3e
00000210: 8e42 b73d a3e2 d2bd b1da 26be 4303 c0bd
00000220: 6d6d 493d 3ee6 693c 43c0 ec3c 0cd0 01be
00000230: c944 28be e815 16be d762 203d a887 eabd
00000240: 473f b93d 83a6 9abd aebc babd 70c5 04be
00000250: 3e12 9e3c bbbf 17be 0cc4 50bd 4090 733e
00000260: a2cb fbbd 6dbb 243e 36a7 cabd 4cc0 fe3a
00000270: 3f8a a9bd 5284 e73d 9d21 b7bd 3b28 16bd
00000280: eb1b 003e bdca 90bd 4b16 433d 279a 07be
00000290: 97ed b4bd 0bf5 d63e 010d 953d dd49 f3bd
000002a0: e88a 3f3e ec17 86bc c055 f33d 8213 a03e
000002b0: 26e8 d43d 5bbe fc3c 2f60 5d3e 1a3f 873e
000002c0: 058e 6c3d 1a72 d2bd 2af3 483e 8b30 bb3e
000002d0: e4a6 1b3e f79a b7bd 0594 c13d 602c e23c
000002e0: a030 063d 654f 10be 8462 82be db88 bc3b
000002f0: 0989 803d f147 00bd 58e9 afbd 4da9 e33c
00000300: 2aa4 263d 0c84 2cbb ce48 e4bc 9eee ccbc
00000310: e05d 0f3c 28c6 aabd 2423 6c3d 4148 3cbc
00000320: a39d 853c 6f6a ad3d 56a8 97bd b1e2 91bd
00000330: efaa 503d 8665 a83c 9b39 263d 08ff af3d
00000340: 818c 163e 8c91 173a 1c45 3bbd c95a 04b9
00000350: 7a7b 8abd 061d 803c 9699 84bc f35a 96bd
00000360: 56fd 57bc 4d02 a8bc e282 9c3d 2ee8 df3c
00000370: bef2 553d 16da 1abd 56a9 7b3d 3239 743c
00000380: 2fbe 10be 44c5 04bd df19 513c 4fc8 173d
00000390: a981 4e3c 5b6a c2bd 799e 933c 542f 4c3c
000003a0: 8f52 963b c210 d53c cdb4 c23c fcef 0ebb
000003b0: 1343 2b3d 86ac 06bd 0342 c83c 5362 723c
000003c0: 08fc 8abb a5e0 0a3a 76e9 4bbc 4dc9 663c
000003d0: a0f5 4b3b 56c0 00bc b71f 6a3c 52ab 453c
000003e0: c869 cbbc b0e7 78bd eec1 09bb e6d3 603d
000003f0: 83dc 21bd 840e 8c3d 5d89 64bd 1bd9 a73d
0.09315824 0.28772584 -0.124193326 -0.10189448 0.21761861 -0.032818638 -0.22516336 -0.015142403
-0.021594204 0.2606277 -0.057632945 -0.07554936 0.043037675 0.04827141 -0.11551354 0.03731587
0.16321442 -0.16005799 0.17421493 -0.045164715 -0.042900443 -0.07781194 0.15829225 -0.079156265
-0.06889187 0.035386465 -0.034187667 -0.112643905 0.14377978 0.08486898 0.11061099 0.08854802
0.05425808 -0.031937063 -0.024320995 0.14778692 0.33267134 -0.03287227 0.015511291 0.18630359
0.24684103 0.14608951 -0.069820926 0.16799839 0.31299654 0.20276752 -0.1176334 0.07618538
0.08002115 0.015920263 -0.01021586 -0.26365232 0.08616767 0.026564414 0.076932766 -0.07825985
-0.08108996 0.013701652 -0.032057337 -0.039514106 -0.0074025416 0.0516306 0.016806139 0.005580627
0.03854588 0.08981962 -0.05883126 0.033370666 -0.022813903 0.07128087 0.00092251005 -0.030923562
-0.110943474 -0.078156635 -0.23420067 0.12200226 -0.03789927 -0.016290406 -0.05236007 -0.018716194
-0.06787845 0.0944269 0.010660886 -0.05100665 0.003073278 -0.037113655 -0.012538374 -0.01794841
0.03428085 -0.07119559 -0.1550736 -0.18593767 0.044069424 -0.05763173 -0.13578604 -0.077662826
0.047216333 0.043688726 -0.019762758 -0.018835971 0.043603346 -0.037572145 0.011383757 -0.0109365145
-0.018764788 0.0034800274 0.023432393 -0.01738366 0.024851922 -0.07307518 -0.034369245 -0.021064594
-0.029350901 -0.00679898 0.04011849 -0.015847072 -0.09024725 -0.018286401 0.050658613 -0.00427942
0.059520725 -0.12543297 0.07892848 -0.0037753514 0.11172369 -0.03171559 0.3104332 0.24774185
-0.26491377 0.055915564 -0.028029505 0.14008142 0.08948241 -0.10297134 -0.16294362 -0.09375622
0.049176622 0.014276085 0.028900271 -0.1267702 -0.1643249 -0.14656794 0.03915676 -0.114516556
0.09045272 -0.07551291 -0.09118019 -0.12965941 0.019295808 -0.14819233 -0.050968215 0.23785496
-0.12294699 0.16087122 -0.09895174 0.0019435971 -0.082783215 0.11304535 -0.08941958 -0.03665946
0.1251065 -0.07069919 0.047628682 -0.13242398 -0.08834379 0.41983828 0.07277871 -0.11879323
0.18705332 -0.016368829 0.1188159 0.31264883 0.10395841 0.030852487 0.21618722 0.2641533
0.057752628 -0.102756694 0.1962401 0.36560473 0.15200382 -0.08965104 0.094520606 0.02760905
0.032761216 -0.14092787 -0.25465786 0.005753619 0.062761374 -0.03131861 -0.08589429 0.02779069
0.040683903 -0.0026323823 -0.027866747 -0.025016125 0.008750409 -0.083385766 0.0576507 -0.011491836
0.016310519 0.08467566 -0.074051544 -0.07123316 0.050944265 0.020556223 0.04058228 0.08593565
0.14702035 0.0005781881 -0.045720205 -0.00012622321 -0.067618325 0.01563884 -0.016186517 -0.07341566
-0.013182959 -0.02050891 0.076421514 0.027332392 0.05223345 -0.03780564 0.06144079 0.014906215
-0.1413505 -0.03241469 0.012762516 0.037056264 0.012604156 -0.09492942 0.018019902 0.012462456
0.0045874785 0.026008967 0.023767853 -0.0021810522 0.041812014 -0.032879375 0.02444554 0.01479395
-0.0042414702 0.0005297757 -0.012445798 0.01408608 0.0031121746 -0.007858356 0.014289788 0.012064772
-0.024830714 -0.06076783 -0.0021020132 0.054889582 -0.039516937 0.06838706 -0.055795062 0.081957065

base.main.0.add_bias._bias f4 [64, 1]
00000000: fcf1 423e 6eda 75be cd83 c2be 2f90 04bf
00000010: 6cce 483f 630c 96be 6540 093f d489 e2be
00000020: 665e 94be c885 823e 56c4 3b3f eeae 88be
00000030: b02e 9bbf 5c26 2c3f aa42 5e3f 7727 0e3f
00000040: 18be e9bb d78c edbe ff97 353e ed98 083f
00000050: 2518 febd fcaf f7be 3d8a 8abc 06ad f43d
00000060: 4d63 71bf 8ff8 0fbf d817 63c0 c501 503f
00000070: 01ff f93e a8fc 2dbf 9a12 ef3d 297f cbbe
00000080: 3f63 19c0 e9bc a8be 2fa8 893f a312 a0bd
00000090: 38a0 833d df5a e1bf 18f3 d8bf 1390 3abe
000000a0: 66d1 1abf b73b 9fbe 6a40 c2bd 6597 50be
000000b0: 49e8 4bbe 7ded 0fbf be59 f1be 834b dd3e
000000c0: 9206 843e 28eb e53e 157b c63e 3898 ffbd
000000d0: 265c f2bc cd67 363e e8dd ac3e f9ed 2abf
000000e0: 4164 a5bf 6895 893d 1e5b 4ebe 4f06 d03e
000000f0: 36d8 0bbf e729 643f d946 47bf 093a e2c0
0.19037622 -0.24009106 -0.3799118 -0.51782507 0.78439975 -0.29306325 0.53613883 -0.4424578
-0.2897827 0.25492692 0.7334646 -0.2669596 -1.2123623 0.6724603 0.8682047 0.5552897
-0.0071332566 -0.46396515 0.17733763 0.53358346 -0.12406949 -0.48376453 -0.01691162 0.11947064
-0.94292146 -0.56238645 -3.5483303 0.812527 0.48827365 -0.6796365 0.1167347 -0.39745453
-2.3966825 -0.32956627 1.075445 -0.07816055 0.06427044 -1.7605857 -1.6949186 -0.18219022
-0.60475767 -0.31100246 -0.09484942 -0.20370252 -0.19912829 -0.56221753 -0.4713878 0.43221673
0.25786263 0.44905972 0.3876578 -0.12480205 -0.029584955 0.17813034 0.3376305 -0.6676937
-1.292122 0.0671795 -0.20151946 0.40629813 -0.54626787 0.8912644 -0.7784248 -7.0695844

base.main.2.module.weight f4 [64, 64, 3, 3]
00000000: 89b7 88bd d411 96bd 5d08 f73d 18cf 00be
00000010: ef64 053d 59b6 2a3e 3d65 3ebb dce5 9ebd
00000020: cdc0 c03d a10b 0dbd 7345 debd e275 b53d
00000030: 952b 7c3d f63d 823d 2d1a 573d deaf a3bc
00000040: 7726 ebbd 6358 973d e3ea 6b3e a0f9 8a3d
00000050: 01f1 823e df52 4d3e f898 c2bd f18e a7bd
00000060: 2a2a aebe 15cf 143d 41dd 813e 2c91 1c3e
00000070: 7894 e2bd 3fe5 c9bd 160f 9dbd 5218 9abd
00000080: 297b 81be 7c19 09be c556 2a3d bbef 1f3e
00000090: 1135 9fbd ed51 d33d 3ecd 17bd 57be 32be
000000a0: ffc1 90bd 22f7 7b3d f152 97be 9400 e7bd
000000b0: aaf7 31bd 7219 bbbd 6cbd df3d b9a1 f4bd
000000c0: 2b0d 4dbd c1ca a43e 2c84 febd 4bf2 f7bd
000000d0: 1f23 7bbe 28cd 0d3e 0f32 143d 2e46 99bd
000000e0: 09ce 25bd 5d9f 80bd 3e97 133e 2a65 2a3e
000000f0: b195 f13d 3687 8dbd 816b 9fbd 81ed 033e
00000100: afb4 9e3c 5328 633d 0a85 513d 55ae 343e
00000110: a6e9 f7ba 4db6 593e 2430 2abd 9ebd f13e
00000120: 9c7f 9f3e 3e7f a7be c621 da3e 5f47 ef3c
00000130: c868 1a3e 5d65 703e 1fdb f53c 2490 e0bd
00000140: cac2 42bd b72b f33d b8cd 393e e18b aebb
00000150: 6719 11bd 9ef4 b43a 5353 a23c a9e0 c63c
00000160: 8c9e 1abc ac0b c33d c6a6 d1bc 46a6 99bd
00000170: 554f 3f3d 9d29 a63d 287b 89be b25b 043e
00000180: 64c5 053e 2446 143d d62f 04bd 32b7 fa3d
00000190: 0000 07be 820c dcbc f7eb 57bd e0b7 973d
000001a0: 58c8 123d 1581 843e 0599 a0bd 6d7b 193d
000001b0: 5661 56be 6e0d 12bc 852e fa3b 75cf af3c
000001c0: 66f7 3bbe 6a59 703d b975 b3bc 2cc6 393e
000001d0: b90e 053d 30e1 de3d 5b4b 5dbd edb9 a7bd
000001e0: 3a31 d3bd 964d dfbd c061 913e cb68 d3bd
000001f0: dee3 d83d 9153 a3be 25a6 1c3d 0caa e1bd
00000200: c23d 1bbb 8d74 04be 2e37 113e e89c bcbd
00000210: d325 283d 7f34 863d 49d1 e83b 145f cf3d
00000220: 2400 f0bb a6fe e63d bd3b 32bd a32b aabc
00000230: eb62 0f3e 644a e0bc 545d 47bc fc68 ae3d
00000240: 9776 25be 2781 c43d 907d 283e 88c2 bc3d
00000250: 417b 8abe 3f79 803e ce3b c63e f271 213d
00000260: d3f5 1cbe dcdc d73d 0027 463e 68c7 e2bd
00000270: 2e46 4abe 9f60 14be a50c 513f b5e4 4fbd
00000280: db3b b7bc 2361 913e 98a6 b8bd 3f1f c8bd
00000290: ea30 0d3e 3acc 063d 3c8b 06bd 1c06 bbbd
000002a0: 90ee d73c fd47 da3d 9754 01bb db71 bebd
000002b0: bab9 f43d 959a 6b3c 9bda af3c e6ba d1bd
000002c0: 4ec0 cc3d da6a 03be 0336 f73c 0991 c5bd
000002d0: d941 fe3d 7ee8 9fbe fdf9 f93d 51a0 413b
000002e0: e083 0dbe becf e73c d574 bdbd 1e81 b93c
000002f0: b7d1 3ebe e949 bfbd 0203 82be fccd f43d
00000300: 5f98 00be f598 a93d bf24 453d d1e3 b73d
00000310: ee72 ad3d 1d8c 64be 68b8 4a3d 6958 40bc
00000320: 924c a1be 0a34 f1bd 1ce8 0c3e df27 933d
00000330: 6501 2d3e 97aa a6bc 32dd 37bd b38d 013e
00000340: 9c37 47be 8fc3 bcbd e963 933d 9f53 7d3e
00000350: c298 2e3c 1f75 cfbd b4b4 df3b 9f09 703b
00000360: f592 323e 6702 d9be 1072 b8be 8861 3f3e
00000370: 2201 52bd 0880 913d d04e 2cbe 728f 163e
00000380: 7769 323d 7bd4 aa3d 89a6 213c e9e7 193d
00000390: 04e9 89bd 9cec f3bc 2bab f7bd f9a0 d53d
000003a0: 9013 82be 22af 943c 0166 193e a3f9 f1bc
000003b0: 217a c3bd 4c65 84bd a63e fd3c c06f b7bc
000003c0: 61dd a3bd 392a 2c3e 9dfb b8bd 10e5 64be
000003d0: 2138 443e cd3d 4cbe 4a5a b33c 5d9b 03bd
000003e0: 9f5d fdbc d531 84bd 613e 643e af8c b93c
000003f0: f568 363e 5313 2bbd 5212 f63c e9a7 1d3d
-0.066756316 -0.07327619 0.12062142 -0.12579 0.03256696 0.16671123 -0.0029052042 -0.07758686
0.09411774 -0.03443492 -0.1085309 0.08860375 0.061565 0.06359474 0.052515198 -0.019981321
-0.11481946 0.07389905 0.23038821 0.067858934 0.25574496 0.20051144 -0.09501833 -0.08181561
-0.34016544 0.0363303 0.25364116 0.15289754 -0.110634744 -0.09858178 -0.07668893 -0.0752417
-0.25289276 -0.13388628 0.041586656 0.15618794 -0.077737935 0.103183605 -0.03706097 -0.17455421
-0.07068252 0.06151498 -0.29555467 -0.11279407 -0.04344908 -0.09135713 0.10924801 -0.11944909
-0.050061386 0.3218594 -0.124275535 -0.121067606 -0.24525116 0.13847792 0.036180552 -0.07484089
-0.040479694 -0.06280396 0.14413163 0.16640154 0.117961295 -0.06910555 -0.077841766 0.1288357
0.019373266 0.055458378 0.051152267 0.17644627 -0.0018914237 0.21260948 -0.041549817 0.4721498
0.31152046 -0.32714266 0.42603892 0.029208837 0.15079033 0.23476167 0.030011712 -0.10964993
-0.047549047 0.11873572 0.18144882 -0.0053267335 -0.035424616 0.0013805812 0.019815123 0.024277048
-0.009437215 0.095237106 -0.02559222 -0.07502417 0.046706516 0.08113406 -0.26851773 0.12925604
0.1306358 0.036199704 -0.032272182 0.12241973 -0.13183594 -0.026861433 -0.052715268 0.07408118
0.035835594 0.25879732 -0.07841686 0.037471224 -0.20935568 -0.008914335 0.00763494 0.021461228
-0.18356094 0.058679022 -0.02190672 0.18142003 0.032484744 0.10882795 -0.054026943 -0.081897594
-0.103121236 -0.1090347 0.2839489 -0.10322722 0.10590337 -0.31899694 0.038244385 -0.11018762
-0.0023687934 -0.12935086 0.14181206 -0.09209615 0.041051697 0.065529816 0.007105027 0.101255566
-0.0073242355 0.11279039 -0.043514002 -0.02077276 0.14002578 -0.027379222 -0.012168247 0.08516118
-0.1615852 0.09594946 0.16454148 0.092167914 -0.2704716 0.25092503 0.38717502 0.039415307
-0.1532815 0.105401725 0.19350815 -0.1107319 -0.19753334 -0.14489983 0.8165992 -0.05075522
-0.022367408 0.28394422 -0.0901615 -0.09771585 0.1378819 0.03290961 -0.032847628 -0.09132025
0.026358873 0.10658262 -0.0019734257 -0.0929906 0.11949487 0.014380117 0.021466544 -0.10240726
0.09997617 -0.1283373 0.030177122 -0.09646804 0.12414903 -0.31232065 0.122058846 0.002954502
-0.13819838 0.028297301 -0.092507996 0.022644576 -0.18634687 -0.09340269 -0.2539292 0.11953351
-0.12558125 0.08281127 0.048130747 0.089789994 0.08469187 -0.22319074 0.04949227 -0.011739829
-0.3150373 -0.11777504 0.13760418 0.07185339 0.16895063 -0.020345015 -0.044888683 0.1265171
-0.19454807 -0.09216987 0.07196791 0.2473893 0.0106565375 -0.10129761 0.0068269614 0.0036626828
0.17438872 -0.42384645 -0.36024523 0.18689549 -0.05127061 0.07104498 -0.1682694 0.14703158
0.04355761 0.08341309 0.009866365 0.037574682 -0.06733897 -0.02977591 -0.120931946 0.10431094
-0.2540555 0.018149916 0.14980318 -0.029537981 -0.095447786 -0.06464633 0.030913662 -0.022392154
-0.08001209 0.16812982 -0.090323664 -0.22353005 0.19162036 -0.1994545 0.02189364 -0.032130588
-0.030928431 -0.06454817 0.2228942 0.022650091 0.17813475 -0.041766476 0.030038033 0.03849021

base.main.2.add_bias._bias f4 [64, 1]
00000000: 00f0 5dbd 78d4 93bd a687 683f a61f 67bd
00000010: 3a9b 05be 094d b1be 193c 413e d859 c6bf
00000020: 2d79 d8bd 412a b3bf 1e8a df3e 5730 423e
00000030: 91d1 7e3f 7d0f 2f3e 966b 97be 1b22 0abf
00000040: 7e80 b3be 3f8a 9cc0 a80a b3be 6207 a6bf
00000050: b1f1 23bf 0938 20be af9b 3cbf 4a76 efbd
00000060: c56a 04bf 28d9 5fbf 857f 3abf 4915 813e
00000070: 117d aabe a1ec 553f ecb7 fe3e 46f7 4dbb
00000080: 409f 1ebf ad57 47bf 96ff 03bf 7283 a4bf
00000090: 08dd 883e 68e7 1bbf a4bc 37be 208d 1e3f
000000a0: 7ab4 f6be 3609 f0be 6f00 9dbe 6292 6dc0
000000b0: 5205 52be 0273 04bd 8fcd 1fbf 2632 bbbc
000000c0: 583c 83bc a4f6 84bf ac08 e93d 362f 41bf
000000d0: f5ce ccbc 70de 5e3d 0594 94be fc3f a9bd
000000e0: 479c 1cbf 4b61 13bf 0372 6a3d 243a b6be
000000f0: 232b dfbf 1f74 e5bc 1f2c dfbe 4dde 83bf
-0.05418396 -0.072182596 0.90831983 -0.056426667 -0.13047495 -0.34629086 0.18870582 -1.5496168
-0.105699874 -1.399727 0.43660063 0.18963753 0.9953852 0.17095752 -0.2957427 -0.5395829
-0.3505897 -4.8918757 -0.34969068 -1.2971003 -0.64040667 -0.15646376 -0.73675054 -0.11692484
-0.5172542 -0.8744073 -0.7285083 0.25211552 -0.33298543 0.8356419 0.49749696 -0.0031427904
-0.61961746 -0.7786816 -0.5156187 -1.2852614 0.26731133 -0.6089997 -0.17943054 0.6193409
-0.48184568 -0.46882027 -0.30664393 -3.7120595 -0.20509842 -0.032336242 -0.6242303 -0.022851061
-0.016019985 -1.0387769 0.11378607 -0.75462663 -0.025001029 0.05441135 -0.2901918 -0.08264157
-0.6117596 -0.5757033 0.057237636 -0.35591233 -1.7435039 -0.028009472 -0.4358835 -1.0302216

base.input_compress.module.weight f4 [5, 60, 1, 1]
00000000: 79e0 2abe aead 073e ec2b 38be fe11 233e
00000010: 446c 2f3e 8696 6ebd 6f4a b43c f2cd d63d
00000020: baf7 8d3d 69ab f23b d407 223e d63f cc3b
00000030: 4886 673d 37ff 693e 02bc a9bb 1832 333e
00000040: 6944 2f3d 99a4 253e 376a 05be 8b6d 1ebd
00000050: 9d5a 453d 6606 d23d 24a8 89be c816 2cbd
00000060: c22b f7bd e910 87bc fa10 19be 08c7 20bd
00000070: c4f8 813d f2f9 a13c bcab 173e c2f1 923d
00000080: 0e4d 52bd 2f20 c93e 15d4 383e 7dc0 50bd
00000090: 7b46 873d 04ce ddbc 7a25 5fbc 8fa7 5abe
000000a0: 95fb 93bd 72fb b3bd 3dd6 cebc f01a 4fbe
000000b0: 85c3 1bbe be49 8f3d 1829 0abe 12a7 f73c
000000c0: 557d 0ebd 3bf0 a2bd e182 553d d820 b33a
000000d0: e085 2d3e 1c67 b63d a395 833d d542 60bc
000000e0: b330 933d f326 dd3d 8891 533b 0033 523d
000000f0: 4cc5 20be 685c 8d3b ba75 56be fb09 b0be
00000100: 5374 d93d af27 353e cf4e 353e 7a35 733c
00000110: 6b3d 41bc 82f6 54bd 7e11 843d 6087 163d
00000120: 3847 dfbd 563e f8ba 298c ae3d b41f ab3d
00000130: 632f 973d 811a 893c 9541 4ebe 6deb ad3d
00000140: b8ec d23d 626c b33e 0508 44be e63d 5a3e
00000150: 8919 55be 3bad a43e 2d5d 4ebd d1a9 2a3e
00000160: c2c3 81bd f7f2 a13d 198c 9d3e d858 ccbd
00000170: bdd2 f83d dd24 24be e72d 79bd 17c4 953e
00000180: 26d4 f6bd e450 37bc 34dc 7b3e ecb7 ad3d
00000190: 674c f03d 15cd d7bb c084 1abe 94a1 0dbd
000001a0: 7c30 c33a 4200 c03e 4e6f d4be baaf 083e
000001b0: abad c4bd e407 4d3d 41f2 b73d 81be 9fbd
000001c0: 21ff e13c 0ecb 14be 7d51 c13d 3832 e2be
000001d0: 99d5 cebd 02e7 00bd 5f9f f1bc a683 e73d
000001e0: abbb 213d 7120 96bc 77b3 123e 19e3 b83d
000001f0: 8f93 bbbd 267d babd eb70 e13d 1ecd 693d
00000200: f0fd 653d 9b22 063d bf7a acbd 91a9 13be
00000210: 74c4 153e 2024 983d b846 e4bd b80b 62bd
00000220: 08b4 1dbe 3ab4 e63d cac2 19bd ce8c 483e
00000230: e6ec 813e 4a8b bc3d 4553 20bd 9531 023e
00000240: 9318 313e 4360 943b b8d7 413e 32c5 893b
00000250: 39e7 c4bd 0e4d 4bbd ef0e 5f3d 93ad 0dbd
00000260: 18e7 04be 8fc1 8d3d 0878 643e f330 083e
00000270: 33bf e7bd be81 a6bd 3d9f 5cbe 5692 1bbe
00000280: 95d3 063c 00b7 c8bd bd61 723d 9bfe 8c3d
00000290: 3680 6dbe 5b11 c8bd 1ba3 093e acad ad3e
000002a0: e33f 8c3e d349 03be 4dea 3d3b 92f9 57be
000002b0: daf0 133e c4bb b83c 2bba 00be cc5b 6fbe
000002c0: 9aea 063e 04b2 39bd 2e42 ac3d 165c 7f3c
000002d0: 92ef e8bd 31c7 5cbd 1e3f 7dbd a825 fbbd
000002e0: e976 523d 7f5d 81bc e99d 213c c931 21be
000002f0: 7473 393e fdbb 94bd 44a5 c13d 0040 a4be
00000300: 86ed d0bd fe2e 5bbe 15a6 603d 0e09 503c
00000310: 3c50 40bd f59d 04bd 714f 89bd a700 9c3d
00000320: f74d 45bd 9f56 4bbd eaf1 c73c 227a 17bd
00000330: e414 2e3d 1fea d0bd 4eb2 ea3c 5ff7 353d
00000340: 5b95 32be e884 4cbd 57a0 0abd bb30 bbbd
00000350: 6a82 6cbe 4ff2 85bd caf0 263e e970 95bd
00000360: 971e d03d 8f15 55bd a657 db3d 79bd 33be
00000370: 731c ee3d 1926 813d 7001 853e e865 59bd
00000380: 1a4e e93a a067 bcbe 3024 8abd b36d cd3d
00000390: c50e a63c c869 0fbd b34b 82bd 9ef0 f13d
000003a0: 9b04 e0bd 415c 533d e9a7 bebd f4e5 f1bd
000003b0: 71a8 66bc eda9 aabe 290c d3bd 5774 48bd
000003c0: 363f c6bb 23b4 64be 8366 2e3e f784 25be
000003d0: d58f 4cbe 92cf 16be 77a9 f53d 3b38 8dbe
000003e0: aa5d 383d f1f2 803d 5102 9fbd ff26 a13d
000003f0: abb4 87be b746 ed3d de76 09bd be33 9c3d
-0.16687192 0.13249847 -0.17985505 0.15924832 0.17131144 -0.05824902 0.022008149 0.104885
0.06932016 0.0074056876 0.15823299 0.006233196 0.056524545 0.22851263 -0.005179883 0.17499578
0.04278985 0.1617607 -0.13028799 -0.038678687 0.04818212 0.10255127 -0.26886094 -0.042013913
-0.12068893 -0.016487556 -0.14947882 -0.03925231 0.063462764 0.019772504 0.14811605 0.07175018
-0.051343016 0.39282367 0.18049653 -0.05096482 0.0660524 -0.027075775 -0.013619775 -0.21352981
-0.0722572 -0.08788194 -0.025248641 -0.2022512 -0.15211304 0.06996487 -0.13492239 0.030231033
-0.034787495 -0.079559766 0.05212677 0.0013666404 0.169456 0.08906385 0.06425025 -0.013687809
0.07187023 0.107984446 0.0032282788 0.05131817 -0.15700263 0.004313994 -0.20943347 -0.34382614
0.1061789 0.1769092 0.17705844 0.014844293 -0.011794428 -0.0519929 0.06448649 0.036750197
-0.10902256 -0.0018939476 0.08522827 0.08355656 0.07382085 0.01673627 -0.20142205 0.084921695
0.10299057 0.35043627 -0.19143684 0.21312675 -0.20810522 0.32163414 -0.050381828 0.16666342
-0.06336166 0.0790767 0.3077095 -0.09977883 0.1214957 -0.16029687 -0.06083479 0.29251167
-0.12052183 -0.011188719 0.2459572 0.08482346 0.117333226 -0.006585727 -0.15089703 -0.03457792
0.0014891769 0.37500197 -0.4149117 0.13348284 -0.09603437 0.050056353 0.08981753 -0.078000076
0.027587475 -0.14530584 0.09439371 -0.4417894 -0.10099334 -0.031470306 -0.02949494 0.11304407
0.039485615 -0.018326016 0.14326273 0.090276904 -0.09159004 -0.091059014 0.110078655 0.05708038
0.056150377 0.032747846 -0.084218495 -0.14420153 0.14625722 0.07428765 -0.11146301 -0.055186957
-0.15400708 0.11264844 -0.03753928 0.19584963 0.25376052 0.09206255 -0.039141912 0.12714227
0.1729453 0.004528077 0.18929946 0.0042044157 -0.09614415 -0.049634032 0.0544576 -0.03458936
-0.1297878 0.06921684 0.22311413 0.13299923 -0.11315765 -0.08130215 -0.2154512 -0.15192541
0.008229156 -0.098005295 0.05917524 0.068845 -0.2319344 -0.09768935 0.13441126 0.33921564
0.27392492 -0.1282113 0.0028978765 -0.21091297 0.14447346 0.022550471 -0.12571017 -0.23374861
0.13175431 -0.045335785 0.0841106 0.01558592 -0.113738194 -0.0539009 -0.06182777 -0.12263042
0.051382933 -0.015791653 0.009864309 -0.15741648 0.18110448 -0.072624184 0.0945535 -0.32080078
-0.10201554 -0.21404645 0.05484589 0.012697471 -0.046951517 -0.032377202 -0.06704605 0.07617312
-0.048170056 -0.049643155 0.024407346 -0.03698171 0.04250039 -0.10200905 0.028649475 0.044425365
-0.17439787 -0.049931437 -0.03384432 -0.09140154 -0.23096624 -0.06540357 0.16302791 -0.072969265
0.101620845 -0.052022513 0.10710077 -0.17552747 0.1162652 0.06306095 0.2597766 -0.0530757
0.0017799765 -0.3679781 -0.067451835 0.10030689 0.020270715 -0.03501299 -0.06362095 0.11813472
-0.109383784 0.051601652 -0.0930937 -0.11811438 -0.0140782455 -0.33332768 -0.10305054 -0.048939075
-0.006050016 -0.22334342 0.17031293 -0.16164003 -0.19976743 -0.1472762 0.119952135 -0.27581963
0.0450112 0.062963374 -0.07764114 0.07868766 -0.26505026 0.115857534 -0.033560626 0.076270565

base.input_compress.add_bias._bias f4 [5, 1]
00000000: 3dcc 1e40 1ab2 733e 288b 9c3e 8713 70bc
00000010: 1909 90be
2.4812157 0.23798409 0.30574918 -0.014653093 -0.2813194

base.conv_0.module.weight f4 [8, 69, 3, 3]
00000000: aee8 52bd 447a 12be f8ce 103e 6d07 55bd
00000010: 5af9 c9bd 1f3f 163e 29e3 c33d 7c97 47be
00000020: f8f8 44bd af2b 1abd ddc5 cabc 168a 34bc
00000030: a93d 0c3d 2ee5 5bbb 4a03 453c 1f6b d8bd
00000040: 98e4 8f3c b0fb f4bc a691 85bd 2e9b 913e
00000050: c6f4 863e b969 23be eff0 32be 4233 a1be
00000060: 6da6 e0bd 20ea 973d 0b74 053d f5a0 69bc
00000070: 319a 8e3d 262a 083d 11da b43d ac0a 32bc
00000080: 6610 9a3c 6e26 243d 2a0b 3ebc 591d 4abc
00000090: ce5a ef3c c2b8 4abe 2a20 63bd b4dd 20be
000000a0: 335c d5be a396 d5be 33a8 0b3e 5cb3 14be
000000b0: 44f7 4bbe 84fb 8f3e 8a86 9cbe 0724 bfbb
000000c0: 69bc b93d 683f f9be 0344 96be 0f29 0f3d
000000d0: 04bb 94be a675 82be a1a4 d63c 8672 1d3d
000000e0: 7f3d 183d 8e42 ccbd df5d 023e 87a6 63bd
000000f0: 8f2e f63d 3b70 0b3e bba2 fdbd 91c3 ffbb
00000100: 29aa 573d f74d b4bd 89df a53c a939 eb3d
00000110: eaa9 95bd 8639 a0be b518 68bd a1bc babd
00000120: 5823 933e 4825 3e3e 4901 db3d c062 f2bd
00000130: 49a1 84be e132 a33d 7a09 24be 6dd1 0ebd
00000140: cfb6 b0bd 3432 4fbd 0c1d a0be e178 c7bd
00000150: 6f53 aebe cef8 4abd 4fb3 c13d 6b04 df3b
00000160: 77a6 d2bd 585e 6fbd 15a9 7fbc 130a 46be
00000170: c39b 2d3d ce28 a139 d864 c33c fe95 28be
00000180: d2fc b93d 6cf0 9f3e 555e d03d d86a 6abd
00000190: 2139 733e 335c 6e3d cc52 67be 8d32 d3bd
000001a0: eef2 0ebd 5e46 02bd 3e49 c03c 4d21 743e
000001b0: 8e7f 8cbd 633a f23c 630c 063e 45b1 2bbe
000001c0: f68d 22bd 77fb ae3e 8b7b 6e3d 1029 dc3d
000001d0: 41b7 7f3d 85bd 4ebe 40c8 a23c f875 00be
000001e0: 5a3d 24bd 54b3 423c 0356 4e3c 71a1 1cbe
000001f0: d7fb 1cbe b8a5 e1bd f201 02bd 562e d9bd
00000200: 3705 863d 1fc7 e1bd 32b8 84be db01 39be
00000210: 0c2b 41bd 2077 92be 8267 b93c dc0b f6bd
00000220: 55ed 96be 8d2c 01be 2844 43be e04e 5a3e
00000230: 9618 0fbe a8a6 2ebe 9fe2 003e e640 783c
00000240: 1779 4f3e b0a4 0d3e d3f6 f43d c2d4 bbbd
00000250: bfcc 8b3c 6acd 263e 3d59 8e3e 872a febd
00000260: b535 95bd c2fb 09be e4af 09be 8196 25be
00000270: 7401 0c3d 6a80 913c 7d09 693e fbff 41be
00000280: cbf1 b5bd 609e 34bd 679b 173e 4f00 abbb
00000290: b3fc ca3c 5a3b 27be 7a1a 8dbe 2f26 9fbd
000002a0: 5f6f c6bd 7862 023e c7f3 75be 0752 11be
000002b0: f1ec 4d3e d7af 463e 2f82 ddbd bbb0 b9bd
000002c0: f2c6 2f3e 63b6 8e3d 8735 44be 56ed 09be
000002d0: e0b4 d9bd 1a93 92bd e18b ca3d 9a3c 2d3d
000002e0: 2984 44be 704c 943e c75e adbd cba2 093d
000002f0: a086 4f3d 7e60 f3bd 4d0c bebe f6ac bfbe
00000300: 4bba e5bc d7e0 d1be cdb4 ebbd e805 31be
00000310: 0f83 72be 664f a63e bffd 18be 6ae4 683e
00000320: 4dc7 d1bc ff16 5ebe 59b9 13bd 948d 403c
00000330: 50ca 26be d99f 903e ae8b ebbd 18ff 1cbe
00000340: e727 983d 9f6f 263c df2f e93c ed6c 6cbd
00000350: 856b bbbd 902e 453e 636b 403e 7380 66be
00000360: 0ed8 25be bf60 13be 75bc c9bd 52de 923e
00000370: b221 9dbe 59df 1dbd 36ae 723d 4051 b4be
00000380: b4ef 64bd ee00 76bd 3521 40be 72af 7fbd
00000390: 60ee 8bbd e24d 5d3c 9375 e1bd 7007 49be
000003a0: b843 683e 594a 39bd e163 88bd 7c86 da3d
000003b0: 12cb e8bd cedd 113c b8c4 893d c7b3 e83d
000003c0: ba0c 3ebe 6767 c6bd b2d2 1f3e 03fb 56bd
000003d0: ca62 a7be 944e 363e 1b74 d8bd 198e 9dbe
000003e0: 6451 a03d 5488 9abe eb3f e93e ca4e 933e
000003f0: a324 b1bd 6ff5 62bc ddd9 843d b582 a93d
-0.051491432 -0.14304453 0.14141452 -0.052009035 -0.09862013 0.14672516 0.09564812 -0.1949138
-0.048088998 -0.037639316 -0.024752552 -0.01101925 0.03423849 -0.003355335 0.01202471 -0.10567307
0.017565057 -0.02990517 -0.06521921 0.28438705 0.26358622 -0.15958299 -0.17474721 -0.3148442
-0.10969243 0.07417703 0.03258137 -0.014259567 0.069630034 0.03324332 0.08830655 -0.010866802
0.018806648 0.040075712 -0.011599341 -0.012336099 0.029218104 -0.19797042 -0.055450596 -0.15709573
-0.41671905 -0.4171649 0.13638382 -0.14521545 -0.19918543 0.2812158 -0.30571395 -0.005833152
0.090691395 -0.48681188 -0.29348764 0.034951266 -0.29048932 -0.25480384 0.026201548 0.038439296
0.037168022 -0.09973632 0.12731121 -0.055578735 0.12020599 0.13617031 -0.12384554 -0.0078052958
0.05265251 -0.08803933 0.020248191 0.11485607 -0.07307799 -0.31293887 -0.056664187 -0.09118009
0.28737903 0.18568909 0.106936045 -0.11835241 -0.259043 0.07968689 -0.1601924 -0.034867693
-0.08628618 -0.050584987 -0.3127216 -0.09739853 -0.3404803 -0.049553685 0.094580285 0.0068059466
-0.10285657 -0.058439583 -0.015604277 -0.1933978 0.042384874 0.00030738715 0.023851797 -0.16463467
0.09081425 0.31238115 0.101742424 -0.0572308 0.23752262 0.058193397 -0.22590178 -0.10312376
-0.034899645 -0.03180539 0.023472425 0.23840828 -0.068602666 0.029568857 0.13090663 -0.16766842
-0.039686166 0.34176227 0.05822329 0.107500196 0.062430624 -0.20189483 0.019870877 -0.12545002
-0.040097572 0.0118835755 0.012593749 -0.1529596 -0.15330444 -0.110179365 -0.031740136 -0.10604541
0.065439634 -0.110243075 -0.2592178 -0.18067114 -0.047160193 -0.2860651 0.022632364 -0.12013981
-0.29477945 -0.12614651 -0.19068968 0.21319151 -0.13974223 -0.17055762 0.12586449 0.015152192
0.20261036 0.13832355 0.119611405 -0.0917144 0.017065404 0.16289297 0.27802458 -0.12410455
-0.072856344 -0.13474944 -0.13446003 -0.16170694 0.034181073 0.017761428 0.22757526 -0.18945305
-0.08884009 -0.04409635 0.14805375 -0.0052185426 0.0247787 -0.16331235 -0.27559263 -0.07770955
-0.09689211 0.12732875 -0.24018775 -0.14191447 0.20109917 0.19403015 -0.10815846 -0.09066912
0.17165735 0.06968381 -0.19161044 -0.13469443 -0.10630202 -0.07156964 0.09889961 0.042294122
-0.1919104 0.28964567 -0.08465343 0.033602517 0.050665498 -0.11883639 -0.3711876 -0.37436646
-0.028042933 -0.40991852 -0.115090944 -0.1728741 -0.23682807 0.3248245 -0.14940546 0.22743383
-0.02560773 -0.2168846 -0.036065433 0.011752505 -0.16288114 0.28246954 -0.11501251 -0.15331686
0.07429486 0.0101584485 0.02846521 -0.057721067 -0.09151367 0.19256043 0.18790965 -0.22509937
-0.161957 -0.14392374 -0.098503985 0.28685242 -0.3068977 -0.03854308 0.05924817 -0.3521824
-0.05589266 -0.06005948 -0.18762667 -0.062423177 -0.06832576 0.013507338 -0.11008754 -0.19631743
0.22682083 -0.04523692 -0.066596754 0.10670182 -0.113668576 0.00890298 0.06726974 0.11362415
-0.18559542 -0.09687691 0.15607718 -0.052485477 -0.32692558 0.17803413 -0.1056902 -0.30772474
0.07828024 -0.30182135 0.45556578 0.2877105 -0.08649566 -0.013852461 0.064868666 0.082768835

base.conv_0.add_bias._bias f4 [8, 1]
00000000: 7639 813e f934 f63d bbe0 53be 81ac f3bd
00000010: 248a 40bf 8a94 ecbc a4dd 8c3e 1ca9 76be
0.25239152 0.120218225 -0.20691197 -0.11898137 -0.75210786 -0.028879423 0.27512848 -0.24087948

base.critic_linear.module.weight f4 [1, 3200]
00000000: f562 223d 630c 9b3e 008f 503e d3d1 a83d
00000010: 5e96 bf3c 92b9 413e b9ca 413d 75b3 08be
00000020: 2df5 223e f781 69bd 0191 a23d edb6 83bd
00000030: c18d 153e 720b d5bd 9cc6 963d 0142 38be
00000040: 8689 573d 0f45 66be f818 983d 6dc4 6b3e
00000050: 6f5e c83c 3fa3 643d 6372 41bd e709 dbbd
00000060: 369e 9b3d 1ba1 433e 0ded a23c 1f8f 3ebd
00000070: 8509 0c3d 8fa1 b93d 8387 c1bd 6a3b 993d
00000080: a96a f2bd a8a2 1d3e d5d2 adbb 8fee 8e3e
00000090: 8562 33bd 053e e93d 8229 db3c 4be8 ea3d
000000a0: becf c4bc e31b a9bd 194b 75bd 20a8 f93d
000000b0: 3f26 f2bd b4e5 9c3d 3440 983d 18e0 64bd
000000c0: 3b98 8c3d b4cc 44be d1f1 0abe 5703 c33d
000000d0: 004d 893d b25f d83d d13b 673e dd23 e63c
000000e0: bf24 393e f1a2 783d 8b78 663c ece8 4c3d
000000f0: 96ea 943d e8dc b2bc 2584 6fbd 3488 ac3e
00000100: e65d 753e cfa7 56be df8d 92bd 0d8d e3bc
00000110: a518 f5bc 01f9 643e 40c8 6cbd ceaa 42bc
00000120: de9d 6ebd 1433 393c 13c6 33bc d686 4f3d
00000130: 7085 35be ca22 c4bd 2a7a 2c3e 723c 983e
00000140: 9e5f 0bbd 6b1b a7bb 359a 2d3d e463 c13d
00000150: de7c 4a3d 4d44 903d 09a3 023e 1ea8 f63d
00000160: 4663 23bc 4269 0e3e b5c5 0c3c cec6 2cbd
00000170: 1fad 303d a813 4cbe 026d 90bd 6a83 8d3d
00000180: c1f6 533e fc8c 70bd 9db6 2c3e 9f70 8a3d
00000190: 47d6 f03d b2c8 19bc 3e50 e43d 3bdf 1abe
000001a0: f8ac 8dbd 43b1 1cbc f712 803d 13e8 93be
000001b0: b04a 96bd 6135 aabd bd85 77be 7c02 56be
000001c0: 17c3 8fbd 303b f3bc 61e7 f13d 4dd1 64be
000001d0: c732 8e3e d495 8abd 5c5e 673d abf5 a7bd
000001e0: 117b a8bd 20f6 cd3d 2e26 343e 02e6 263e
000001f0: 8adc 103e 06f4 45bd ace1 c13c 23c3 023e
00000200: 46c3 493e dbc1 43bd bc17 acbb 5273 b63d
00000210: ed5a 8abc 700d cb3c 2fc1 22be 5979 f4bd
00000220: 773f aa3e 080d 193e be21 823e d112 1cbd
00000230: a174 b53d bd88 dabc 1ad8 b53c d2ac 8dbd
00000240: 6669 5dbd f03c 703e bc7c debd f30a 133e
00000250: 32d5 abbc 840a 59be a0f7 163e efdf 20be
00000260: e82d 16be 83ac 5f3d 8c85 bfbd a618 043e
00000270: 38da 29bd 61fb 88bd 5e5d fcbd efce 723e
00000280: 6b85 833c a99c d8bc e07e 0dbd 2e01 493e
00000290: 430c 4e3d c576 84be 9391 803e 03a2 f9bd
000002a0: 94ac abbc 5b0d 7b3e 855e 193d 88ac f4bd
000002b0: c022 62bd 78d8 eb3d d601 953c 9feb ba3e
000002c0: 8510 16bd da7f 3fbc 4ee0 773e 5810 16be
000002d0: f9ab 113e e453 ec3c 7c58 013e c5b2 7f3d
000002e0: 0da3 d93d b19e 4abd 0463 223e 3e9d bb3d
000002f0: 4302 6ebd f0be 1ebe e611 1b3e 51fd 5abd
00000300: dd21 1dbe 8f58 f13d 7fe0 04bd 11d0 6c3d
00000310: 6864 d43c 468e 0bbe 72e7 12be 2a85 1bbe
00000320: 6a65 abbd fe18 50bb 585c 6bbd f787 093e
00000330: fe66 e0bd 2711 7fbd 61a4 10be b125 53bc
00000340: e91f 0fbd 1f86 623d 4c5e 25bd fe87 4bbe
00000350: ff2b c43d 6481 86bb 4fa2 12be d011 b93e
00000360: bdeb 933d ab7a 953d a1af 723e 2b7b 953e
00000370: db13 773c cab6 4f3d aafb 13be 80c7 903c
00000380: 34d4 f83d b6ee 553b 65ba 073e e4c5 99bc
00000390: 2eb7 19be 6a97 3d3e 28ac 18be e38f 1c3e
000003a0: 975a cb3d 3c94 0d3e 71a8 6cbe c5ea 45bd
000003b0: c65a 033d b298 92bd e26b a93e 8d52 15be
000003c0: 1608 2fbe 0132 34bd 0d69 9fbd bbd5 8b3d
000003d0: 2b2c 413e c839 833e 6b3c 5f3e f71d 39be
000003e0: 1b2f 0ebd a796 ec3d 51e5 43bd de6f 1b3e
000003f0: eb3f ab3c a99c b93e 458d 13be a4e7 9f3e
0.039645154 0.30282888 0.2036705 0.08243146 0.02338713 0.18918446 0.047312472 -0.13349707
0.1591384 -0.05700871 0.079378136 -0.06431375 0.14604856 -0.10402574 0.073621005 -0.17993928
0.052621387 -0.22487281 0.074266374 0.23024149 0.024459092 0.055819746 -0.04722823 -0.10695248
0.07598536 0.19104426 0.019888425 -0.04652321 0.034188766 0.09064018 -0.09449675 0.074820355
-0.1183675 0.1539408 -0.005304674 0.2791638 -0.043795127 0.113887824 0.02675319 0.114700876
-0.02402484 -0.08257272 -0.05988607 0.121902704 -0.11823701 0.07661 0.07434121 -0.055877775
0.06864973 -0.19218713 -0.13568808 0.095221214 0.0670414 0.105651274 0.22581412 0.028093273
0.18080424 0.060702268 0.014066826 0.05002682 0.07271306 -0.021833852 -0.058475632 0.33697665
0.239616 -0.20962451 -0.07155966 -0.02777722 -0.029918978 0.22360612 -0.05780816 -0.011881543
-0.058256023 0.011303682 -0.010972518 0.0506657 -0.17726684 -0.09576948 0.16843477 0.29733616
-0.034026735 -0.005099704 0.04238339 0.09442881 0.04943549 0.07044277 0.12757505 0.120437846
-0.009972399 0.1390734 0.008592059 -0.042181782 0.04313385 -0.19929373 -0.070520416 0.06909831
0.20699598 -0.058728203 0.16866536 0.06759762 0.1175962 -0.009386228 0.111481175 -0.15124218
-0.06917757 -0.009563747 0.06253617 -0.28887996 -0.07338464 -0.083109625 -0.24172111 -0.20899385
-0.07019632 -0.029691309 0.1181171 -0.22345467 0.27773115 -0.06766859 0.056486472 -0.08201154
-0.08226598 0.1005671 0.1759269 0.16298679 0.14146629 -0.048328422 0.023667179 0.12769751
0.19703397 -0.047792297 -0.005251853 0.08908714 -0.01688906 0.024786681 -0.15894006 -0.11937208
0.33251545 0.14946377 0.25416368 -0.038103882 0.08860136 -0.02667653 0.022197772 -0.069177285
-0.054055594 0.23460746 -0.10863635 0.14359646 -0.020975683 -0.21195418 0.14742899 -0.15710424
-0.1466595 0.05460788 -0.09351644 0.12900028 -0.041467875 -0.06688572 -0.12322496 0.23711751
0.01605483 -0.026441889 -0.034544826 0.19629356 0.050304662 -0.25871864 0.25111064 -0.121891044
-0.020956315 0.24516813 0.037443656 -0.1194697 -0.05520892 0.115158975 0.018189352 0.3650789
-0.036636848 -0.011688197 0.24206659 -0.14654672 0.14225759 0.028848596 0.1263141 0.062426347
0.106268026 -0.049467746 0.15858084 0.09160851 -0.058107626 -0.15502524 0.15143546 -0.053464238
-0.15344949 0.11784469 -0.03244066 0.057815615 0.025926784 -0.13628492 -0.14346102 -0.15187517
-0.083689526 -0.0031753178 -0.057461113 0.13430773 -0.10957144 -0.062272217 -0.14125206 -0.012887404
-0.03494254 0.05530369 -0.04037313 -0.19876096 0.09578704 -0.00410478 -0.14319728 0.36146402
0.07222698 0.07298788 0.2369981 0.29195532 0.0150804175 0.05071143 -0.14451471 0.017673254
0.121498495 0.0032643504 0.13254698 -0.01877112 -0.15011284 0.18514791 -0.14909422 0.15289263
0.09929388 0.13826078 -0.2311113 -0.048319597 0.03206899 -0.071580306 0.3309012 -0.14582272
-0.17092928 -0.043993 -0.07783709 0.06827875 0.18864505 0.2563002 0.21800391 -0.18077837
-0.034712892 0.11552172 -0.047826115 0.15179393 0.020904502 0.36252335 -0.14409359 0.31231415

dist.conv.module.weight f4 [8, 8, 3, 3]
00000000: 686f b33d ef04 d13f ebab 06be e7a6 f63f
00000010: e18b bb40 f9d2 ad3f a612 0b3f ef91 ae40
00000020: ab80 1c3f d0d1 debd 8c8c 90bd bb02 dfbc
00000030: 72ec 92bd 76b7 e53c 1e20 203e c036 dabd
00000040: b202 cabc 9e89 d2bd ca0a 9c3c dd72 87bd
00000050: 92cd fc3c 744f bb3d d6db 263e 387d 72be
00000060: 97f2 97be e61e e1be 9e73 e2bd a023 febd
00000070: d401 833e ec03 04be f30b 64be 9301 653e
00000080: f9a7 f2bc c653 e93c 929d 203e 9f82 d6bd
00000090: d2c3 90be c09b 6f3e ff96 11be 2a3b 0dbe
000000a0: 1aa6 06be 1533 ebbe c85f 90be c2da 2b3c
000000b0: b6b5 c6be 990e b33d 2c53 22bf 1358 073f
000000c0: 6135 bcbd dc05 69bf a4fc 363f e9b5 ac3e
000000d0: 223f a9be 7f61 be3e 57a3 90be f17b 13be
000000e0: 2fb7 aabe b467 2c3e b75c 09be 4f89 80be
000000f0: 9a31 33bf cd05 1bbf f6d0 96be cf90 373e
00000100: c054 7f3d 850e 003e ed7f a13d 1310 373e
00000110: 52e2 873d ef95 f3bb 79d3 ad3d d6b9 50bd
00000120: ccef 15ba 606a 583b 212d ae3b 5198 9fbb
00000130: 8160 28bb 95d0 123b 2304 9fbb d290 d0bb
00000140: 1575 b8bb c757 aa3c 17bb 453c 2b9c 113d
00000150: 7404 943d fd85 873f a496 c43d 799b 7bbc
00000160: dac9 3cbc e46f 1dbc 66e4 debb 0bac 17bb
00000170: 8103 b5ba 6ce2 71bd e4d4 69bd 131f 4dbd
00000180: 209a e3bc d44b 55bc 3e93 56bc 44a5 c1bd
00000190: 926b d2bd e8ec 9bbd ac7d 58bd 9d03 b3bc
000001a0: 3cec 6bbd c87e 0e3d f003 d9bb bb7f 6c3d
000001b0: 4667 46bc 4014 9cbb f7cd 113b d6ff 90b9
000001c0: feef fc3b 672e 003c b10e 03bc c212 b2ba
000001d0: fac0 283b 648f e5bd eeda 25be e24d e2bd
000001e0: b64b 16be f9c7 d6bd ff05 f8bd 1ef0 50be
000001f0: c0bc 2cbe 80f5 f5bd 61fd 28bc ce3b adbc
00000200: 3ab9 cfbc 53f5 c93b 0ccc dabb 9660 c43a
00000210: 632e cfbb 3894 f1bb b598 baba 4636 2d3b
00000220: 256f 94bc 23c0 1cbb 3e6c 3d3c 23b2 91bc
00000230: 8319 2fba a4cd 4ebb 4359 ebbc a359 2cbc
00000240: 9e8c 883c 42fe 1d3c cd61 873b 1707 483c
00000250: 4ce6 3c3b e068 753b e311 e43b 56ff cb3b
00000260: ab8c b03b 7d76 30bb 52e2 93ba 98c0 a43b
00000270: 2f05 bfba 6b3f 433a 1e43 833b 45bf 52bb
00000280: 77ee b63b 9874 b43b 6e93 493b 6642 51bc
00000290: b4cb 723c ab96 2cbe 271a 643f d474 02be
000002a0: 47a7 c8bb ad32 7ebb a04f 63ba 59c8 94bc
000002b0: 4e59 6b3d c337 edbc c291 16bd d1e9 f53c
000002c0: 95f8 41bc aaa9 1c3d 9f57 67bc 7689 ae3d
000002d0: e814 a93c 857f 613b 7dd2 9dbb b906 323a
000002e0: f402 373c 1796 a6ba be05 123c 2d4c e03a
000002f0: 8c44 17bb 9b27 febd c4b4 fdbd 1611 ecbd
00000300: 41b2 4fbe cd56 ecbd 78b8 04be d348 d2bd
00000310: 9dc7 93bd 81ce 7dbd d7d2 40ba 83a6 76bc
00000320: cea9 06bc c4b3 c8bb 4a6d b3bc f5ff f3bb
00000330: e5d4 7dbb 0c6f c2bb 6f16 e43a d1f9 253c
00000340: db7e b6bb 0ffd 2fbc 6828 8e3b f3a3 5d3c
00000350: 4aed 08bc cfbc bcbb 988c 53bc 6671 88bc
00000360: 4e9e 1ebd 097a adbc f13f 51bc 36cf 2c3e
00000370: a278 963d e243 333d afff 09bd 68c4 c83d
00000380: d5b3 d43d 7476 b13c e471 463c 2386 32bc
00000390: 60ca a83b 01cf 233c 1522 7b3c 16a3 f03c
000003a0: 9eaa e13c 830b a73c 015f af3c f982 9bbc
000003b0: 24d7 b23b e2a3 d53d 4c38 833d 5053 c83d
000003c0: a82f 953e 5d29 9fbe c91f 1bbf 60b7 0ebd
000003d0: 728f 083e 170c 8a3d 1a7e 3e3e 3661 1a3f
000003e0: 58d7 463c 82da 61bc c5de 043e 7149 7d3c
000003f0: aeb5 0b3c 2635 273e 5ce0 f63c 4ac4 113e
0.087614834 1.6329631 -0.13151519 1.9269685 5.860825 1.3580009 0.5432533 5.455314
0.6113383 -0.10879862 -0.07058057 -0.027222982 -0.071740046 0.028041583 0.15637252 -0.10654974
-0.024659488 -0.10280155 0.019048113 -0.06613705 0.030859742 0.09146014 0.16294798 -0.2368058
-0.2967727 -0.43968886 -0.110572085 -0.12409139 0.25587332 -0.12892121 -0.22270183 0.22363882
-0.029621111 0.02848233 0.15685108 -0.10474133 -0.282744 0.23399258 -0.14217757 -0.137921
-0.131493 -0.4593741 -0.28198075 0.010489168 -0.3881051 0.08743019 -0.6340816 0.52868766
-0.09189869 -0.91024566 0.7147925 0.33732536 -0.3305598 0.3718376 -0.28249618 -0.14402749
-0.33342883 0.16836435 -0.13414274 -0.25104758 -0.6999756 -0.60555726 -0.294563 0.17926334
0.062336683 0.12505539 0.07885728 0.17877226 0.06634964 -0.007433645 0.08487601 -0.050958477
-0.00057196314 0.0033022389 0.0053154384 -0.0048704525 -0.0025692286 0.0022402157 -0.004852788 -0.00636492
-0.0056291916 0.020793809 0.0120685315 0.035549324 0.07227412 1.0587765 0.09599045 -0.015356892
-0.011522735 -0.009609196 -0.0068021296 -0.0023143317 -0.0013810248 -0.059053823 -0.057087794 -0.050078463
-0.027783453 -0.013018567 -0.013096629 -0.0945535 -0.10274424 -0.07613546 -0.052854225 -0.021852309
-0.057598338 0.034788877 -0.006622784 0.057739 -0.012109583 -0.004763156 0.0022248009 -0.00027656433
0.007719039 0.007823563 -0.007999108 -0.0013585913 0.0025749789 -0.1120899 -0.16196796 -0.11050011
-0.14677319 -0.104873605 -0.12110519 -0.20404097 -0.16868877 -0.12009716 -0.0103143165 -0.021146681
-0.025356878 0.006163278 -0.0066771563 0.0014982398 -0.0063226684 -0.0073724054 -0.0014236184 0.0026430055
-0.018119404 -0.0023918233 0.0115614515 -0.017785138 -0.0006679522 -0.0031555677 -0.028729087 -0.010519418
0.016668614 0.009643139 0.004131532 0.012208722 0.002882379 0.0037446544 0.00696014 0.006225507
0.0053878627 -0.0026926093 -0.0011282659 0.005027842 -0.0014573688 0.00074481097 0.0040058037 -0.0032157463
0.0055826264 0.005507063 0.003075804 -0.012772178 0.014819074 -0.1685435 0.89102405 -0.12739879
-0.0061234566 -0.003878753 -0.0008671228 -0.01816194 0.057458214 -0.028957253 -0.0367601 0.030018719
-0.011839052 0.03824774 -0.014120012 0.08522312 0.020639852 0.0034408283 -0.004816352 0.0006791163
0.011170138 -0.0012709525 0.008912502 0.0017112546 -0.0023081629 -0.12409898 -0.12387994 -0.115266964
-0.20282842 -0.115399934 -0.12960994 -0.10267796 -0.072158076 -0.061964516 -0.00073556363 -0.015054348
-0.0082191955 -0.0061249454 -0.021902699 -0.007446284 -0.0038731631 -0.005933648 0.0017401705 0.010130362
-0.0055693216 -0.010741486 0.004338313 0.013527858 -0.008357355 -0.0057598124 -0.012911938 -0.016655635
-0.03872519 -0.021176355 -0.0127715925 0.1687592 0.07347228 0.04376591 -0.033691105 0.098030865
0.10385863 0.021662928 0.012112115 -0.0108962385 0.005151078 0.009998084 0.01532795 0.02937464
0.027547177 0.020391231 0.021407606 -0.018983351 0.0054577757 0.10431649 0.06407222 0.097815156
0.2913792 -0.31086245 -0.60595375 -0.03484285 0.1333597 0.06740587 0.18602791 0.6030458
0.012136303 -0.0137850065 0.12975605 0.015459404 0.0085272025 0.16328868 0.03013628 0.14235035

dist.conv.add_bias._bias f4 [8, 1]
00000000: 340a ef3f 5ce5 5cbe c7ad 24be 67c8 4dc0
00000010: e164 93be 0cc1 92be e1e1 88be 553f 2440
1.8674989 -0.21571869 -0.16081916 -3.2153566 -0.28787902 -0.28662908 -0.26734832 2.5663655
