trained_models/a2c/trial_1/MicropolisEnv-v0_weights.pt (torch_old, 893296 bytes, 13 tensors)

base.conv_0.weight f4 [64, 104, 5, 5]
-0.0030441633 0.00061540806 -0.023212457 -0.027967311 -0.0482655 0.027268266 -0.042330503 8.332272e-06
-0.03140575 -0.038878024 -0.034074657 0.015850794 -0.041317225 -0.028522458 -0.008206587 -0.027032634
-0.037728276 -0.041758344 -0.023075217 -0.018839357 0.00079851656 -6.661464e-05 -0.02888966 0.009624494
-0.004778287 -0.009009593 0.01624846 0.006392586 0.025498468 -0.021962909 -0.0049453876 -0.016259128
-0.04311883 -0.037925903 -0.004887994 -0.0040074144 0.0029607147 -0.014827424 0.0060826777 0.0021605648
0.004742606 -0.0070234793 0.0032197703 -0.047409043 0.015470482 0.023402778 0.032793894 0.015710458
0.013660134 -0.017960731 0.021264464 -0.02720885 -0.022783149 0.020721715 0.02556131 -0.0009707821
-0.00884 -0.007566924 0.0055417772 -0.0039054423 -0.004266314 0.012070461 0.044870064 0.02487661
0.023793478 0.0018012263 0.010867535 0.03822958 -0.020109775 0.00063888216 0.027850201 0.008247821
0.012509213 -0.025839292 0.035740647 -0.033206727 -0.021924695 0.0037585509 0.018014966 -0.011319705
0.015350337 -0.0008189356 0.0178082 -0.036786217 0.018965494 0.016606383 -0.026398193 -0.008122068
0.019245872 0.024046712 -0.007752316 -0.03130834 -0.014316512 0.012241805 0.024315864 -0.003368876
0.017667865 -0.012851246 -0.018220881 0.01934779 0.016212855 0.014994927 -0.0045162635 -0.0039019145
-0.006025287 0.0017586292 -0.016317928 -0.014350967 -0.015032628 -0.008899881 0.02806583 -0.0054387464
0.0161403 -0.021162095 -0.0400031 -0.0117163025 0.02858907 0.0025484497 0.01797244 0.0006072036
-0.020012436 -0.014262812 -0.048238624 -0.016218029 0.0035701997 -0.0009203353 -0.012436409 0.010469481
0.018184757 0.0017764384 0.0005837096 -0.03892169 0.0031893274 -0.0054631424 -0.03333592 0.0064893686
-0.019335883 -0.01585576 -0.021964045 0.0024818229 -0.038707875 0.003941411 0.031543627 0.012861543
0.0075428453 -0.00069889735 -0.0010142248 -0.04200472 -0.003480508 0.016958047 0.0020627205 0.021763423
0.018949237 -0.014921584 -0.030378534 0.00096431863 -0.017247306 -0.01164049 0.0008605727 -0.02644727
-0.022925934 -0.034448568 -0.003790748 0.020709733 0.019134216 -0.044024482 -0.0058968184 -0.005751612
0.019680236 -0.03423464 -0.010769652 -0.011655791 0.019467289 0.004810496 -0.020328317 0.002922697
-0.010364419 -0.00037784324 0.041268267 -0.011770729 -0.04377548 0.0025497754 0.010338097 -0.005804282
0.017004631 0.0067352243 -0.01219694 0.017261475 -0.015637191 -0.026448948 0.006655401 -0.007755022
-0.015354708 -0.012564049 0.009836488 -0.005936942 0.012408739 0.019965328 -0.041791767 -0.017921586
-0.017331267 -0.010497451 -0.01832275 0.03806293 0.02300887 0.015221707 -0.0034319903 0.00296944
0.0014799163 -0.019373776 0.035451952 -0.014309985 -0.017048804 -0.005420904 0.02945208 -0.01161223
-0.0066813747 -0.00972964 -0.0020853344 0.0030512416 -0.014161187 0.019863052 0.025384251 -0.017532002
-0.011315659 0.028140975 0.014950457 0.003132172 -0.0421788 0.032048523 -0.022531534 -0.020091774
0.016974654 0.008741361 -0.009144228 -0.022820666 -0.0019282917 0.01084771 -0.00047082428 -0.015973989
0.0012960472 -0.009062675 -0.01700543 0.02515485 0.0068376767 -0.021242432 0.0003861274 0.042763375
-0.034229454 -0.0062277764 -0.0034624552 -0.02063527 0.052354805 0.006929047 0.014845449 -0.018137285
00000000: 9680 47bb 5653 213a 0d28 bebc b41b e5bc
00000010: 0cb2 45bd b361 df3c c062 2dbd d6ca 0b37
00000020: 51a3 00bd 903e 1fbd de91 0bbd 86d9 813c
00000030: 403c 29bd eea7 e9bc ec74 06bc 8b73 ddbc
00000040: f788 1abd cc0a 2bbd 3d08 bdbc ff54 9abc
00000050: 8a53 513a 76b3 8bb8 02aa ecbc 0eb0 1d3c
00000060: 2d93 9cbb f99c 13bc 7e1b 853c e678 d13b
00000070: 2ae2 d03c 8feb b3bc eb0c a2bb dd31 85bc
00000080: 5f9d 30bd 3158 1bbd 772b a0bb a150 83bb
00000090: 8d08 423b b9ee 72bc 3351 c73b 4398 0d3b
000000a0: dd67 9b3b 3725 e6bb c802 533b fc2f 42bd
000000b0: e877 7d3c 2fb7 bf3c e452 063d 38b3 803c
000000c0: c1ce 5f3c 6222 93bc d032 ae3c 18e5 debc
000000d0: baa3 babc 96c0 a93c f465 d13c 157c 7eba
000000e0: a6d5 10bc f6f3 f7bb cc97 b53b 73f2 7fbb
000000f0: 70cc 8bbb 2fc3 453c acc9 373d 08ca cb3c
00000100: 8aea c23c 2017 ec3a bf0d 323c 9f96 1c3d
00000110: 41bd a4bc a87a 273a 1b26 e43c de21 073c
00000120: 71f3 4c3c ecac d3bc c964 123d c703 08bd
00000130: 6b9b b3bc 0552 763b 1f94 933c 4976 39bc
00000140: fb7f 7b3c d6ad 56ba 81e2 913c 25ad 16bd
00000150: 865d 9b3c 1c0a 883c 0641 d8bc 6c12 05bc
00000160: 85a9 9d3c 9cfd c43c 2407 febb 2d3d 00bd
00000170: ce8f 6abc da91 483c 1032 c73c 5cc8 5cbb
00000180: 33bc 903c 088e 52bc f543 95bc 427f 9e3c
00000190: d2d0 843c 48ad 753c 2afd 93bb 43b7 7fbb
000001a0: c56f c5bb ce81 e63a 2dad 85bc 5120 6bbc
000001b0: 694b 76bc ced0 11bc 50ea e53c 8337 b2bb
000001c0: aa38 843c 215c adbc 4ada 23bd bcf5 3fbc
000001d0: a033 ea3c e403 273b f03a 933c be2c 1f3a
000001e0: 1ff1 a3bc 92ae 69bc dd95 45bd acdb 84bc
000001f0: 03fa 693b a842 71ba 14c2 4bbc 3088 2b3c
00000200: 33f8 943c 62d7 e83a 1704 193a 5a6c 1fbd
00000210: 0904 513b 2904 b3bb 3f8b 08bd c5a4 d43b
00000220: 4966 9ebc f0e3 81bc f1ed b3bc 14a6 223b
00000230: 268c 1ebd f426 813b e433 013d 39b9 523c
00000240: f929 f73b 3536 37ba bdef 84ba 240d 2cbd
00000250: 3c19 64bb 9aeb 8a3c b52e 073b 3549 b23c
00000260: 6e3b 9b3c a979 74bc 67dc f8bc 54ca 7c3a
00000270: 394a 8dbc c1b7 3ebc 0e98 613a f2a7 d8bc
00000280: 2bcf bbbc f119 0dbd 336e 78bb 75a7 a93c
00000290: 5cbf 9c3c 0453 34bd 193a c1bb 0578 bcbb
000002a0: 7238 a13c 9f39 0cbd 3273 30bc eef7 3ebc
000002b0: dd79 9f3c 5da1 9d3b 9287 a6bc b88a 3f3b
000002c0: 86cf 29bc 4319 c6b9 ea08 293d 04da 40bc
000002d0: eb4d 33bd 221a 273b 1f61 293c d931 bebb
000002e0: 4c4d 8b3c 28b3 dc3b add5 47bc f067 8d3c
000002f0: 9119 80bc 77ab d8bc 8d15 da3b d71d febb
00000300: 5092 7bbc 71d9 4dbc 3929 213c ae8a c2bb
00000310: 064e 4b3c 548e a33c d82d 2bbd 4ad0 92bc
00000320: 4dfa 8dbc 80fd 2bbc 9819 96bc e0e7 1b3d
00000330: 197d bc3c 7764 793c 3eeb 60bb f09a 423b
00000340: c0f9 c13a c1b5 9ebc 1136 113d 6d74 6abc
00000350: efa9 8bbc d7a1 b1bb 7d45 f13c 3941 3ebc
00000360: 6fef dabb 1169 1fbc 1baa 08bb 57f7 473b
00000370: 5304 68bc d7b7 a23c a2f2 cf3c 469f 8fbc
00000380: 5065 39bc e787 e63c c3f2 743c 2045 4d3b
00000390: adc3 2cbd 5045 033d 0d94 b8bc 8197 a4bc
000003a0: 6e0e 8b3c ed37 0f3c acd1 15bc 68f2 babc
000003b0: bcbe fcba 98ba 313c f7d8 f6b9 e2db 82bc
000003c0: 21e0 a93a 9d7b 14bc f94e 8bbc 8b11 ce3c
000003d0: 970e e03b 9c04 aebc 2471 ca39 a628 2f3d
000003e0: 2f34 0cbd 6012 ccbb 5cea 62bb 4c0b a9bc
000003f0: fe71 563d 0f0d e33b 533a 733c a594 94bc

base.conv_0.bias f4 [64]
-0.031800196 -0.023852836 -0.050158612 -0.07185414 -0.08301719 -0.031601317 -0.033244688 -0.014154901
-0.008001159 -0.017859505 -0.027144797 -0.026277438 0.1376934 -0.024045432 -0.03750978 -0.046277326
-0.027346058 -0.028726313 -0.046183836 -0.022326812 0.03460935 -0.036066603 -0.026835702 -0.03266112
-0.019223537 -0.056787927 -0.03299884 -0.029755512 -0.025195315 -0.05932317 -0.03366975 -0.055541296
-0.046085965 -0.022558535 -0.022101235 0.0034549506 0.016973266 -0.006488424 -0.04171546 -0.047636162
-0.024127657 -0.040993825 -0.03603231 -0.028160894 -0.04393507 0.020933049 -0.042115826 -0.03383759
-0.062176757 0.1010824 -0.04657189 -0.016805178 -0.0069481255 -0.015021167 -0.049678396 -0.022267118
0.06958341 0.028942648 0.03339304 -0.021248372 -0.06150731 -0.03234746 0.0016250432 -0.03872141
00000000: ec40 02bd 0667 c3bc 1e73 4dbd 4328 93bd
00000010: eb04 aabd 6270 01bd 952b 08bd f5e9 67bc
00000020: 4b17 03bc 194e 92bc c45e debc c843 d7bc
00000030: 80ff 0c3e edfa c4bc dba3 19bd 4b8d 3dbd
00000040: d704 e0bc 7253 ebbc 432b 3dbd b8e6 b6bc
00000050: 89c2 0d3d 93ba 13bd 8cd6 dbbc abc7 05bd
00000060: ae7a 9dbc 759a 68bd cb29 07bd d5c1 f3bc
00000070: 6866 cebc dafc 72bd 4be9 09bd 457f 63bd
00000080: a3c4 3cbd adcc b8bc a60d b5bc 746c 623b
00000090: 850b 8b3c d89c d4bb d5dd 2abd 231e 43bd
000000a0: 5da7 c5bc 24e9 27bd 9e96 13bd adb1 e6bc
000000b0: 43f5 33bd c97b ab3c a581 2cbd 4999 0abd
000000c0: 0ead 7ebd 4a04 cf3d 2bc2 3ebd 03ab 89bc
000000d0: 1aad e3bb 571b 76bc 937b 4bbd 8869 b6bc
000000e0: bf81 8e3d 2219 ed3c 24c7 083d 1111 aebc
000000f0: 17ef 7bbd c57e 04bd 67ff d43a 579a 1ebd

base.conv_1.weight f4 [64, 64, 3, 3]
0.015381049 -0.16809894 -0.046068985 -0.09670949 -0.13661362 -0.15093662 -0.025000837 0.03697964
-0.075894564 -0.03757216 -0.010954185 0.08350314 -0.101520926 0.011574183 -0.00081583345 0.017129514
-0.039895564 -0.032472167 0.12420671 -0.02828555 0.07615081 -0.07157667 0.06528869 0.10816102
-0.0777247 -0.047577802 -0.004208305 -0.019861944 0.0297107 0.038262997 -0.085785106 -0.026053226
-0.013247779 -0.1311514 -0.022767507 0.0072014686 -0.09981444 -0.019601857 -0.02359579 -0.0682849
-0.06589755 -0.063024454 -0.05007564 -0.027924951 -0.07752085 -0.15829149 -0.12671515 -0.13775147
-0.07148893 -0.14907627 -0.03878155 -0.09966426 -0.06012379 -0.045482296 -0.023153396 -0.07866415
-0.082116336 0.044373397 -0.026062107 -0.032048594 0.06008815 0.017426679 0.09933463 -0.11428125
0.028039312 0.044427544 -0.13479125 -0.025462553 0.12984316 -0.09455423 -0.010396173 0.10019678
0.012119746 0.15730415 0.10199721 -0.06490343 0.12510645 0.1499905 -0.0995646 0.05283783
0.019032743 0.038435128 -0.005130415 0.06341342 -0.065804526 -0.03037087 -0.097307205 0.0013913276
-0.02892157 0.08423411 -0.00036372172 0.048058793 0.0027666502 -0.007854216 -0.017603546 0.039081357
-0.048022326 -0.028238228 -0.017249387 -0.073774196 0.11553311 0.112017795 -0.118300766 0.030589538
0.07692204 -0.22730097 -0.045124494 -0.06729152 0.02302321 -0.019518895 -0.00263353 -0.073425755
-0.13116771 -0.110091425 -0.14617541 -0.07936555 -0.07037353 0.052834503 -0.039485626 -0.0638875
-0.008195268 0.08581792 -0.0544644 -0.056715578 -0.03451918 0.031522788 -0.03196519 0.018972624
-0.028290099 0.14346702 0.09555913 0.020039646 0.1428734 0.0808509 0.013354555 -0.0672119
-0.006000995 0.022054244 -0.11204636 -0.08397105 0.0393488 -0.022078551 0.04564647 0.017838571
-0.06539927 -0.06297522 0.06420578 -0.062602624 -0.039143812 0.031716432 -0.049948424 0.0032024868
-0.07677461 -0.124257244 0.14276232 0.05319087 -0.031701766 0.08081076 0.076403536 -0.11056346
0.20015197 0.004054754 -0.09426451 -0.015246881 0.055223856 -0.053380452 0.019480502 -0.08337793
-0.015955009 -0.0076557505 -0.10836971 -0.026167078 -0.047571626 -0.100490294 -0.062001128 -0.084468514
0.029271007 -0.02180052 0.016805641 -0.037874844 -0.022814978 -0.029324772 -0.14903666 -0.09095589
-0.07903086 -0.1165043 -0.04264474 -0.17497505 -0.013437696 -0.092714794 -0.13184813 -0.06487865
-0.08927502 -0.039590355 -0.05147353 -0.09896109 -0.11502851 -0.095516935 0.02331872 -0.023401838
0.027838051 -0.05739169 -0.06357524 0.028735725 -0.0019427522 -0.014607369 -0.08766208 -0.15893182
-0.10690855 -0.02601059 -0.16409639 0.028789967 0.0273949 -0.008141273 0.016133836 -0.052633252
-0.05148339 -0.014569799 -0.05666282 -0.102496795 -0.07279395 -0.011190306 -0.12654407 -0.044443455
-0.10319253 -0.0565555 -0.21790902 -0.13663965 -0.004610233 -0.09330941 0.033139773 -0.12586306
-0.19635418 -0.037191205 0.028039297 0.007615171 -0.03868439 -0.024543937 -0.010336695 0.08880245
0.025304787 0.02337882 -0.00023110991 -0.073046625 -0.030412314 -0.017629985 -0.032668 0.029676905
0.0077689122 -0.07943741 -0.023102598 -0.15680975 0.0687295 0.014237451 -0.04657145 -0.05202671
00000000: cc00 7c3c 2122 2cbe d5b2 3cbd a00f c6bd
00000010: 71e4 0bbe 218f 1abe 8ece ccbc f777 173d
00000020: 9c6e 9bbd 44e5 19bd 2f79 33bc b203 ab3d
00000030: 34ea cfbd a4a1 3d3c a8dd 55ba 3253 8c3c
00000040: 8869 23bd 8901 05bd 1660 fe3d 19b7 e7bc
00000050: f5f4 9b3d ca96 92bd 14b6 853d 8683 dd3d
00000060: 212e 9fbd f1e0 42bd d2e5 89bb 84b5 a2bc
00000070: db63 f33c a9b9 1c3d 1ab0 afbd 936d d5bc
00000080: 360d 59bc 8d4c 06be ec82 babc 4cfa eb3b
00000090: 836b ccbd 1394 a0bc f54b c1bc f4d8 8bbd
000000a0: 4bf5 86bd f712 81bd 1d1c 4dbd dec2 e4bc
000000b0: 40c3 9ebd 2a17 22be 9ec1 01be b90e 0dbe
000000c0: ca68 92bd 73a7 18be 67d9 1ebd c71c ccbd
000000d0: 5d44 76bd a54b 3abd 31ac bdbc ab1a a1bd
000000e0: 9c2c a8bd e1c0 353d 3380 d5bc 6345 03bd
000000f0: fe1e 763d 65c2 8e3c f46f cb3d 4a0c eabd
00000100: b3b2 e53c a8f9 353d b806 0abe d896 d0bc
00000110: 9bf5 043e a6a5 c1bd b654 2abc f833 cd3d
00000120: e691 463c 5714 213e eae3 d03d 17ec 84bd
00000130: e81b 003e 1c97 193e 86e8 cbbd 7b6c 583d
00000140: 8eea 9b3c 276e 1d3d 0a1d a8bb e5de 813d
00000150: 86c4 86bd 55cc f8bc 0049 c7bd 355d b63a
00000160: eeec ecbc ef82 ac3d e7b1 beb9 4cd9 443d
00000170: b050 353b f8ae 00bc 5035 90bc c613 203d
00000180: 0fb3 44bd db53 e7bc 964e 8dbc ed16 97bd
00000190: a09c ec3d 9669 e53d ac47 f2bd e996 fa3c
000001a0: 4d89 9d3d 96c1 68be 76d4 38bd 23d0 89bd
000001b0: 2c9b bc3c 17e6 9fbc 4d97 2cbb 3e60 96bd
000001c0: d450 06be 9d77 e1bd 02af 15be 688a a2bd
000001d0: ff1f 90bd fe68 583d aebb 21bd 73d7 82bd
000001e0: 7245 06bc 4ec1 af3d 1016 5fbd 984e 68bd
000001f0: fc63 0dbd 0a1e 013d eeed 02bd 7a6c 9b3c
00000200: a3c0 e7bc 05e9 123e 81b4 c33d 2f2a a43c
00000210: 684d 123e 2895 a53d 10cd 5a3c 65a6 89bd
00000220: ffa3 c4bb 1aab b43c 9078 e5bd 04f9 abbd
00000230: 352c 213d 14de b4bc cbf7 3a3d 3222 923c
00000240: 0df0 85bd 27f9 80bd 527e 833d ce35 80bd
00000250: 4355 20bd 17e9 013d b896 4cbd d0e0 513b
00000260: 023c 9dbd 957a febd 4930 123e abde 593d
00000270: b6d9 01bd 1d80 a53d 7579 9c3d 186f e2bd
00000280: a3f4 4c3e bedd 843b c00d c1bd 0ece 79bc
00000290: 6932 623d 76a5 5abd 9395 9f3c 0cc2 aabd
000002a0: 14b4 82bc 17dd fabb f0f0 ddbd 575c d6bc
000002b0: 77da 42bd dbcd cdbd e5f4 7dbd d4fd acbd
000002c0: c0c9 ef3c 0197 b2bc fcab 893c a722 1bbd
000002d0: 7ae6 babc 813a f0bc 119d 18be 1547 babd
000002e0: eeda a1bd ce99 eebd 40ac 2ebd a92c 33be
000002f0: c829 5cbc 41e1 bdbd 3203 07be 19df 84bd
00000300: d2d5 b6bd 7f29 22bd e8d5 52bd 1dac cabd
00000310: 1194 ebbd 629e c3bd e606 bf3c 36b5 bfbc
00000320: a00c e43c 8c13 6bbd bc33 82bd 2f67 eb3c
00000330: f2a3 feba bf53 6fbc 2d88 b3bd 06bf 22be
00000340: dff2 dabd 2914 d5bc e208 28be f0d8 eb3c
00000350: 456b e03c f962 05bc 1b2b 843c f795 57bd
00000360: 3fe0 52bd 2bb6 6ebc 4617 68bd d7e9 d1bd
00000370: ff14 95bd 8c57 37bc c594 01be 570a 36bd
00000380: 9b56 d3bd bda6 67bd 8b23 5fbe 44eb 0bbe
00000390: 7011 97bb 0119 bfbd 92bd 073d 3fe2 00be
000003a0: 1211 49be ce55 18bd abb2 e53c af88 f93b
000003b0: 8673 1ebd 5e10 c9bc 3e5b 29bc 0fde b53d
000003c0: fc4b cf3c f084 bf3c 1856 72b9 7899 95bd
000003d0: 3f23 f9bc c26c 90bc e1ce 05bd fb1c f33c
000003e0: 5c92 fe3b 15b0 a2bd a941 bdbc bc92 20be
000003f0: 0dc2 8c3d 3344 693c b4c1 3ebd f619 55bd

base.conv_1.bias f4 [64]
0.055392556 -0.18522172 -0.045255963 0.09346377 -0.15070753 0.19460665 0.046742074 -0.33314568
0.1991317 -0.06310472 -0.15701768 -0.066772506 -0.09057868 -0.0348543 -0.048540466 0.090741925
-0.11105671 -0.09644508 0.09140631 -0.055304267 -0.09642453 -0.0034190153 -0.13777703 0.16644745
-0.07187919 -0.088335715 -0.07069483 -0.08297964 0.05132789 0.24398988 0.08569541 -0.015585536
0.04987726 -0.03877761 0.08851933 -0.05327493 0.2620922 0.25582683 -0.06662923 0.12753616
0.07406169 -0.24816355 -0.054657675 -0.111105695 -0.124833025 -0.03334435 -0.057982594 0.2772283
-0.11228146 -0.016584799 -0.165223 0.2508929 -0.12348975 -0.07028363 0.21840733 -0.13840845
-0.10789555 -0.15236741 0.12008432 -0.047649294 -0.09530618 -0.13892971 -0.11218529 -0.029338825
00000000: 4ee3 623d c3aa 3dbe 515e 39bd ef69 bf3d
00000010: 1353 1abe f746 473e 9e74 3f3d 1292 aabe
00000020: 2ee9 4b3e 0c3d 81bd 3ec9 20be 06c0 88bd
00000030: 5181 b9bd 62c3 0ebd 5ed2 46bd e7d6 b93d
00000040: b371 e3bd 0085 c5bd 3b33 bb3d ba86 62bd
00000050: 397a c5bd 8f11 60bb 6c15 0dbe 3371 2a3e
00000060: 6635 93bd 5be9 b4bd 73c8 90bd 3bf1 a9bd
00000070: 323d 523d 7cd8 793e 1381 af3d 7a5a 7fbc
00000080: 194c 4c3d 45d5 1ebd 9f49 b53d d036 5abd
00000090: f330 863e bcfb 823e e874 88bd d798 023e
000000a0: a8ad 973d 961e 7ebe bae0 5fbd 628b e3bd
000000b0: 75a8 ffbd 1694 08bd 287f 6dbd def0 8d3e
000000c0: d2f3 e5bd d8dc 87bc 3830 29be 0975 803e
000000d0: 32e8 fcbd ddf0 8fbd 2ca6 5f3e f2ba 0dbe
000000e0: 58f8 dcbd 3406 1cbe c5ee f53d e82b 43bd
000000f0: e32f c3bd 9743 0ebe 67c1 e5bd fa57 f0bc

base.input_compress.weight f4 [15, 104, 1, 1]
-0.22401747 -0.008120477 -0.016239723 0.21239614 -0.04872063 -0.121104054 0.020425528 0.060837593
0.37071925 0.043678913 -0.08987046 -0.12692225 -0.009979173 -0.105230145 -0.1417081 -0.010070725
0.07252929 -0.1315583 -0.079609275 0.039698184 -0.19624448 0.4655761 0.03978206 0.030969404
-0.15946376 0.03528831 -0.37356132 -0.03718696 -0.1204744 0.013760172 0.161312 -0.035998162
0.106354766 -0.12580658 0.45924848 0.025744315 -0.002118779 -0.288429 -0.023366814 -0.07713846
0.043227304 -0.064373486 0.011116495 -0.2026225 0.02991746 -0.10752275 -0.062229965 0.35625347
0.011467094 0.082927495 -0.12877192 -0.15163016 -0.23845644 0.15634698 -0.0550703 0.11612127
-0.01908957 0.00536246 -0.39732322 -0.0005602256 0.39865047 0.17421225 0.13304377 -0.2658824
-0.06963779 0.147515 0.10305856 -0.048586372 -0.105481565 0.006192753 -0.04317118 -0.07194307
0.058596022 0.29329515 0.013904838 0.054852795 -0.31385666 -0.16875498 -0.61477053 -0.13562436
-0.19709487 0.06813199 0.023139209 -0.0721123 -0.12543102 0.02903081 0.44317102 -0.01960791
0.014327356 -0.05683023 0.08686924 0.02185935 -0.01328142 0.02279727 0.4305557 -0.03970857
0.0654949 -0.07348102 -0.070666805 -0.33229274 0.21513253 0.13672748 -0.25325432 0.10029758
0.8560616 0.20720859 0.13549227 -0.07866691 -0.34331492 0.05256162 0.28259107 -0.4117143
-1.6567189 -1.6572076 -0.45114625 0.12070673 0.14335653 0.25758076 0.074805416 0.037076052
0.10495459 0.21927567 0.09726549 -0.13804038 0.0021329396 0.85480136 0.0011220644 -0.5989338
-0.00024035746 -0.030539444 0.78251004 0.10608508 -0.0068554636 -0.20589902 -0.23844378 -0.026426619
0.21867108 -0.42365563 -1.5388091 -1.941951 -0.32135698 0.4188089 0.20061044 0.10443692
-0.024928821 0.017946001 0.050232127 0.0431865 -0.0070023458 0.006508648 -0.11692019 0.93823266
0.00038978292 -0.8236911 0.045671325 0.07308553 1.3034604 0.14073987 0.19684024 -0.12238568
-0.16317207 0.13320717 0.2922938 -0.5757737 -1.4413855 -2.0351224 -0.5707725 0.27790344
0.103588685 0.13852067 0.0012723334 0.0004413431 -0.6824493 0.036660016 -0.04400476 -0.002518299
0.25714734 1.5971458 0.05307766 -0.7996215 0.013120833 0.054973297 1.5313551 0.075113766
0.12720318 0.005931958 -0.27248743 0.16059053 0.45362458 -0.7217659 -1.356956 -2.2957764
-0.6551461 0.36648726 0.5149391 -0.0033203647 -0.02021587 0.33373505 -1.7830757 -0.0022902035
0.042211264 -0.058652777 0.27136856 2.589504 0.037210308 -0.85095555 -0.12203973 0.054127134
0.104418516 -0.00074287824 -0.064452186 -0.1768527 0.047407225 -0.16618097 -0.1575554 -0.19081938
-0.10299436 0.058801524 -0.23166107 -0.0027757515 -0.059803978 -0.090400666 -0.08504928 -0.5138122
0.02839629 -0.006956224 0.054044656 0.20066427 0.125683 -0.68584174 -0.16532797 -0.0016680445
-0.23317221 -0.2344727 -0.24614085 0.01760897 -0.16017425 -0.04423481 0.07936301 0.0647205
-0.05750552 0.029443566 -0.059972744 0.13057488 -0.28302014 -0.1432468 -0.09311786 -0.034593266
-0.08284672 -0.16636582 0.2807537 -0.029896673 -0.048694942 0.04891584 -0.17741777 -0.6347967
00000000: d664 65be c00b 05bc 2b09 85bc 607e 593e
00000010: 498f 47bd 6705 f8bd 7053 a73c d730 793d
00000020: eace bd3e a9e8 323d 010e b8bd e8f7 01be
00000030: af7f 23bc e782 d7bd ee1b 11be afff 24bc
00000040: 3d8a 943d 38b7 06be 300a a3bd 909a 223d
00000050: 50f4 48be fe5f ee3e 83f2 223d 8cb3 fd3c
00000060: 784a 23be 7a8a 103d 6e43 bfbe 5b51 18bd
00000070: 48bb f6bd 5872 613c f92e 253e cf72 13bd
00000080: 87d0 d93d 71d3 00be 9e22 eb3e bee5 d23c
00000090: 37db 0abb f7ac 93be c36b bfbc c5fa 9dbd
000000a0: 1d0f 313d 3fd6 83bd f621 363c 467c 4fbe
000000b0: 7615 f53c e334 dcbd d9e4 7ebd db66 b63e
000000c0: 7ae0 3b3c e4d5 a93d c9dc 03be f044 1bbe
000000d0: ed2d 74be 6c19 203e 6591 61bd fdd0 ed3d
000000e0: bb61 9cbc 93b7 af3b f36d cbbe 1bdc 12ba
000000f0: ea1b cc3e b264 323e a03c 083e bd21 88be
00000100: 429e 8ebd 2c0e 173e 5e10 d33d 8102 47bd
00000110: b806 d8bd 94ec ca3b 43d4 30bd e356 93bd
00000120: 6202 703d c82a 963e 1ed1 633c 53ad 603d
00000130: d2b1 a0be 1bce 2cbe 9a61 1dbf 1de1 0abe
00000140: 3dd3 49be c988 8b3d 708e bd3c 9daf 93bd
00000150: fd70 00be 05d2 ed3c 50e7 e23e c5a0 a0bc
00000160: 49bd 6a3c d1c6 68bd 80e8 b13d 6112 b33c
00000170: 509a 59bc 57c1 ba3c cc71 dc3e 74a5 22bd
00000180: 3122 863d 387d 96bd c2b9 90bd 4622 aabe
00000190: b44b 5c3e 4a02 0c3e 8daa 81be d168 cd3d
000001a0: da26 5b3f 7d2e 543e 7cbe 0a3e 1e1c a1bd
000001b0: f9c6 afbe da4a 573d c7af 903e 37cc d2be
000001c0: 5d0f d4bf 611f d4bf a4fc e6be 1735 f73d
000001d0: 0ecc 123e a0e1 833e 9533 993d 0fdd 173d
000001e0: 6ff2 d63d cd89 603e 2133 c73d 755a 0dbe
000001f0: cac8 0b3b 43d4 5a3f 3c12 933a ba53 19bf
00000200: 7708 7cb9 db2d fabc 9452 483f 2243 d93d
00000210: cca3 e0bb 31d7 52be 9b2a 74be a37c d8bc
00000220: 50eb 5f3e 64e9 d8be b2f7 c4bf da91 f8bf
00000230: e788 a4be 1f6e d63e d36c 4d3e 06e3 d53d
00000240: 8737 ccbc 7e03 933c 34c0 4d3d 54e4 303d
00000250: ef73 e5bb 7f46 d53b da73 efbd 0430 703f
00000260: c75b cc39 6cdd 52bf db11 3b3d dead 953d
00000270: cad7 a63f 1d1e 103e 7d90 493e 58a5 fabd
00000280: 9416 27be 7667 083e 88a7 953e e865 13bf
00000290: 527f b8bf 723f 02c0 261e 12bf 5c49 8e3e
000002a0: 4e26 d43d 5dd8 0d3e 6dc4 a63a 1164 e739
000002b0: ffb4 2ebf d028 163d 563e 34bd 0c0a 25bb
000002c0: d1a8 833e 466f cc3f f667 593d ffb3 4cbf
000002d0: c3f8 563c ae2b 613d 7203 c43f 3fd5 993d
000002e0: 8d41 023e df60 c23b 7983 8bbe d871 243e
000002f0: 7b41 e83e a6c5 38bf bcb0 adbf 00ee 12c0
00000300: a8b7 27bf 38a4 bb3e 0dd3 033f 7a9a 59bb
00000310: c19b a5bc 52df aa3e d33b e4bf 3d17 16bb
00000320: b8e5 2c3d e53d 70bd d2f0 8a3e 6fba 2540
00000330: d669 183d 39d8 59bf f7ef f9bd 6ab4 5d3d
00000340: 60d9 d53d b7bd 42ba 82ff 83bd e018 35be
00000350: 142e 423d 582b 2abe 3456 21be 2866 43be
00000360: b5ee d2bd ded9 703d 8f38 6dbe 62e9 35bb
00000370: 04f5 74bd fc23 b9bd 512e aebd 3289 03bf
00000380: 569f e83c 09f1 e3bb ee5d 5d3d ef7a 4d3e
00000390: 0bb3 003e 5393 2fbf bc4b 29be 49a2 daba
000003a0: b2c4 6ebe 9d19 70be 590c 7cbe b040 903c
000003b0: b804 24be 8f2f 35bd 1389 a23d 2e8c 843d
000003c0: e88a 6bbd a233 f13c fba5 75bd 6cb5 053e
000003d0: 04e8 90be 4aaf 12be 94b4 bebd abb1 0dbd
000003e0: 8bab a9bd cd5b 2abe f3be 8f3e dee9 f4bc
000003f0: 5974 47bd fa5b 483d 01ad 35be 0982 22bf

base.input_compress.bias f4 [15]
0.016845202 0.4022123 0.20516732 -0.07640629 0.29762617 0.51827556 0.30436403 0.576
0.0452039 0.63001907 0.22063078 0.21913922 -0.11631201 -0.019179402 0.34512386
00000000: f3fe 893c c5ee cd3e 6217 523e e77a 9cbd
00000010: 7562 983e b5ad 043f 9ad5 9b3e bc74 133f
00000020: ba27 393d ee48 213f 09ed 613e 0866 603e
00000030: fe34 eebd 1f1e 9dbc 13b4 b03e

base.actor_compress.weight f4 [19, 79, 3, 3]
0.08953456 0.05602919 0.012838567 0.08009128 0.0408446 -0.019969102 0.11077039 0.051592045
0.08233783 -0.037251513 -0.03187657 -0.019765383 -0.018598719 0.030279227 -0.03234336 -0.018177453
0.0146283 0.0011431819 0.09140367 0.055701427 -0.026997576 0.13927859 0.085651346 -0.0034620077
0.14186922 0.11581988 0.13236666 0.06285225 0.120151356 0.20929642 0.17270157 0.11110906
0.14669462 0.17976354 0.1699016 0.2579586 0.04876171 0.033253293 0.034997977 -0.020049004
-0.015272756 0.01727124 0.13141435 0.057504807 0.16098435 -0.015738536 -0.061183896 -0.018367521
-0.10929704 -0.079166524 -0.042219713 0.015947543 -0.022886405 0.042107463 -0.00993515 -0.04957741
-0.039103076 0.00080265035 -0.01922668 -0.012302835 0.05106202 -0.0033678955 0.0048917364 0.080114365
0.1655976 0.22727667 0.026392486 0.21527809 0.17563507 0.025745183 0.031189458 0.035897784
0.10755185 0.18265457 0.2809053 0.19797757 0.21694514 0.27566767 0.24356957 0.38669688
0.38380852 0.02154875 0.01059404 0.06791091 -0.11424015 -0.06625544 -0.0059612063 -0.09084409
0.0027168128 -0.0017787868 0.023474894 0.05621168 -0.025106201 -0.081058875 0.002438131 -0.039314162
-0.072905965 -0.036140203 -0.03247097 -0.13140473 0.025953092 0.058909025 -0.10271728 -0.058574326
0.043330826 -0.11423976 -0.041963417 0.089919314 -0.026603127 0.031278517 -0.06900273 0.021318683
0.06332391 0.01334843 0.009478646 -0.014084051 0.023328084 -0.015134612 0.08148396 0.06312688
0.04021169 0.031532962 0.006811726 0.0365919 0.09344936 0.034944 0.09164494 0.0806273
0.09519881 0.035411455 -0.0028598625 0.011427341 0.02439293 0.14430103 0.14451213 -0.010636984
-0.09933633 -0.077767596 0.054467615 -0.04087766 -0.05571024 -0.019075062 -0.10410545 -0.048141517
0.07414792 -0.001916228 -0.0033907841 0.023428459 0.03886758 0.021820582 0.006145534 -0.058315393
-0.015765931 0.059330087 0.011598446 0.11147334 0.04503797 0.013962879 0.08506773 0.05206459
0.008286082 0.047472693 0.109484725 0.03649182 -0.0034141566 0.018614674 0.046696864 0.008857606
-0.01997649 0.035301726 0.008184469 0.18383318 0.08852532 0.23358107 0.056571823 0.09610377
0.008901476 0.14779533 0.10572213 0.14488676 0.17545055 0.07803047 0.043322742 0.16863073
0.11886635 -0.09422583 0.091260105 -0.045484904 -0.219857 0.013269012 0.02362393 0.008870512
0.114130475 0.088613085 0.027511429 0.12517111 0.07257735 -0.0067011323 0.057964657 0.017326377
0.06836935 -0.013988872 0.013514759 0.012179655 0.078732364 -0.007462066 0.030017016 -0.02268138
-0.06294774 -0.11445333 0.024965841 -0.16934717 -0.032394283 -0.0013724288 0.079783954 -0.052430753
-0.037919585 -0.10167381 0.018214805 0.0040554143 -0.0246333 0.017820593 -0.038560417 -0.028227245
0.0043708817 0.34099835 0.24912468 0.19837773 0.16983677 0.028685635 -0.061199423 0.13886522
0.12999162 -0.018558064 -0.12253248 0.010168275 -0.05048602 -0.052140474 -0.11713266 -0.073291376
-0.042145308 -0.07236338 -0.029510947 0.11558647 0.08277851 0.097842924 0.11021866 0.07100502
0.0021266679 0.05334942 0.024720062 0.0857093 0.007639927 -0.120962985 -0.09540889 -0.02506446
00000000: e55d b73d dd7e 653d da58 523c e606 a43d
00000010: ab4c 273d 3e96 a3bc 96db e23d 2e52 533d
00000020: bca0 a83d 0b95 18bd 0291 02bd 03eb a1bc
00000030: 575c 98bc 240c f83c 797a 04bd e2e8 94bc
00000040: 8aab 6f3c d2d6 953a d931 bb3d 2e27 643d
00000050: 052a ddbc 0c9f 0e3e f969 af3d dae2 62bb
00000060: 2a46 113e f932 ed3d 208b 073e aeb8 803d
00000070: ea11 f63d cd51 563e aed8 303e 268d e33d
00000080: 1d37 163e ef13 383e affa 2d3e 2613 843e
00000090: 5cba 473d 9b34 083d 0a5a 0f3d cf3d a4bc
000000a0: 953a 7abc 6a7c 8d3c 7c91 063e 298a 6b3d
000000b0: 15d9 243e 1aee 80bc f79b 7abd 7c77 96bc
000000c0: 20d7 dfbd 0f22 a2bd 94ee 2cbd 6ca4 823c
000000d0: 457c bbbc e078 2c3d 0ac7 22bc af11 4bbd
000000e0: 8c2a 20bd f468 523a 4581 9dbc d491 49bc
000000f0: 6926 513d e9b7 5cbb dc4a a03b 0013 a43d
00000100: 6b92 293e 37bb 683e 0e35 d83c dc71 5c3e
00000110: aed9 333e 90e7 d23c 0981 ff3c 8e09 133d
00000120: 2544 dc3d cd09 3b3e d2d2 8f3e a2ba 4a3e
00000130: de26 5e3e 5024 8d3e 4d6a 793e 22fd c53e
00000140: 8d82 c43e 0187 b03c a092 2d3c e014 8b3d
00000150: bdf6 e9bd efb0 87bd 3956 c3bb 770c babd
00000160: 8e0c 323b 2e26 e9ba 6c4e c03c 383e 663d
00000170: 85ab cdbc 3202 a6bd 0dc9 1f3b e307 21bd
00000180: b94f 95bd c007 14bd 4800 05bd f68e 06be
00000190: 949b d43c 974a 713d 705d d2bd a2eb 6fbd
000001a0: aa7b 313d 89f6 e9bd d5e1 2bbd 9e27 b83d
000001b0: cdee d9bc e71d 003d 4e51 8dbd 85a4 ae3c
000001c0: f7af 813d 60b3 5a3c 534c 1b3c cbc0 66bc
000001d0: 8a1a bf3c 2af7 77bc 10e1 a63d aa48 813d
000001e0: 03b5 243d b528 013d e634 df3b 63e1 153d
000001f0: 6162 bf3d 7121 0f3d 58b0 bb3d ed1f a53d
00000200: 98f7 c23d 9a0b 113d 886c 3bbb be39 3b3c
00000210: afd3 c73c a6c3 133e fdfa 133e bf46 2ebc
00000220: d970 cbbd 9e44 9fbd 6f19 5f3d 556f 27bd
00000230: 6c30 64bd 4e43 9cbc 3d35 d5bd 0a30 45bd
00000240: ddda 973d f129 fbba eb37 5ebb 0aed bf3c
00000250: 9d33 1f3d 14c1 b23c 7a60 c93b 1fdc 6ebd
00000260: 8e27 81bc 1b04 733d 6907 3e3c 224c e43d
00000270: bc79 383d 8fc4 643c fd37 ae3d ae41 553d
00000280: 59c2 073c ba72 423d 8739 e03d 7278 153d
00000290: 0bc0 5fbb cd7d 983c 3645 3f3d 7e1f 113c
000002a0: bca5 a3bc 8b98 103d 2718 063c c43e 3c3e
000002b0: c34c b53d e02f 6f3e dbb7 673d 0ed2 c43d
000002c0: 7fd7 113c a957 173e d884 d83d 325d 143e
000002d0: 4fa9 333e 70ce 9f3d 3073 313d 89ad 2c3e
000002e0: 3370 f33d 79f9 c0bd 94e6 ba3d 614e 3abd
000002f0: 3222 61be 4566 593c f986 c13c a055 113c
00000300: 3dbd e93d c77a b53d a65f e13c db2c 003e
00000310: 6fa3 943d 2c95 dbbb 596c 6d3d 0cf0 8d3c
00000320: 3b05 8c3d 9531 65bc 026d 5d3c 2d8d 473c
00000330: 6f3e a13d 5984 f4bb 3fe6 f53c 4dce b9bc
00000340: bfea 80bd 8266 eabd 2a85 cc3c 5869 2dbe
00000350: deaf 04bd 12e3 b3ba c565 a33d a1c1 56bd
00000360: 9151 1bbd 5c3a d0bd 3737 953c 48e3 843b
00000370: c6cb c9bc 7efc 913c 87f1 1dbd d33c e7bc
00000380: 9d39 8f3b 5697 ae3e 8a1a 7f3e 8823 4b3e
00000390: b1e9 2d3e 23fe ea3c 3fac 7abd af32 0e3e
000003a0: 861c 053e 1507 98bc 4ff2 fabd d698 263c
000003b0: 6eca 4ebd 4091 55bd 3fe3 efbd ca19 96bd
000003c0: 8fa0 2cbd 4033 94bd f1c0 f1bc 99b8 ec3d
000003d0: c887 a93d df61 c83d 52ba e13d 146b 913d
000003e0: 915f 0b3b ec84 5a3d ba81 ca3c 5c88 af3d
000003f0: 5a58 fa3b 71bb f7bd bc65 c3bd fb53 cdbc

base.actor_compress.bias f4 [19]
0.563239 0.38108748 0.42046532 0.31251347 0.11245654 0.31483468 0.43408453 0.47077212
-0.2396549 0.5329807 0.42813832 0.40989965 0.27037376 0.009642275 0.38905108 0.41025862
0.13970816 0.2340512 0.41383284
00000000: 6e30 103f e61d c33e 3b47 d73e c401 a03e
00000010: 9d4f e63d 0332 a13e 5440 de3e 0b09 f13e
00000020: 1868 75be 6c71 083f f234 db3e 5ede d13e
00000030: 6e6e 8a3e a2fa 1d3c b431 c73e 6b0d d23e
00000040: a80f 0f3e 1eab 6f3e e6e1 d33e

base.critic_compress.weight f4 [8, 79, 1, 1]
0.6876253 0.013719546 -0.03239733 0.19732553 0.032276765 0.06232879 0.04367853 0.16713923
-0.01187263 -0.12966919 -0.07747496 0.03875563 -0.013252366 0.019220889 -0.09397394 -0.01572139
0.095314294 -0.12958245 0.10030966 0.070953615 0.08113492 -0.037693843 0.042341508 -0.044516947
-0.0012745988 0.11806267 0.029182468 -0.029416189 0.057605192 0.08834364 0.031275935 -0.05368843
-0.10091615 0.09661938 0.027578423 0.066120155 -0.013429842 -0.028398586 -0.082211 -0.18603964
-0.041409038 -0.0022563331 0.11721599 0.041560497 -0.022966946 -0.054360483 0.018221468 -0.047602948
-0.042880032 -0.120197445 -0.073053084 -0.036470175 -0.042233456 -0.07456343 0.049727645 -0.009635249
0.0382022 0.11386855 0.20388472 0.1441086 -0.1651017 0.07447739 -0.015392147 -0.1920227
0.013837406 0.08671501 0.14952062 -0.030693263 0.0149645 0.007869397 0.15709913 -0.034298535
0.026953597 0.06672086 0.06364367 0.08638721 -0.24720442 -0.061062153 0.056461006 0.05096581
0.9190971 -0.012271562 -0.020362837 0.061827917 -0.1553347 0.039680768 -0.19604713 0.06390306
0.1948819 0.025783932 -0.13651568 -0.0637634 0.14763835 0.01954293 0.014435191 0.054324232
-0.02204215 -0.16604991 0.16580544 0.1879596 -0.024677014 -0.010334222 -0.064434 -0.0834861
-0.00066317513 0.02109929 0.074272506 -0.052174974 -0.11964084 -0.06575477 -0.19906168 0.004630666
0.19276766 0.09900229 -0.10519588 -0.14590615 0.16398345 0.008087112 -0.23733737 -0.32443124
-0.005439389 0.107580505 -0.01725538 0.045119613 -0.18625656 0.06759422 -0.09069787 -0.09552721
-0.009067789 0.08747069 -0.009212472 -0.09855239 -0.021459468 0.011106073 -0.025733368 -0.20224702
0.012374997 0.2013669 0.020991042 0.009775017 -0.05233703 0.033922788 -0.04581563 -0.06920734
0.019964414 0.12455225 -0.25637692 -0.18997355 -0.19495508 -0.009069192 -0.19534801 -0.098678015
-0.52337986 0.003947354 0.20901039 -0.5391121 -0.1503865 -0.100262694 -0.14107363 0.0066997707
0.73331 -0.029531244 -0.0003404066 0.13599387 0.028917521 0.010254484 -0.21587476 -0.17703384
-0.035773747 -0.10483089 0.05774269 -0.06545558 -0.13468327 -0.1922399 -0.034428988 0.00595703
-0.28969836 -0.07486045 0.04192008 -0.17908598 -0.06889832 -0.21866103 -0.02332202 0.18915117
-0.038903806 -0.034228887 -0.08353456 -0.17546238 -0.024882035 -0.011052226 -0.12238894 0.091495045
-0.09926085 0.027406128 -0.04295208 -0.27688396 -0.13876455 -0.042404186 -0.013821712 0.043824807
-0.11247853 -0.011993254 -0.16472231 0.03642326 -0.008493048 -0.19438542 -0.021362104 -0.21356195
-0.026485756 -0.2492184 -0.055627402 0.031263344 0.09141049 -0.023866093 -0.17074607 -0.02467948
0.0015334968 0.11733986 -0.25901243 -0.09802611 -0.06738227 -0.1318268 -0.021460257 -0.0009601013
0.059159994 -0.14087468 0.09188863 0.15836307 -0.088104926 -0.10055719 -0.1642765 0.19430804
0.2650562 -0.052254498 -0.23583117 -0.2667068 -0.1407147 0.12934385 0.0020052104 0.097057454
0.55247283 0.03251774 0.10889905 -0.01286506 -0.13447718 -0.124262296 -0.017705142 -0.07524644
-0.048675053 -0.073761575 0.027560636 0.042175677 0.096941896 0.07415729 -0.0021393243 -0.016639786
00000000: 3608 303f f2c7 603c 10b3 04bd b40f 4a3e
00000010: a434 043d 794c 7f3d 42e8 323d 8c26 2b3e
00000020: 6b85 42bc 00c8 04be 31ab 9ebd 39be 1e3d
00000030: 7420 59bc 2075 9d3c 6975 c0bd 25ca 80bc
00000040: 2434 c33d 43b1 04be 276f cd3d 2150 913d
00000050: 112a a63d dc64 1abd 4a6e 2d3d 6757 36bd
00000060: 7010 a7ba d7ca f13d 1210 ef3c 38fa f0bc
00000070: 6cf3 6b3d 83ed b43d 321b 003d 66e8 5bbd
00000080: 20ad cebd 62e0 c53d 25ec e13c 016a 873d
00000090: d708 5cbc 27a4 e8bc 3e5e a8bd 2d81 3ebe
000000a0: 869c 29bd fdde 13bb f00e f03d 573b 2a3d
000000b0: 2d25 bcbc 19a9 5ebd 3045 953c 4ffb 42bd
000000c0: f9a2 2fbd 142a f6bd db9c 95bd c061 15bd
000000d0: fdfc 2cbd b6b4 98bd 37af 4b3d 2add 1dbc
000000e0: e979 1c3d ea33 e93d 28c7 503e 3491 133e
000000f0: 6c10 29be 9a87 983d 582f 7cbc 99a1 44be
00000100: 4ab6 623c a497 b13d ef1b 193e 7070 fbbc
00000110: aa2d 753c a5ee 003c 98de 203e 9f7c 0cbd
00000120: cacd dc3c f2a4 883d 9d57 823d c7eb b03d
00000130: 2823 7dbe 4f1c 7abd a843 673d 86c1 503d
00000140: f349 6b3f a90e 49bc f7cf a6bc 453f 7d3d
00000150: 0f10 1fbe 4d88 223d 94c0 48be 9cdf 823d
00000160: 1f8f 473e d338 d33c c4ca 0bbe 6396 82bd
00000170: 822e 173e 7f18 a03c 9481 6c3c 1683 5e3d
00000180: bd91 b4bc fd08 2abe e7c8 293e 7b78 403e
00000190: 7327 cabc de50 29bc f9f5 83bd c3fa aabd
000001a0: eed8 2dba 6bd8 ac3c 2f1c 983d 6db5 55bd
000001b0: 4206 f5bd 70aa 86bd d3d6 4bbe d8bc 973b
000001c0: e364 453e b6c1 ca3d f070 d7bd 6c68 15be
000001d0: 47eb 273e ce7f 043c 9108 73be da1b a6be
000001e0: e73c b2bb 2b53 dc3d 285b 8dbc 58cf 383d
000001f0: 0aba 3ebe d76e 8a3d cebf b9bd c5a3 c3bd
00000200: 1091 14bc d523 b33d e8ef 16bc d6d5 c9bd
00000210: c4cb afbc 3ff6 353c c9ce d2bc d819 4fbe
00000220: 80c0 4a3c 2033 4e3e 68f5 ab3c 6527 203c
00000230: 5b5f 56bd 9ff2 0a3d 2ca9 3bbd 94bc 8dbd
00000240: 698c a33c 4015 ff3d d643 83be 6d88 42be
00000250: 4ea2 47be f396 14bc 4f09 48be b317 cabd
00000260: 39fc 05bf ce58 813b d206 563e 4003 0abf
00000270: ebfe 19be 8756 cdbd 9b75 10be c089 db3b
00000280: 34ba 3b3f 82eb f1bc 9a78 b2b9 fa41 0b3e
00000290: 70e4 ec3c 6c02 283c 460e 5dbe 5c48 35be
000002a0: 7e87 12bd 94b1 d6bd 9983 6c3d 930d 86bd
000002b0: 69ea 09be 89da 44be 6905 0dbd 3133 c33b
000002c0: 5853 94be 7050 99bd 64b4 2b3d 5162 37be
000002d0: 901a 8dbd ade8 5fbe d20d bfbc d8b0 413e
000002e0: 9959 1fbd 9733 0cbd 2b14 abbd 69ac 33be
000002f0: 69d5 cbbc 6514 35bc 0da7 fabd c161 bb3d
00000300: 4649 cbbd d182 e03c 85ee 2fbd bcc3 8dbe
00000310: 4b18 0ebe 03b0 2dbd 7674 62bc a481 333d
00000320: 255b e6bd 5a7f 44bc f7ac 28be 8e30 153d
00000330: 6d26 0bbc f90c 47be 94ff aebc fcaf 5abe
00000340: a8f8 d8bc 1c33 7fbe 8fd9 63bd fe0d 003d
00000350: 6c35 bb3d d382 c3bc 0fd8 2ebe 9f2c cabc
00000360: 9dff c83a e14f f03d 479d 84be eac1 c8bd
00000370: b7ff 89bd 9bfd 06be 6ccd afbc 4faf 7bba
00000380: c051 723d 7441 10be 1b30 bc3d ee29 223e
00000390: 5b70 b4bd eef0 cdbd 1938 28be b0f8 463e
000003a0: 72b5 873e d008 56bd ba7d 71be cb8d 88be
000003b0: 8417 10be b772 043e d969 033b 0fc6 c63d
000003c0: dc6e 0d3f 5231 053d 7706 df3d f9c7 52bc
000003d0: 63b4 09be 3b7d febd 600a 91bc ce1a 9abd
000003e0: 7e5f 47bd 4f10 97bd d8c6 e13c 67c0 2c3d
000003f0: 7989 c63d c7df 973d e833 0cbb 2950 88bc

base.critic_compress.bias f4 [8]
0.59733695 0.4012576 0.35368186 0.18422407 0.14979152 0.32305986 -0.09563738 -0.55088925
00000000: 13eb 183f a371 cd3e ca15 b53e 3ca5 3c3e
00000010: f362 193e 1a68 a53e 88dd c3bd 1407 0dbf

base.critic_conv_1.weight f4 [1, 8, 20, 20]
-0.08596493 0.09274149 0.15513055 0.30115098 0.21289027 0.17945217 0.17661585 0.21269006
0.22008276 0.17007914 0.1914412 0.1390946 0.18310873 0.1667102 0.04449012 0.06842991
0.08295707 0.08073161 0.10169483 0.08598853 0.16194232 0.24765962 0.07167595 -0.005147387
0.0264975 -0.09795503 0.02134432 -0.0835865 0.027036084 0.10168519 0.10684014 0.0925334
0.13906522 0.12591547 0.009445802 0.08405741 0.17562467 0.04750537 0.016555991 0.08747985
-0.024189033 0.03564684 -0.16325489 -0.09800751 -0.022105832 -0.01701304 0.03213843 -0.041334838
-0.008833414 0.030353034 -0.06262537 -0.09677607 -0.048839822 0.09117532 0.040328633 0.10835954
0.13915779 -0.119084686 -0.10261447 0.02326982 0.28981027 0.18169048 -0.06050379 -0.034112938
0.011806721 0.03695477 0.02697436 0.108698025 0.09835913 0.22062059 0.023000928 0.11668218
0.1001728 0.035735853 -0.051578056 0.07910532 0.15978047 -0.005298715 -0.011223965 0.11961241
0.18101962 0.13276097 -0.13716424 0.0752224 0.05159542 0.13777262 -0.010215961 0.14087026
0.025928063 0.0546731 -0.0238887 0.09325381 0.06760185 0.16628371 0.03258025 -0.0034315137
0.06088252 -0.03460454 0.06271737 0.10872775 0.1929629 0.10437237 -0.091505416 -0.019531544
0.012323628 0.18111904 0.008996639 -0.023007665 0.10497967 0.11480698 0.17122321 0.00084553944
0.04007977 0.04239087 -0.17927659 0.026605887 0.21620855 -0.026017962 -0.047032528 0.013140775
0.16695158 0.015497239 -0.080880575 -0.007892311 -0.011554745 0.11220938 0.14655271 0.1180715
0.08679522 0.09203244 0.008467111 -0.019248346 0.09632856 0.04860404 0.12274684 0.15068197
0.15688926 0.072291076 0.046720732 0.18472075 0.119481325 -0.0055998308 -0.042193796 0.0026073426
-0.01856459 -0.0021611012 0.0033927502 0.008888782 0.021317596 0.19699718 0.093124725 0.046135247
0.106542096 0.07108993 -0.0629434 0.021110168 0.09484127 -0.049339022 -0.098845206 0.028622577
0.2613924 0.08475 0.0040391022 0.12131508 0.14119704 0.063207276 0.07996735 0.14885682
0.05009055 0.021134317 -0.13890079 0.06011482 0.12787919 0.11290508 0.104442865 0.10254091
-0.029958395 0.01866367 -0.0069131567 0.10396695 0.14297041 -0.06364221 0.031432778 0.10707529
0.09585326 -0.06849037 0.13222587 0.058762927 0.05288481 0.08434288 -0.035317536 0.058661
0.08579341 0.111274205 0.00415424 0.012177742 0.028057896 0.07925347 -0.010605462 0.04930968
0.062553644 0.03095601 0.0041828356 0.10287561 0.07476639 -0.099212915 -0.03508584 -0.04331252
-0.09349644 -0.02522263 0.1699987 -0.041715097 0.014790795 0.13119423 -0.03805834 0.021821776
-0.049525846 0.0071165334 -0.1197786 0.05801007 0.020483192 0.10013576 -0.025385404 0.0026065558
0.08402127 0.0561461 0.18801436 -0.03095877 0.060757503 0.039623838 0.02343046 0.23857406
0.1562114 0.15344642 -0.010443219 -0.044117562 0.04449084 0.17111714 -0.061723348 0.027625108
0.09428136 0.113555916 0.051384013 0.20162039 0.059018947 0.024354765 0.1372323 -0.0902523
0.22400452 0.059862226 0.19956675 0.043418538 0.07585931 0.035536423 0.12590046 0.0766278
00000000: 620e b0bd 40ef bd3d 8bda 1e3e 7630 9a3e
00000010: e8ff 593e 4fc2 373e c9da 343e 6ccb 593e
00000020: 605d 613e 3a29 2e3e 2909 443e d16e 0e3e
00000030: db80 3b3e 14b6 2a3e 463b 363d fb24 8c3d
00000040: 65e5 a93d 9d56 a53d 6145 d03d c11a b03d
00000050: 35d4 253e 7c9a 7d3e d7ca 923d 69ab a8bb
00000060: 4911 d93c a69c c8bd 49da ae3c 662f abbd
00000070: c77a dd3c 5340 d03d 01cf da3d 2782 bd3d
00000080: 1d67 0e3e fcef 003e 91c2 1a3c 4b26 ac3d
00000090: f4d6 333e fe94 423d 6ea0 873c a328 b33d
000000a0: 1428 c6bc 6c02 123d 4a2c 27be 29b8 c8bd
000000b0: 4a17 b5bc ee5e 8bbc 96a3 033d b84e 29bd
000000c0: 06ba 10bc eda6 f83c bb41 80bd 8832 c6bd
000000d0: 440c 48bd 20ba ba3d a32f 253d 9beb dd3d
000000e0: 617f 0e3e ace2 f3bd 8927 d2bd 59a0 be3c
000000f0: 0362 943e 120d 3a3e d2d2 77bd 02ba 0bbd
00000100: fa70 413c e35d 173d 55f9 dc3c 129d de3d
00000110: 8370 c93d 5dea 613e 716c bc3c 11f7 ee3d
00000120: 6627 cd3d c25f 123d 8343 53bd f801 a23d
00000130: 7e9d 233e d8a0 adbb b9e4 37bc 5af7 f43d
00000140: 355d 393e 7ef2 073e c874 0cbe 340e 9a3d
00000150: b855 533d 4414 0d3e d960 27bc 4b40 103e
00000160: 1767 d43c e7f0 5f3d 3cb2 c3bc dbfb be3d
00000170: d772 8a3d 4746 2a3e de72 053d 3fe3 60bb
00000180: f35f 793d 7dbd 0dbd f771 803d a8ac de3d
00000190: 1198 453e 2ec1 d53d 3167 bbbd 9e00 a0bc
000001a0: 0be9 493c 4577 393e a466 133c 927a bcbc
000001b0: 95ff d63d ec1f eb3d 2355 2f3e 31a7 5d3a
000001c0: af2a 243d 0da2 2d3d 4894 37be 97f4 d93c
000001d0: c665 5d3e 9f23 d5bc 2ea5 40bd 684c 573c
000001e0: 5bf5 2a3e 22e8 7d3c b7a4 a5bd c04e 01bc
000001f0: 1d50 3dbc 08ce e53d ea11 163e 78cf f13d
00000200: b1c1 b13d 817b bc3d a3b9 0a3c b5ae 9dbc
00000210: e847 c53d 0815 473d b262 fb3d 604c 1a3e
00000220: 94a7 203e 580d 943d 3d5e 3f3d 7027 3d3e
00000230: a0b2 f43d c97e b7bb 67d3 2cbd f3df 2a3b
00000240: c414 98bc 43a1 0dbb e758 5e3b 41a2 113c
00000250: 3da2 ae3c a1b9 493e 2db8 be3d 50f8 3c3d
00000260: be32 da3d 9997 913d 78e8 80bd 3bef ac3c
00000270: 243c c23d b717 4abd 5b6f cabd e579 ea3c
00000280: 3ad5 853e 6891 ad3d 725a 843b 0a74 f83d
00000290: f595 103e d172 813d ecc5 a33d ec6d 183e
000002a0: c02b 4d3d e021 ad3c 023c 0ebe f53a 763d
000002b0: c3f2 023e c73a e73d 24e6 d53d f800 d23d
000002c0: 4f6b f5bc 8ee4 983c c387 e2bb a0ec d43d
000002d0: d666 123e d956 82bd a8bf 003d 4a4a db3d
000002e0: b74e c43d ae44 8cbd 3866 073e 65b1 703d
000002f0: be9d 583d f6bb ac3d 1fa9 10bd 8446 703d
00000300: 75b4 af3d bbe3 e33d 4a20 883b 2785 473c
00000310: acd9 e53c a54f a23d 88c2 2dbc f2f8 493d
00000320: 201c 803d 7597 fd3c 2b10 893b 73b0 d23d
00000330: 1f1f 993d 2430 cbbd 2bb6 0fbd 7868 31bd
00000340: 107b bfbd b09f cebc 2414 2e3e 73dd 2abd
00000350: 1755 723c c857 063e 10e3 1bbd 95c3 b23c
00000360: 9ddb 4abd cf31 e93b 7c4e f5bd f89b 6d3d
00000370: 5ecc a73c fa13 cd3d 0df5 cfbc c0d2 2a3b
00000380: 5813 ac3d 74f9 653d d686 403e 3f9d fdbc
00000390: dcdc 783d 9b4c 223d 3cf1 bf3c c24c 743e
000003a0: e2f5 1f3e 0f21 1d3e 091a 2bbc 9eb4 34bd
000003b0: 073c 363d 5539 2f3e 9fd1 7cbd 0d4e e23c
000003c0: 9616 c13d 0190 e83d 0b78 523d 9375 4e3e
000003d0: dabd 713d a583 c73c a086 0c3e 33d6 b8bd
000003e0: 7161 653e 1832 753d 3a5b 4c3e a3d7 313d
000003f0: 205c 9b3d a48e 113d 0dec 003e 09ef 9c3d

dist.conv.weight f4 [19, 19, 1, 1]
0.9896289 0.5912971 0.60418427 0.45608336 0.24807526 0.51698416 0.3537018 0.3839324
-0.16902734 0.34398842 0.3841205 0.37670362 0.51748073 -0.21977744 0.3049608 0.4540657
0.081661165 0.16700655 0.52846426 -0.08325023 0.98086566 -0.012206025 -0.019142801 -0.03708383
-0.00029877794 -0.006659037 0.0055681556 -0.057488147 -0.030496519 0.022087635 -0.015039728 -0.12065773
-0.0370011 -0.03427759 -0.0014681172 0.010490822 0.036780227 -0.0215452 0.0046057994 -0.012425641
0.96915597 0.005383822 -0.018753178 0.0041714157 0.003560279 0.008623704 -0.049236286 -0.023591686
0.01300402 -0.001780862 -0.11865709 -0.015998527 0.005119086 -0.015473345 0.004228231 0.012065352
-0.023039367 0.031567745 0.10151306 0.04198039 1.0822127 -0.042480595 0.09537482 0.08431816
0.11765395 -0.05765749 0.079564035 0.057689756 0.07466135 0.0098160235 0.025805825 0.108522445
0.09063129 0.10383381 0.12347303 0.08915901 0.04604623 0.0916949 0.08634382 0.10673716
0.93686086 0.089342326 0.0719081 0.11957078 -0.04999808 0.1102497 0.092525415 0.081908874
-0.02268671 0.021920811 0.041555684 0.09337563 0.09922629 0.08147128 0.11318371 0.05479393
0.094392456 0.04437783 0.11540399 -0.05083229 1.0615118 0.09496769 0.112897605 0.022555415
0.080617405 0.06855359 0.094782464 -0.0022959812 0.0064057764 0.063483335 0.07174575 0.10200664
0.09988986 0.10314117 -0.03406572 -0.02251852 0.004280688 0.002174167 -0.044332296 -0.0050653596
0.9801725 -0.010540275 0.013129769 0.0037656776 -0.00705067 -0.010823018 -0.08804232 0.01713867
0.050693825 -0.018958965 -0.0016608618 -0.008130027 -0.012265235 0.007553379 0.04165184 0.018179592
0.026774622 -0.015296678 0.08702699 0.057257343 1.0466332 0.037752394 0.016386796 0.048087124
0.04828487 -0.011275889 0.033262204 0.0062216213 0.023241984 0.06652944 0.070134796 0.017309852
0.15453002 0.1512809 -0.030513326 0.019882493 -0.23125663 -0.085355386 -0.043387882 -0.051877026
1.4658469 0.06129232 0.07142464 0.03282794 0.113994606 -0.015035876 -0.10319384 0.06535423
-0.13970439 0.07000539 -0.043715958 -0.08625388 -0.027948758 -0.004513037 0.0058534215 -0.07218882
-0.028398575 -0.017763667 -0.0023007914 -0.10919489 0.9440739 0.009930094 0.015374367 -0.1062919
0.0028354323 0.030926157 -0.0085889 -0.01126731 -0.001141416 -0.030273564 0.03507974 0.061092135
0.0468123 0.09503956 -0.0017193757 0.08617771 0.01518846 0.0646968 0.011803654 0.027377158
1.0317327 0.061156448 0.030955454 0.015394102 0.0047149393 0.05391691 0.05429876 0.06782134
0.07259073 -0.07692736 0.020338623 -0.00011970259 0.051285993 -0.022780461 0.045164503 0.048129
0.04489295 -0.10598255 -0.007446758 0.018042946 1.0331612 -0.06551093 0.022877233 0.03749022
0.048468746 0.05414326 0.038275596 0.04337783 0.3278143 -0.07000982 -0.08064986 -0.055750966
0.88745826 -0.11142165 -0.035408203 -0.2564315 -0.030697623 0.5044565 0.1522953 -0.05358172
1.616378 0.03677684 -0.3542954 0.0003836631 -0.025659531 -0.07659176 0.15774056 0.12909089
0.13157828 0.16160491 0.115968585 0.08766619 0.0043464117 0.060549114 0.057939548 -0.060717005
00000000: 5258 7d3f 3f5f 173f d2ab 1a3f c283 e93e
00000010: 7107 7e3e 1359 043f 6718 b53e ca92 c43e
00000020: 8115 2dbe 401f b03e 71ab c43e 4cdf c03e
00000030: 9e79 043f 560d 61be d223 9c3e 4d7b e83e
00000040: f83d a73d c403 2b3e 6f49 073f 197f aabd
00000050: 031a 7b3f c8fb 47bc 5dd1 9cbc 37e5 17bd
00000060: 4ca5 9cb9 0d34 dabb 1375 b63b b178 6bbd
00000070: d6d3 f9bc 21f1 b43c 3169 76bc 661b f7bd
00000080: 778e 17bd a966 0cbd d76d c0ba b2e1 2b3c
00000090: dda6 163d 8f7f b0bc 3fec 963b ea94 4bbc
000000a0: 9b1a 783f c66a b03b 44a0 99bc 5fb0 883b
000000b0: 9253 693b 704a 0d3c fdab 49bd 5a43 c1bc
000000c0: d00e 553c d06b e9ba 7d02 f3bd 580f 83bc
000000d0: 01be a73b ea83 7dbc f98c 8a3b c1ad 453c
000000e0: 0ebd bcbc 2e4d 013d 14e6 cf3d a1f3 2b3d
000000f0: f285 8a3f 2200 2ebd e053 c33d 00af ac3d
00000100: 8ef4 f03d 432a 6cbd 78f2 a23d 184c 6c3d
00000110: 0de8 983d 63d3 203c bd66 d33c 0441 de3d
00000120: e69c b93d d2a6 d43d 6edf fc3d 0099 b63d
00000130: f99a 3c3d 89ca bb3d 07d5 b03d 0399 da3d
00000140: 1dd6 6f3f 1cf9 b63d 8e44 933d 86e1 f43d
00000150: c9ca 4cbd 98ca e13d f77d bd3d d7bf a73d
00000160: 7bd9 b9bc 4693 b33c 4b36 2a3d b93b bf3d
00000170: 2737 cb3d 6ada a63d dccc e73d 9a6f 603d
00000180: d550 c13d 87c5 353d ed58 ec3d 8535 50bd
00000190: 9edf 873f 6c7e c23d dc36 e73d 22c6 b83c
000001a0: bd1a a53d d365 8c3d 4f1d c23d 2c78 16bb
000001b0: 8ce7 d13b 8d03 823d 70ef 923d dbe8 d03d
000001c0: 0e93 cc3d ae3b d33d 7f88 0bbd c278 b8bc
000001d0: 0345 8c3b 787c 0e3b c895 35bd 51fb a5bb
000001e0: 96ec 7a3f 1eb1 2cbc 3e1e 573c 96c9 763b
000001f0: 4f09 e7bb 0753 31bc 884f b4bd 6566 8c3c
00000200: 54a4 4f3d d54f 9bbc 46b1 d9ba ce33 05bc
00000210: 20f4 48bc 5682 f73b 1f9b 2a3d 5eed 943c
00000220: 7456 db3c eb9e 7abc 353b b23d ad86 6a3d
00000230: 14f8 853f 41a2 1a3d 9a3d 863c 01f7 443d
00000240: 5bc6 453d 82be 38bc f33d 083d bede cb3b
00000250: f965 be3c 9640 883d d5a2 8f3d 64cd 8d3c
00000260: 1e3d 1e3e 61e9 1a3e 15f7 f9bc 9ce0 a23c
00000270: 8ace 6cbe cece aebd 7eb7 31bd 017d 54bd
00000280: dfa0 bb3f a80d 7b3d 1547 923d 9776 063d
00000290: 0176 e93d 0959 76bc 4b57 d3bd 70d8 853d
000002a0: ab0e 0fbe fc5e 8f3d 810f 33bd e0a5 b0bd
000002b0: cbf4 e4bc 19e2 93bb 0fce bf3b bbd7 93bd
000002c0: 21a4 e8bc 1c85 91bc e0c8 16bb 92a1 dfbd
000002d0: d4ae 713f d5b1 223c c5e4 7b3c 91af d9bd
000002e0: a9d2 393b da58 fd3c 75b8 0cbc 869a 38bc
000002f0: 919b 95ba 4400 f8bc c6af 0f3d bf3b 7a3d
00000300: 41be 3f3d 1aa4 c23d ad5c e1ba f07d b03d
00000310: 05d9 783c c27f 843d 1d64 413c 1046 e03c
00000320: d10f 843f 2f7f 7a3d 4b96 fd3c 8b37 7c3c
00000330: c77f 9a3b fad7 5c3d 6068 5e3d eae5 8a3d
00000340: 73aa 943d 178c 9dbd 2f9d a63c d708 fbb8
00000350: 4311 523d 179e babc 6afe 383d ea22 453d
00000360: ace1 373d 610d d9bd ef03 f4bb cdce 933c
00000370: a03e 843f 982a 86bd 0969 bb3c 588f 193d
00000380: 2a87 463d 53c5 5d3d dfc6 1c3d f4ac 313d
00000390: 47d7 a73e 4f61 8fbd c12b a5bd 205b 64bd
000003a0: 7730 633f 0931 e4bd 3108 11bd fd4a 83be
000003b0: 9579 fbbc 1024 013f 4df3 1b3e 8178 5bbd
000003c0: 79e5 ce3f 50a3 163d 3566 b5be 6426 c939
000003d0: f033 d2bc 24dc 9cbd be86 213e 6730 043e
000003e0: 75bc 063e c27b 253e f080 ed3d 558a b33d
000003f0: 586c 8e3b 5902 783d 0552 6d3d 65b2 78bd

dist.conv.bias f4 [19]
0.56092715 -0.14560902 -0.13162214 -0.070048444 -0.020843713 -0.025894849 -0.03779026 -0.011500756
-0.16078573 -0.14321221 -0.027507484 -0.18697734 0.16590813 0.1873444 -0.3447654 -0.10340564
-0.1454736 -0.057656635 -0.16219363
00000000: ec98 0f3f 881a 15be f4c7 06be 8f75 8fbd
00000010: 6fc0 aabc 6f21 d4bc f6c9 1abd ab6d 3cbc
00000020: 04a5 24be 39a6 12be 6057 e1bc fd76 3fbe
00000030: d2e3 293e 36d7 3f3e 1785 b0be 56c6 d3bd
00000040: 08f7 14be 5d29 6cbd 1616 26be
