trained_models/a2c/trial_4/MicropolisEnv-v0.pt (torch_old, 905213 bytes, 13 tensors)

weight f4 [64, 104, 5, 5]
000000 71 40 10 3d 56 43 3b 3d 5f 45 39 bc 5f be 2e bd
       0.035217706 0.045718513 -0.011308043 -0.04266202
000010 92 9f 6e bd a0 ae 8b 3d 1c 05 ef bb 5c 3c 98 3c
       -0.058257647 0.068204165 -0.0072943103 0.01858347
000020 c7 8c 69 bd 1a d6 48 bd 0b a0 b6 bb 35 09 b9 3c
       -0.05701902 -0.04903231 -0.005573278 0.022587398
000030 da dc ec bc f7 1e 77 bd 9e 61 56 bc 25 a9 20 bd
       -0.028913904 -0.060332265 -0.013084797 -0.03922381
000040 9b 07 58 bd 0e 56 45 bd 65 8e 23 bd fe c1 a5 bc
       -0.05274163 -0.04817777 -0.03993072 -0.020234104
000050 3c 53 16 bd c5 96 1f bd d9 ac 7c bd 2d e7 d5 3a
       -0.036700472 -0.038962144 -0.061688278 0.0016319506
000060 e1 b2 97 3b 80 d0 31 3c 16 6e 05 3d 81 ce 62 3c
       0.0046294783 0.010852933 0.03257569 0.01384318
000070 75 22 37 3d d7 12 a9 bb 38 73 66 3c f1 61 86 3b
       0.044710595 -0.0051597166 0.014065556 0.004101031
000080 f1 fd ae bc a4 28 b0 bc df b1 0a 3c 24 03 48 3b
       -0.021361323 -0.021503754 0.008465259 0.003051945
000090 36 16 e9 3b 00 35 1d 3b f6 15 5d 3c b3 65 96 3c
       0.0071132435 0.002398789 0.013494005 0.01835904
0000a0 f0 46 34 bc a5 63 b1 bc ed 43 5a 3c 8b 3e 41 bd
       -0.011003241 -0.02165396 0.013321859 -0.047178786
0000b0 55 eb 66 3c 1b 70 26 3b 13 8c 98 3c 2c 2f 6b 3c
       0.0140941935 0.002539641 0.01862148 0.014354508
0000c0 ec 1d 68 3c e3 23 dd bc 20 82 8a bb 7e b6 47 bd
       0.01416729 -0.026994651 -0.004226938 -0.048758022
0000d0 23 cf 43 bd 7b 4b 05 bc 75 62 51 3b 9a dd 3d bd
       -0.047804963 -0.008135672 0.0031949554 -0.046353914
0000e0 5b a1 24 bd 9a f8 83 bc 63 e9 c9 ba 8d 4f 9e bc
       -0.040192943 -0.016109753 -0.0015404638 -0.019325042
0000f0 4f 6c 42 bd a4 63 9d bc ea 50 d2 3c 26 54 a4 3c
       -0.047466572 -0.019212551 0.025673348 0.020059656
000100 77 56 bd 3a f3 96 e5 bc eb 76 9b bc 4d 2b c0 3c
       0.0014445324 -0.02802608 -0.018977603 0.023458147
000110 aa 28 87 bc fd 34 60 bc 87 7a 8b 3c a8 ef d7 bb
       -0.016498882 -0.013684508 0.017026199 -0.0065898485
000120 04 11 07 bb 50 30 99 bc 88 c9 1a 3d e5 54 7f bd
       -0.0020609507 -0.018699795 0.03778985 -0.06233682
000130 0a dd 37 bd 0a 0e 00 ba 1e e8 43 3a cd 22 30 bc
       -0.044888534 -0.00048849045 0.0007473248 -0.010750485
000140 a3 8d 7c bc 5a 5b a9 bc e4 ce 55 3c 88 dc 4c bd
       -0.015414628 -0.020673443 0.013049815 -0.050015002
000150 6b 2c 50 3c 9b 95 1c bb fd 04 39 bd 91 1e 46 bc
       0.012705903 -0.0023892883 -0.045170773 -0.012092249
000160 86 c5 cb 3b 1a b8 61 3c 2e e5 bb bc 66 d3 29 bd
       0.006218615 0.013776803 -0.02293643 -0.04146137
000170 ce 83 4a bc a1 e5 ee bb d7 e3 8b 3c 2d d3 8d bc
       -0.012360526 -0.0072905575 0.017076416 -0.01731261
000180 92 4e be 3b 78 4f e3 bc 95 77 10 bd 20 1d 41 3c
       0.005807706 -0.027747855 -0.035270292 0.011786729
000190 58 df ba 3c 59 f7 e7 3c a7 48 0d 3b 86 df e6 bb
       0.022811577 0.028316187 0.0021558197 -0.007045689
0001a0 45 ab f6 ba 45 4e 07 3c 22 31 1a 3b 68 a1 f5 bb
       -0.0018819353 0.008258407 0.002352782 -0.0074960478
0001b0 44 99 e3 bc a0 a4 b7 bc 26 f5 98 3c d7 98 92 ba
       -0.027783044 -0.022417367 0.018671583 -0.0011184466
0001c0 44 a8 15 3d 99 40 d4 bc a1 53 50 bd 2d 9e 7c bc
       0.036537424 -0.025909709 -0.050861005 -0.015418571
0001d0 f2 88 11 3d a2 61 c2 3c 3c e2 d2 3b 1b f4 52 bc
       0.03553099 0.023728196 0.0064356606 -0.012875582
0001e0 38 5f 89 bc 7c b3 28 bc b7 02 2a bd 69 67 0d bd
       -0.016769037 -0.010296699 -0.041506495 -0.034522448
0001f0 7a a6 56 bb d9 46 6c 3c fa 28 82 3b b0 e0 fd 3c
       -0.0032753036 0.014421188 0.00397217 0.030990928
000200 5b b2 ae 3c b7 f3 7f 3a dd e8 46 3c ba f1 f6 bc
       0.02132528 0.00097637944 0.01214048 -0.030144561
000210 66 be 79 b9 02 20 b7 bc 1a cd 38 bd 56 b5 04 bc
       -0.0002381742 -0.02235413 -0.045117475 -0.0080998745
000220 be 4b 14 bd 1a e5 e6 bc d2 0b 2b bd bc 9e 2a bc
       -0.036205046 -0.028185416 -0.04175932 -0.010413822
000230 02 13 3b bd dd 14 08 bc 3a 85 1b 3c 8a 26 82 bc
       -0.045672424 -0.008305755 0.009492213 -0.015887517
000240 6f 17 80 bc 12 88 88 bc e7 f1 81 bc 27 d4 90 bd
       -0.015636174 -0.016666446 -0.015862418 -0.07071715
000250 26 ef 1d bd c4 06 98 bb 09 9f 58 ba 73 0f ad 3b
       -0.038558148 -0.0046394784 -0.0008263444 0.0052813827
000260 18 3c 0e bc 44 db ff bc a6 31 57 bd a3 90 e9 bb
       -0.00868132 -0.031232484 -0.052537583 -0.0071278377
000270 eb 9c 2f bd f6 2f 15 bd 7b f6 e6 bc b1 7f 5a bd
       -0.042874258 -0.036422692 -0.028193703 -0.053344432
000280 05 81 c9 bc 49 28 a1 bd 39 a1 3a bd 75 ca b3 bc
       -0.024597654 -0.07869012 -0.04556391 -0.021947125
000290 c6 58 44 3b d7 5e 2d bd 5c ec d3 bc 64 ec 0f bd
       0.002996014 -0.042326774 -0.02586954 -0.03513755
0002a0 e6 ef 99 bc 7e 48 0f bd a7 86 92 bb 87 76 9d bb
       -0.01879115 -0.034981243 -0.004471618 -0.0048053893
0002b0 e2 9c 5d 39 d1 47 50 bc ef 05 8c bc 1e eb 13 3b
       0.00021134646 -0.012712435 -0.017092673 0.002257056
0002c0 05 46 84 bc f7 67 a5 bb 5a 30 58 3c da 16 dd bc
       -0.01614667 -0.005047794 0.013195122 -0.026988436
0002d0 f4 a0 62 bd 4b c9 30 bb 46 b1 3d 3b 76 ed 0d bd
       -0.055329278 -0.0026975449 0.0028944775 -0.03465029
0002e0 79 b6 36 3a 86 bf aa bb 02 41 9f bc ad 6a 0c 3c
       0.00069699396 -0.0052108197 -0.019440178 0.008570355
0002f0 0b 65 2c bd b5 1d 11 bd e6 50 81 b9 f8 ba 6e bc
       -0.04208855 -0.03542872 -0.0002466507 -0.014570944
000300 b9 ee c2 bc ac a2 2a bd 3e d2 75 bb 7c ef 5e b9
       -0.023795472 -0.041659042 -0.0037509347 -0.00021260785
000310 9c 34 b4 3c 4b 9b e4 3c 62 33 5e bd dc b0 d6 bc
       0.021997742 0.02790608 -0.05424822 -0.02620738
000320 1b 0d 20 bd f9 e4 13 bd 5b e4 a7 bc d6 a2 6c 3d
       -0.039075 -0.036107037 -0.02049463 0.05777248
000330 44 8c 20 3d 04 2d 56 bc 5b 1f 1b bd 30 6a 89 3b
       0.039196268 -0.013072256 -0.0378717 0.0041935667
000340 6e 96 58 3c 07 8b 8e bc f8 ef 86 3b 84 6b 5c bd
       0.013219459 -0.017400278 0.004117962 -0.053813472
000350 9f cd bf bc 6a b4 61 bb b0 ce 86 3c e8 24 2b bd
       -0.023413477 -0.003443981 0.016455978 -0.041783243
000360 ff 5b 45 bd 6e a9 13 bd ec 2a 76 bc 36 59 02 bd
       -0.048183437 -0.036050253 -0.015024882 -0.03182336
000370 d3 87 fd bc 4c 3b 8a bc 7f 56 9e bb f1 31 fa bc
       -0.030948555 -0.016873978 -0.0048320885 -0.030541392
000380 a6 7f 65 bd 08 ae 8f 3c 38 dc 44 3c 6a 70 68 3b
       -0.05602994 0.01753904 0.012015395 0.0035467395
000390 eb e7 37 bd e5 77 f8 3c cc 8e e5 bc 4f 21 94 bc
       -0.04489891 0.030330608 -0.028022192 -0.018082289
0003a0 e7 d3 94 3c 7f de 46 3b 86 c5 ed bc de 89 af bc
       0.01816745 0.003034502 -0.02902485 -0.021428045
0003b0 1d af eb 3a 0c 3c 5d 3c 19 15 a9 ba 8b 0c bc bc
       0.0017981265 0.013503086 -0.0012899964 -0.0229552
0003c0 a7 69 dd 3b 5f 95 a9 3a 5d 00 72 bc 48 af 09 3d
       0.0067569795 0.0012938193 -0.014770594 0.033614427
0003d0 8c e5 3a 3c 0d 0e 91 bc 10 b9 38 3c b1 9d 4d 3d
       0.011407267 -0.017706895 0.011274591 0.050199214
0003e0 e2 38 a0 bc 8d 45 34 3c 6d a1 ad bc 52 64 de bc
       -0.019558374 0.01100291 -0.021195138 -0.027147446
0003f0 b0 dc 77 3d d3 88 8f 3c 3c 64 88 3c b8 d0 05 bd
       0.0605132 0.017521298 0.016649358 -0.032669753

bias f4 [64]
000000 6b 29 7b bd a5 b7 5f bd e6 84 be ba 0a b9 d6 bd
       -0.061318796 -0.054618496 -0.0014535456 -0.10484512
000010 fd 9c 95 3d ac 3e e4 bd ac 3f a3 bd d7 25 64 3d
       0.07305334 -0.11144766 -0.07971129 0.05570015
000020 d1 42 cf bd 63 49 80 be e6 4c da bb 88 47 7c bd
       -0.10120166 -0.2505599 -0.006661999 -0.061591655
000030 19 b9 6a 3d c5 51 29 be 04 b0 9a 3d bc ab b1 bd
       0.05730543 -0.16535099 0.075531036 -0.08675334
000040 62 7c 83 bd 0d 41 59 bd 69 db ee bd a7 2e 48 3d
       -0.064202085 -0.053040553 -0.11662943 0.048872616
000050 a0 03 30 bd 57 97 1e bd a4 0f 2b bd 8c f8 b3 bb
       -0.042972207 -0.038718548 -0.041762963 -0.0054922756
000060 f1 85 63 bd 21 7b d1 bd 01 14 9b bd 6b dc 30 bd
       -0.05554766 -0.10228563 -0.07572175 -0.043178957
000070 d7 03 08 be 64 27 1d bd 4f 0c 6a be fe 07 21 3e
       -0.13282715 -0.038367644 -0.22856258 0.15725705
000080 60 2e 7e bd e5 3d 05 bd 9b 2d ed 3c 56 2d 7f 3c
       -0.062055945 -0.03252973 0.02895241 0.015574774
000090 b7 f2 59 bd 0e b8 9f bd e8 e1 23 bd 08 79 bc bc
       -0.053209987 -0.077987775 -0.040010363 -0.023006931
0000a0 87 fc 23 3d 05 47 46 bc 05 4f bc 3c ba bb 8f bd
       0.04003575 -0.012101893 0.022986898 -0.07018228
0000b0 98 c9 01 3e 91 73 29 bd 8e ce e6 bd 74 48 78 bd
       0.12674558 -0.04136998 -0.11269866 -0.06061597
0000c0 74 74 d6 3d 71 42 19 be 06 20 b9 bd 45 64 f5 bc
       0.104714304 -0.14966752 -0.09039311 -0.029955039
0000d0 4b cb c3 3d 32 a1 0b be 9d 7e cf bd 62 a6 8a 3c
       0.095602594 -0.1363571 -0.101315714 0.01692504
0000e0 73 42 82 bc cc 50 c1 bd 5b 8a 3e be d7 cf 30 bd
       -0.015900826 -0.09439239 -0.18607466 -0.04316696
0000f0 e8 3f 9e bd a7 05 18 bd 79 8b b4 bd e4 dd ea bc
       -0.07727033 -0.037114765 -0.08815665 -0.028670259

weight f4 [64, 64, 3, 3]
000000 c6 29 4b 3a f4 76 3e bd 59 c7 93 3d ee 97 7c bd
       0.000775006 -0.04650016 0.07215757 -0.06166833
000010 16 ea ad bd 3f fe c3 bd d3 38 fe 3b 22 c6 0a 3d
       -0.08491914 -0.09569978 0.007758239 0.03388036
000020 ea 2d 44 bd 2f 43 20 bd b0 7e 87 bc ba 41 9c 3d
       -0.04789535 -0.03912657 -0.016539901 0.07629724
000030 70 f3 d8 bd ca 6d 03 bc c0 b6 81 bc c7 df 4f 3c
       -0.10593307 -0.008021781 -0.015834212 0.01268763
000040 01 1d 32 bd d2 10 d6 bc 19 f4 7d 3d 99 01 1f be
       -0.04348469 -0.026131067 0.062000368 -0.15527953
000050 ee fc 64 bd b4 7d a0 3c 88 a0 22 bc 96 1b ae bd
       -0.055905275 0.01959119 -0.009925969 -0.08501355
000060 7c 37 c4 3c f4 8e 39 bd a5 7b 10 be 89 ed 91 bb
       0.023952238 -0.045302346 -0.14109667 -0.004453365
000070 47 57 7e bc 3b 22 bc bd 9c ba e4 bd 22 04 4c 3c
       -0.015523738 -0.091862164 -0.111684054 0.012452157
000080 6d 04 42 be 0d d4 bf be 39 55 0d be 1f 0d 0c bd
       -0.18947001 -0.3746647 -0.13802041 -0.0341922
000090 b2 75 62 be 78 93 5e bd 22 f1 cc ba ce 1e c3 bd
       -0.2211521 -0.054339856 -0.0015635828 -0.0952736
0000a0 85 04 ee bd c7 09 03 be 96 ea 3b bd 22 66 dd bd
       -0.11621956 -0.12796699 -0.045878015 -0.10810496
0000b0 2f 43 e1 bd c4 fc 27 bc 1a 11 00 3d d0 56 aa bc
       -0.109991424 -0.010253135 0.03126631 -0.020793349
0000c0 d1 71 14 3d bd 71 44 bd 7c 2f 95 3b 8c c2 27 bc
       0.036241356 -0.04796003 0.0045527797 -0.010239255
0000d0 3e bd 78 3c 69 6a 26 bd de 51 02 3d 83 19 21 3d
       0.015181838 -0.040628824 0.031816356 0.03933097
0000e0 32 dd c4 3c d6 83 59 3d 07 79 8e bb d4 2b 50 bc
       0.024031255 0.053104244 -0.0043479237 -0.012705762
0000f0 de bf db 3c a1 a1 ff 3b 61 09 64 3d dd 0d 99 bd
       0.026824888 0.00780125 0.055673007 -0.07473347
000100 61 d5 0b be 26 d4 67 bd 3f 9b ba bd fc ae b8 bd
       -0.13655616 -0.056598805 -0.09111642 -0.090177506
000110 b0 99 36 3d d4 94 8f 3d e5 7e 50 3c ce 1f a8 ba
       0.04458016 0.070108086 0.0127255665 -0.0012826861
000120 7f 8f 96 ba cc 76 00 3c fa 08 42 bd f5 5d f9 bc
       -0.0011486857 0.007840823 -0.047371842 -0.03044031
000130 d9 26 f1 3b cb 7e f4 3c 1f 1b 69 bc 1f 52 c1 3c
       0.0073593673 0.029845616 -0.014227658 0.023598729
000140 0e 73 33 bd 61 ae 78 bd 38 30 3b be 9e a8 6d bb
       -0.043810897 -0.060713176 -0.18280113 -0.0036263834
000150 53 5d 0d be a7 51 25 be b3 b5 18 be 56 ac e2 3d
       -0.13805132 -0.16144429 -0.14913063 0.11068027
000160 1f ee 4e bc 4f 9e 01 3e 0d cd 34 be 46 ad bb bd
       -0.012630015 0.12658046 -0.17656346 -0.09163909
000170 4c e4 cf bd a8 0c 97 bd 54 96 b8 bd 79 c5 4a 3d
       -0.10150966 -0.07375461 -0.09013048 0.04950473
000180 b2 cf c0 bd 53 92 67 bd 4f 28 98 3c 20 d8 50 bd
       -0.09414615 -0.05653603 0.018573908 -0.050987363
000190 c8 fb ba 3b 13 8c 12 3d d9 2e 39 bd 0b 28 05 bd
       0.005706284 0.035778116 -0.045210693 -0.03250889
0001a0 fa 82 b3 bc cb a9 96 bd 36 e0 43 bb 0b a1 13 bd
       -0.02191304 -0.07356604 -0.0029888279 -0.036042254
0001b0 70 a1 dd bd c6 fd 50 be 67 ab 24 be 73 24 ed 3b
       -0.108218074 -0.20409307 -0.1608101 0.007237011
0001c0 a0 2b 88 be ef 19 4c be 69 09 0e be 60 5c c3 bd
       -0.26595783 -0.19931768 -0.13870777 -0.095391035
0001d0 9d 17 14 be 78 21 3c 3d 29 61 d4 bc 91 dd 6a bd
       -0.14462133 0.045930356 -0.025925236 -0.05734021
0001e0 d3 65 b8 bc c9 43 40 3d ba 65 af bd ad 3e 62 bd
       -0.022509491 0.046939645 -0.08564325 -0.055235554
0001f0 34 82 99 bd f7 63 ac bc 14 de f0 bd 3d b5 45 3d
       -0.074955374 -0.02104376 -0.11761108 0.048268545
000200 77 40 89 ba 16 e8 77 3e 77 a4 9a 3d b9 01 11 be
       -0.0010471483 0.24209628 0.075509004 -0.14160813
000210 8a 60 50 3e 52 c9 e2 bc 1d b8 81 be 4d 1d f3 bc
       0.20349327 -0.027683888 -0.2533578 -0.029677058
000220 b1 ed b2 bc 93 ec cc 3c f3 c2 a2 bc d0 a4 5e bc
       -0.021841856 0.025015151 -0.01986835 -0.013589099
000230 e2 e1 4d 3d 6a 8c 8c 3c 45 86 18 3e f2 4e a5 bd
       0.050264247 0.017156798 0.1489497 -0.08071698
000240 5d c6 4e bd 8c 36 26 bd a9 cc df 3d 88 d4 62 bd
       -0.050482143 -0.040579364 0.10927708 -0.055378467
000250 34 8b e7 bc 01 39 7d 3d 30 32 dd bc e7 50 21 3c
       -0.02826462 0.06182194 -0.02700147 0.009845949
000260 cc 8b f9 bc 56 34 04 be 7b 1c 8e 3c b4 1b 0e 3b
       -0.030462168 -0.1291059 0.017347565 0.0021683993
000270 df 48 fa bb 31 1c 52 bd 22 d7 09 bd e8 1b f6 bd
       -0.0076380814 -0.051296417 -0.033652432 -0.120170414
000280 8e 85 2a 3d e8 e9 e0 bd 22 0d 8d bd 1e a1 bf bd
       0.041631274 -0.10982114 -0.068872705 -0.093569025
000290 52 1a 90 bd fd 26 9c bd 10 44 3c bc e9 7c 9c bd
       -0.0703627 -0.07624624 -0.011490837 -0.07641012
0002a0 73 8a ae bd 40 7e ff 3c e5 0b 58 bd d0 11 1a 3d
       -0.08522501 0.03118813 -0.05274572 0.037614644
0002b0 8c 97 52 3d 64 80 0e bd e8 84 28 bc b5 c8 53 bd
       0.051414058 -0.03479041 -0.010285594 -0.05170508
0002c0 3b 47 91 3d c4 5b 23 3c 3c c8 b7 3c c8 d3 b7 3c
       0.07093664 0.009970609 0.022434346 0.022439852
0002d0 e1 df 71 3c d1 d3 02 3d 18 a1 dd bc f0 ca 76 bc
       0.01476285 0.031940285 -0.027054355 -0.0150630325
0002e0 0a 4d 30 3d 6b 1b e0 bb 86 54 b4 3c a4 ee 88 bd
       0.04304222 -0.006839206 0.02201296 -0.06686142
0002f0 70 85 de 3c f7 43 09 3d 22 01 bf bd 83 2d 34 bd
       0.027163237 0.033512082 -0.09326388 -0.043988716
000300 9a b5 ba 3c 85 3e 99 bd c2 eb 09 bd 0d 67 a9 3b
       0.022791672 -0.07482628 -0.0336721 0.0051697553
000310 23 83 8b bd d0 e8 64 bd fb b7 0c 3c 24 e0 05 3c
       -0.06812122 -0.05588609 0.008588786 0.008171115
000320 ea ab 81 3d 13 2f 0d bd ce c0 38 3c ad 74 54 3d
       0.06331618 -0.03446872 0.011276437 0.051869083
000330 71 75 c9 3c d4 bc ca 3c 6e 61 da bc f0 ed d4 bd
       0.024592133 0.024748243 -0.026657786 -0.103969455
000340 0e 86 ad bc a3 87 18 be 65 e9 12 be 23 75 dd 3d
       -0.021182086 -0.14895491 -0.14346845 0.10813358
000350 5a c1 10 be bb 06 cd 3d 2a 27 c8 bd b7 f3 2d be
       -0.14136258 0.10011049 -0.09773095 -0.16987501
000360 27 99 2a bd f7 07 bf bc 4c b4 af bc ea 63 80 bd
       -0.041649964 -0.023319228 -0.021448277 -0.06269057
000370 8b b8 a1 bd 7d bf 26 bb 19 f8 53 bd 01 c3 4c bd
       -0.07896527 -0.0025443726 -0.051750276 -0.049990658
000380 1d 27 9d bd cd 3b 0a ba 24 7d 9d bd b9 3b 9e bd
       -0.07673476 -0.0005273193 -0.07689884 -0.07726235
000390 95 cf c6 3c ac 57 8b bc 71 f9 10 bc b2 78 fe bc
       0.024268905 -0.017009579 -0.008848534 -0.031063411
0003a0 b9 44 79 bd 0c d0 b2 3c 8c c3 0c 3d 68 df bd 3c
       -0.060856555 0.02182772 0.034366176 0.023177817
0003b0 71 9b 0a bd 60 2d fc bb eb fe 66 bc 97 d0 a0 3d
       -0.033839647 -0.007695839 -0.014098863 0.07852285
0003c0 a3 04 54 3d 96 64 19 3d e6 e2 fd 3c 1d 01 d8 bc
       0.051762234 0.03744944 0.030991983 -0.026367718
0003d0 d5 07 0a bd 3e 55 16 bd d1 17 eb bc 92 e2 24 3c
       -0.033698875 -0.036702387 -0.02869788 0.010063784
0003e0 e0 a3 d1 3b 37 12 60 bd be df 81 3c 8f cc 94 bd
       0.0063977093 -0.05470487 0.015853759 -0.07265579
0003f0 8f 57 03 3c 75 eb ac 3d cd ac f7 3c 2c 2d 20 be
       0.008016481 0.08443347 0.030233765 -0.15642232

bias f4 [64]
000000 f1 63 67 3e bb 21 38 be b1 5a 32 bd 66 86 16 3c
       0.22596718 -0.17981617 -0.04354352 0.0091873165
000010 c8 ae eb 3c 56 82 18 be 04 24 8e bd bb da 5e be
       0.028769866 -0.14893469 -0.06940463 -0.21763127
000020 5a 5c f7 bd f4 cb 93 bd 42 fb 87 bd 5f ec bc bd
       -0.120781615 -0.07216635 -0.066397205 -0.09224772
000030 35 aa 2a 3e df 45 53 3d cc 40 0e 3e 03 34 84 be
       0.16666491 0.051580306 0.13891906 -0.25820932
000040 57 8d b4 3d 17 22 a3 bd 7f 85 3a be 7d 51 c5 bd
       0.08816021 -0.079654865 -0.18214987 -0.09634683
000050 75 5a 85 bd 77 4f 1f be f5 79 44 3d 5e 89 85 bd
       -0.06511394 -0.15557657 0.04796787 -0.06520341
000060 ba 18 62 bd e1 cf a3 3e 05 d6 4c 3e 3e 5e 2c be
       -0.055199362 0.31994537 0.20003517 -0.16832826
000070 87 6a 2a 3e 0c 77 8a be 40 63 16 be 74 70 21 3e
       0.166422 -0.2704395 -0.14686298 0.15765554
000080 a6 77 57 bc b8 fe 9a bc 99 1a 23 be b8 55 83 be
       -0.013151085 -0.018920287 -0.15928115 -0.25651336
000090 c2 2e 25 3e 9f 20 2c 3c 68 62 28 be af 6c 40 be
       0.16131118 0.010505824 -0.16443789 -0.1879146
0000a0 57 c9 e7 bd 22 ed f0 bd 94 a3 03 3e 2d 93 2d bd
       -0.113176994 -0.117639795 0.12855369 -0.042376686
0000b0 13 e0 37 bc fb 7a 2c 3e 51 ff 61 be f7 2a b2 3d
       -0.011222857 0.16843788 -0.22070052 0.08699601
0000c0 59 94 80 bd 55 86 25 bd f0 0e 44 be 74 83 07 be
       -0.06278295 -0.040411312 -0.19146323 -0.13233739
0000d0 f0 3a 96 bd 96 45 f6 3c 02 f9 ad bd f4 21 b8 bd
       -0.0733546 0.030062478 -0.0849476 -0.08990851
0000e0 80 b5 c7 3b d6 e9 16 be 01 12 3a bd 99 ac 1b 3d
       0.0060946345 -0.14737639 -0.045427326 0.0380064
0000f0 28 97 66 bd 4a d7 46 3e f4 1b aa bd 79 95 40 3c
       -0.056296498 0.19418064 -0.08306113 0.011754387

weight f4 [15, 104, 1, 1]
000000 c3 7f 1e bf e9 b9 66 3d 36 f0 ac 3d 71 f4 ab 3d
       -0.619137 0.05632964 0.08444254 0.08396233
000010 dc b1 04 3d 55 5d 00 bd 3b bf eb 3d 6f ed 6c 3e
       0.032396182 -0.03133901 0.11511084 0.23137449
000020 24 e5 b3 be 96 f3 57 bd 93 15 ec be 9d 48 fd bd
       -0.35135758 -0.052722536 -0.4611021 -0.123673655
000030 e2 94 33 be 5f 2b 06 be 6c db 14 be 2a 3a b6 bd
       -0.17537263 -0.13102482 -0.14536828 -0.08897813
000040 41 bc 24 3f 07 28 8b bd 50 0b ae bd de 92 47 3d
       0.6434975 -0.06794744 -0.084982514 0.048724048
000050 d2 80 5d be 73 41 ea be e0 06 fc 3d cd 1b ad 3e
       -0.21631172 -0.4575306 0.12305999 0.33810273
000060 24 e3 b1 bc 06 2e 95 3e 39 4b 56 bf 92 2d 14 3d
       -0.021714754 0.29136676 -0.8370853 0.03617627
000070 e4 14 a1 bc 03 69 d6 bd b4 93 72 3e 05 80 81 3d
       -0.019663282 -0.10469248 0.23689157 0.06323246
000080 76 00 69 3e dc 92 d0 3c de 5e e4 be ba 6c 6e bd
       0.22754082 0.025460653 -0.44603628 -0.05820916
000090 b0 30 da be a7 17 90 be 82 e4 2c be e1 28 da bd
       -0.4261527 -0.28143045 -0.16884044 -0.10652328
0000a0 53 9a 29 3d be a6 76 3e c3 be e0 3e 82 c2 1f be
       0.04140694 0.24087045 0.4389554 -0.15601543
0000b0 9a 4d 8a 3c 2f 81 c1 bd 6b a8 9e bd df 32 11 bf
       0.016882706 -0.09448468 -0.07746967 -0.5671825
0000c0 4f 05 3e 3d 13 aa f1 3e b4 a8 fa 3c c6 10 82 3d
       0.04639178 0.4720007 0.030598022 0.063508555
0000d0 03 ae 69 bf b2 6d 64 3e 10 13 20 3d c0 42 f1 3b
       -0.91281146 0.2230747 0.03908068 0.0073626935
0000e0 01 2b 83 3d cf b3 9f 3d ad 7d 83 be 8e 7e 34 3e
       0.06404687 0.07797968 -0.2568182 0.17626402
0000f0 24 13 1c bf 39 f5 23 3e 15 ff d4 be 5c 60 7c be
       -0.60966706 0.16011514 -0.41600862 -0.24646133
000100 d5 75 54 be e9 60 bb 3d 2a 72 d0 3d 37 67 d9 3e
       -0.20748074 0.091493435 0.10178025 0.4246156
000110 db 55 06 3f ca 67 b1 3c e3 fc 82 bd 77 e2 66 bd
       0.52474755 0.021655936 -0.063958906 -0.056368317
000120 c0 47 c2 3c 30 7b 23 bf 63 d7 93 3d cd 51 cb 3e
       0.023715854 -0.63859844 0.07218816 0.39710847
000130 88 30 8e bd d4 0a 90 bb 02 6e 9c bf 6e 36 a4 bd
       -0.0694285 -0.004395822 -1.2221072 -0.08018194
000140 0c 6a 08 be 5c 87 2e bd 87 98 e4 3d 8b 09 43 bc
       -0.13321704 -0.042609558 0.11161905 -0.011904131
000150 9b f4 4f 3c 7e 4f f2 3d 2f fc 2d bf a6 ec ff ba
       0.012692596 0.11831568 -0.67962927 -0.0019525483
000160 f6 fe 27 bf 83 55 2a bd 7c 91 7f bd 38 27 8d bd
       -0.65623415 -0.041585457 -0.062394604 -0.06892246
000170 80 12 65 bc bd 92 0b 3f 0d a6 91 3f 84 92 d5 3c
       -0.0139814615 0.5452078 1.13788 0.02607084
000180 7d 8d 39 3d ce 1a 73 bd be 7c f4 bd 6b 04 6c bf
       0.04530095 -0.059351735 -0.11937855 -0.9219424
000190 29 0b 02 3e a0 d6 c0 be 7e 9d 42 3e a3 1d 3d 3e
       0.1269957 -0.37663746 0.19005391 0.18468337
0001a0 8c d1 e4 3e 05 14 17 3e 9c 48 4e 3c 82 16 25 bf
       0.44691122 0.1475373 0.012590554 -0.6448747
0001b0 68 1c e4 3d ad 99 b5 be 8f b9 00 be a9 67 28 bf
       0.111382306 -0.35468808 -0.12570785 -0.6578317
0001c0 2f f1 e2 bd e0 97 97 be 4f 31 b6 be f7 45 84 3d
       -0.11081158 -0.2960806 -0.35584494 0.06458657
0001d0 c0 68 a1 be 9f 03 50 bd 7b 92 a4 3d 54 13 92 3d
       -0.3152523 -0.050784703 0.080357514 0.07132593
0001e0 05 eb 00 3f f8 99 8e 3e ab 54 e3 3d df 0c 16 be
       0.5035861 0.27851844 0.111001335 -0.14653347
0001f0 be ca 80 be c2 e4 71 3f b0 88 3c 3e fe a7 6e 3e
       -0.2515468 0.9448968 0.18411517 0.23306271
000200 43 bb 73 bd cd c5 05 bf 47 5f 0b 3f 24 86 d6 3d
       -0.05950476 -0.52254945 0.54442257 0.10474804
000210 3d 26 24 be 5e 9e 40 bf a3 47 2e 3e f9 e4 ea be
       -0.16030212 -0.7524165 0.17019515 -0.45877817
000220 d0 08 32 be f6 5b 2b bf 5e 20 81 3d ab 9c d2 be
       -0.17386174 -0.66937196 0.06305002 -0.41135153
000230 b6 d9 b4 be 2c 39 bd 3e ea e6 80 be 35 ae 54 be
       -0.3532235 0.3695768 -0.25176173 -0.2076958
000240 30 78 a2 bc 52 02 55 3e 4b a9 68 3e 99 83 93 3d
       -0.0198327 0.20801666 0.2272083 0.07202835
000250 92 5a f3 3b 85 a5 49 bb 69 07 b9 be 9b 66 91 3f
       0.0074265683 -0.0030768823 -0.36138466 1.1359438
000260 bf 79 71 3e c7 3b af 3e 03 44 71 bd 6b b6 f8 be
       0.23581599 0.34225294 -0.05890275 -0.48576674
000270 c2 fd 69 3f 0e 61 e7 3d 72 60 69 bc 2f bc 2a bf
       0.9140283 0.112978086 -0.014244186 -0.66693395
000280 a4 7c 32 3e 54 4a a0 be 7e 1e 02 be d8 6d 48 bf
       0.17430359 -0.31306708 -0.12706944 -0.7829261
000290 37 83 d4 3c d3 dd 8f be 36 74 16 bf 24 dd 5c 3e
       0.025941474 -0.28098926 -0.58771074 0.21568733
0002a0 0d 8b bf be 79 ad 3a be 2a e6 df 3b 41 5a 1e 3e
       -0.37410775 -0.18230237 0.0068328576 0.15464117
0002b0 be cd 6d bd 47 b1 63 3d 4b c7 66 bc 92 9b 0d bc
       -0.05805754 0.055588987 -0.014085601 -0.008643048
0002c0 5e b6 be 3c 92 f1 b1 3f e3 f4 ba 3d 85 66 9e 3e
       0.023280319 1.3901846 0.0912874 0.3093759
0002d0 d0 15 8c bd 39 e2 0b bf 4d c4 8d 3f 00 ac ce 3c
       -0.06840098 -0.54642063 1.1075531 0.0252285
0002e0 12 dd ad bd 2a 38 03 bf 77 31 5e 3d da 7b 95 be
       -0.084894314 -0.51257575 0.054246392 -0.29196054
0002f0 41 2b 1c 3d f5 3a 4f bf c8 30 20 bc 2f 5d ad be
       0.038127188 -0.80949336 -0.009777255 -0.33860156
000300 63 92 28 bf 67 ee a7 3e 95 72 19 3d 51 d0 aa be
       -0.6584837 0.32799074 0.03746279 -0.33362058
000310 f1 48 79 bc e8 29 e2 3e 8a 12 ca be 86 ac c9 bc
       -0.0152151445 0.44172597 -0.3946727 -0.024618398
000320 1d 49 54 3d 7e 90 83 bd 32 4e 03 3d 2f 4a fa 3f
       0.05182754 -0.06424044 0.032056995 1.9553889
000330 0a ab 12 3e 87 b6 da be 56 7d 65 3d dc 43 0c bf
       0.14323059 -0.42717382 0.056027733 -0.54791045
000340 5e 7c e8 3d 20 06 14 bb df 4b ff bc a1 a8 56 be
       0.11351846 -0.0022586659 -0.031164108 -0.20962764
000350 87 25 f7 bd e2 46 0c be 99 24 4a be 55 4c e6 be
       -0.12067705 -0.13698915 -0.19740523 -0.44980112
000360 31 2d 4b be 01 bf 78 be 0d 81 f9 3e 0d 0c 4c bc
       -0.19841458 -0.24291612 0.4873127 -0.012454045
000370 a9 67 bc bd b4 d3 cd bd b7 b4 ac bd ba 9f 97 bd
       -0.09199459 -0.10050145 -0.08432906 -0.07403512
000380 2c 19 8d 3e ac 7a 0c bd 8d 0a 8e 3d 73 78 78 3e
       0.27558267 -0.034296677 0.06935606 0.24264698
000390 37 06 c0 3d 17 d7 7a bf f9 93 97 3d 59 f1 b7 3e
       0.093761854 -0.9798445 0.074012704 0.3592632
0003a0 3c 6c 83 be b1 58 a6 be 64 2b c5 be 73 6d c5 3c
       -0.25668514 -0.3248954 -0.38509667 0.024100041
0003b0 79 40 1d be d0 4d cd bd 2e 63 da bd 3c 87 d1 3d
       -0.15356626 -0.10024607 -0.10663448 0.10230872
0003c0 61 e1 83 bd 42 56 54 be e7 1b 90 be 01 3f de bd
       -0.06439472 -0.2073603 -0.28146288 -0.10851861
0003d0 1d 24 ec 3e a5 c8 1f be 0f 71 f6 bd 84 1c 3c bd
       0.46121302 -0.15603884 -0.12033283 -0.045925632
0003e0 72 0f a8 bd de 3e 72 3c af 54 0a 3f b3 e8 c6 bd
       -0.08206071 0.0147854965 0.54035467 -0.097123526
0003f0 2c d0 fa bc 37 ca ba 3d 7c 0d 51 be db dd 6e bf
       -0.030616842 0.09120601 -0.204153 -0.93307275

bias f4 [15]
000000 96 1b 65 be 18 63 16 3f e3 c1 26 3e 6b f8 3c 3b
       -0.22373804 0.58744955 0.162849 0.0028834592
000010 db 4c aa 3e d0 23 8e 3e a6 27 3a 3e 60 39 66 bf
       0.3326176 0.27761698 0.18179187 -0.899313
000020 e7 eb 10 bf 22 e5 dc 3e 93 d0 de be 36 5a 06 3e
       -0.5660996 0.43143564 -0.43518505 0.1312035
000030 cd 64 ca be d1 eb 15 bf 06 3f dc 3d
       -0.3953003 -0.5856295 0.10754208

weight f4 [19, 79, 3, 3]
000000 f8 d9 36 3c f9 d1 7e 3e a6 43 8c bd fb db 18 bd
       0.011160366 0.24884786 -0.068488404 -0.037319165
000010 75 06 1d 3e 2f cc 14 bd 83 b8 a8 bd 83 66 f5 bb
       0.15334494 -0.036327537 -0.08238318 -0.007489027
000020 81 89 2e 3c 8f 9a d6 bd 17 1f dc bc b3 a0 44 3d
       0.010652901 -0.104786985 -0.026870294 0.048004817
000030 8f ec 18 be 05 25 07 3d a4 25 cd bb 8c b2 1a 3d
       -0.1493399 0.03299429 -0.0062605906 0.03776793
000040 0a be d1 bc 1a 12 9b bd 5a 1f 81 bc f2 a4 19 bd
       -0.025603313 -0.07571812 -0.01576202 -0.03751082
000050 3a 82 d4 3d 3f 72 06 bc 35 08 8b bb ba 78 8b bb
       0.10376401 -0.008205949 -0.0042429217 -0.004256335
000060 42 81 3f bc 11 1b 28 bd e3 cf 9e 3d 55 a7 15 3d
       -0.011688532 -0.041041438 0.07754495 0.036536533
000070 8b a3 31 3e ee 98 8d 3d 8b 57 c8 3c 8a 71 e1 bc
       0.17347543 0.06913935 0.024455806 -0.02751996
000080 0d f9 e1 bd 43 7d 88 3d 87 9d 8b 3c 10 e5 38 3d
       -0.11033831 0.06664517 0.017042888 0.045140326
000090 73 55 6c 3e 74 f3 fa 3a 07 79 5e be 32 fb c9 3d
       0.23079471 0.0019146041 -0.21725856 0.09862365
0000a0 52 7f c7 bc f5 b5 89 be a1 09 0a 3e cc a1 58 bd
       -0.024352703 -0.26896635 0.13480236 -0.052888677
0000b0 ca 40 27 be 77 d4 5b bc 76 01 27 3c 6a 68 b0 3c
       -0.16333309 -0.013417355 0.010193219 0.021534164
0000c0 4a 7c 48 bd f2 49 29 bd 4d 2b e4 ba a0 da 31 3d
       -0.048946656 -0.041330285 -0.0017407924 0.043421388
0000d0 3b d8 66 3c b2 cb 05 3d 62 1f 05 bd c3 7d 8b bd
       0.014089639 0.032664962 -0.032500632 -0.068110965
0000e0 ef a5 4d bd af 44 1b 3d 70 a4 82 bb ee f8 37 bd
       -0.050207075 0.0379073 -0.0039868876 -0.044915132
0000f0 a7 5b 11 3d 53 72 1a bc 57 26 fc bc 12 40 fd bd
       0.035487797 -0.009426671 -0.03078 -0.12365736
000100 9a 0e 42 3c 2e 99 8d 3c 68 7c 56 bd 85 b4 6f 3d
       0.011844302 0.017284956 -0.052364737 0.058521766
000110 fc 09 4e bd 46 b0 0d bc 96 95 14 3d b8 2d 6b bb
       -0.05030249 -0.008647984 0.03627547 -0.0035885405
000120 b5 ee 16 3e 1a 24 97 3d 71 fe d9 ba bc 5c 35 3e
       0.14739497 0.07379933 -0.0016631616 0.17711157
000130 93 b2 04 3e ce 9e 07 3d 69 9d c7 bc e9 3e 23 bd
       0.12958746 0.033110432 -0.024367051 -0.039854918
000140 d5 ae 8b 3d ff dd ec 3d 5d 07 21 3e 02 4e be bd
       0.06820456 0.1156578 0.15725465 -0.092922226
000150 56 9d 97 3d e8 83 91 bc f6 60 32 bd 13 ef 58 3c
       0.07403056 -0.017763093 -0.0435495 0.0132405935
000160 2b 1f 4a 3c 31 d4 16 bc 67 ff 52 bd 54 e7 50 3c
       0.012336533 -0.009205864 -0.051513102 0.012750465
000170 cc 9f 84 bd ad 9f 7b bd 09 3c c7 3c 74 5e ea bc
       -0.06475791 -0.061431576 0.02432062 -0.028609492
000180 d3 5f a1 bd a2 19 84 bd 87 a6 15 bd c6 ba de be
       -0.07879605 -0.064502016 -0.036535766 -0.43501872
000190 7b 72 4a bd e4 12 9b 3e 76 88 d8 bd 2a 91 aa 3e
       -0.049425583 0.3028785 -0.10572903 0.33313876
0001a0 e8 c5 04 3f 85 3c f3 be 95 3d 28 be 38 62 8a 3e
       0.5186448 -0.4750711 -0.16429742 0.2702806
0001b0 cc fe 79 be f4 00 6a be f4 cf 4b be af 19 42 be
       -0.24413604 -0.22851926 -0.19903547 -0.1895511
0001c0 c0 5d 74 be bc f6 b8 bd 50 07 49 3d 39 7b a6 be
       -0.23863888 -0.09031436 0.04907924 -0.32515886
0001d0 bd db d8 be f1 6f b1 bc 10 e9 d3 3c 9c a4 b0 3d
       -0.42355147 -0.021659823 0.025867969 0.08625147
0001e0 2a 06 1d bd c9 cc 3b 3d 8c 64 95 3c 77 d5 c2 bd
       -0.038335957 0.045849595 0.018236421 -0.095133714
0001f0 fb cf 72 bd e3 d9 c7 bd e0 9c b8 3d 47 35 03 3e
       -0.059280377 -0.097583555 0.090142965 0.12813292
000200 30 c0 6a 3d b6 ec fb b9 55 3d 72 3d 28 2b 2f bd
       0.05731219 -0.00048050814 0.059140522 -0.042765766
000210 78 37 48 bc ae dc a1 3c 1f fe d7 bd 6d 8f a5 3d
       -0.012220256 0.019758549 -0.105465166 0.08083997
000220 0f 93 b3 3c 09 a3 e8 3d bc ef 16 3e 62 0b 0e 3e
       0.021920709 0.113592215 0.14739889 0.1387153
000230 a0 a4 ab 3d 85 d5 06 3e d1 59 2f 3c bd 27 d0 3d
       0.08381009 0.13167389 0.010702566 0.101638295
000240 2e 72 f9 3d e3 40 cf 3d aa c1 80 3d 07 dc db 3d
       0.12179981 0.10119798 0.062869385 0.10735326
000250 f2 0b 9e 3e 1f 40 9c 3d e3 55 02 3e e3 88 01 3e
       0.3086849 0.07629418 0.12728076 0.12649874
000260 65 ff c9 3d ff e6 ff 3c 23 a8 bb bb 04 ab cd 3d
       0.09863166 0.031238077 -0.0057268306 0.10042384
000270 f8 2c e7 3c 5b 3e 1d 3c 99 74 95 3d ff 11 7b 3d
       0.028219685 0.009597386 0.0729763 0.06129646
000280 ce 36 56 3b 2f 3b 85 b8 f7 e1 ab 3d 71 b7 07 3d
       0.0032686475 -6.352958e-05 0.08392709 0.033133928
000290 39 a4 81 3c fc ac b6 3d 8a 73 57 3b ae 5c 95 3c
       0.015825378 0.08919713 0.0032875263 0.01823267
0002a0 61 06 80 3d ae 1d 02 3d 98 22 96 3c cd 74 8f 3d
       0.06251217 0.031766586 0.018327042 0.070047
0002b0 1c 01 34 3d e0 e9 83 3d 0e 0c f5 bc d2 16 d7 3c
       0.04394637 0.064410925 -0.029912975 0.026255999
0002c0 11 3b 65 bd fa 40 6b 3d ef d1 1c 3d 39 4f 45 3d
       -0.055964533 0.057435013 0.038286146 0.048171256
0002d0 a3 25 ad bc b2 cd 90 3b a6 4b df bb 7a 86 90 bd
       -0.02113611 0.004419052 -0.006814438 -0.07056899
0002e0 03 50 07 3c 6f 3e 05 be fc 2a b7 3c cb 34 46 b9
       0.008258822 -0.13012098 0.022359364 -0.00018902418
0002f0 f4 ba f1 bc 1c bb 0c be bc 33 bd 3c 1c 82 19 be
       -0.029508092 -0.13743252 0.023095958 -0.14991039
000300 47 00 68 bc 43 be a5 bd 60 0d 02 be d3 85 e0 bc
       -0.014160222 -0.0809293 -0.12700415 -0.027407562
000310 bd 65 ca bd b6 d1 ea bc 20 87 19 3e 46 83 28 3e
       -0.09882686 -0.028664451 0.14992952 0.16456327
000320 f6 ab 5d bd 97 2c 19 3e 5f f5 06 3e 00 11 86 3d
       -0.054119073 0.14958416 0.13179539 0.06546211
000330 de 2d 92 3c d9 16 a6 bd ba ab bc bc b0 4b 72 bc
       0.017844137 -0.081098266 -0.023031104 -0.014788553
000340 15 8c 1d bc c6 c3 9b 3b 0b 96 50 3d b6 fc b1 bd
       -0.009615918 0.0047535626 0.050924342 -0.08690779
000350 47 3e c6 3d a7 41 6f bb 14 a0 d3 3d dc 6a ea ba
       0.09679847 -0.0036507638 0.10333267 -0.001788463
000360 4d 0a 08 3e 2e 96 31 3d f6 ab ac 3e 4a d8 07 3e
       0.1328518 0.043356113 0.33724946 0.13266101
000370 59 35 19 3d be d6 2e 3e b6 0b 27 3e 9b e6 56 3c
       0.037404392 0.17074105 0.16313061 0.013116504
000380 78 3f ee 3d 68 14 d7 3d ef 08 ea 3d 41 13 48 3e
       0.116331995 0.10501939 0.11427485 0.19538595
000390 03 37 aa 3e b1 7f 80 3e 1d d7 29 3e 7a 2a b9 3e
       0.33245096 0.2509742 0.16585965 0.3616522
0003a0 8e f6 9e 3e a0 66 06 bb ba 1b 70 be a3 fb d5 bd
       0.3104748 -0.0020507947 -0.23448077 -0.104483865
0003b0 7a 86 5d bd fe 6b 1b bd ba 50 30 bd 0e 85 02 bc
       -0.054083325 -0.037944786 -0.043045737 -0.007966293
0003c0 12 7f 2c be b5 cd b5 bb 26 ab c7 3d e6 74 07 bd
       -0.16845348 -0.005548204 0.09749441 -0.033070467
0003d0 3e 4b 78 3c 78 3d 5d 3c f9 65 ca bb b7 68 39 3d
       0.015154658 0.013503425 -0.006176707 0.04526588
0003e0 b7 19 90 bd ab ed 19 bd 46 98 11 bc ee ab 82 3c
       -0.07036155 -0.037580173 -0.0088864025 0.015951123
0003f0 a3 24 23 be e2 46 78 bd b6 82 60 be 22 5f 36 be
       -0.15931945 -0.060614474 -0.21924862 -0.17809728

bias f4 [19]
000000 9d c5 b3 3e 53 a0 3c 3d 80 fd 79 3e f6 f8 d5 3d
       0.35111704 0.046051335 0.24413109 0.10447876
000010 f8 dc bc 3b 97 91 0f bd 9a 69 69 be 63 dd 9c bc
       0.005763646 -0.035050955 -0.2279419 -0.019148534
000020 5a ef 50 bd 65 e7 e2 3e 7e a2 ed 3c 5c 82 4c 3b
       -0.051009513 0.44317165 0.029008146 0.003120563
000030 cc 57 1b bd d4 8d a9 3e 7d 70 ab bc 11 d1 14 3e
       -0.037925526 0.3311602 -0.020927662 0.14532878
000040 f0 7a 40 be 90 dd 8a bd 2f 2a ae 3c
       -0.18796897 -0.06780541 0.02126035

weight f4 [8, 79, 1, 1]
000000 3b 18 34 3f d6 41 98 bd 44 85 b0 bd 5b 6d 35 bb
       0.7034947 -0.07434432 -0.086191684 -0.002768359
000010 51 3b 21 3c 65 68 93 b8 cf 94 30 3c cb f8 20 3c
       0.009840802 -7.028951e-05 0.010777666 0.009824942
000020 4e 23 b8 bd 21 b2 9f bd 1d 31 9b bb c3 5a 66 be
       -0.08991109 -0.07797647 -0.0047360794 -0.2249556
000030 b7 95 07 be 11 66 19 bc 4a ea 44 be a2 07 38 be
       -0.13240705 -0.009362713 -0.19229999 -0.17971662
000040 22 0e 56 be 8d 09 49 3d a3 6a ff bc f0 fe e1 bc
       -0.20903829 0.049081374 -0.031178778 -0.027587384
000050 6d 68 86 bc 7b 55 7b bd 7e da 2d be dc 4e 99 b8
       -0.016407216 -0.061360817 -0.1697788 -7.310297e-05
000060 cc 21 00 be a8 69 94 bd 20 19 5e be bb 13 11 bd
       -0.12512892 -0.07246715 -0.21689272 -0.035419207
000070 67 6e 28 be b0 a7 b8 3c c7 4b 07 bd a8 ce 87 be
       -0.16448365 0.022540897 -0.03303125 -0.26524854
000080 c2 dd 14 3d e9 e5 06 be c5 ef 6d bd cc 2c b8 3b
       0.036344297 -0.13173641 -0.05808999 0.0056205746
000090 38 44 4f be 82 83 37 bd 8d 5e e8 bc 6c 7a 6f bd
       -0.20240867 -0.04480315 -0.028365398 -0.05846636
0000a0 ba 3d 72 be 19 86 f4 bb e3 1e 04 be 8f 79 24 bd
       -0.2365636 -0.0074622747 -0.12902407 -0.04015499
0000b0 cc eb 05 be a7 b9 dd 3d bc bd e8 bd 31 76 b0 3c
       -0.1307823 0.10826426 -0.11364314 0.021540733
0000c0 48 d0 10 3d 01 4d 15 be d7 9f 87 bd ec da 87 bd
       0.035354882 -0.14580156 -0.06622284 -0.06633553
0000d0 b5 d3 01 be bb cd ca bd a6 fc 0d 3e c3 8a cf bb
       -0.12678416 -0.09902521 0.13865909 -0.0063336804
0000e0 94 2f 55 bd 76 e9 0d bd 47 b3 d8 bd c4 b7 d2 bd
       -0.052047327 -0.034646474 -0.105810694 -0.10288957
0000f0 48 3a 18 be 80 0f 8a bc 27 2b 80 be 8b 42 03 be
       -0.14865983 -0.016853094 -0.25032923 -0.12818353
000100 47 8a df be 92 cf b1 bc 6e ed 93 be 08 13 eb bd
       -0.43660185 -0.021705423 -0.28892082 -0.11478239
000110 f8 cd 42 bd 82 71 24 be 4a 16 ef bc 51 98 d6 3d
       -0.04755971 -0.16058925 -0.029185433 0.10478271
000120 82 48 06 bf 7e f7 79 be b0 fe d0 be 2f d8 0a be
       -0.5245439 -0.24410817 -0.4081931 -0.1355903
000130 66 a7 20 bf bc 93 39 be e6 cd 7d be 09 d1 0e be
       -0.6275543 -0.18122762 -0.24785575 -0.13946928
000140 dc 0e 55 3f 1e 80 fd bc 0c fc ca bd bc af 30 3d
       0.832258 -0.03094488 -0.099113554 0.043136343
000150 db b3 53 3c 93 7e 12 3d 47 d8 1c bd b0 bd 1d be
       0.012921299 0.03576524 -0.038292196 -0.15404391
000160 bc 49 7c bd c9 fe 0f be 31 23 af bd ed d5 00 be
       -0.061593756 -0.14062037 -0.08551634 -0.12581606
000170 e0 77 93 be 71 c3 44 be 4d 2e 07 be a2 14 34 be
       -0.28802395 -0.1921518 -0.13201256 -0.17585996
000180 e2 60 37 3c 72 c3 19 3d 4e d7 b3 bd 82 21 84 bd
       0.011192532 0.037539907 -0.087813005 -0.064517036
000190 71 e5 a5 bd 3c 46 d0 bd be 40 1e be b4 ae ad bc
       -0.08100403 -0.10169646 -0.15454385 -0.021201469
0001a0 91 3a 85 be f7 87 8d bc c1 1c 0a 3d ba 15 e1 bd
       -0.26021245 -0.017276747 0.033718828 -0.10990472
0001b0 ac cb 00 be 02 8c 6a 3d bf 6a 71 3d 5b cc 0d bd
       -0.12577695 0.057262428 0.05893969 -0.034618717
0001c0 d9 31 43 be 58 1d 55 be e1 de d6 3d 3c 75 20 be
       -0.19061984 -0.20811975 0.104917295 -0.15669721
0001d0 9e 35 38 bd ca 07 c5 3c be 4b 73 bd 47 d1 a8 be
       -0.04497301 0.024051566 -0.059398405 -0.32972166
0001e0 38 d6 87 3d 3f 9d 20 be 7a 8c 96 3c f0 20 36 be
       0.06632656 -0.15684985 0.018377531 -0.17786002
0001f0 38 c8 c0 bd 6d a7 38 bc 78 7b 3f 3c 0a 40 71 bd
       -0.09413189 -0.011270386 0.011687152 -0.058898963
000200 1c 01 cc 3d 15 de 7c bd 38 a6 8b 3d eb a5 90 bd
       0.09961149 -0.06173523 0.06818813 -0.07062896
000210 bf 71 e7 bd 2c 62 1a be 1c 03 b2 bd 58 f2 44 be
       -0.11300992 -0.15076512 -0.08691999 -0.19233072
000220 e7 3e 82 3d 35 54 2b bd 0d d7 23 be 5b 37 db 3d
       0.06359654 -0.041828353 -0.16000004 0.107039176
000230 d9 71 2e be 06 b5 2f be 48 01 22 3b 52 e6 06 be
       -0.17035617 -0.17158899 0.0024720002 -0.13173798
000240 0e d7 85 bd 09 0d 59 be ca 02 30 bf 82 e0 8e be
       -0.06535159 -0.21196379 -0.68754256 -0.2790566
000250 6f f1 3f bd 32 9c e7 be be ca 21 3e b5 b1 2b bf
       -0.04686111 -0.45236355 0.15799996 -0.67068034
000260 e3 2d 4f 3e fa 28 52 bd 1d a8 cf be a9 48 45 bf
       0.20232348 -0.05130861 -0.40557948 -0.77063996
000270 d1 cf 0b bf e9 b4 ab bd dc 41 e7 bc f6 8f fc bd
       -0.5461398 -0.08384115 -0.028229646 -0.12332146
000280 06 04 23 3f 45 21 ee bd ef 95 47 bd 9e 65 43 bd
       0.63678014 -0.116274394 -0.048726972 -0.04770433
000290 bd e3 91 3c 44 12 51 3d 80 ab 63 3d 80 c3 16 3e
       0.01780879 0.05104281 0.055583477 0.14723015
0002a0 36 d3 89 3d 51 70 17 be 48 3f c4 bd 9b 57 37 be
       0.067297384 -0.14788939 -0.095823824 -0.17904513
0002b0 39 74 3e bd 22 2a 28 3e b7 c8 40 3c fd da 04 3d
       -0.046497557 0.16422322 0.011766604 0.032435406
0002c0 4d 2d d6 bd 02 02 a2 3d 54 e6 e4 bc 57 07 e2 bd
       -0.10457859 0.07910539 -0.02794186 -0.11036556
0002d0 6a 27 0b 3e 6a c9 8e 3d 02 92 0d 3e d9 c8 11 be
       0.13589254 0.069720104 0.13825229 -0.14236774
0002e0 67 9c 2f bd 92 d7 72 bc b1 9d 0e bd e8 ee db 3d
       -0.042873766 -0.014821904 -0.034818355 0.10738927
0002f0 9f b4 0f bd 0f 8d 51 be 27 38 53 3d be 62 38 be
       -0.035084363 -0.20463966 0.051567223 -0.18006417
000300 23 8a 2b be 2b 8f 5e bd 73 c8 5f be 53 3b 46 3e
       -0.16751914 -0.054335754 -0.21853809 0.19358568
000310 c0 45 7d bd b8 7a 1d 3c 0c ab f2 bd 9e ad 1d bd
       -0.061834097 0.009611778 -0.11849031 -0.038495652
000320 01 a1 d2 bd ed 3a c3 bd 3d 5b 09 3d 81 c2 fc bd
       -0.10284615 -0.095327236 0.033534277 -0.12341786
000330 25 86 16 3d e3 b7 13 3d d2 1b 9f 3d cd 03 54 3e
       0.036749024 0.03606404 0.07768978 0.20704575
000340 fd 9a a8 be f6 5a 4f bd c2 5d cf bd 63 16 f0 be
       -0.32930747 -0.050623856 -0.10125305 -0.4689208
000350 77 5e 0b be 23 b8 89 3d ba 19 87 3d 0e 8f 0d 3d
       -0.13610254 0.067245744 0.06596704 0.034560256
000360 5d eb 3e be 5f ab a7 bd f8 26 50 be f3 c3 b2 bc
       -0.18644471 -0.08186983 -0.20327365 -0.021821951
000370 6c b5 89 bd 5f 73 f1 bc 91 04 59 3e 5c a0 c4 3b
       -0.067240566 -0.029473959 0.21193148 0.0060005616
000380 ee dc 51 bf 61 09 14 bf 95 8b 40 bf 22 43 5c 3c
       -0.81977737 -0.5782681 -0.75212985 0.01344374
000390 23 d1 e3 be 34 2f f2 3d 46 e0 ed bd 11 c6 78 3d
       -0.44495496 0.118254095 -0.116150424 0.060735766
0003a0 87 ec a3 be 60 b7 37 be 71 42 09 bd d9 39 8e be
       -0.32016394 -0.17941046 -0.03351063 -0.2777851
0003b0 23 db 94 3d fd f0 84 3d ba c5 6e bd f6 c0 13 bc
       0.072683595 0.06491277 -0.058294035 -0.009018173
0003c0 53 05 54 3f b9 0d 02 bd c8 4d 1c bd 7e 77 5c 3d
       0.82820624 -0.03175137 -0.038160115 0.053824894
0003d0 43 88 29 bd e0 18 18 be f3 8c 89 3c 77 40 8f bd
       -0.041389715 -0.14853239 0.016790843 -0.069947176
0003e0 3f 4b e1 3c ff b1 e9 bd d7 b7 bb bd 9d 00 d2 bc
       0.0275017 -0.11410903 -0.09165924 -0.025635058
0003f0 0f 26 54 3d ee 45 ab bd 6a 31 ee bd 84 7b 44 be
       0.051794108 -0.083629474 -0.11630519 -0.19187742

bias f4 [8]
000000 97 20 4e 3c 8b fd 4b be 6b d6 cb 3e bf 6f 8b 3e
       0.012581012 -0.19920938 0.39812025 0.27233693
000010 ae 2e 71 3f 48 c4 a9 be e3 a5 e4 3e 77 41 42 3e
       0.9421185 -0.33157563 0.44657812 0.18970285

weight f4 [1, 8, 20, 20]
000000 21 d5 92 bd 6f 20 6c 3c 05 7d 60 bd c7 1e 8a bb
       -0.07169557 0.01441203 -0.054806728 -0.0042150947
000010 52 5f ab bc 08 a5 e6 3c 66 9b c5 bb 16 6e 4d bb
       -0.020919476 0.028154865 -0.006030488 -0.0031346134
000020 51 cb 48 3d 01 77 e1 3b fc cf c1 3c d3 74 62 3d
       0.049022023 0.0068806414 0.023658745 0.055287194
000030 e7 d6 1b be d9 03 aa bd 3f 2d 84 bd 73 c4 85 bd
       -0.15218697 -0.08301515 -0.064539425 -0.0653161
000040 9b 07 f9 bc 61 b9 36 bd fe 7a a8 bc a3 be c9 bc
       -0.030399134 -0.044610385 -0.02056646 -0.024627035
000050 31 af c9 bd 01 d7 92 bd 5c 71 b0 bc de 7d 78 3d
       -0.09847868 -0.07169915 -0.021538429 0.06066691
000060 24 44 25 bd 61 09 9d 3d 0c 2d 2a bd 40 d2 a5 bd
       -0.040348187 0.076678045 -0.041546866 -0.08096743
000070 06 d6 09 bd d6 06 93 bd 97 71 84 3e 2a 89 19 3d
       -0.033651374 -0.07179038 0.25867912 0.037484325
000080 62 c2 99 3d 3a e8 86 3d bd 4e 43 3d cb c5 54 bd
       0.07507779 0.065872625 0.047682513 -0.051946443
000090 3b ff 8f bc be 62 74 3d 0b be 6d 3d d0 7d 99 3d
       -0.017577758 0.05966448 0.058042567 0.074947
0000a0 91 88 9b bd e1 c7 bc 3c 54 64 16 3e 0d 6a dc 3c
       -0.07594407 0.023044528 0.1468671 0.026906038
0000b0 53 28 4a 3e 5c 61 ad 3d 0d 1b 31 3d af b8 14 bd
       0.19741945 0.084658355 0.04323869 -0.03630894
0000c0 ff f0 76 3a bd 7c 60 be 85 5d a3 3c 77 b5 61 bd
       0.00094200665 -0.21922584 0.019942055 -0.0551047
0000d0 e8 8f 98 bc 85 e0 78 3e 71 35 73 3d 02 a7 01 3d
       -0.018623307 0.24304397 0.059377138 0.03165341
0000e0 b1 44 fa 3c 4f 3a 05 3d f0 0a fc 3c 48 6c a7 3c
       0.030550333 0.03252631 0.030766934 0.020437375
0000f0 45 e3 18 bd 42 0d 7f 3d ee df c1 3d 57 58 a0 3b
       -0.037326116 0.062268503 0.09466539 0.0048933434
000100 d1 e3 c2 bb 64 67 47 ba 8f 63 2e bc 7c 85 07 bd
       -0.005947568 -0.0007606654 -0.010643854 -0.033086285
000110 1a d9 1c bc 60 c2 99 bd a8 05 52 bd 77 e5 01 bd
       -0.009573245 -0.07507777 -0.051274925 -0.031712975
000120 62 c7 59 be 02 99 3d bb da dc 94 3d 65 78 60 3d
       -0.21267465 -0.002893031 0.072686866 0.054802317
000130 a2 83 a9 3d 93 c3 36 3d c0 aa 0d 3d 1a e8 f6 3c
       0.0827706 0.044620108 0.034586668 0.030139972
000140 1d d4 66 bb c9 ec c6 3c b2 c3 0c 3e c3 07 28 bc
       -0.0035221644 0.02428283 0.13746527 -0.010255757
000150 82 47 63 3c c7 b9 47 3d 92 75 27 bd f0 0c ac 3d
       0.013872029 0.048761155 -0.04088361 0.08400905
000160 64 38 ed bc 66 d4 04 3d 9f d1 87 bd 41 8f a4 3d
       -0.028957553 0.03242912 -0.06631779 0.08035136
000170 80 95 c3 bc 66 ee ab 3d 74 ab 6f 3d ae 1d 90 3c
       -0.023874998 0.0839508 0.05851312 0.017592277
000180 35 06 10 3d 54 a8 93 3b 55 bf ef 3c 12 a7 0b bd
       0.03516217 0.0045061503 0.029266039 -0.034094878
000190 00 fa 17 3d 4c ee 4f 3c ef d2 23 3e 1d 53 26 bd
       0.037103653 0.012691092 0.15998434 -0.040606607
0001a0 ea 39 5e 3d 5f 10 ee 3c d3 3a 72 bc b2 77 5e bc
       0.05425445 0.02906054 -0.014784533 -0.013578342
0001b0 5e 33 24 bd 65 f7 84 3c 3a d2 a5 bc e2 9e 5a 3e
       -0.04008805 0.016231248 -0.020241845 0.21349671
0001c0 71 bc fe bd 7b ab cc bc 2c 3f a3 3d 82 44 3b 3d
       -0.12438286 -0.024984112 0.079710335 0.04571963
0001d0 d4 24 d4 3c 6b 0b 54 bc 82 eb 96 bb a4 21 9f bc
       0.025896467 -0.012942175 -0.0046057114 -0.01942522
0001e0 9c 3d a9 bb c8 0a c0 bc 37 31 92 3d a7 94 0f bd
       -0.005164815 -0.02344264 0.07138293 -0.035053875
0001f0 69 86 b1 bc 85 fa e9 3d e7 a5 db 3a eb c5 76 bd
       -0.021670537 0.11424736 0.0016757817 -0.060247343
000200 66 3c 46 bc 01 1d 21 3d 02 12 4b 3c e1 fe 0a 3c
       -0.012099361 0.0393343 0.01239443 0.008483619
000210 d7 8d b1 bc 83 7a 0d 3e 7f f3 8e 3c ea 3a 37 3d
       -0.02167408 0.13816266 0.017450092 0.04473392
000220 13 4e 11 3d 31 2d 74 bd 98 b6 0e bd a5 9a 7d bd
       0.035474848 -0.05961341 -0.034842104 -0.06191506
000230 e6 9f e1 bd 5e ea 0e bc 03 89 6a 3d d5 11 2d bd
       -0.11016826 -0.00872287 0.05725957 -0.042253334
000240 e5 6f 42 3d 4a 2c 9c 3d 46 21 f0 bd d7 e8 5e bd
       0.047469992 0.07625635 -0.117250964 -0.054421272
000250 10 8b 50 3d ad ea 6c 3d 0a b0 9d 3d 52 91 49 bd
       0.05091387 0.05784099 0.076995924 -0.049210854
000260 c8 10 48 be 33 60 9a 3d 19 56 91 3d c2 35 97 3c
       -0.19537652 0.0753788 0.070965 0.01845825
000270 82 8d 9c 3d 55 58 56 bc 8b 73 04 bd c5 17 a1 bc
       0.07644178 -0.013082583 -0.032336753 -0.019664655
000280 93 6a 09 be 83 21 9d 3d 43 05 00 3e 68 3f 7e 3d
       -0.13419561 0.076724075 0.12502007 0.062072188
000290 35 a2 74 3d 76 8a a0 bc 17 7d e0 bc 26 6d eb 3d
       0.059725005 -0.019597273 -0.027403397 0.11495428
0002a0 cb bb d1 bc 10 ad 83 3d 3c 1b ac 3a 4a 05 18 3e
       -0.025602242 0.064294934 0.0013130675 0.14845768
0002b0 c3 2a 87 be 6c 84 7b 3e 35 23 b7 3c 15 da d8 3c
       -0.26399812 0.24562234 0.022355655 0.026471177
0002c0 e9 e0 4a 3d 3e 8f 1f bc a9 80 aa bc 69 c7 b0 bc
       0.049530897 -0.009738741 -0.020813303 -0.021579461
0002d0 65 20 ed bd 22 1a 0d 3d 20 6f a8 3d 99 cd 8f bb
       -0.115784444 0.03444875 0.082243204 -0.004388523
0002e0 d7 af 07 bb 03 98 2b 3d 41 9e 0e bd 36 9b a0 bd
       -0.0020704174 0.041893017 -0.03481889 -0.07842104
0002f0 b5 8a 02 be ec b8 43 bb 43 8a 02 3d 20 54 ac 3b
       -0.12748225 -0.002986486 0.031870138 0.005259052
000300 4a a1 08 be b2 2a 02 3e e1 f5 5f bc d3 49 14 bc
       -0.13342777 0.127116 -0.013669462 -0.009050804
000310 d9 bc 65 3b 58 84 f7 bc 7a a4 28 bd 63 04 41 bd
       0.003505519 -0.030214474 -0.041172482 -0.047123324
000320 98 a8 ad bc 35 98 aa 3c ee 28 f3 3d b5 f8 9f 3d
       -0.021198556 0.020824531 0.11873041 0.07811109
000330 f9 aa 75 3d 7f 31 95 3c 2d 12 e1 bc 99 10 8e 3d
       0.059977505 0.018212078 -0.027474487 0.069367595
000340 22 33 5d bd 12 4d 07 bd 8e 72 11 3f d3 59 e9 bd
       -0.054003842 -0.033032484 0.5681542 -0.11394086
000350 ca ff 43 be b7 9d 5e 3e 6e 6c b9 bc cf 92 03 bd
       -0.19140545 0.21739851 -0.022634711 -0.03212243
000360 c7 15 96 bb 28 c9 aa 3c 29 1b 12 3d c7 d0 83 3c
       -0.004580233 0.020847872 0.035670433 0.016090764
000370 69 56 f6 bc 8c db 9e bd aa ff 0c 3c 86 9e 1d bc
       -0.0300705 -0.07756719 0.008605877 -0.009620314
000380 7b 89 e8 bc 5e 09 1b bc 50 29 b7 bc e1 df 07 bd
       -0.028385868 -0.0094626825 -0.022358567 -0.033172492
000390 18 c1 af 3d bf 1d c0 bd 6f 2b ef bd 0e de 09 bd
       0.085817516 -0.093806736 -0.11678206 -0.033659033
0003a0 d7 18 c7 3d c9 8c 7c 3d c9 99 84 ba 98 e1 34 bc
       0.09721535 0.0616577 -0.0010116632 -0.011040114
0003b0 fb aa a0 3c 42 1d ff bb 62 32 02 3d 97 68 cd 3c
       0.01961278 -0.00778547 0.03178633 0.025074286
0003c0 af 14 66 bc b1 6d 12 3d 1f c1 73 3a 0a 0e cc bd
       -0.014043017 0.03574914 0.00092984916 -0.09963615
0003d0 b8 25 97 bc a3 bd 84 bd d0 f7 7a bd cb 38 66 bd
       -0.018450603 -0.06481483 -0.06127149 -0.056206506
0003e0 e2 3d 30 bd 24 a7 10 bd 1c e0 ce 3c 67 4e 8c 3c
       -0.043027766 -0.035315648 0.025253348 0.017127229
0003f0 ab 7e 42 3d e0 34 56 3d ef 0f 77 3c 83 28 9e 3b
       0.04748408 0.05229652 0.015079482 0.0048266067
