trained_models/a2c/trial_11/MicropolisEnv-v0_weights.pt (torch_old, 893296 bytes, 13 tensors)

base.conv_0.weight f4 [64, 104, 5, 5]
00000000: cc52 40bd 3511 82bc 634b fcbc c75c 2fbd
00000010: 036d 6cbd 9988 5139 e6ee 57bd 022b c7ba
00000020: 3f65 2fbd 1941 eebc 208f 6ebd 27cd 773c
00000030: aa62 27bd 7d25 47bd 5920 afbc 4258 fabc
00000040: 9781 59bd 96c1 49bd 5180 62bd 1f29 10bd
00000050: 1c00 4cbc 0ae2 aabc 2f89 2dbd f5dc 6abc
00000060: abdd 88bc 40da 28bc cde1 793c d7e8 b13b
00000070: f00d ca3c 8007 c2bc 2ac3 c3bb 424c 8abc
00000080: 92bb 31bd 2b51 1cbd edf5 c8bb ae3a 9fbb
00000090: 13cd 0b3b 3421 7abc fe8c ba3b eedc ce3a
000000a0: cbdc 853b 939f 03bc c5bd 143b 8a2c 45bd
000000b0: 973c 763c 709a bb3c a6ae 033d b866 763c
000000c0: 1f0d 573c 13e7 93bc c017 a63c 2422 e0bc
000000d0: 5a1d b5bc 3852 b83c e271 d53c 907e 3eba
000000e0: 83fc babb 28ee 22bb 56e2 343c 1174 f5ba
000000f0: 555b 12bb 0fab 833c def3 513d bced f63c
00000100: 2a96 d43c 6b19 8b3b 42f3 673c fea0 2d3d
00000110: 14db 9ebc f513 84b8 f5a8 eb3c 7e93 0f3c
00000120: 19fe 5e3c 9594 d7bc a9dd 0d3d ac99 01bd
00000130: d786 a8bc bf04 723b f14d 9a3c fa37 42bc
00000140: 0223 863c fa3c ebb7 665c 8e3c db84 16bd
00000150: cf2d 913c 25fc 863c 094d e2bc 0424 29bc
00000160: 784e 8c3c f47f a93c 70e6 2fbc 9287 0dbd
00000170: f033 8ebc ad0f 0f3c a802 ae3c d50a e8bb
00000180: 5b59 6a3c 2281 81bc 8322 b1bc 790d 873c
00000190: 65b8 743c 2271 683c 16cc a0bb 3d3d 93bb
000001a0: 3a90 e9bb c10a 9d3a 5c39 87bc cf62 64bc
000001b0: 7036 81bc 108e 2abc 6495 e53c a598 abbb
000001c0: 5d04 883c ad08 b3bc 89a4 29bd 34fc 41bc
000001d0: 3250 e63c 6e9b 0d3b 9801 863c e782 efba
000001e0: 1e19 a3bc 9217 6dbc 37e8 46bd 7927 8ebc
000001f0: d7a8 0f3b 3d6f cb3b 1f4f 92bb 9453 9d3c
00000200: f755 943c c416 3f3a 88d1 cb3a cbc2 f6bc
00000210: 56ab 1b3c 984d fdbb 6eef 18bd ce3a cb3b
00000220: 248f 24bc 0478 36bc 01ea d6bc 67a2 4ebb
00000230: 795b 36bd 0b22 c63a 1f1c bf3c c505 083c
00000240: 1cde f83a 1875 c8bb 4275 bcbb c3f7 52bd
00000250: 592b 06bc 7ce0 403c f2bf 7d3a 19eb a73c
00000260: 5341 913c b55c 82bc dea6 febc 9ade 96b9
00000270: 033e 9abc 6a3e 54bc 8afc 91b9 8db8 debc
00000280: 6ba4 c7bc 728f 14bd cd14 c4bb e580 953c
00000290: 6212 8e3c 4418 3bbd 31ed 02bc c96a 0cbc
000002a0: d1d1 853c 6db5 17bd 44d5 46bc 7e3c 5cbc
000002b0: 15f7 893c 5277 fc3a 7191 bbbc c2ba 20ba
000002c0: bc65 69bc 80c3 aabb e1ed 163d 886a 75bc
000002d0: dd6b 3fbd 0d0e 46ba cf2c cc3b adaf 1abc
000002e0: 9976 723c 153c 5c3b 37f2 83bc bc28 4e3c
000002f0: 73c8 a1bc 991b ebbc 5cb2 993b 1c38 23bc
00000300: 252c 93bc 6596 70bc 49bb 133c c4ea fabb
00000310: 478d 2c3c c90d 973c a690 2ebd 8aae 8dbc
00000320: bb65 cabc 6db9 c4bc 1001 1cbd 7847 ec3c
00000330: 7f55 d73b d822 e63a 57b3 75bc f456 40bc
00000340: cc8f 78bb d0c4 e8bc cd96 1c3d eccb 4bbc
00000350: ff91 a5bc 44c6 843b 8776 f53c bacb eb3a
00000360: 2eb2 a43b 556b 6f38 cbc1 2d38 fe63 0dbc
00000370: 51fb c1bc 5d21 3e3c 20a4 2c3c b469 fabc
00000380: e517 c4bc c0a8 e13c 8538 6c3c 5a7c 873b
00000390: 39ed 1dbd 24a2 113d 919c c4bc e409 b7bc
000003a0: e203 853c c341 2f3c e3ef e0bb 6789 c4bc
000003b0: 1c22 94bb 9af4 133c 9b11 2c3a 8860 69bc
000003c0: 6ac5 26ba 7282 3bbc 5e55 93bc d79b de3c
000003d0: 7902 113c 5c96 bbbc 30c9 deb6 1aa2 343d
000003e0: ed2d 00bd 5273 93bb 7bdd 57bb 2a8d b1bc
000003f0: 6e40 5a3d 59c3 e73b 4d2f 723c 9d24 96bc
-0.04695396 -0.015877346 -0.030797666 -0.04281309 -0.05772115 0.0001998268 -0.052718066 -0.0015195312
-0.042821165 -0.029083775 -0.058241963 0.015124596 -0.040865578 -0.048619736 -0.02137773 -0.030559663
-0.053102102 -0.049256884 -0.055298153 -0.035195466 -0.012451198 -0.020859737 -0.042367157 -0.014334907
-0.016707262 -0.010305941 0.015251589 0.005429368 0.024664849 -0.023685217 -0.005974193 -0.016882066
-0.04339177 -0.038163345 -0.0061328323 -0.00485929 0.002133195 -0.015266705 0.005693077 0.0015782395
0.0040851585 -0.008033651 0.002269612 -0.04813818 0.015029094 0.02290079 0.03214898 0.0150391385
0.013125687 -0.01805452 0.020274997 -0.02736003 -0.022108722 0.022500142 0.02605528 -0.0007266784
-0.0057063713 -0.002486119 0.011040291 -0.0018726607 -0.002233227 0.016072778 0.05125796 0.030142657
0.02595051 0.0042449734 0.014157118 0.042389862 -0.019391574 -6.297968e-05 0.028767088 0.008763192
0.013610386 -0.026315967 0.03463522 -0.031640694 -0.02057211 0.0036929098 0.018835993 -0.011854166
0.016374115 -2.8042577e-05 0.017378043 -0.036747795 0.017722039 0.016477654 -0.027624624 -0.010323528
0.01712726 0.020690896 -0.010736093 -0.034553118 -0.01735875 0.008731765 0.021241501 -0.0070813694
0.014303531 -0.015808646 -0.021622902 0.016485916 0.014936541 0.014187129 -0.0049071414 -0.004493384
-0.007127789 0.0011981354 -0.016506843 -0.013939573 -0.015773028 -0.010409847 0.028025337 -0.0052367025
0.016603643 -0.021854723 -0.04141668 -0.011839915 0.028114412 0.0021607536 0.016358182 -0.0018273265
-0.019909438 -0.014470952 -0.0485613 -0.017352806 0.0021920705 0.006208329 -0.0044649984 0.019204892
0.018107397 0.0007289464 0.0015550116 -0.030122181 0.009501299 -0.007730197 -0.037337713 0.0062020784
-0.010043893 -0.011137012 -0.026234629 -0.0031529905 -0.04452083 0.0015116347 0.023328839 0.008302157
0.0018987092 -0.0061174743 -0.005751283 -0.051505815 -0.008189046 0.011772271 0.0009679786 0.020497845
0.017731344 -0.015913347 -0.031085428 -0.0002877608 -0.018828398 -0.012954334 -0.0002784471 -0.02718761
-0.024370393 -0.036269613 -0.005983925 0.018249938 0.01734275 -0.04567744 -0.007991121 -0.008570381
0.0163354 -0.037038255 -0.012135807 -0.013442157 0.01684145 0.0019261634 -0.0228965 -0.00061313447
-0.014245447 -0.0052112937 0.036847953 -0.014979012 -0.046733726 -0.00075551943 0.0062309275 -0.009441298
0.014798784 0.0033605148 -0.016106708 0.012582954 -0.019748902 -0.028699683 0.0046904515 -0.009962108
-0.017965386 -0.014684294 0.00901682 -0.007657381 0.01053173 0.01843919 -0.042618416 -0.01729514
-0.024706712 -0.0240142 -0.03808695 0.028842673 0.006571471 0.0017557992 -0.014996371 -0.011739481
-0.0037927506 -0.02841416 0.038229752 -0.0124387555 -0.020211218 0.0040519554 0.029963745 0.0017989792
0.0050261235 5.7082e-05 4.1426898e-05 -0.008629797 -0.023679407 0.011604634 0.010537177 -0.030567981
-0.023937175 0.027546287 0.014417772 0.004134697 -0.03855631 0.03555502 -0.024000438 -0.022343583
0.016237203 0.010696831 -0.006864534 -0.0239913 -0.0045206677 0.0090304855 0.0006563903 -0.014244206
-0.00063618144 -0.011444675 -0.017985042 0.02717392 0.008850687 -0.022898845 -6.639537e-06 0.044099905
-0.0312938 -0.0044998312 -0.003293841 -0.021673758 0.0532841 0.007072848 0.014781785 -0.018328005

base.conv_0.bias f4 [64]
00000000: 9288 97bc 07d0 c2bc 50ed 9fbd a233 fbbc
00000010: 473b 6ebd 2fab 2bbd b038 ffbc f76d 3fbd
00000020: bdb4 d8bc b394 9abc f942 4abc 79e5 5ebd
00000030: f4d1 ffbc 2ebb bfbc 86fe fdbd 26ff f6bc
00000040: c6ac 50bd 5ae0 3abc 429d fdbc 1f2e f5bc
00000050: d880 88bd f11e 34bc f390 34bd e554 40bd
00000060: df78 b2bc 3226 1dbd b23b e9bc 6e2d 2ebe
00000070: dedb 85bd 8ee5 90bc b2f7 18bd fcb0 acbc
00000080: a91b a0bd 284e 88bb 8d54 9bbc 3e19 6cbd
00000090: df9f 82bd 9780 00bd c860 b6bc 613b b1bc
000000a0: 5916 b3bc cb05 0bbb 0963 ecbc 56ba a9bd
000000b0: 778f 26bd 403e 8abd f9dd a6bc 85bb 1dbd
000000c0: 1a99 b5bd 90c9 99bc a52c e1bc 8e60 0abd
000000d0: f05d 0bbc 3723 19bd 4bd9 1fbd fd75 d8bc
000000e0: bf14 0abd 2794 3ebd ed12 73bd df32 7fbc
000000f0: 2719 61bc 04fb bc3c 93e2 31bd d68a 12bd
-0.018497739 -0.023780836 -0.07808936 -0.030664269 -0.058162 -0.0419113 -0.03115496 -0.04673573
-0.02645337 -0.018869733 -0.012345069 -0.05441806 -0.031228043 -0.023404684 -0.12402062 -0.030150961
-0.05094602 -0.011406029 -0.030958775 -0.029929219 -0.066652 -0.010993705 -0.044083547 -0.04695596
-0.021786151 -0.038366504 -0.028470848 -0.17009518 -0.06536077 -0.017687585 -0.037345596 -0.021080486
-0.07817776 -0.0041597076 -0.018961215 -0.05764126 -0.06378149 -0.031372633 -0.022262946 -0.02163476
-0.021861242 -0.002121317 -0.028855817 -0.08287494 -0.040664162 -0.067501545 -0.020369517 -0.03850891
-0.088670924 -0.01877287 -0.027487108 -0.033783488 -0.008506283 -0.0373871 -0.039025586 -0.026423449
-0.03371119 -0.046528008 -0.05934422 -0.015576093 -0.013738907 0.023068912 -0.04342897 -0.035776936

base.conv_1.weight f4 [64, 64, 3, 3]
00000000: e184 86be f507 013e e9ef b2bc 7192 60be
00000010: a15b 93bd e0c1 4abe 2e39 6ebe 546b 4e3e
00000020: ff0f e0bd 8f88 3c3d bed0 55bd a42b 3bbd
00000030: bb19 15bd 5d68 d63c acb4 06bc 5e8a fc3d
00000040: 19a2 8c3c d050 16bb aec9 ecbd 2980 83be
00000050: 538d 52be 67b7 28bd ee0e a43d cd92 0cbb
00000060: 0858 9abe 7910 38be dd5c 4ebe 1338 a8bd
00000070: fa80 a43e c339 c43e b41a c4bd fdd5 603e
00000080: 0b40 ab3e 1cc4 8abe 4bd0 133d 86b4 4b3e
00000090: acf1 dd3c 06cf 943c 5750 cf3d ea19 75bd
000000a0: 50d0 82be ef60 5bbe 0c11 fcbd 760c 8dbe
000000b0: 1f77 7abe 9f27 e4be 87ac 5fbe 81d0 d13d
000000c0: f330 1dbe 2c96 cdbd ea96 943e ec3b c4be
000000d0: caaa 74be e7f8 a53c 0375 b83d 9cb5 8f3d
000000e0: d032 f63c 4596 253e 97b7 713d 189a 163d
000000f0: a677 5d3d 1493 093d 64b2 703d 01e0 a7bd
00000100: b02a 8cbc 613f 36bd 3f9b 963d 54b2 a83d
00000110: 72b9 d43d b4cd c7bd 9a35 f1bd b23d 10be
00000120: a021 f4ba 7b0e 9bbd 5ce3 1fbe ec26 e03c
00000130: 8c32 30bd 1148 9cbd c45d 93bd a0e1 33be
00000140: 4e7b 13be 6928 593d 355e 9dbd 260f bfbd
00000150: f49b 283d 45b5 05bc f396 cbbd 8514 a43d
00000160: f097 fdbb c072 943d 7f53 c8bd cd7e 043e
00000170: 3d2d 923e f51e 30be 0447 d93c 1460 513e
00000180: 5c6a 7cbe 151e 013d 9938 5a3e 5d80 ac3d
00000190: e886 51bb 84c1 6ebe 96e2 5d3e 62f6 c73d
000001a0: f382 c83c 905d b03d 5bef 80bd 2ef9 11be
000001b0: 0136 bc3d ef96 943d d855 f93d 799c 673d
000001c0: c6d9 063d 9e13 f23d 48c3 7a3c e7ed 2d3d
000001d0: d29f 273e 2c3d 153e 5f83 9dbd 157b 29be
000001e0: 9990 a53d 4a62 a43d d072 d8bd cc93 193e
000001f0: 65e1 ce3d 83e5 9a3d c8ea 42be 8bcf d3bd
00000200: 2d6f 84be 9f30 babd 8f48 b2bd 96aa b2bd
00000210: 40eb 5f3c 6a89 72bd cc2b 89bd 3e5d 8cba
00000220: 9991 883d e955 4e3d e8d4 723d 1254 9f3d
00000230: 5dfd 0f3e 1922 29be 6393 bdbd 494e 6abe
00000240: 2b7e b73d 70aa e6bc 379f 2f3e db10 103e
00000250: 8fff 5abc 1a47 b43d afff c3bb c45f a5bd
00000260: 40cc 153c ef55 08be d346 873d 580b 92bd
00000270: b699 03bd a036 f1bd b641 2abe 690f 803d
00000280: fd20 733e 2890 ce3c e357 adbd 8b66 4fbe
00000290: a405 463c a7cb 00bd 3789 f8bd ebad 5bbd
000002a0: d187 31bc 7404 58bd 3178 893d 5f5e 113e
000002b0: 4da0 203e b98b a13d 4390 45bd b45a 24be
000002c0: 1332 cabd a4d1 96bc 6be1 68bd 18cc 12be
000002d0: d6bd e23c 9a9e 2f3d 2fd5 01ba c0c6 0b3d
000002e0: 5f32 093d 8bc9 4d3d a576 13be 2856 5dbe
000002f0: 5dd3 6fbb 0caf 093d 6fcb 86bd 1de8 35be
00000300: 410c 91bd be0c b43c 5061 c4bd f2bb d03b
00000310: 41f4 8bbc d80c a23c a554 ea3d 48aa 973b
00000320: 4748 7bbd 53cd 463d 2845 09bd c5a2 d9bd
00000330: 920b 9e3d f902 923d cb38 54be 18c1 ae3c
00000340: c33d 8cbd 5d82 24bd 4613 2cbe 0a45 30bd
00000350: f236 1cbe 40da 223d e508 e8bd 3fa9 54be
00000360: 7a39 323d 434d 553c 9c59 883d 7f3b a33d
00000370: 8fa1 3a3d 1c23 0e3e 3d6d f8bd 9201 20bd
00000380: d34a db3c 4ef5 21be 29c6 b2be 7199 06bd
00000390: 7092 9d3d 2abe ddbd 6995 eb3d d512 e4bd
000003a0: d4b6 96be 9c34 0c3e e1e6 5d3e 26e7 283d
000003b0: 9297 dfbd e778 edbc f524 22be 3914 cdbb
000003c0: bbdb 303d 0f25 7fbd da13 153d 84f0 823d
000003d0: 4898 c0bb fcae a13c eb50 a03d d9d9 013d
000003e0: 9bec 0d3e 8461 053e 5ed3 e03d 3993 7f3a
000003f0: b18a 49bd 267a 6e3d 1bdf eabd ad38 14be
-0.26273254 0.12600692 -0.021842914 -0.21930863 -0.07195211 -0.1980052 -0.23264 0.2015813
-0.10940551 0.04602867 -0.052201025 -0.045695916 -0.03640149 0.026172811 -0.0082217865 0.12331079
0.017167138 -0.0022936352 -0.11561905 -0.25683716 -0.20561723 -0.04119053 0.0801066 -0.0021449805
-0.30145288 -0.17975034 -0.20152612 -0.0821382 0.3212965 0.3832532 -0.09575406 0.2195663
0.33447298 -0.27102745 0.036087316 0.19893083 0.027092777 0.018165123 0.101227455 -0.059839167
-0.25549555 -0.21423696 -0.12307939 -0.2754857 -0.24459504 -0.44561478 -0.21843158 0.10244847
-0.15350704 -0.10038409 0.29021388 -0.38326967 -0.23893276 0.020260287 0.09006693 0.07017061
0.030053526 0.16170605 0.059012976 0.03676805 0.054069184 0.03358753 0.058763877 -0.08197022
-0.017110199 -0.044494037 0.073538296 0.082371384 0.103869334 -0.09756032 -0.11777802 -0.14086035
-0.0018625744 -0.07571121 -0.15614074 0.02736231 -0.043016955 -0.07630933 -0.07195619 -0.17566538
-0.14402506 0.053017054 -0.07683984 -0.09329061 0.041164353 -0.008160894 -0.09940901 0.08011726
-0.0077390596 0.07248449 -0.097815506 0.12938996 0.2855014 -0.17199309 0.02652312 0.20446807
-0.24649948 0.03152283 0.21310653 0.08422921 -0.003197128 -0.23316008 0.21668467 0.09763791
0.024476504 0.08611596 -0.062956534 -0.14255211 0.09189988 0.07255351 0.121745765 0.05654571
0.03292253 0.11820148 0.015305348 0.04246321 0.1636956 0.14574116 -0.07691073 -0.16550858
0.080842204 0.0802656 -0.10568774 0.14997786 0.10101584 0.07563307 -0.19034874 -0.1034232
-0.2586607 -0.09091305 -0.08705246 -0.08723943 0.013666928 -0.05921308 -0.06697807 -0.0010708941
0.066683955 0.0503749 0.059285074 0.07779707 0.14061494 -0.16516913 -0.092566274 -0.22881426
0.089596115 -0.028157443 0.1715058 0.1406893 -0.013366594 0.08802624 -0.0059814076 -0.080749065
0.009142935 -0.13314031 0.066053055 -0.0713107 -0.032129012 -0.11777997 -0.16626629 0.06252939
0.23743053 0.025215223 -0.08464029 -0.20253961 0.012086306 -0.031444218 -0.12135547 -0.053632658
-0.010835604 -0.05273862 0.06712378 0.14196156 0.1568615 0.07887978 -0.04823328 -0.16050225
-0.09872832 -0.018410511 -0.0568556 -0.14335668 0.027678411 0.042875864 -0.00049527263 0.03412509
0.033495303 0.050241034 -0.14400728 -0.21614897 -0.0036594488 0.033614203 -0.06581771 -0.17764325
-0.07082415 0.021978732 -0.095888734 0.006370061 -0.017084243 0.019781515 0.11441926 0.0046284534
-0.061348226 0.048535656 -0.03351322 -0.10626749 0.077170506 0.07129473 -0.2072479 0.021332309
-0.068477176 -0.040163387 -0.16804227 -0.04303459 -0.15255335 0.03975892 -0.113298215 -0.20767687
0.043511845 0.013018909 0.06657717 0.07970332 0.04556423 0.1388058 -0.121302105 -0.039063998
0.026769077 -0.15816233 -0.3491681 -0.032861177 0.07693946 -0.108272865 0.11503107 -0.111364044
-0.29436362 0.13691944 0.21670105 0.041236065 -0.109175816 -0.028988315 -0.1583441 -0.0062585142
0.0431783 -0.0622912 0.036395885 0.06393531 -0.0058775283 0.01973676 0.07827934 0.031701896
0.13859789 0.1302548 0.10977815 0.0009749416 -0.049204532 0.05822196 -0.11468335 -0.14474745

base.conv_1.bias f4 [64]
00000000: f1d1 46bd 4e48 eabd 2ac9 ad3c 07c6 4e3e
00000010: 2ef9 a3be 016b b0bc 1a93 e0bd e464 30bc
00000020: 8938 07be b8d5 67be 1b59 b2bc 9d96 85be
00000030: 0c4f e33c 01c1 a3bd 11a8 24bd e936 8c3d
00000040: 7225 5e3d c0be afbc 04c2 fabc 802b 1dbe
00000050: 2da9 a5be c60b 27bd f7bf b23c eacd 8f3c
00000060: bf12 d83c 7522 8d3b 2212 3fbe 8ff4 afbc
00000070: a41e a7bd 7bfa 283e c13f 5dbe bf6d f7bd
00000080: bf71 dcbd 898e 89bd 61d9 f93c 57f2 ecbc
00000090: 5e40 9dbd e360 043e 3be0 eebd 9b9a 57be
000000a0: 0324 64bd bc0c 28be 74a6 9ebd 9783 75be
000000b0: ace5 853c a3af 80be 5e64 18bd e9dc 36be
000000c0: a484 2cbd ccb0 a8bd 3abe 8dbc 8fa6 c0bd
000000d0: 8dd2 9ebc 1950 33be 8c9a 89be 6bca abbe
000000e0: d42b 6fbd d8b0 54be 2fa5 1dbe 874f 33be
000000f0: e660 efbd 85ef 6bbb dff7 aabd 1c60 ef3c
-0.04854006 -0.11439572 0.021214087 0.20192729 -0.32026047 -0.021535398 -0.109655574 -0.010766242
-0.1320516 -0.22640121 -0.021771004 -0.2609147 0.027747653 -0.07995797 -0.040199343 0.06846411
0.05423493 -0.021453261 -0.030610092 -0.15348625 -0.32355633 -0.040782712 0.021820052 0.017554242
0.026376126 0.004307086 -0.18659261 -0.02147892 -0.08160141 0.165018 -0.21606351 -0.12081479
-0.10763883 -0.067166395 0.030499162 -0.02892415 -0.07678293 0.12927584 -0.11663862 -0.21055071
-0.055698406 -0.16411108 -0.07746592 -0.23975979 0.016344868 -0.25134 -0.037205093 -0.17857708
-0.042118683 -0.08236846 -0.017302621 -0.094067685 -0.019387508 -0.17511024 -0.26875722 -0.3355287
-0.058391407 -0.20770586 -0.15395044 -0.17510806 -0.11688404 -0.003600092 -0.08348059 0.029220633

base.input_compress.weight f4 [15, 104, 1, 1]
00000000: 03ac 543e cef7 debc bfa3 353d 3bab ba3d
00000010: 64d1 5ebe aba7 07be ac79 d9bb 9825 8f3f
00000020: 513a 6fbf 7a81 2cbe 0eaa c1be cf2e fdbe
00000030: 2b44 1fbc 2a6c 8dbd 521e 2cbe 06ed bebd
00000040: 8e43 8d3e 7598 adbc ad9c b7bc b2ec b73d
00000050: 15c0 0bbe 1b19 873e 88aa c9be 8bd0 c1bc
00000060: c86e 41bd 47b1 9e3d b5bf 5e3e c31f e5bc
00000070: a1b3 95bd 681e fdbd 202b 583c aa8e 48bc
00000080: fd0b a73d 2b7d 643f 9db2 39bf d512 f0bd
00000090: 0ee7 81be fcf1 27bf 69ad 0ebe ec5f f73c
000000a0: 317a a53c c715 473c f589 5a3d 2868 04be
000000b0: acc0 a53d d584 56bd e0e9 48bc b98a 4c3e
000000c0: 1e60 ccbe 19a5 c43d 9d27 0bbd a523 f2bd
000000d0: c5d1 5f3d e396 353e bd7f f9bc 56f7 2f3d
000000e0: 6139 f6bd 02c5 f83c 7c13 bebe a1da 8d3f
000000f0: b082 1fbf 8aa1 d53d a433 c8bd bb47 31bf
00000100: 4fdd 50be 3f4a 923e a8b0 a93d 052b 16bc
00000110: b5ee 083e 4eee a53d 3d1d d63b f5f0 4bbc
00000120: 1a4a b33d 023d d53e 5605 32bf f2d8 39bd
00000130: c949 72bd a09d 2bbe b7c2 eebd f24c 9cbd
00000140: 9eed f3bd f8ee 3c3d 6fa2 aebd a681 48bd
00000150: d814 d2bd 88df 853f 4bae d4be 8827 29ba
00000160: c10e 88be 649f efbe 644b 75bd 7a01 4c3e
00000170: 6dad f5bc 0eb4 0c3e c33f 183f ffd3 773d
00000180: 74c4 fd3d 39c5 63bc 847a 6fbd 7494 123f
00000190: 12c7 54bf 2d06 903d 1050 613d 37d4 833d
000001a0: 7e35 ab3f dc31 c53c b103 943d d9c1 53be
000001b0: b525 a33d bb10 3cbe 7ac5 c43c 8a85 15bf
000001c0: 19d9 9ebe 4992 6ebd 43fe 45bc 6c7d 41be
000001d0: 4550 dc3c 814d 99bd f611 943d 5ccc 0d3e
000001e0: b6b3 883f 2ddf 44bd d3d7 293d 9bd2 2bbe
000001f0: 581c 8bbd e8ee 8f3f 4985 07bd 9d12 123e
00000200: e942 2ebd dab0 06bd 1d1d ae3f b31a 0b38
00000210: 82bd 0abe 7fb2 a7be 0937 213e e33e 9ebe
00000220: fb21 debc 291e 1cbf 76c7 ccbd c392 39be
00000230: 135a da3d dd78 b23d 79a2 1a3d dd67 a3be
00000240: 9b1f bcbc 6a79 eb3d f987 273f b71c 6abe
00000250: 70d4 4ebd 7cfa d4bc d00d 4abe bb15 c03f
00000260: 32f5 22bd 0cbf 323d c936 27bd a626 b13b
00000270: 5c06 fd3f 16fe d83c adab 653d cb13 6abe
00000280: 7254 1b3e 51c9 4ebe 301b 12bd add0 32bf
00000290: 7881 613e 2ecf b1bd 05ee 5fbd 9090 71be
000002a0: 216f 0dbd 9ca7 b3be 08b5 b9bb 8e16 68be
000002b0: cc41 1ebe 5219 77be 3e79 5fbd 4f39 0ebd
000002c0: 2fc3 2c3e 0b20 1640 52e4 11bd e80c 52bd
000002d0: 31ee 84bd 9841 4cbd 1c27 2640 c500 97bd
000002e0: f353 85bd 66dd ebbd 9bb6 17bb e03e 57be
000002f0: b179 2a3e 98f7 3bbf 5785 033f 1679 a8bd
00000300: fdb6 6cbd 5367 32be 95c5 933e 383f 01bf
00000310: d371 05bd a145 b3be 3011 bfbf d483 a9be
00000320: 0262 eabb 76a4 b3bd 4be3 303e d7f0 8340
00000330: 3d31 7abd 14ca 1bbc 3203 1ebe 94a2 0dbd
00000340: 31ba ab3c b4de 173d 823b b4bc 7e27 07be
00000350: 6ff4 243e cc10 56be 160a 14be 1de7 9abe
00000360: f8ca 013e b216 103b c165 443c 1ccd 413c
00000370: c3cf 1dbb 7560 22be 4a27 b5bd 4933 99be
00000380: 93ef 7dbc 9627 ec3c 8a85 083e e57a 533e
00000390: 711a 0d3e dbee 14be 9bea 6ebd 994c 89bc
000003a0: 4792 58be f858 c5bc 60ec 61be fa9c 983d
000003b0: e705 12be 6739 c3bc c67c 393e a247 ef3b
000003c0: 32c4 f9bc 3eb8 99bd 4796 e23d 8a46 f73d
000003d0: 4892 dabc 4cca ebbd f78a 0dbd 52e0 b0bd
000003e0: 5716 b2bd 8df0 b3be 7997 37bb d147 be3b
000003f0: 5679 0c3d a831 603d 9f4b 25be d766 06be
0.20768742 -0.027217772 0.044345614 0.09114691 -0.21759564 -0.13247554 -0.006636819 1.1183348
-0.9344836 -0.16846266 -0.37825054 -0.49449775 -0.009720842 -0.06905396 -0.16808441 -0.093225524
0.27590603 -0.021190861 -0.022413576 0.08980693 -0.13647492 0.2638634 -0.39387918 -0.023659011
-0.04722479 0.07748657 0.21752818 -0.027969247 -0.07309652 -0.12359315 0.013193876 -0.012241045
0.081565835 0.8925349 -0.7253817 -0.11722342 -0.25371593 -0.65603614 -0.13933338 0.030197106
0.020199867 0.012151188 0.053354222 -0.12930357 0.0809339 -0.052372772 -0.012262791 0.19974793
-0.39917082 0.096018024 -0.033973325 -0.11823205 0.05464341 0.1773334 -0.030456418 0.042960487
-0.12022663 0.030367378 -0.3712424 1.1082345 -0.6230879 0.10431202 -0.09775475 -0.69250077
-0.20396923 0.2857227 0.08285648 -0.00916553 0.1337231 0.08102094 0.006534247 -0.012447585
0.08754368 0.41648108 -0.6953939 -0.04537291 -0.0591524 -0.16759348 -0.11658233 -0.07631864
-0.11910556 0.046126336 -0.085270755 -0.048951767 -0.10257882 1.0458841 -0.41539225 -0.0006452729
-0.26573756 -0.46801293 -0.05988635 0.19922438 -0.029989922 0.1374056 0.5947229 0.06050491
0.12390986 -0.013902002 -0.05846645 0.5725777 -0.8311626 0.07032428 0.055007994 0.06436961
1.33757 0.024071626 0.072272666 -0.20679416 0.079661764 -0.18365757 0.024019945 -0.5840689
-0.31025007 -0.058244977 -0.0120845465 -0.18895501 0.026893744 -0.07485486 0.07229988 0.13847488
1.0679843 -0.0480644 0.04146559 -0.16779558 -0.067925155 1.1244783 -0.033086095 0.14264913
-0.04254428 -0.032883503 1.3602635 3.3165048e-05 -0.13548854 -0.3275337 0.1574365 -0.30907354
-0.027115813 -0.6098352 -0.09998982 -0.18122391 0.106617115 0.08714459 0.037752602 -0.3191518
-0.02296429 0.11497767 0.6544185 -0.22862516 -0.050495565 -0.025998347 -0.19731832 1.5006632
-0.039784618 0.043639228 -0.04082373 0.0054062186 1.9767566 0.026488345 0.056071926 -0.22859113
0.15168932 -0.20193984 -0.03567046 -0.69849664 0.22022045 -0.086820945 -0.054670352 -0.23590302
-0.03452981 -0.35088813 -0.0056673326 -0.22664854 -0.15454787 -0.24130753 -0.054558985 -0.034722622
0.16871332 2.3457057 -0.035618134 -0.05128184 -0.06490744 -0.049867243 2.596137 -0.07373194
-0.06510153 -0.11516838 -0.0023149613 -0.21020079 0.16647984 -0.73424673 0.51375335 -0.0822622
-0.0577917 -0.17422228 0.2886168 -0.5048709 -0.032579254 -0.3501406 -1.492712 -0.3310839
-0.0071527967 -0.08771603 0.17274205 4.1231494 -0.061082114 -0.009508628 -0.15430906 -0.034578875
0.020962806 0.03707762 -0.022001032 -0.13198659 0.16108869 -0.20904845 -0.14456972 -0.3025445
0.12675083 0.0021986184 0.011987151 0.011828687 -0.0024080134 -0.15857108 -0.088453844 -0.2992194
-0.0154990135 0.02882747 0.13332191 0.2065235 0.13779618 -0.14544241 -0.058329206 -0.016760157
-0.2114955 -0.024090275 -0.22062826 0.07451816 -0.14260064 -0.023831083 0.18114004 0.0073022405
-0.030489061 -0.075058445 0.110638194 0.12074001 -0.02668108 -0.115131944 -0.034556355 -0.08636536
-0.08695667 -0.35144463 -0.0028013869 0.005806901 0.034295402 0.054734856 -0.16142128 -0.13125168

base.input_compress.bias f4 [15]
00000000: b737 15be 4550 2b3f 2d57 003e ab65 893e
00000010: 33e8 153f 90d5 433e 9cbc 7dbc 0f8b 473d
00000020: 47e9 3d3d 7ab3 063f cf3f 0b3f b5ee a53b
00000030: 50ec 96be 1439 213e 1b78 30be
-0.14572035 0.66919357 0.12533255 0.2683538 0.5855743 0.19124436 -0.0154868625 0.0487166
0.04636505 0.5261761 0.5439424 0.0050638565 -0.29477167 0.1574443 -0.17233317

base.actor_compress.weight f4 [19, 79, 3, 3]
00000000: c787 e8be 3e54 14be f6f3 38be cd2c 7ebe
00000010: 0871 263e 920a e53d a0e4 83be 15aa b13e
00000020: b83b 443e 1e32 363c fb1d d13c 4e2b 333d
00000030: d771 13bd 97b5 d33c 6f7a a33c ca00 d2bc
00000040: f8fb 6b3b 89bf 0e3d d798 293d e1d2 923d
00000050: 618b ad3c 8cfe bbbb bed5 9abb 05b9 79bc
00000060: 29cf 963d 9d18 3e3d 8900 bb3d 1710 6d3e
00000070: 288c d33d 3f2c 133e ddbb 173f c3e9 ea3e
00000080: 33cb 823e b68a bf3e 9245 863e 1e04 fc3d
00000090: 7633 a8bd 34d3 03bd 34f4 cdbd 34c7 3bbd
000000a0: 1b7a b83b cb1e 36bb 3afd 433d a4ff a03d
000000b0: 41cc bc3d 93e5 92bd 856f e73a 1090 67bd
000000c0: 56c2 79be 812b 06be 78bb 0bbe c438 d1bd
000000d0: 8a70 08be 8906 0bbe 3e77 b23c e445 56bc
000000e0: d471 54bc 477f 123c 8e31 3ebc 1c7d 373b
000000f0: be58 6c3d 9f22 79bb f977 a03b bf91 c0bd
00000100: 4e24 06be d7c2 b7bd a14c 24bc a68a 563d
00000110: 5045 f3bc 3f14 d13e d65a a93e 9f09 913e
00000120: 20f3 d73c 3e27 9d3d 3645 173e 06e2 9e3d
00000130: 89eb 903d f533 1b3e d3ad ca3d e237 423e
00000140: 2e15 4e3e c2c5 443b 3237 02bd 3dff 183d
00000150: e251 00be 012c e0bd d63d 0bbd 26f7 cbbd
00000160: bc10 e7bc f301 933b c515 73bc 130a 75bd
00000170: 3e67 36be 9b17 263e ba06 5a3e 24fe 1f3e
00000180: 6f3d d9bd 754d 2bbe 189d 9abe 0ae4 34be
00000190: 1c0e 18be 7a70 00be 5aa7 41bd 2262 08bb
000001a0: 6083 843c cdf0 603d ffe8 c43d def6 163e
000001b0: b792 49bd b1c3 523d 37d4 58bd 7430 77bd
000001c0: 9614 7a3b 946b 73bc b803 093d 3697 a2bb
000001d0: 76e2 103d e57e 973e 7e87 e13e ffa0 eb3e
000001e0: 2dc9 be3e 22fc da3e e3ef b53e 4706 bb3e
000001f0: 4d4b d53e 5a77 993e fa4b ba3d eff6 983c
00000200: 4138 b73c 0a99 f8bc 164c 113d b5eb 0f3d
00000210: 1536 173c 66b3 9d3d 94c4 963c 6c6b 913d
00000220: 465f 4fbc 81fb 233d e6f8 ac3d a4ff ce3b
00000230: efef 453d 570d 17bc 179e 99bd fb42 ee3d
00000240: 475a 913c b909 94bb 80d3 213c 0eba 183d
00000250: 5579 ed3d 9a8d e73d 4cc1 f53c 9cda 223d
00000260: 1698 4a3d 6c29 e83a 2bc9 a7bd 16d0 9e3d
00000270: 313b 8b3d a9b4 c23b bbaa 113e 28f3 b83d
00000280: 7de3 e43b 8580 0e3e 7533 0b3e 01a1 f03d
00000290: cdd2 003e 3671 4e3e 242b 6a3e f76d 6b3e
000002a0: 04df b53d 5c7a 1e3e 9ca2 223e bf94 b1bc
000002b0: a2a7 aebc 125b d23d 00d5 8abe f525 c8bd
000002c0: 985e 52be 871b 12bd 20da c1bc 99af 5cbd
000002d0: f5df edbb 2229 fd3c f26b 193c b317 10bd
000002e0: 9fc4 4a3d 3f1b 46bd 4bec 26bc d388 d3bc
000002f0: a13f b5bd 04b9 333e d8f4 583e 9aa3 c83c
00000300: e180 693e ac79 823e 78bd 193e 7cf8 9c3e
00000310: 6bcd bc3e 7009 353d b822 203d 76c2 ba3d
00000320: 60c6 1c3e 9fde f2bc 93a5 413d 97ad 783c
00000330: 1ec8 db3b 437d 36bd e826 063c 22c5 603d
00000340: ca6f 973d 0cf2 833e a04b a83d 75b7 1cbe
00000350: 2a41 453e 3657 07bd 5e1b a13d fa25 f43d
00000360: 79b0 953d cfc3 613d be17 673e dd65 b93d
00000370: 18d4 033d 1201 893d 9e95 0ebe 9671 08be
00000380: 62c1 dfbd 7d74 a53d 5bc5 5a3d 79be 4e3c
00000390: 2def 2f3d 381f 813d f275 87bd 49e7 4e3d
000003a0: 0bb4 2a3e e9dc 98bd c5c8 853c e95d dd3d
000003b0: 6946 80bb 7367 533e 438d 593e 4820 a63d
000003c0: 86ff 7b3e 342c 4a3e 6445 343e 8998 a5bd
000003d0: 10bb a43e 1000 343e 225c 10be 7305 a63e
000003e0: 8a3e 8f3d 3699 86be 3569 303e 443c d93c
000003f0: 4764 4b3d f5d6 b9bd 01d7 abbd d7d6 303d
-0.4541609 -0.14485261 -0.18061814 -0.24821778 0.16254056 0.11183657 -0.25760365 0.34700075
0.19163406 0.011120347 0.025526991 0.04374247 -0.035997238 0.025843425 0.019955842 -0.025635142
0.003600834 0.03485063 0.041405525 0.07169128 0.021184625 -0.0057371315 -0.004725187 -0.015241866
0.073637314 0.04641019 0.091309614 0.23150669 0.10329467 0.14372347 0.5927103 0.4588147
0.25545654 0.37410516 0.26224953 0.12305473 -0.082129404 -0.03218384 -0.10056344 -0.04584427
0.0056297905 -0.002778935 0.047848918 0.078612596 0.09218646 -0.07172694 0.0017657137 -0.056533873
-0.2439054 -0.13102533 -0.13645732 -0.10215905 -0.1332418 -0.13576712 0.021785375 -0.013078187
-0.012966592 0.008941478 -0.011608494 0.0027998155 0.05770182 -0.003801502 0.0048971144 -0.09402799
-0.13099787 -0.089727096 -0.010028035 0.05237832 -0.029696137 0.4083576 0.33077115 0.28327653
0.026361048 0.076735005 0.14772496 0.07757954 0.07076175 0.15156539 0.098964356 0.1896663
0.20125267 0.00300251 -0.03179092 0.03735279 -0.12531236 -0.10945893 -0.03399452 -0.09959249
-0.028206222 0.0044863163 -0.014836733 -0.05982406 -0.17812821 0.16219942 0.21291628 0.1562429
-0.10607421 -0.16728766 -0.30197978 -0.17665115 -0.14849132 -0.12542906 -0.04727874 -0.0020810445
0.016175926 0.054917146 0.09614753 0.1474261 -0.049212184 0.051456157 -0.05293676 -0.060348943
0.0038159243 -0.014857192 0.033450812 -0.0049618734 0.03537222 0.29589 0.44048685 0.46021268
0.3726286 0.42770487 0.35534582 0.36528227 0.41659012 0.2997387 0.09096523 0.018672435
0.022365691 -0.030346412 0.03547295 0.035136897 0.009229203 0.07700233 0.018404283 0.07100567
-0.012656992 0.040034775 0.08445911 0.006317096 0.04832452 -0.009219489 -0.07500856 0.11633869
0.017743243 -0.0045177606 0.009877086 0.03728681 0.11595408 0.11306305 0.029999398 0.039759263
0.049461447 0.001771254 -0.081926666 0.07754533 0.06798399 0.0059419465 0.14225285 0.090307534
0.0069851265 0.13916214 0.13593848 0.11749459 0.12580414 0.20160374 0.2286802 0.22991167
0.088804275 0.15476364 0.15882343 -0.021677373 -0.021320168 0.102712765 -0.2711563 -0.09772865
-0.20543897 -0.035670783 -0.02366358 -0.0538784 -0.007259364 0.030903403 0.009364115 -0.03517885
0.04950392 -0.048365828 -0.010188173 -0.025822079 -0.08850027 0.17551047 0.2118715 0.024492074
0.2280307 0.25483453 0.15013683 0.3065833 0.3687547 0.044198453 0.03909561 0.09119122
0.15310049 -0.02964717 0.047277045 0.015178106 0.0067072054 -0.044553053 0.008187987 0.0548755
0.07394369 0.25770605 0.08217549 -0.15304358 0.1926314 -0.033042155 0.07866548 0.11921306
0.0730905 0.05511838 0.2256765 0.09052632 0.03218469 0.06689657 -0.13924262 -0.1332458
-0.10925557 0.08078859 0.05341087 0.012618654 0.042952705 0.06304783 -0.06614293 0.05051354
0.16670243 -0.0746401 0.016331086 0.108089276 -0.0039146435 0.20644931 0.21245293 0.08111626
0.24609193 0.19743425 0.17604595 -0.080857344 0.32173967 0.17578149 -0.14097646 0.32426032
0.0699435 -0.26288766 0.17227633 0.026517995 0.04965618 -0.09074203 -0.08390618 0.043173637

base.actor_compress.bias f4 [19]
00000000: 197f 843f 25c6 a93f 5e7a 003f 9cc2 a93e
00000010: edd6 0bbf 5c2b e53e 2fea 113f ec2d 013f
00000020: aea2 9bbd ce44 36bd 54f6 263f 1a06 463f
00000030: 8461 353f 5952 cf3e e758 913f b28e aa3e
00000040: 5358 603f 36db e93e b36a 5d3f
1.0351287 1.3263594 0.5018672 0.33156288 -0.54624826 0.44759643 0.5699796 0.50460696
-0.07599388 -0.04449921 0.65219617 0.7735306 0.7085192 0.40492514 1.1355256 0.33311993
0.8763477 0.45675057 0.86490935

base.critic_compress.weight f4 [8, 79, 1, 1]
00000000: 1fcf 523f b4aa a4ba 06a4 11bd 9841 3a3d
00000010: d50e 8abc b742 ce3e ea01 8abc 283c 14bd
00000020: 7bf9 a43d 17dd 6bbc 1bbf 823e 2b27 41bd
00000030: 8fa9 07bc 8401 5a3d 826b 61bb c43e de3c
00000040: 6bce 07bc 674f 30bd 2b05 223e 1f26 d3bd
00000050: 8dfd a5bb 24fc 113e 0480 e23d 5f05 d03d
00000060: 0cf6 c13d 064f 3c3d 51c2 f93c 2ce8 dbbd
00000070: 9663 1bbd 435c 083d 69fd 843a 09b1 c5bb
00000080: 3f9f 6ebd 2b23 473c bb3f e1ba 25a1 a1bd
00000090: b691 dc3d 82f1 8cbd a48d 91bb 290d f33c
000000a0: a2bf f6bc 468b 3abd ad20 a03d 16de 7cbd
000000b0: 1cef 833e 0ae3 9e3d 6392 6f3d ecd6 ca3c
000000c0: b45e 693b 145a 9b3d 8ea6 863c 22f7 1fba
000000d0: 92f1 4cbd dcb8 213b 6593 633c 54ae 8dbd
000000e0: 5f60 623d d150 0cbc 4706 8e3d 5395 713c
000000f0: b678 f23c ec85 c03d 0c58 da3c ce7a edbc
00000100: 9b34 fbbe 8ca5 ad3c 56a6 22bd 1955 a9bc
00000110: e3e5 9cbe 74f4 dabd f1de 8cbe ed26 693b
00000120: 02a2 f83d 8aae 81be abc8 a3bd 3b1b dabd
00000130: a7d9 aebe 1e7a 4fbd bf39 90bd eb50 24bd
00000140: d680 7d3f 36c0 d7bc f8f0 d0bc 3862 aebb
00000150: 25aa 05ba 796c 6a3b 70e0 53bc ef23 103c
00000160: 888b dcb9 166a bd3a f933 0dbb 60d7 0b3c
00000170: 84b4 523c 9226 2e3c 4f93 b23c 2d37 563c
00000180: a67b 033c 8b92 36bc 883e cd3c 3793 64ba
00000190: 7d40 61bc 2aee e9ba 54cb abbc 64d8 cd3a
000001a0: 7426 73bb 475b 54bd ffcb ecbc 77ce 713c
000001b0: 9ddc 5e3c d8df 7fbc f28a f8bc a33c a2bc
000001c0: 0314 173c 05ef cebb 4307 9a3c b9a2 59bc
000001d0: 5b3f 9abc f5d3 82bc c5ba 51bb 21a1 3bbb
000001e0: df58 cebc 5ede 2c3b a9f8 ed3b c93a 573b
000001f0: 0321 e7bb e144 1cbd 3e35 26bb b0bb a1bb
00000200: 5dc8 2d3d 2104 a73a efb9 f5bb ecf0 5dbd
00000210: d03f bcbb e001 f33b 8438 eebb 116e 603c
00000220: 41cc 903c be20 39bc f98b 0abc 5d9a 12bd
00000230: 5226 8cbc 459c 38ba c3cd ccbc b075 40be
00000240: a1a3 3ebd e9c1 2abd 0552 10bd ea57 48bd
00000250: 66ec acbd 4e4e 94bd c80e e9bd cf6d 4bbd
00000260: dfaf abbc ca27 49bd 87db 5dbd d0a4 dfb9
00000270: 514c 18bb ce39 2bbe f186 cabd c592 1abd
00000280: f5c1 4e3f d060 b4bc 1b8b fe3c c105 1ebd
00000290: 3eb3 6cbd 9494 72bd f94e 233a 7233 81bc
000002a0: 181d 4fba 1638 023d 2d25 3bbd 2ac6 2abd
000002b0: 4d3d 64bd 1f52 c8bc 071c 82bd e0df bfb9
000002c0: 1f9a 35b9 03ec 52bd 5d65 c7bc 4607 00bc
000002d0: bf79 40bd a2c3 acbd f208 5cbd e31b c43d
000002e0: 9443 5abd 32a7 afbd 0b12 9e3c 5075 a0bd
000002f0: 0372 08bd e080 833d 1c65 07be 94c1 b3bc
00000300: e1cc cebd 2939 20bd a43c 8d3c 13ab f9bd
00000310: ed66 58bd 99ae 01bd 3352 f9bc dee6 54bd
00000320: 9664 cb3c 6f42 85bc 9115 32be 7522 53bd
00000330: 89f5 92bd 7af0 02bc 11c1 16bd 0d5e 1839
00000340: 22d5 1fbe 6196 03bd e955 8bbd 9ecb 34bd
00000350: 9eaf d5bc d792 70bc 9162 2dbd 4458 18bc
00000360: ec50 0dbe 4bd5 afbc e00e 14be d9f2 edbc
00000370: 933e c7bc 84e2 323c 1a3e b0bd e718 30bd
00000380: 8ea1 02bd 22cb 01bb 0073 a6bd 63bd 5a3d
00000390: ca0f 223e 410e 72be 7078 afbd 1b82 c33c
000003a0: 92ef 35bd 4e9f 32bd c1c4 7dbd 0b9f 643d
000003b0: e709 36bd 1637 893e 3a48 82bd 9ca3 013e
000003c0: 45e2 5b3f 0f9e 3bbe a9a2 f23c 98b4 9cbd
000003d0: 8f95 81bc 6d50 d43d 7ad7 38bd baba bfbe
000003e0: 5d02 803e 368a 2b3c 0d5d 00be c397 51bd
000003f0: f74d d63d 6096 1ebe 3d8e ae3c bdd2 25be
0.8234729 -0.001256308 -0.035556816 0.04547271 -0.016852776 0.40285274 -0.016846616 -0.036190182
0.08055397 -0.014395974 0.25536427 -0.047156494 -0.008280172 0.0532241 -0.0034396355 0.027129538
-0.00828896 -0.043044474 0.15822284 -0.103100054 -0.005065626 0.1425634 0.11059573 0.101572745
0.09470758 0.0459738 0.030488165 -0.10737643 -0.03793677 0.033291113 0.0010146323 -0.006033067
-0.058257338 0.012154381 -0.0017185131 -0.07892064 0.1076998 -0.068820015 -0.0044419337 0.029669361
-0.030120675 -0.045542978 0.078187324 -0.061735235 0.25768363 0.07758148 0.058489215 0.024760686
0.0035609426 0.075855404 0.016436841 -0.00061021943 -0.050035067 0.0024676835 0.013890122 -0.06918016
0.055267688 -0.00856419 0.06934791 0.014745074 0.029598575 0.094005436 0.026653312 -0.028989222
-0.49063572 0.021197103 -0.03970941 -0.02067046 -0.3064414 -0.10691157 -0.2751384 0.003557618
0.121402755 -0.25328475 -0.07997259 -0.10649725 -0.3415043 -0.05065357 -0.07042264 -0.040116232
0.99024713 -0.02633677 -0.025505528 -0.005321767 -0.0005098901 0.003577022 -0.012931928 0.00879763
-0.0004206563 0.0014451172 -0.002154587 0.008535236 0.012860421 0.010629313 0.021798758 0.013074678
0.008025086 -0.011143337 0.025054231 -0.00087194465 -0.013748285 -0.0017847468 -0.020970978 0.0015704748
-0.0037101777 -0.05184486 -0.028905867 0.014758698 0.013602403 -0.015617333 -0.030339692 -0.019804304
0.00922108 -0.0063151144 0.01880229 -0.013283425 -0.018829038 -0.01597021 -0.0032002192 -0.0028629976
-0.025188861 0.0026377658 0.0072623086 0.0032841435 -0.007053496 -0.038151626 -0.0025361325 -0.004935704
0.04242741 0.0012742319 -0.0074989717 -0.05418484 -0.0057449117 0.007415995 -0.007269921 0.013698117
0.01767552 -0.01129931 -0.008456224 -0.035791744 -0.017108116 -0.0007042329 -0.025000459 -0.18794894
-0.046542767 -0.041688833 -0.03523447 -0.048911966 -0.08443527 -0.07241498 -0.113797724 -0.04966527
-0.020957885 -0.04911021 -0.054164436 -0.0004265667 -0.0023238847 -0.1672127 -0.09889019 -0.037737627
0.80764705 -0.02201882 0.03107219 -0.038579706 -0.057788126 -0.059223726 0.00062297244 -0.015771601
-0.00079007586 0.03179177 -0.04568975 -0.04169289 -0.055722523 -0.02445322 -0.06353002 -0.0003659716
-0.0001731892 -0.05149461 -0.024340326 -0.007814234 -0.046991106 -0.084357515 -0.05371947 0.095756315
-0.053287104 -0.08576812 0.019295713 -0.078348756 -0.033311855 0.06421065 -0.13222164 -0.021942891
-0.10097671 -0.039117012 0.01724083 -0.12190833 -0.052832533 -0.03166065 -0.030434703 -0.051977985
0.024828237 -0.01626703 -0.1739104 -0.051546533 -0.07175738 -0.007991904 -0.036805216 0.00014530886
-0.15608647 -0.032125834 -0.068034954 -0.044139497 -0.026084717 -0.014683447 -0.04233033 -0.009298388
-0.138004 -0.02146401 -0.144588 -0.029046463 -0.02432183 0.010918263 -0.08605595 -0.0429925
-0.03189235 -0.0019804914 -0.08127403 0.05340327 0.15826336 -0.2363825 -0.085678935 0.02386575
-0.044417925 -0.043608956 -0.061955217 0.055815738 -0.044443037 0.2679984 -0.063614324 0.12660068
0.85892135 -0.18322013 0.029618578 -0.07651633 -0.015818385 0.103669025 -0.04512737 -0.3744715
0.25001803 0.010469964 -0.12535496 -0.051170122 0.10464089 -0.15487051 0.021308059 -0.16193672

base.critic_compress.bias f4 [8]
00000000: ed08 4a3e 1c4c 3cbd 2ce5 cebc cc84 443f
00000010: 21f5 97bf a26c a03e 2d26 a13e 1a3c 8f3d
0.19729967 -0.04597102 -0.025255762 0.7676513 -1.1871682 0.3133288 0.31474438 0.06993885

base.critic_conv_1.weight f4 [1, 8, 20, 20]
00000000: 9b05 a5be 0e7d bbbe 748d 30be db0c c4be
00000010: e4d8 d7bd 6167 813b 5cd1 c5bd d5dd eebd
00000020: 3a0b 3abe 1f13 50be 5ef5 70bc 1c99 dfbc
00000030: dae8 51bc 4ab5 3cbe 87aa 04be a340 2ebe
00000040: e840 10be 83a0 93bd e5d9 8abe c862 b93b
00000050: 3485 bebe 4f41 da3d bd9f 8e3e 4a81 3f3e
00000060: ed3b 8b3e 2340 863e 0766 943d e0c2 093e
00000070: 49e7 ad3e 3a4b 9c3e a704 883e c856 923e
00000080: 12e1 c0bd f043 9fbe 7537 f1bd 456e 54be
00000090: 7339 80be 9577 e0bd bb14 5abe a2cb c83d
000000a0: 996d 4ebe 41ef a03c 703e b6bd 86dc d7bb
000000b0: 2804 293d 8c11 ae3d b577 98bd 2f06 aa3d
000000c0: 5d27 653d 7308 cebc e98b 6b3e 7a0a a33e
000000d0: 0a2c 3b3e 87f4 ddbd a1da 9ebc b82e f2bd
000000e0: d2de d3bd 5618 0dbe a71d 10bc f228 bd3d
000000f0: 0aa2 50be 1524 833d 9544 dabd 0a56 f5bd
00000100: b079 d13d 4c89 3e3e 2fb0 bd3d 5d7e d2bc
00000110: 9cf0 e4bc 45f3 acbb e9ed 123e c2ce 9a3e
00000120: b446 543e b00f c3bd 030b c7bd 89af 6ebe
00000130: 561f c0bd af67 36be 1831 61bd 8fc1 073d
00000140: ecfe 30be f468 dc3c 56f5 483d 64ab 0c3e
00000150: 8178 5c3e ea99 113e adc7 3b3d ed86 8f3d
00000160: c127 36bd 715f 91bd 3adb 903d 9781 af3e
00000170: b208 883e 0cd3 60bd 388a 49be e0bf 5abe
00000180: d628 f6bb db4c afbd 4ad0 93bd badd 0dbd
00000190: fadf 0abe fbff 853d f9cd 513e a05c 543e
000001a0: b60a 923d 74de b63d acf2 06bd 75dc 9bbd
000001b0: 1348 d2bb 1ddd ecbd aa5f babd 72e6 3c3e
000001c0: 3d11 8d3c d69e 88bd 5ff5 97bd fa22 14be
000001d0: b39d 66bd d5f6 c0bd 6c95 5fbe 7168 0d3e
000001e0: e9bb b3bc 8fae 013d d512 2d3e 418f ea3d
000001f0: 3e5e 173e 17ce 4bb9 ab28 91bd 38fc 3e3e
00000200: 00f6 443e fdf2 483d fd2c c93d 7f28 9c3e
00000210: fd82 c63e 6f98 09bd 9040 8d3c 32fa e7bd
00000220: 91bc bbbd a425 15bd d4c5 54be 7af7 153d
00000230: d642 d6bd 3ca3 cc3d e299 1b3d 1792 b0bd
00000240: e90f cb3d 53cb 2e3d a16d 533d b986 523d
00000250: 4e6b 1e3e b25a 7d3e ccbc dc3d 9c11 ce3d
00000260: 248c 873e 6b5b a13d 8559 e3bd 9c8d 6ebe
00000270: 96b4 acbd aca6 29be efdd 2dbe ce57 453d
00000280: 8ec4 a9be ba53 9c3e 5041 dabc 9b92 f8bc
00000290: 68d9 183d 4b5c 123e d143 343d 5aeb 2e3d
000002a0: 5981 4c3e 1344 813e 2c00 223e ae16 853e
000002b0: 9831 0d3e 7d4c 14be 4e58 583a 5592 75bd
000002c0: 522c 243e 58ba 973d ded5 c23d 7aae 533e
000002d0: 7251 92be 0b2a 0b3e 9d07 353e 5b7e 83bd
000002e0: 01a4 0c3e 653f 033d 81d6 943d 340a f93d
000002f0: c611 cc3d 8f04 583d a059 033e a538 5c3e
00000300: cae9 043e 1230 80bc 381a 3cbe a102 453d
00000310: 8a11 8a3e 1e82 523e 3624 3e3e 6e15 613e
00000320: 7f0e f2bd 7fcf 383e fe76 183e 2ca7 c33d
00000330: ceca 033a 7632 d13d a419 183e f95d 3d3e
00000340: 6884 103e 0d84 053e b4eb 5d3f 6373 a23e
00000350: e812 aa3d 035d 653d 31bc 133c 5729 f2bd
00000360: 0aec 81bd 38d5 36be 867d 03be 4504 de3d
00000370: 00cd e83d b025 8d3e bd24 4d3e 8e53 5e3e
00000380: 1794 523e 1dd1 6a3e e7fe 533e 51d1 5b3e
00000390: c83d 513e 6056 893e 4b85 7c3e 3e7a 953e
000003a0: 9941 2e3e ae36 b3bd b4ca 12be 97a6 4abe
000003b0: ae73 30be 69f3 9ebe d501 e5bd 4a63 d33d
000003c0: db7e 303e 3fdc e83d 22be 923d c25c 9abc
000003d0: 9763 7b3d 8fa3 0b3e 92b2 b33d 77e4 fe3d
000003e0: 7fd5 813e ee47 483e 1887 2f3e 277b e73d
000003f0: a584 a1bc 51b3 d73c 4c7e f8bd 3446 06be
-0.3223084 -0.36618847 -0.1724146 -0.38291058 -0.105394155 0.0039490913 -0.09659073 -0.11663405
-0.18168345 -0.20319794 -0.014706938 -0.027294688 -0.012811864 -0.18428531 -0.12955676 -0.17016844
-0.1408726 -0.072083496 -0.27119365 0.0056575276 -0.37211 0.10656988 0.27856246 0.18701664
0.27194157 0.26220807 0.07246023 0.13453245 0.3396552 0.30526143 0.2656605 0.28581834
-0.09417929 -0.3110652 -0.11778156 -0.2074519 -0.2504383 -0.109603085 -0.2129697 0.09804465
-0.20158996 0.019645335 -0.08898628 -0.0065875677 0.04126373 0.084994406 -0.07444707 0.08301961
0.055945743 -0.025150513 0.2300259 0.3184393 0.18278518 -0.108376555 -0.01939136 -0.11825317
-0.10345234 -0.13778815 -0.008796132 0.09236325 -0.20374313 0.064033665 -0.10657612 -0.11979301
0.10228288 0.18607062 0.0926212 -0.02569502 -0.027946763 -0.0052780234 0.14348568 0.3023587
0.20730096 -0.095244765 -0.09718897 -0.23309149 -0.09380977 -0.1781299 -0.05497846 0.033143576
-0.17284745 0.026905514 0.049062096 0.13737255 0.21530344 0.1421887 0.045844723 0.07008157
-0.044471506 -0.07098282 0.07073064 0.34278557 0.26569134 -0.05488877 -0.19681633 -0.21362257
-0.0075121922 -0.08559581 -0.07217462 -0.034635283 -0.13562003 0.06542965 0.20488729 0.20738459
0.07130949 0.08929148 -0.032946274 -0.07610408 -0.0064172833 -0.115656115 -0.09100278 0.18447283
0.017220134 -0.066709206 -0.07419848 -0.14466467 -0.056302737 -0.094220795 -0.21834344 0.13809372
-0.021940188 0.031660613 0.16901715 0.11453105 0.14782044 -0.00019436363 -0.07087835 0.18650901
0.19234467 0.049059857 0.09823034 0.30499646 0.3877181 -0.033592638 0.0172427 -0.11327018
-0.091668256 -0.03641285 -0.2077859 0.036612965 -0.10461967 0.09992072 0.03798855 -0.086216144
0.09915144 0.042674374 0.051618222 0.051398013 0.15470621 0.24741629 0.10778198 0.100619525
0.26474106 0.07878765 -0.11101059 -0.23296207 -0.084328815 -0.16567487 -0.16979192 0.04817944
-0.33157772 0.30532628 -0.026642472 -0.030343344 0.03731671 0.1429302 0.044009987 0.042704917
0.19971217 0.2524725 0.15820378 0.25993866 0.1378845 -0.14482303 0.00082529045 -0.059954006
0.16032532 0.07408589 0.09513448 0.20672026 -0.28577763 0.13590257 0.17678685 -0.06420585
0.13734438 0.03204288 0.07267476 0.12160149 0.099643275 0.052738722 0.12827158 0.21505983
0.12979808 -0.015647922 -0.18369377 0.04809821 0.26966506 0.20557448 0.18568501 0.21980831
-0.11819171 0.18047903 0.14889142 0.0955337 0.00050274737 0.10214703 0.14853531 0.18492879
0.14113009 0.13038655 0.8668778 0.31728658 0.08304387 0.055996906 0.009017036 -0.11824291
-0.06343849 -0.17854774 -0.12840852 0.10840658 0.11367226 0.27567816 0.20033546 0.21711561
0.20564304 0.22931333 0.20702706 0.21466567 0.20433724 0.2682371 0.24660222 0.29194826
0.17017211 -0.08750664 -0.14335138 -0.19790111 -0.17231628 -0.31045082 -0.1118199 0.10321672
0.17235892 0.113701336 0.07165171 -0.018843058 0.061374273 0.13636611 0.08774294 0.1244592
0.25358197 0.19558689 0.17141378 0.11302786 -0.01971657 0.026330622 -0.12133464 -0.13112718

dist.conv.weight f4 [19, 19, 1, 1]
00000000: e9f3 b83f e8c7 1c3f d2a4 163f c076 173f
00000010: 8d4d 08be e533 ba3e 39a3 a83e 3b76 543f
00000020: 33ab 983d 1dcf adbc 03aa 383f 2878 873f
00000030: d212 043f e55f 683e 6cf3 403f 2fcf b93e
00000040: a26a ef3e 6035 2c3f 1751 473f f9b6 573c
00000050: 5ca7 803f 479c f23c 2906 4a3d 1009 debc
00000060: 8234 7b3e 5892 1c3d 4ebf ad3d 2aad 053d
00000070: 8d6d f23b ec3d 653d b661 1f3d c3cf 82bc
00000080: 6c05 02be 5f89 7b3c 9a1b 0a3e 5a3f fb3d
00000090: 9034 273d 93d1 02bb c2ac 033e f4b1 c83d
000000a0: aa61 8b3f 37c3 713d c1bf 253d d594 9c3e
000000b0: b4f4 803d 758e bc3d ac6e e33c d5f0 133d
000000c0: 695a ff3c 93fd f83d 849f a73d b3df b7bd
000000d0: 517e 663d 671f 773e 3e9c 783e 3577 a93d
000000e0: ee70 923d aeaa 0a3c 9fd4 bd3c 73d2 59bc
000000f0: 7203 853f 5ac6 b93c 8f43 033d dc04 473c
00000100: 7e1c 733c 872f 133c ba35 a3bc e192 1e3c
00000110: bd70 133d 31e7 1fbd eb15 363d 3415 893b
00000120: 42c0 523d 1c7d 383d 1df5 06bd 0409 013d
00000130: ee2b 94bd 0dac 0b3c 5fb1 6c3b 67fe c437
00000140: 731e 763f 6731 8b3a 5459 fbbb 6b5b 423c
00000150: f68d 1bbd 3825 733d 2f3b 07bd c787 fb3c
00000160: 14f1 80bc 55bd fa3c 03bb 7f3c 619d 353d
00000170: fa45 1fbc 1ad9 e5bc 1678 4d3d b37b ab3d
00000180: cf49 af3d 90ee dd3d db98 573e ce99 493e
00000190: b1fc ba3f d96f 653e c2e7 613e 016b 593e
000001a0: ecca 543d 0b9e 073e 8931 683e ffd0 b63d
000001b0: 8404 013c 398b f73d e731 c63e 4377 923e
000001c0: ea50 083e 16ca 773e 0a85 7e3c e673 ccbc
000001d0: 59f9 003d 9e8d 703d 1ef6 b83d fdc9 e03e
000001e0: ae17 883f f386 9a3d 4118 b13d 8046 063d
000001f0: 4351 c43c ddea 1b3d b332 113d 5b98 febc
00000200: 01c9 4dbc 6d8e 843e 225b a23e d167 b03b
00000210: 35d7 ec3a ae01 ffbc 2287 223b e82e 1c3e
00000220: e6e6 9d3d 24b2 383f 276b 733f 53c2 213d
00000230: edc7 643f da46 c93d 4515 c6bc e89c 6c3e
00000240: e071 c7ba 42e2 f7bc ebdc 36be 913e 8f3c
00000250: 816b 8c3f f63d 2e3f c928 143e 29c9 0e3d
00000260: da72 e23c f6ed 223c 9d19 f03c d4e3 453d
00000270: 0d79 093e 2bf8 ab3e 1a39 d23c 1705 963d
00000280: 41e8 883f 339d 0a3c 064e 4f3d 65d8 4fbb
00000290: 1844 a8bc 338c f8bc feef 273c b7a5 823e
000002a0: 48e0 4e3e c2ff 053c 48ee 8a3b e166 38bd
000002b0: ac7e dbbc ee1f 43bd 6bed b23b db61 b63b
000002c0: c717 de3d 29cd cfbc efa9 36bc e805 f03b
000002d0: b097 813f 5033 35bd 88a1 f9bc 6ef4 fcbb
000002e0: 216e babc f7d4 3a3c 3dfa 043d 0681 e7bb
000002f0: b415 30bd 3e9a e1bc 4647 6a3e 2cc5 c83e
00000300: e42d a93e 26be cb3e 52f3 ad3d ca11 fc3e
00000310: cac0 a73e 33da c83e 7e1c 413e 49c1 893d
00000320: 9f99 953f bea6 b73e 3b2c 863e a7bd 483d
00000330: e17a 5a3e 0d6a e43e c026 1c3e 318a 603e
00000340: dcce 8e3e c953 febd 7c57 7ebd 0c48 55bd
00000350: 51c7 fd3c 2d6c 1c3d 2371 333d 3a85 96bc
00000360: 1aed ebb9 6ae4 f1bc c828 0b3c 62eb 13bd
00000370: 82d7 813f 18ee 4fbd 2d9a 95bd e9ae 18bd
00000380: 31ba 013d 38a5 ed3c 03b7 43bd 08dd 67bc
00000390: b3a4 9c3d 785a a83d 9bef c33c 19e8 8a3d
000003a0: 3791 973b 440a 0c3e a016 be3d 37c8 d63d
000003b0: 80ed 4cbd 93bd 10bc b176 a23c 6934 7d3d
000003c0: 09fc 883f 71a3 943d 20c0 aa3d d745 233e
000003d0: 2a3e 2e3e e415 ae3d 2bcf 713d 1f9e d03e
000003e0: b62a 3c3f 2bc9 153c 8a9b 2d3e 04c2 95be
000003f0: d9f3 c7bd 591d aa3e d254 a13e 5e49 1fbe
1.4449435 0.6124253 0.58845246 0.59165573 -0.13310833 0.36367717 0.3293703 0.82992905
0.07454529 -0.021216923 0.7213442 1.0583544 0.5159122 0.22692831 0.7537143 0.3629088
0.46761042 0.67268944 0.7785811 0.013166183 1.0051074 0.029615534 0.04932228 -0.02710393
0.24531749 0.0382255 0.08483754 0.032635845 0.0073983134 0.055967256 0.038911544 -0.01596821
-0.12697381 0.015352576 0.13487092 0.12267943 0.040821612 -0.0019961342 0.1285887 0.09799567
1.088918 0.059024062 0.040466074 0.305823 0.062966734 0.09206859 0.027762733 0.036118347
0.03117104 0.121577404 0.08184722 -0.08978214 0.05627281 0.24133073 0.24278352 0.0827469
0.07150446 0.008463545 0.023172675 -0.013294804 1.0391676 0.02267759 0.03204685 0.012147155
0.014838336 0.008983499 -0.01992308 0.009678573 0.035996187 -0.03903884 0.044454496 0.004183436
0.051452883 0.04504119 -0.032948602 0.03150274 -0.072349414 0.008524907 0.0036116464 2.3483486e-05
0.9614021 0.0010619581 -0.007670561 0.011862616 -0.03797718 0.059361666 -0.033015426 0.030704392
-0.015739955 0.030607859 0.015608552 0.04433954 -0.009721274 -0.028057624 0.05016335 0.08373203
0.08559 0.10836518 0.21054403 0.19687578 1.4608365 0.22405948 0.22061065 0.21232225
0.051951334 0.13243882 0.22675146 0.089265816 0.007874612 0.120871015 0.38709947 0.28606614
0.13312116 0.24198183 0.015534649 -0.024957608 0.031487796 0.058728807 0.09031318 0.43904105
1.0632226 0.07545271 0.08647204 0.032782078 0.02396453 0.03806578 0.03544874 -0.031078508
-0.01256013 0.25889912 0.31710154 0.0053834696 0.0018069508 -0.03112873 0.0024799784 0.15252268
0.07710056 0.7214682 0.95085377 0.039491963 0.8936756 0.09827967 -0.024180064 0.2310673
-0.0015216433 -0.030259255 -0.17857711 0.017485889 1.0970308 0.68063295 0.14468683 0.03485981
0.027642656 0.00994443 0.029309088 0.048312977 0.13425083 0.33587775 0.025661994 0.073251896
1.0695878 0.008460331 0.05061152 -0.0031714675 -0.020540282 -0.03034029 0.01025009 0.25517055
0.20202744 0.008178653 0.004239831 -0.045019988 -0.0267938 -0.047637872 0.0054604313 0.0055658645
0.10844379 -0.025366383 -0.011148914 0.007324923 1.0124416 -0.04423839 -0.030472532 -0.007719568
-0.022757592 0.011403314 0.03246521 -0.0070649413 -0.042989448 -0.027539369 0.22878751 0.3921293
0.33042824 0.3979351 0.08493675 0.49232322 0.32764274 0.39228973 0.18858525 0.06726319
1.1687506 0.35869402 0.2620562 0.04900899 0.21335937 0.4461216 0.15249157 0.21927716
0.27892196 -0.124183245 -0.06209515 -0.052070662 0.03097883 0.038189102 0.043809067 -0.018374074
-0.00044999347 -0.029527862 0.00849361 -0.03611315 1.0143893 -0.050764173 -0.07304797 -0.037276182
0.031671707 0.029009447 -0.047781955 -0.014151819 0.076486014 0.082203805 0.023917964 0.0678255
0.0046254653 0.13675791 0.09281659 0.10487407 -0.050031185 -0.0088342605 0.019831987 0.06181756
1.0701915 0.072577365 0.08337426 0.1594461 0.17015901 0.08500269 0.05903546 0.40745637
0.7350267 0.0091422 0.16953865 -0.29249585 -0.09763307 0.33225515 0.31510025 -0.15555331

dist.conv.bias f4 [19]
00000000: 32e1 3b3f cec4 d5bd 120d 773c fd76 50bd
00000010: cbbc 02bf 70bf 843e 053d c93d 3564 2f3e
00000020: 9919 1f3e f1d4 1bbe 3cfe 073e f083 7ebe
00000030: 1f87 01be 2263 d53e 73af d9be 0859 613e
00000040: 9b02 d73d 520c db3d 4b2a 2d3e
0.73390496 -0.10437928 0.0150788 -0.050894726 -0.51069325 0.25927305 0.09826092 0.1712807
0.15537108 -0.1521795 0.13280576 -0.24855018 -0.12649201 0.41677195 -0.4251667 0.22006619
0.10498544 0.10695709 0.16910665
