trained_models/a2c/trial_2/MicropolisEnv-v0_weights.pt (torch_old, 893296 bytes, 13 tensors)

base.conv_0.weight f4 [64, 104, 5, 5]
00000000: 304b aabc 119a bbbb f457 efbc cb1c 17bd
00000010: c0f0 5bbd 3daa e73a d9d7 62bd 10cc 16bc
00000020: 7117 1ebd 2ed0 2ebd a884 5ebd 4a8b cf3b
00000030: 3d3b 50bd b61d 16bd 8b4a 2abc 9dcd 26bd
00000040: ec68 4ebd 1544 62bd 0375 1cbd fcaa aebc
00000050: 2c6c 06bc 034b 85bc 19c8 32bd bb5e 4dbb
00000060: 4637 d2ba 167c 12bc 6fe5 843c 4582 ad3b
00000070: 82cd c53c 81f1 bdbc e2b7 9abb 1a50 82bc
00000080: b71f 31bd 4966 1dbd cdeb b6bb 7123 75bb
00000090: 2037 673b e9d0 68bc 6fe6 ca3b 0c8a 053b
000000a0: cf46 9c3b 7196 e4bb 7757 613b 7319 41bd
000000b0: 6a51 7e3c 8b0b c03c 8070 083d 91a1 843c
000000c0: 9e51 693c 67aa 8dbc b5df b03c 5dba dabc
000000d0: 3896 b3bc bbc0 af3c adba cf3c 35c1 753a
000000e0: ad18 d7bb bfd5 92bb 92ec f63b 280a 7abb
000000f0: ef31 90ba 29b3 773c bda8 463d 6bd5 d83c
00000100: 4fa4 c03c b2c2 923b f2d3 543c 34e1 233d
00000110: 3289 b0bc c04c dfba c0cb e93c f321 0f3c
00000120: cb08 4c3c f1a0 dbbc 737f 093d 0a5e fdbc
00000130: f66c a4bc 535a 4b3b e94f 933c 21c5 4dbc
00000140: 6826 893c 02e4 8d38 1f7b 893c 9ecb 19bd
00000150: 76f5 8a3c 334e 8d3c 8097 dcbc a54e 20bc
00000160: fde3 8f3c 1920 ad3c e2ec 24bc 32ed 08bd
00000170: aa73 86bc f382 1c3c b125 b63c 449d e8bb
00000180: 4349 783c 9203 6dbc 3254 a4bc 2c87 943c
00000190: f0b6 873c 3417 833c 0ce9 43bb e4ba ddba
000001a0: 7ee7 a8bb e445 3c3b 5f97 73bc c23d 4abc
000001b0: 8522 6dbc 5505 25bc 3c71 f33c 95c5 6ebb
000001c0: 96c9 913c adbf b5bc 7380 29bd 9c10 36bc
000001d0: ae6e ed3c 5fbb 233b 2ef5 843c 2f1e 90ba
000001e0: f7e8 9fbc e235 62bc d6b1 46bd fd6b 92bc
000001f0: 3d84 393b 62dd 40bb 9e3c 5dbc 935f 2a3c
00000200: ca94 a13c e266 423b 5e71 3cba bd1a 21bd
00000210: 585c 633b b9ef 69bb 4b3e 04bd 7b0b ab3b
00000220: 8825 a3bc 7f04 83bc bfec aabc b4e7 463b
00000230: 2563 20bd 4fd0 793b 6860 f73c 1997 3b3c
00000240: 8644 a73b 5998 f0ba 6687 b0ba e304 32bd
00000250: e874 9cbb c83b 6c3c 4460 0e3b 67c6 a33c
00000260: d7e1 7a3c 8eee 98bc 9ea4 01bd 071a 843a
00000270: a247 95bc f06e 61bc e4ef 8aba 9af7 d9bc
00000280: 0af0 bfbc 1364 10bd 9da5 87bb 8271 a83c
00000290: c7c7 9f3c f024 38bd ed67 e3bb 28c7 e3bb
000002a0: 002f 983c a766 10bd db0a 42bc 8b3c 4cbc
000002b0: 53ad 933c cea7 643b f5bd b4bc bb3e 0f3a
000002c0: a711 57bc 71ae 5abb c4d9 1e3d 5819 4fbc
000002d0: 10bb 3bbd 8603 2ab7 2300 f43b a59b 04bc
000002e0: 193e 873c 03ef 883b f025 80bc bfbf 5c3c
000002f0: 50ef 98bc 2e96 debc d53b b43b d4e0 19bc
00000300: a6cd 8cbc c4f3 5ebc dfd1 2b3c adc5 debb
00000310: 0868 393c 628b 9e3c b7c7 29bd 7b61 81bc
00000320: b67d b4bc 6bf8 54bc 3cb7 c0bc 7134 003d
00000330: 0954 723c 5917 233c 4c97 ddbb b0f4 f4ba
00000340: 85bb aebb f6e0 e5bc 362a f03c 5c7a 9fbc
00000350: eecd c6bc 0a94 71bc bf73 9f3c 2793 9abc
00000360: 46a1 6fbc a2a1 8bbc 1fec 3fbc 7488 10bc
00000370: 5b14 babc e5cb 273c b857 8a3c dd44 e0bc
00000380: cc20 b8bc 2d99 e13c 59cd 6b3c 91bb 6b3b
00000390: 02b8 2cbd b8d0 fa3c bbd9 c5bc c72e bdbc
000003a0: 7a72 763c 2204 bd3b ef0a 4fbc 82b4 c5bc
000003b0: 9a4b a5bb a51b ed3b 3a5c 89bb c2cc a4bc
000003c0: 99b1 89ba af77 46bc fe03 a3bc d66a b93c
000003d0: 7b45 7b3b a3ed 95bc c77e a03b 1e56 453d
000003e0: a53c febc 1465 10bc 9fd7 76bb 8b51 b4bc
000003f0: 664d 623d 4780 e53b d141 6d3c ec47 9ebc
-0.020787805 -0.0057251533 -0.029216744 -0.036892693 -0.053696394 0.0017674636 -0.05538163 -0.009203926
-0.038596574 -0.042679004 -0.05432573 0.006333743 -0.050837744 -0.03664943 -0.010393749 -0.04072343
-0.05039303 -0.05524071 -0.03819753 -0.021321766 -0.008204501 -0.01627112 -0.04364786 -0.0031336981
-0.0016038201 -0.008940717 0.016222684 0.0052950704 0.024145845 -0.023186447 -0.0047216276 -0.015907336
-0.043243136 -0.038427625 -0.005582309 -0.0037405158 0.003528066 -0.014209964 0.0061920206 0.0020376472
0.004769183 -0.006975942 0.0034384409 -0.04714341 0.01552234 0.023443004 0.033310413 0.016190322
0.01424065 -0.017293168 0.021591047 -0.026700193 -0.021922216 0.021454206 0.025357569 0.00093747984
-0.006564221 -0.004481047 0.0075355256 -0.0038153026 -0.001100121 0.015118399 0.048500765 0.026468953
0.023515848 0.004478776 0.012989985 0.040009692 -0.021549795 -0.0017036423 0.028539538 0.0087361215
0.012453268 -0.026810141 0.03356881 -0.03092863 -0.020071488 0.003102918 0.01798244 -0.012559206
0.016741946 6.765874e-05 0.016782342 -0.0375477 0.016962748 0.017249202 -0.02692771 -0.009784375
0.017564768 0.02113347 -0.010066243 -0.033429332 -0.016412575 0.009552705 0.02223477 -0.0070988256
0.015154186 -0.014466183 -0.020059679 0.018130861 0.016566724 0.016002275 -0.0029893545 -0.001691666
-0.005154549 0.0028728181 -0.014867633 -0.012343826 -0.014473562 -0.010072072 0.02971708 -0.0036433686
0.017796319 -0.022186125 -0.041382264 -0.011112358 0.02898344 0.0024983508 0.016230192 -0.0010995324
-0.019520266 -0.013806792 -0.04850944 -0.017873758 0.002830758 -0.002942883 -0.013503222 0.010398763
0.019724268 0.0029663374 -0.0007188524 -0.03933214 0.0034692492 -0.0035695864 -0.03228597 0.0052198744
-0.019915357 -0.015993355 -0.020864842 0.0030350508 -0.03915705 0.0038118546 0.030197337 0.011449599
0.005104604 -0.001835595 -0.0013468086 -0.04346169 -0.0047746785 0.01441855 0.002172486 0.019992067
0.0153126335 -0.01866844 -0.03165113 0.0010078558 -0.018222634 -0.01375936 -0.0010600057 -0.026607323
-0.02342989 -0.03525169 -0.0041396157 0.020561937 0.019504441 -0.0449571 -0.006939879 -0.0069512315
0.018577099 -0.035254147 -0.011843408 -0.012465606 0.018026983 0.0034890058 -0.022063235 0.00054643647
-0.013126767 -0.0033368135 0.038781896 -0.01264032 -0.045832694 -1.013361e-05 0.0074463054 -0.008093749
0.016509103 0.004178883 -0.01564309 0.01347345 -0.0186688 -0.02717122 0.0055002966 -0.009391982
-0.017187905 -0.013607923 0.010487049 -0.006798467 0.011316307 0.019353572 -0.04145023 -0.015793553
-0.0220326 -0.012998681 -0.023524873 0.031300012 0.014790543 0.009954297 -0.0067624208 -0.0018688645
-0.0053324127 -0.028061371 0.029317003 -0.019467525 -0.024268117 -0.014744768 0.019464372 -0.018868996
-0.014625853 -0.017044846 -0.0117140105 -0.008821595 -0.022714784 0.010241483 0.01688753 -0.027376587
-0.022476576 0.02753886 0.01439222 0.0035969953 -0.04216767 0.030617103 -0.024151674 -0.023093594
0.015041942 0.005768315 -0.012636884 -0.024133924 -0.005044413 0.0072359615 -0.0041919025 -0.020117167
-0.0010505199 -0.012113496 -0.019899365 0.022633951 0.0038340974 -0.01830179 0.0048979255 0.04817783
-0.031034777 -0.008813161 -0.0037665141 -0.022011539 0.055249594 0.0070038172 0.014481024 -0.019321404

base.conv_0.bias f4 [64]
00000000: eba9 39bd cb69 05bd 16f2 0ebd a77b 22bd
00000010: 6c23 5fbd 671d 08bd 4823 00bd b566 fabc
00000020: 5887 00bd c5a5 79bd f3c2 0bbd ca30 0cbd
00000030: 811a b2bc aab9 95bd 60ef cbbd 347a fcbc
00000040: e10d d8bc bae0 9cbd 7715 76bd 94a0 dabc
00000050: 14fd 0d3d 0023 ffbc 8f43 14bd 7a91 0bbd
00000060: 8b0a f3bc dac6 26bd 213a 83bd b9df 21bd
00000070: 5f4c babc 5da5 5abd aeda 7ebd 4c1f b53d
00000080: 38cf 19bd 8284 e1bc 82b8 febc 6593 77bd
00000090: d9ad 2abd 0065 113c 226e 96bd ae03 0f3d
000000a0: 3a06 d8bd 08e8 33bd 482f 33bd 0034 b1bc
000000b0: 951d 28bd f0d3 78bd 6f7e 8ebd 9d61 67bd
000000c0: 2b33 11bd cccf 03bd d759 75bd 85e7 fabc
000000d0: 0caa 24bd 0349 38bc c598 40bd 0142 19bd
000000e0: e9ba 06bd 21e3 e0bc c57b 12bd afa0 93bc
000000f0: fdd5 26bd c98f 0cbd 829e 70bd 60a3 91bd
-0.045328062 -0.032571595 -0.03489884 -0.039668705 -0.05447714 -0.033231165 -0.031283647 -0.030566553
-0.031379074 -0.060949106 -0.034121465 -0.034226216 -0.021741154 -0.07310803 -0.099577665 -0.03081999
-0.026373805 -0.07660051 -0.060079064 -0.026687898 0.034665182 -0.031144619 -0.03619724 -0.034074284
-0.029668113 -0.040716983 -0.064075716 -0.03952 -0.022741495 -0.05338036 -0.062220268 0.0884386
-0.037551135 -0.027529005 -0.03109384 -0.0604433 -0.0416697 0.008874178 -0.07345225 0.03491562
-0.105480626 -0.043922454 -0.043746263 -0.02163124 -0.041043837 -0.060748994 -0.06957709 -0.056489576
-0.03544919 -0.032180592 -0.05990013 -0.030627975 -0.04020123 -0.011247876 -0.047020692 -0.03741646
-0.032893095 -0.027452054 -0.035762567 -0.018020956 -0.04073142 -0.03431681 -0.058744915 -0.071112394

base.conv_1.weight f4 [64, 64, 3, 3]
00000000: eb42 86bc d0e3 37bd 8361 013e 9f16 9bbd
00000010: 3187 b8bd 8be3 abbd 5cd1 d5bc 27d1 f53b
00000020: 30b8 66bd 4439 95bd 2668 69bd e0dd d93c
00000030: 8ead e5bd c491 e4bc c5f0 6cbd e023 7abb
00000040: 3d5c 85bd c90c 80bd 697b 8d3c 31f3 15be
00000050: 3ea0 95bd 4f21 febd a4d3 d8bd 4c48 0dbe
00000060: ff0c 0cbe 4f63 32be 44de 0bbe 696a 9cbc
00000070: 6ed2 abbc 5f33 4b3a 4118 2dbc f379 173c
00000080: f708 283b 8033 83bd 9f52 52bd b438 aa3b
00000090: f83d b3bd a31b af3c 0332 793c db88 223c
000000a0: e00f 82bd 4b11 9dbd 1023 99bd 7405 7ebd
000000b0: e82d b3bd 9446 f3bd b04b 04bd cbdd 06bc
000000c0: f1f5 2bbd 3825 78bd ebed 083d c404 07bd
000000d0: 7ff6 f0bc f9bd c7bc a5c6 8ebc 3dbb 38bd
000000e0: 8a5e 1cbd 5921 a33b 54a0 a8bd 22cb b2bd
000000f0: dfc9 52bd 9702 e1bd e8fe 8ebd 650f cfbd
00000100: bb8e 14bb b794 89bd 0698 c7bd c4ce 7cbd
00000110: 5b41 24bc 11e6 55bd 0313 0ebd aff9 00bd
00000120: 9fd2 2dbd 208c 32bd 0a6f b7bd 64b3 84bd
00000130: 9331 2cbc 3709 cf3c bda9 bfbd 60c0 d1bc
00000140: 9f46 86bd e93b 9ebd efa1 17be 996b b2bd
00000150: b78e 19be 900e 07be 103c 69be 23fc b7bd
00000160: 6d74 24be 1b6b a8bd 8f5d 06bd 211f 28bb
00000170: 084a 673c 81da 10bd 780f 53bd 22e5 6b3d
00000180: 1092 67bd bcba 17bd 5dc0 7a3c 1428 02bd
00000190: 243b 4d3c e565 1b3c 8caf 96bd bf61 bbbb
000001a0: 805f fa3c cabc a5bd f751 083c 8166 0abd
000001b0: dcee 62bc 9225 dabd 8fbd 05be c831 b73c
000001c0: 3442 c2bd cf2c 52be 0161 e73c 52d9 03bd
000001d0: f07c 17be 7a6d d23c f20e 50bd 8260 82bd
000001e0: bac0 a0bc cded 663d 268f 94bd a6ca 14bd
000001f0: fdd3 8abd 0a97 90bc 5a81 cdbd 8703 8ebd
00000200: d40e efbd d794 53bc 95b8 e1bc 1a31 92bd
00000210: 3343 89bc 77fd 90bd fc14 f2bd 48f3 04bd
00000220: 8ff1 85bc e5f5 9aba 0d48 2cbd 745c cdbd
00000230: e6ef 0d3c b03b 693c 011c d13c 60a1 98bd
00000240: 4d5e 81bd 0273 1ebd bd0e d33d fb99 86bd
00000250: 8e31 cabc 5bba 753d 6423 70bd b175 233b
00000260: 1483 2fbd 1e14 07be 0e31 033d c33f a23d
00000270: ba61 3ebd 8e62 7dbd ed36 aa3c 147d 2abe
00000280: 831c ec3c 304b 8fbd 6d63 2bbd 9ad0 06be
00000290: 4067 80bd 2629 673b 6237 a9bd 4b0a 00be
000002a0: 2414 303d e771 243b 1528 7bbc d682 d53c
000002b0: f425 ebbc 4dad 9dbd b401 febc 3399 c1bd
000002c0: 43b8 3e3d d4c1 74bc 83cc 4d3a 8d68 14bd
000002d0: 816e 1dbe de79 c7bd a193 13be d061 e4bd
000002e0: 1217 8bbd d9ae 1ebd 83c9 66bd 9315 35be
000002f0: ad3f 94bc 0118 5a3c 2372 a1bd 6fdd 97bd
00000300: a1da 7cba f73c d9ba 8a3d c2bd 3249 923c
00000310: 7778 1cbd e7e4 02be 7fbc 3c3d e78c 27bd
00000320: cc98 9bbc 2666 1dbc 6f88 64bd abd1 003d
00000330: c6db 62bc c886 0bbd bb27 84bd f9ba 8dbd
00000340: 5b73 61bd 8666 dd3c fb6e ebbd 4394 703d
00000350: a974 0d3d acb3 063d 846e ca3c ae8a 5bbd
00000360: 823d ad3b cb13 96bc 2174 1ebc 9589 72bc
00000370: fa60 29bc 268f 373c d58c 29bd 36de 0b3b
00000380: e1cf 84bd cd46 2e3b cc75 f5bc a07d 213c
00000390: 0db4 583d 73b2 473d 7bb6 da3d 3006 853d
000003a0: a933 483d 1a8b 363e 0cdb aebb 3ddf f33c
000003b0: 33ce 473d 9721 5fbd 169d c8bc 7d5e 163e
000003c0: aa34 5fbc c050 be3c 8122 a93d b0c1 46bd
000003d0: 6f8d 98bd 5c7a e8bc 434a 8ebd 0c61 a13c
000003e0: e4a8 3e3d 3719 c4bd ce20 0d3d 7993 a1bc
000003f0: f3cb 03bc 7072 913c b9e6 5dbd 0b5c 10be
-0.01638933 -0.044894993 0.12634854 -0.07572674 -0.09010161 -0.0839301 -0.026100807 0.0075017395
-0.056328 -0.07286313 -0.05698409 0.026595056 -0.112147436 -0.027901538 -0.057846803 -0.0038168356
-0.06511734 -0.062524386 0.01727076 -0.14643551 -0.073059544 -0.12408697 -0.10587242 -0.1379711
-0.13676833 -0.17420696 -0.13659006 -0.019093709 -0.020974364 0.00077514903 -0.010564865 0.009245384
0.002564011 -0.06406307 -0.051348325 0.005194748 -0.08752054 0.021375483 0.015209678 0.009920324
-0.06350684 -0.07669314 -0.07477391 -0.06201692 -0.0874899 -0.11878696 -0.032298744 -0.0082315905
-0.041982595 -0.06058237 0.03343002 -0.03296353 -0.029414413 -0.024382578 -0.017428705 -0.04510044
-0.038176097 0.0049783406 -0.08233705 -0.08730151 -0.05146205 -0.10986822 -0.06982213 -0.10110358
-0.0022668082 -0.06717818 -0.09745793 -0.061720625 -0.010025348 -0.05222136 -0.0346861 -0.031488117
-0.042437192 -0.043590665 -0.08956726 -0.064795285 -0.010509866 0.025272949 -0.09358547 -0.025604427
-0.06556439 -0.07726271 -0.14807867 -0.08711929 -0.14995848 -0.13189149 -0.22776818 -0.08983638
-0.16060038 -0.08223554 -0.03280407 -0.002565332 0.0141167715 -0.03536463 -0.051528424 0.057591565
-0.05653578 -0.03704332 0.015304652 -0.031776503 0.012526307 0.009484743 -0.07357702 -0.0057184394
0.030563116 -0.08092649 0.008320323 -0.03378916 -0.013850894 -0.10651697 -0.13060592 0.022362605
-0.094852835 -0.20524906 0.028244497 -0.032189675 -0.14793754 0.025686968 -0.050795503 -0.06366064
-0.01962315 0.05637913 -0.07253866 -0.036326073 -0.06778715 -0.017650146 -0.100344375 -0.069342665
-0.1167275 -0.012913904 -0.027553836 -0.07138272 -0.016755676 -0.070795946 -0.11820409 -0.032458574
-0.016350536 -0.001182255 -0.0420609 -0.100274 0.008663153 0.014235422 0.025526049 -0.07452655
-0.063168146 -0.0386839 0.103055455 -0.06572338 -0.024681833 0.059992176 -0.0586275 0.0024941976
-0.042849615 -0.13191268 0.032029204 0.07922318 -0.046479918 -0.061861567 0.020778144 -0.16649276
0.02882219 -0.06996763 -0.041842867 -0.13165513 -0.062696934 0.003527233 -0.082625166 -0.12503926
0.042987958 0.0025092305 -0.0153293805 0.026063364 -0.02870462 -0.0769907 -0.031006671 -0.094530486
0.046562444 -0.01493879 0.0007850604 -0.03623252 -0.15374185 -0.09740041 -0.14411785 -0.11151469
-0.0679151 -0.038740966 -0.05634452 -0.17684011 -0.01809677 0.013311387 -0.07883098 -0.07415282
-0.00096456154 -0.0016573955 -0.09484394 0.017857168 -0.03820082 -0.12782632 0.0460782 -0.04090586
-0.018993758 -0.009606874 -0.055794176 0.031449955 -0.013846343 -0.034064084 -0.064528905 -0.06920428
-0.055041652 0.027026426 -0.11495777 0.058735143 0.034535084 0.032886192 0.024710901 -0.053599052
0.0052868733 -0.018319985 -0.009671242 -0.01480331 -0.010338062 0.011203563 -0.041394074 0.0021342165
-0.06484962 0.0026592494 -0.029963396 0.0098566115 0.052906085 0.048754167 0.10679337 0.06495321
0.048877392 0.178265 -0.005336171 0.029769534 0.04878063 -0.054475393 -0.024488967 0.14684482
-0.013623396 0.023231864 0.08258534 -0.04852456 -0.07448851 -0.028378658 -0.06947758 0.019699596
0.046547785 -0.09575122 0.034455113 -0.01972364 -0.008044231 0.017754763 -0.054175112 -0.14097612

base.conv_1.bias f4 [64]
00000000: 9a9c fdbd c72c b7bd bcb5 493e 0b3b 4cbe
00000010: af9e efbc 150e 3ebe c779 c9bc 7044 72be
00000020: fe3e cdbb 4577 5cbe 49e8 993b d0c0 23bd
00000030: a40a 983d c6e7 23be 4fb4 ee3d 00f4 9cbd
00000040: f3fb ee3b f027 37be c229 c0bb e7b9 a13d
00000050: 96b6 33bb c4d3 c0bd 0eec c33d 2cf0 623c
00000060: a326 95bd 105c 023e 947a 76bd 197e c43c
00000070: 51ab 18be 2b7f 57be fa4d 26bd 598d 05be
00000080: 2517 dcbd 4206 06be dfd7 db3d 6a0e d8bd
00000090: d58e cb3d c8d9 0c3d 2a19 03be 91db a7bd
000000a0: 5514 8f3c b5bd 94bd 4c32 363d 824a f8bd
000000b0: 4f0d 0e3d b9ac 47bd 0034 b53d a606 2bbd
000000c0: f844 efbd 9c77 523d 130f f73d cde2 6c3c
000000d0: 46e5 aabc e953 9cbd af2b 52be 1835 95bc
000000e0: e1f3 cabc c2ff 41bd cbf6 1d3e 2755 9dbb
000000f0: 0c17 a33c 10e9 edbd a070 86be b570 0f3b
-0.12383385 -0.089440875 0.19698232 -0.19944398 -0.02925047 -0.1856006 -0.0245942 -0.2365892
-0.006263613 -0.21529873 0.00469688 -0.039978802 0.074239045 -0.16006383 0.11655485 -0.07663727
0.0072932183 -0.17886329 -0.005864353 0.07896786 -0.0027422062 -0.09415391 0.09566508 0.013851207
-0.0728276 0.12730432 -0.060175493 0.02398591 -0.14909102 -0.21044604 -0.040601708 -0.13042201
-0.10746602 -0.13088325 0.107345335 -0.10549624 0.099393524 0.03438738 -0.12802568 -0.08196176
0.01746575 -0.07262746 0.04448156 -0.12123586 0.03468066 -0.048748706 0.08847809 -0.041754387
-0.116830766 0.0513836 0.12063422 0.01445837 -0.02086128 -0.07633192 -0.20524476 -0.018213794
-0.024774494 -0.04736305 0.15426175 -0.0048014107 0.01990845 -0.11616719 -0.262578 0.0021887247

base.input_compress.weight f4 [15, 104, 1, 1]
00000000: 2dce 84be 7f3e b5bd 9a1b c03c 6870 b5bd
00000010: 17b5 b1bc 3ea3 08be 72a7 aa3d 0de6 663e
00000020: 49a4 aa3d 548c 453c d485 bebe 2e5e 293d
00000030: 4ae4 dcbc b170 4cbe 6162 20be 9a54 23bc
00000040: 39e4 01bf c009 31bc 36e1 87bd a539 ffbb
00000050: a47d 51be fc00 113e e23c 923c 17f5 c8bd
00000060: 41c4 423c 7494 9c3e e593 dbbe b218 15be
00000070: a122 4dbd b670 8ebe 494a 423e e252 89bc
00000080: 687b 2a3e 3440 093e 807f 00bd 0a11 0bbc
00000090: 9fcd 85be 810c b0bd 76a1 0cbd 000f 42be
000000a0: fd96 043d 4aec c53d b4be 24bf 9733 8cbd
000000b0: ede9 1e3d e634 1abe 9f57 a3bd 41ec babd
000000c0: 701f 9aba bf7b 53bd 8b31 823d 38a8 093e
000000d0: bd83 f0be 759d df3c f28e 68b9 5152 01be
000000e0: 2762 413d 6471 f63c 76c3 90be 8c16 713e
000000f0: 9c30 3cbe e8dc 3f3e 2192 00be 0f7f 52bd
00000100: 4c5a cbbd 2861 f83b 225a c33d e4e3 df3d
00000110: b333 4abf 3f9e 263e 72e2 11bd 18ea eabd
00000120: c3fb 86bb 4849 43bd 6a3d 703c 7de9 d83c
00000130: c9e4 613d f03a 553d f3ea 47bf 16f1 76be
00000140: 18e6 c0bd 9369 0abe 1806 a13d d714 dbbc
00000150: 4c60 75bc 8cfd 523e 73ae babe b56c de3b
00000160: 35bd 8fbe fc55 de3d a73f f03c 5594 0ebe
00000170: 8cf3 a4bc 6bd7 46bc c7b7 dabe 2e3d c83d
00000180: 059c 8e3d 6dc3 eabd 89df 22be df50 54bf
00000190: 5b50 393d 90e7 2340 c98d 473e 7da5 873e
000001a0: 4b77 c13d 1357 1b3e 6f16 833e 779c 86be
000001b0: e4c0 84be db12 353d f1a3 5dbd 2f4a e9be
000001c0: 8c15 77be c576 6ebe 7278 323d 14d7 0abe
000001d0: 270b 583d 32a5 983d 309d bb3d 9cca c0bd
000001e0: bd53 3f3f 6620 623e 582e 643d 8b00 0fbe
000001f0: c3f4 19bd 4d1e 2c3f 0996 c4bc bda7 fe3e
00000200: 2e9a ddbd a9d0 28bf 353d b43d 2b7a 1e3e
00000210: 37b1 c83d 2408 b4be 0d11 55be bc0c 88bd
00000220: 02c8 f0bd 78b9 e9be 0fec a5bd 1733 c3be
00000230: 514a 473e af7e 2c3e 31bd 153e a2a4 c9bd
00000240: 0812 19bc 22f8 083d 63a9 033f bffb 313d
00000250: fc76 2fbd 5bb6 593b 2cb4 06be d645 383f
00000260: 9182 ddbb 536c f23e 8b96 b5bd 9159 12bf
00000270: e42c 1b3f e49e 103e d2b2 843e f125 8dbe
00000280: d96b 3fbe 4832 df3d 315c 39bd 4188 0ebf
00000290: b534 30bd 0f07 92be 7196 893c 384e 1a3c
000002a0: 780d 823c 23f1 8bbd 865f 903c 5a70 bdbd
000002b0: 8380 bcbd 96e2 ab3c 637c 86bd 94a5 edbb
000002c0: e38b 843e 7e95 7b3f 0104 63bd d2dd ae3e
000002d0: be50 ecbd d778 19bf 74bb 6c3f 4097 b53d
000002e0: bad3 123e bcd1 19be 583b 93be 9657 3d3e
000002f0: 2bf4 f73d d9eb 18bf 668e 043e a0db 4dbe
00000300: b4be 95bc 8d69 b63d a9e9 e03e a29d 4fbe
00000310: db50 6dbb d001 9b3e 6ceb 5ebf a267 a1bc
00000320: 3195 a63c 85f5 86bd 8a06 633e 2ee9 e23f
00000330: d0be 03bd 80b8 44bf 7955 b2bd 2a72 febe
00000340: 1394 933d 184a a4bb 083f 64be a7fa f0bd
00000350: 81e4 f3bc 1dec 85be f5a1 12be ee36 9abe
00000360: 5e7f c8be 518c a5be 2c77 9fbe bd9d 00be
00000370: 0ad0 5bbe 2203 66be 25dd a0bd ab40 79be
00000380: c1cc 133f 568c 5cbe f4f8 8a3d ab91 483e
00000390: cb5d 563e f136 aebe 81fc c9bc f318 cbbd
000003a0: a540 39bc b896 6fbe 1314 96be 1023 243c
000003b0: a65c a2be 47df 1dbb d902 983b ad45 13bd
000003c0: 2bb4 3bbd ac3f 87bd 9d54 09bf 2e01 99be
000003d0: fcd2 b2be e330 8fbe cf4b 80be 0ed1 2abe
000003e0: b716 9dbd ce8f 30bd feff 573f 93f2 6dbe
000003f0: ed79 e5bc 71f1 363d 4e6c 87bd 618f dabe
-0.2593855 -0.08849811 0.023450661 -0.088593304 -0.021692796 -0.13343522 0.08332719 0.22548695
0.08332116 0.012057383 -0.37211478 0.041349582 -0.026964325 -0.19964863 -0.15662529 -0.009968901
-0.50738865 -0.010805547 -0.066347525 -0.007788854 -0.20458084 0.14160532 0.017851297 -0.09812372
0.011887611 0.3058201 -0.42886272 -0.14560202 -0.050081853 -0.27820367 0.1897365 -0.016763154
0.16648638 0.13403398 -0.031371593 -0.008487949 -0.2613344 -0.08596135 -0.03433367 -0.18951035
0.032370556 0.09664209 -0.6435349 -0.068457775 0.038797308 -0.15059242 -0.07975697 -0.09127093
-0.0011758637 -0.051631685 0.06357106 0.13443077 -0.46975508 0.027296761 -0.00022178495 -0.12629057
0.047212746 0.030083366 -0.28274125 0.23543757 -0.18377918 0.18736613 -0.12555744 -0.051390704
-0.09929332 0.0075799413 0.09538676 0.109321386 -0.78985137 0.16271304 -0.035616346 -0.11470431
-0.004119368 -0.04767731 0.01466308 0.026478523 0.055149827 0.05205816 -0.7809288 -0.24115404
-0.09418887 -0.13516836 0.078624904 -0.026743336 -0.014976572 0.20604533 -0.3646122 0.006787861
-0.2807404 0.10856244 0.029327227 -0.13923772 -0.020135663 -0.012136321 -0.42718336 0.09777294
0.06963352 -0.11463056 -0.15905584 -0.829359 0.04524265 2.5610085 0.1948768 0.26493445
0.094465815 0.15169935 0.25603053 -0.26291248 -0.25928414 0.044207435 -0.054111425 -0.4556441
-0.24129313 -0.23287494 0.043571897 -0.13558608 0.05274501 0.074533835 0.091608405 -0.09413645
0.7473715 0.22082672 0.05570826 -0.13965051 -0.03758694 0.67233735 -0.023997324 0.4973735
-0.10820423 -0.6594339 0.08800737 0.15476291 0.09799426 -0.3516246 -0.20807286 -0.06643054
-0.117568985 -0.45649314 -0.08101665 -0.38124916 0.19461943 0.16845201 0.14622952 -0.09845854
-0.009342678 0.033439763 0.5143034 0.043452974 -0.04283808 0.0033220265 -0.13154668 0.7198156
-0.0067599495 0.4734827 -0.088666044 -0.5716792 0.6061537 0.14123112 0.2591768 -0.2756801
-0.18693484 0.10898262 -0.045253936 -0.55676657 -0.043019015 -0.2852101 0.016795369 0.009418063
0.015875563 -0.068331026 0.017623674 -0.09249945 -0.09204199 0.020982068 -0.06566694 -0.0072524045
0.25887975 0.9827498 -0.05542374 0.3415361 -0.11538838 -0.5995001 0.9247353 0.08866739
0.1433858 -0.15021414 -0.28756213 0.18490443 0.12107118 -0.59734875 0.12944946 -0.20103312
-0.01827941 0.08906851 0.4392827 -0.20274976 -0.0036211524 0.3027482 -0.87077975 -0.019702736
0.020334812 -0.06589798 0.22170463 1.7727411 -0.032164395 -0.76844025 -0.08707709 -0.49696475
0.07205977 -0.0050137155 -0.2228967 -0.11766558 -0.029772045 -0.26156703 -0.14319594 -0.30120033
-0.39159673 -0.32333615 -0.31145608 -0.12560172 -0.2146608 -0.22462133 -0.0785468 -0.24341075
0.57734305 -0.21537909 0.06785765 0.19586818 0.20934217 -0.34026292 -0.024656536 -0.09916868
-0.011306916 -0.23397338 -0.2931219 0.010018125 -0.3171131 -0.0024089382 0.0046390113 -0.03595512
-0.04582612 -0.06603941 -0.53644735 -0.29883713 -0.34926593 -0.27966985 -0.25057837 -0.1668131
-0.07670348 -0.043105893 0.8437499 -0.23237066 -0.02801224 0.04466385 -0.06612454 -0.42687514

base.input_compress.bias f4 [15]
00000000: 6fa4 0abd a078 a23e cdc1 aa3e ffd6 41bf
00000010: 55b1 e63e 7d5d 7c3d a98f 8f3e 169f 3f3e
00000020: b44a 013d 0801 0b3f cc59 673e dad6 853e
00000030: 21df 26be 86ec 003e a5ac 4ebd
-0.033848222 0.31732655 0.33350983 -0.75718683 0.4505717 0.061612595 0.28039292 0.1871303
0.031565383 0.5429845 0.22592849 0.2614048 -0.16296054 0.12590227 -0.050457615

base.actor_compress.weight f4 [19, 79, 3, 3]
00000000: 60df 0cbd 41ae de3c b785 b83b 951c 7fbc
00000010: c9e6 a23c c166 f9bc 6038 143d 2246 263b
00000020: 554c 713d f7a1 6ebd 92f4 76bd b6f7 15bc
00000030: 0c8f 80bd 99d6 20bc c2e7 fcbc b92a b1bc
00000040: 5796 9db9 2e16 f5bc 839e b8bc f478 393c
00000050: b139 5e3d 8207 8bbd 4252 fcbd b744 cabd
00000060: b28a 193c 30b2 acbd 665f 5b3d 0bdf e839
00000070: e9aa b7bb 5bc0 b63c f8b2 643d a27a debc
00000080: d29a 07bc ea2e 9d3c 1ff2 3ebb e4ae 003d
00000090: 5b64 713d 5932 243d 4e76 c6ba f95e f23c
000000a0: 2972 133d 4c53 b1bc 4da2 0b3e 26b4 ab3d
000000b0: a0b7 b33d cfc9 f13c 390a 9bbd 4f4c 8abc
000000c0: c81c 1cbd aabd 82bd 4d2a 95bd 78fc a83d
000000d0: 8349 43bd 1aa2 49bd 33ef 0fbe eec2 b6bd
000000e0: 6e90 72bd 541d 02be e895 a4bd f0ae cebd
000000f0: 9d99 1ebd 8ad8 4c3c 7aa2 3fbd 2338 e43b
00000100: 8b72 00bd e3b7 79bc 2e40 a0bd d647 2d3d
00000110: 3c04 12bd b066 263b 1d83 c2bb ea22 29bd
00000120: d9ce e73c 4931 fbbb 120f df3c 2450 7b3d
00000130: ac91 f9bc e50c 12bc d25f 963b 0cf0 d03c
00000140: 5aee e7bc f33a a53d 9a05 093b 3bce f13d
00000150: 92c4 b2bd 03e5 fbbd 18bd c0bb a3ad ccbd
00000160: e877 32bd 386f 3d3d 3349 d83d 03d4 993c
00000170: 4c9d f43b 637c febc f002 babb 3b0b 47bd
00000180: 0010 4fbd 1345 9cbd 13aa 93bd bc27 a9bc
00000190: c72d bf3c 9c46 8bbd 1dab 283d c823 293d
000001a0: 4c0d 9cbd a08a b8bc f22c 59bb fa53 ed3c
000001b0: 3b4f c4bd 1145 8c3d 64e7 033c 7667 7cbd
000001c0: fd97 663d 28a4 863d a6ed c7bc 857b 863d
000001d0: 55e3 ad3d 6772 89bd d5dc 913c 34cd dbbb
000001e0: 8743 303d 026b e43c 2827 6c3c 13cf 953b
000001f0: 4a46 7e3d d128 a33c 7a9d f53d bfb6 353d
00000200: 4740 713c 7bdb 2b3d 7b6f b13c 007a 5ebd
00000210: 80bc 903b 97e2 e13d 0648 1a3d 9381 963c
00000220: ce34 a7bd 3386 95bd 1f89 713d a723 a1bc
00000230: fcb9 f9bc 17b0 f73b 492b ecbc 236d 073d
00000240: 87be 693d 865c 483d af90 bb3b 2f05 ec3c
00000250: 2705 083e b587 293d cb74 493d c5fc 7a3d
00000260: 9901 b53c d3f2 013c e095 37bd a02e cd3b
00000270: a098 fc3c d898 0f3c 418b f73c 43d3 1e3d
00000280: 9de7 51bc cc51 8abd 64c7 e63d 1469 3ebc
00000290: a32a 5dbd eb81 cf3d 5323 f13c ce3f 8dbc
000002a0: 5844 363d c377 023d db99 7fbc b566 1c3d
000002b0: dc2b 393d 6354 083e 090a bebb c9ae ef3d
000002c0: 8f2b e0bd 34c4 813d 606d 353d 5ac5 67bd
000002d0: ddba c13d 7850 cd3d 0ab8 b33d 23ae ac3d
000002e0: 4d44 2d3e b0dd 773d fcc2 de3d 0fd8 cd3d
000002f0: 49a2 ba3d 5973 fbbd cded 84bd 3b8a 83bc
00000300: 9743 acbd 4a0c 34bd a7ec 7dbc a660 a6bc
00000310: 9c76 4fbb 5af3 10bd af74 583d e356 893d
00000320: 41e9 bb3d b23f a2bd 335d eab9 bae5 64bc
00000330: ccd3 8b3c 1ee6 ffbc 729c 463d db35 27bd
00000340: 4991 d23c b895 5e3d 57f7 dd3b af0c e9bd
00000350: a088 d43d 9772 29bd dc2d 803d f5ed 00bd
00000360: 55e0 22bd 5407 dfbd 6bc4 c23c b7b5 603d
00000370: abdd 10bd 2e92 6bbc 933f e4ba fda2 903c
00000380: 18d8 583b 0706 393e 5bb6 863d 94a0 11bd
00000390: de71 a53d ded3 963c 9fc1 e2bd 7a85 493d
000003a0: d506 033e 306b abbc c457 843d fca6 013d
000003b0: 9b0a 5bbb 1032 f83d 9009 85bb d0b1 60bb
000003c0: 922a 273e 0f89 a03c efe2 393d f70f 023e
000003d0: 8bf5 033d 324c 513d 5208 8d3d a5f9 fb3c
000003e0: 1764 4bbd 9a40 5ebd 8526 96bd 57ac 503d
000003f0: 93df a93c 017b cebd 61e6 22bd 1feb a53c
-0.034392715 0.0271827 0.0056311744 -0.015570779 0.019885438 -0.030444505 0.036186576 0.0025371392
0.058910687 -0.05825993 -0.060291834 -0.009153297 -0.06277284 -0.009816789 -0.03087223 -0.021626817
-0.00030057385 -0.029917803 -0.022536522 0.011320341 0.054254238 -0.067885414 -0.12320377 -0.098763876
0.009371446 -0.08432424 0.053557776 0.00044416668 -0.005605091 0.02230852 0.05583474 -0.027158085
-0.008276658 0.01918741 -0.0029136015 0.03141679 0.058933597 0.040087078 -0.0015141459 0.029586302
0.035997543 -0.021646164 0.13636132 0.0838397 0.08775258 0.029515175 -0.07570309 -0.01688209
-0.038113385 -0.06383832 -0.07283459 0.082512796 -0.047677528 -0.049226858 -0.14056091 -0.08923899
-0.05921977 -0.127065 -0.08036405 -0.100919604 -0.038720716 0.012502799 -0.04678581 0.0069647
-0.031359237 -0.015241596 -0.07824741 0.042304836 -0.03564857 0.0025390796 -0.00593604 -0.041293062
0.028296875 -0.0076657874 0.027228866 0.061355725 -0.03046497 -0.008914207 0.0045890594 0.025505088
-0.028311897 0.08067884 0.002090788 0.118069135 -0.08728899 -0.1229954 -0.0058819167 -0.09994056
-0.043571383 0.046248645 0.10560837 0.018777853 0.0074650403 -0.031065172 -0.0056766197 -0.048594695
-0.05055237 -0.07630362 -0.072101735 -0.02064883 0.023337258 -0.06800577 0.04117881 0.04129389
-0.07619724 -0.022527039 -0.0033138362 0.028970707 -0.095854245 0.06849111 0.008050773 -0.061622106
0.05629729 0.06574279 -0.024405312 0.06566528 0.08490626 -0.06711274 0.017805496 -0.0067078117
0.04303315 0.027883057 0.014413632 0.0045718043 0.06207875 0.019916924 0.11992927 0.044363733
0.014724798 0.04195736 0.021659603 -0.054315567 0.004417002 0.11029547 0.037666343 0.018372333
-0.081643686 -0.07300987 0.05896866 -0.01967032 -0.030484192 0.0075588333 -0.028829234 0.033063065
0.057066467 0.048916362 0.0057240347 0.028811065 0.13283215 0.041389186 0.049183648 0.061276216
0.022095488 0.007931429 -0.044820666 0.0062616616 0.030834496 0.008764468 0.030217769 0.038775694
-0.012811569 -0.06753883 0.112684995 -0.011621732 -0.05399574 0.10132202 0.02943579 -0.017242339
0.04449877 0.031852495 -0.015600647 0.038183887 0.045207843 0.13313441 -0.005799536 0.117032595
-0.10945808 0.06336251 0.04429376 -0.056584693 0.094594695 0.10025114 0.08775337 0.084316514
0.16920586 0.060514152 0.10877034 0.100509755 0.09112985 -0.1227786 -0.064906694 -0.016057124
-0.08411329 -0.043957032 -0.015498317 -0.020309757 -0.003165639 -0.035388328 0.052845653 0.067060255
0.09175349 -0.07922305 -0.00044701397 -0.013970787 0.017068766 -0.031237658 0.04848904 -0.040822845
0.025704043 0.054342 0.00677387 -0.11379372 0.10377622 -0.041369047 0.06258747 -0.031476934
-0.03976472 -0.108900696 0.0237753 0.054860797 -0.03536765 -0.014378114 -0.0017413966 0.017655844
0.0033087786 0.18068705 0.0657775 -0.03555353 0.08078359 0.018411573 -0.110720865 0.04919956
0.12795575 -0.020925134 0.064620525 0.03165339 -0.003342307 0.12118924 -0.004059978 -0.0034285672
0.16324833 0.019596605 0.045382436 0.12701403 0.03221659 0.051098056 0.068863526 0.030758688
-0.049656 -0.054260828 -0.07331566 0.050945606 0.020736491 -0.10082055 -0.039770488 0.020253716

base.actor_compress.bias f4 [19]
00000000: aa6e 40bd fdec 063e afea c33e 4f1c 8e3e
00000010: 6284 20be 5556 b4bd acd5 d23e a2cf f93e
00000020: ed9e 583e bf01 c23e 21eb 0a3e 7f21 6fbd
00000030: 6939 a73e 5f10 f73e c83d 08bd 945b 3b3e
00000040: 04ed 8c3e d59f ab3e 47fb 40bd
-0.046980537 0.13176341 0.38264987 0.27755973 -0.156755 -0.08805529 0.41178644 0.48791224
0.21154375 0.37891957 0.13566257 -0.058381554 0.32660988 0.48254678 -0.033262044 0.18296653
0.2752458 0.3352038 -0.047114637

base.critic_compress.weight f4 [8, 79, 1, 1]
00000000: d903 713f f176 1c3d 6c64 48bd 573a 31bd
00000010: bce5 803d c3a6 bb3d 9c61 463d 38bf ca3c
00000020: f793 553d eb9c febd 6e91 60bc e455 f53b
00000030: 7219 dfbc 7c1f 47bd 047b 80bd 0294 2ebd
00000040: ac67 00be 6055 bbbd 4f72 a93c a914 583b
00000050: 39cf 113d ab76 a53d ce20 12bc a586 3a3d
00000060: 9a55 003d 0083 0f3e 5760 c9bd be5c cabd
00000070: 5689 e0bd e0e8 293d 63fc 1e3d bc99 a8bd
00000080: 590b ff3c 5c42 493c 4495 a93d 1e53 2bbd
00000090: 9d65 073e e9c8 23bc a46d f2bb 3b10 b83c
000000a0: 3d93 7abc fb7b 32bd 4a87 f1bc 6ec0 30bd
000000b0: 6a89 b0bd 959b b6bc c78d 4e3d cf3f d0bc
000000c0: ec92 703b a705 103e 829f 03be b10c 9abd
000000d0: d33f d23d 5bf7 db3d 33b3 87bd 85da 57bd
000000e0: 1b52 b6bd a2b6 973d 232d ea3c 43a2 ab3d
000000f0: 4c7e 513a fed6 cdbc 0ecd 1f3d 4c4e 8dbd
00000100: baef 70be 8d95 da3d 9f5e 873e 5aae 45be
00000110: 8aab da3d dec8 2abd 1313 023e 07d0 adbd
00000120: d790 1ebe 399e ea3c f054 2e3a f2ef 03bd
00000130: 4b49 7f3e 1c48 d13c 5e83 fabc c7ab dd3b
00000140: be21 643f 6552 10be 148b c7bc e88c ffbb
00000150: d383 b6bd 2c2b e1bd bb88 0fbd b314 a83d
00000160: 0903 d0bd 8c66 c63c 154c 99bd 6e2f c6bd
00000170: 7657 4bbc 582d ac3d 5e43 123c b6af 08bd
00000180: 5c9e 92bd 6241 973d 50a1 9ebd fa88 d0bb
00000190: f5e6 f9bc a449 26bd 921e 393d 8ae4 96bd
000001a0: dc97 36bd 3f67 8abd 905a aebd d334 3abc
000001b0: 0766 e7bb b9c9 edbd 5f37 463c 338e b63c
000001c0: 72bc 85bc d36f 4cbd 0d0d ab3d 0a76 d63b
000001d0: dca5 a6bc 841a 0cbd 46f4 8d3d fbdc c3bd
000001e0: cf2b 02bc 7715 9f3d ce70 e63b c1b7 333c
000001f0: bc22 31be 363e a53c 9e8b c8bd 10ca 783d
00000200: f8d6 b1bc da83 eabd 6cb4 0bbd 737f 23be
00000210: 770c be3d e3e6 cabd b5ca b53d 4663 abbd
00000220: cef2 cfbc 8d78 a0bd 32b7 c5bc 178c 903d
00000230: 464e 9ebc 475d 373c bbff 1dbd 61af b5bd
00000240: 1873 eebc 025a 41be 4310 e63d c82e a6bb
00000250: 0c6a a73d c8f1 e73d 5fc1 d93d 477e 9dbd
00000260: 1369 193e 9716 053e 85d0 3c3d dfb7 88be
00000270: c280 5bbe 77cd 68bd 2ca9 dc3d 2cd6 d5bd
00000280: 0d5d f43e 1865 77bd 1b86 023e 247d 29bd
00000290: d219 81be f176 64bb 58a8 fd3d d0ec 9bbc
000002a0: 61bf 7c3d e035 f3bd c0bb 153e 7a11 b7bd
000002b0: 9205 983e 355e ac3d efe6 77be 9dbf 86bd
000002c0: 392e 11bd bfc5 22bd e305 443d 425d 08be
000002d0: a9ef 17bd b921 fb3d 8a8d a5bd d8a4 32be
000002e0: 90ac 97bc 11a1 f53d 2c09 87bc 3066 aa3d
000002f0: a465 ff3c e9f5 2cbd 4000 983c 1ebd 213b
00000300: 0316 cb3d ac40 2a3d 5b73 6a3d 10d9 0e3d
00000310: e203 dd3d 0cf7 853d b5aa 9e3b bca2 1bbe
00000320: 4143 b53d f578 c7bc f287 27be f103 57bd
00000330: f7a3 583a f46e 0fbb c2d5 8d3d 20e7 af3d
00000340: 5d3f a6bd 838a 1b3d d940 773d 11ff b5bc
00000350: 9d51 b6bd 9075 643e 04b3 21be 96f3 28bd
00000360: 655d 883d 293e c0bc 35f8 893d 53f9 683d
00000370: 7bfc a63c 64f1 51be d2f2 cfbd eb2d a73d
00000380: 224d 9a3d d2bc dc3e 9fb9 803d d756 df3c
00000390: 6f48 743e 6f59 cd3d dfde a53d d77b ae3e
000003a0: 5338 a53d b20c 953e cfd1 5cbd 75b5 fcbd
000003b0: bb19 92be 96b2 c83b e303 6ebd 337f d23e
000003c0: 698f 443f f0d2 573d c146 2dbc 7b9b b1bd
000003d0: 58de 033d 9f67 fabc d616 8e3d de7d 2bbd
000003e0: f859 683d 97d2 44be c6d9 1f3c cbf9 163e
000003f0: 99bb 52bc f047 163d 5120 d2bd f760 dfbd
0.94146496 0.03819937 -0.048923895 -0.043268528 0.06293818 0.09162667 0.04843293 0.024749383
0.052143063 -0.124322735 -0.013706548 0.0074870456 -0.027233813 -0.04861401 -0.06273463 -0.04262162
-0.12539548 -0.09147143 0.02068439 0.0032971299 0.035598014 0.08079275 -0.008918954 0.045538563
0.031331636 0.14014816 -0.098328285 -0.098809704 -0.10963695 0.041481853 0.038814913 -0.082324475
0.03113334 0.012283888 0.08280423 -0.041827314 0.13222356 -0.009996631 -0.007398324 0.022468677
-0.015293893 -0.04357527 -0.029483456 -0.043152265 -0.0861996 -0.022290984 0.05042818 -0.025421051
0.0036708666 0.14064656 -0.12853816 -0.07521952 0.1026608 0.10740539 -0.066259764 -0.05269863
-0.08902379 0.07407881 0.028585976 0.08380558 0.0007991537 -0.02512693 0.039013915 -0.068996996
-0.23528948 0.10673056 0.26439378 -0.19304791 0.1067725 -0.041695468 0.12702589 -0.08486944
-0.1548494 0.0286399 0.000665023 -0.03221125 0.24930303 0.02554708 -0.030580219 0.006764862
0.89113986 -0.14093931 -0.02435831 -0.0077987798 -0.08911862 -0.109945625 -0.035042506 0.08207073
-0.10156829 0.02421882 -0.074852146 -0.09677015 -0.012410989 0.08407086 0.008927194 -0.033370696
-0.07159111 0.07385518 -0.07745612 -0.006363985 -0.030505637 -0.040597573 0.04519517 -0.07367809
-0.044578418 -0.06757974 -0.08513367 -0.011365133 -0.007061723 -0.11610741 0.012098162 0.022284603
-0.01632521 -0.04991133 0.083520986 0.006544833 -0.02034276 -0.034204975 0.06931357 -0.09563633
-0.007945015 0.07767766 0.0070324903 0.010969103 -0.17298406 0.020171266 -0.09792255 0.060739577
-0.02170895 -0.1145093 -0.03410761 -0.15966587 0.09279721 -0.099073194 0.08876554 -0.08368544
-0.025384333 -0.07835493 -0.024135206 0.0705797 -0.019324433 0.011191673 -0.03857396 -0.088713415
-0.029107615 -0.18881992 0.112335704 -0.0050714947 0.08174524 0.11325413 0.10632586 -0.07690101
0.14981489 0.12996899 0.046097297 -0.26702783 -0.21435836 -0.05683657 0.107744545 -0.10441241
0.47727242 -0.060399145 0.1274647 -0.04137911 -0.25215012 -0.0034860934 0.12385625 -0.01903382
0.06170595 -0.1187551 0.14622402 -0.0893888 0.2969175 0.08416406 -0.24209188 -0.06579516
-0.035444472 -0.039739367 0.047857177 -0.13316825 -0.037093792 0.122622915 -0.08083637 -0.17445695
-0.018514901 0.119936116 -0.016483866 0.08320272 0.031176396 -0.042226706 0.018554807 0.0024679373
0.09916308 0.041565582 0.057238918 0.034874976 0.10791756 0.06541261 0.004842127 -0.15198797
0.08850718 -0.024349669 -0.16360453 -0.052493993 0.0008264179 -0.0021886202 0.06925537 0.085890055
-0.08117554 0.037973892 0.060364578 -0.022216352 -0.08902285 0.22310472 -0.15790945 -0.041247927
0.066584386 -0.02346714 0.06736795 0.0568784 0.020384064 -0.2050224 -0.10153736 0.08163055
0.07534243 0.43112808 0.062854044 0.027263088 0.23855756 0.10026824 0.0809915 0.34078857
0.080673836 0.29111248 -0.053911027 -0.12339298 -0.28535256 0.0061248047 -0.058109175 0.4111267
0.76781327 0.0526914 -0.010575951 -0.08672234 0.032194465 -0.030566989 0.06937949 -0.041868083
0.056726426 -0.19220959 0.009756511 0.14743726 -0.01286211 0.0366897 -0.1026007 -0.109071665

base.critic_compress.bias f4 [8]
00000000: 6021 223e 5e05 323e 1d3e dd3e 5e4c cdbd
00000010: 2c98 123e 83bb 633d 9507 3a3e ff13 f4bd
0.15833044 0.1738486 0.4321145 -0.100243315 0.14315861 0.055598747 0.18166955 -0.119178765

base.critic_conv_1.weight f4 [1, 8, 20, 20]
00000000: a9fb fbbd 0273 72bd d5c2 5b3d 32f5 a63c
00000010: 4091 4c3d c1d3 de3a f3f3 a13a 51c7 11bd
00000020: 34ed a2bd 480d 6ebd b284 d0bc b192 233d
00000030: 5427 313e d1a4 453d e4b1 b4ba 4fb6 b33c
00000040: 3714 ae3d e79b 893d e5ca 1a3e 3c71 8abd
00000050: 2e3d 56bd a460 1a3d 1008 2a3e 8395 39bd
00000060: 86f8 3f3d 38d4 1e3e 9140 e33d a059 fd3c
00000070: 6564 fa3d c82e fc3d b7ad 183e d2a7 073d
00000080: 0058 34bc 5be2 c4bd 599c 12bc 869c a43b
00000090: 3ad0 c8bd 29ad 5b3d af15 47bd 6fd9 843a
000000a0: b40c 83bd 0be5 113e 1efe 203e 681f f73d
000000b0: 02f1 243e f326 2f3e 13b5 233e 1217 b13c
000000c0: b27f 9c3d 5b83 b93d 4167 9a3d 9c7e 523d
000000d0: ddcd bf3d 2c03 883d da57 5abb d3b8 c03d
000000e0: eb39 a03d 52f9 8a3e e8f1 4c3e e2d3 c13c
000000f0: aa2a 9abc a0a3 d83d e601 b53d 191d f7bd
00000100: b262 fd3c 73c6 153d 72f6 0ebd ec61 d9bc
00000110: 630e 2a3e 3875 383e d116 c4bc ea34 75bd
00000120: 94f7 18bd d8a6 7ebd d4c2 d0bd ce8e 82bc
00000130: 910e 00be 9e73 043e b9a7 493d ace4 c43c
00000140: 3a15 1cbc 5f27 3a3e 501d f03d babc 93bd
00000150: f557 c43d d5bc da3d 74be 9e3d 4871 4c3d
00000160: daed fd3d 6b34 803d 5a31 85bc 4c53 773e
00000170: f3dc bf3d 4da4 9d3d 0dfd 843d 607d 7b3d
00000180: 1595 6b3e 34ea 963e 032a 173e c4d8 533d
00000190: 954b 1639 34d9 063e fd47 363e a7dc 173c
000001a0: 624f c43d 7aeb 233e 8d35 913d a449 d63d
000001b0: 46d0 4a3d 088c 233d 66bd d5bb cf05 293e
000001c0: 4ad8 583d fc5a 4b3e f4f4 273e ebd2 763d
000001d0: c865 ca3c 6676 22bc 2f4f 253d d224 003d
000001e0: af3f 33be 9392 5a3d 5388 4b3e 4aea a73b
000001f0: 0469 c03d e326 bc3d 033d 863d 30ce 263e
00000200: c221 093e 003d ff3d 8024 053e f8b6 283e
00000210: f6ef 933d c64f 8b3d d024 0a3d be0f 38bc
00000220: 0678 003e 5d77 9abd f99d febd f8b9 a8bd
00000230: f207 c43d f726 1a3d b592 103e 5677 713d
00000240: a4f6 263d 4f78 be3d 9a67 f73d 619e 463d
00000250: 4096 f53c 3e84 143e f083 2a3e 7085 9e3d
00000260: aa5d 0e3e fe4a 153d b8b4 263e 2118 263e
00000270: 2edc 773d 0b5d e83b 4788 4a3b 4a34 eabc
00000280: bdef 713b e331 8e3d cef5 f73d e339 943d
00000290: b526 0d3e a2d3 793d c4a7 053e 8734 983d
000002a0: 5f43 033d 9ada 95bd 2326 823d 2f21 023e
000002b0: ff5c c73d 6df4 3cbc 5c53 693c 0ba3 173e
000002c0: bfee aebb af48 db3d 6758 503d 75e8 ee3d
000002d0: 8ec9 b63a e4f8 70bd 33a9 f93d 5a47 28bd
000002e0: ed0a 1d3d 9cca 9d3d f69f 493c b909 0cbd
000002f0: 7921 d23a 911a b33d 89b4 79bd 9aed 8bbc
00000300: 7a04 b63d f81b 12bd a3b7 403d 6a92 25bd
00000310: a39a a1bd 3d38 76bd 1a9d 6ebd 6817 84bd
00000320: 3311 f93d 5f21 c63d 0148 023d 7052 1c3d
00000330: 012f b13d b05c 9dbd 710f c6bb b842 53bd
00000340: 25cc 103d bb48 60bd 56f5 d83e 67ae ae3c
00000350: ab8a cd3d 83ec 8e3d 697f a73b 7632 f2bd
00000360: 62bf 7ebd 5052 a0bc 1a45 1a3e 1f46 3e3d
00000370: 3e1d 123d aaff 7f3e ead6 963b 9000 98bc
00000380: 6713 0f3e 5e4c 633d e421 bfbc 23fc 233d
00000390: 9d5d 213e fea2 fdbc 27b6 d03d 394f 283e
000003a0: ab50 193e 4107 af3d d6a7 fabc 9f49 9bbd
000003b0: 5432 16bb 11ce e4bd 2cb4 313e c0ab fc3d
000003c0: fd45 843d b796 0f3e 7716 223e 9e56 f9bc
000003d0: 2fc5 1abd 7ec2 e73d 3838 a83d e8fb 033e
000003e0: 1207 423d 9006 743d a822 81bd ef58 783d
000003f0: 2447 7d3d e8f6 603c 1673 53bd b7f8 c23d
-0.1230386 -0.05919171 0.053652603 0.02038059 0.04994321 0.0017000363 0.0012356028 -0.035590474
-0.07955399 -0.058118135 -0.025453899 0.039934818 0.17300159 0.048252884 -0.0013785926 0.021937517
0.084999494 0.06719189 0.1511646 -0.06759879 -0.05230444 0.03768982 0.16604638 -0.0453086
0.04686787 0.15510643 0.110962994 0.030926526 0.1222618 0.1231361 0.14910017 0.03311903
-0.011007309 -0.096134864 -0.008948409 0.005023542 -0.09805341 0.053631935 -0.048604663 0.0010135601
-0.06398907 0.14247529 0.15721938 0.12066537 0.16107562 0.17104702 0.15987043 0.021617446
0.076415434 0.09058257 0.07539225 0.051390275 0.09365437 0.0664123 -0.0033316524 0.094102524
0.07823547 0.2714334 0.20014155 0.023660604 -0.018819172 0.10578084 0.08838253 -0.12066097
0.03093085 0.03656621 -0.034902997 -0.02653595 0.1660705 0.18013465 -0.023936661 -0.059864916
-0.037345484 -0.062170833 -0.101934105 -0.015937235 -0.12505557 0.1293473 0.04923222 0.02403482
-0.009526545 0.18179081 0.11724341 -0.07213731 0.09587089 0.10680548 0.0775117 0.04991272
0.12398882 0.06259998 -0.016258884 0.24152869 0.093683146 0.076973535 0.06493578 0.061398864
0.23006089 0.29475558 0.1476212 0.051720396 0.00014333271 0.13168794 0.17800899 0.009268916
0.095854536 0.16007796 0.07090292 0.104632646 0.04951503 0.039928466 -0.006522822 0.16506122
0.052940644 0.19858927 0.16402036 0.06025974 0.024706736 -0.009915924 0.04035872 0.031285115
-0.17504762 0.05336244 0.19876222 0.005124365 0.0939503 0.091871046 0.06554606 0.16289592
0.13391784 0.12462807 0.13002205 0.16476047 0.07223503 0.06802325 0.033726513 -0.011234222
0.12545785 -0.07542298 -0.12432475 -0.08238596 0.09571828 0.037634816 0.14118464 0.0589517
0.04076256 0.09300291 0.12080307 0.048490886 0.029978871 0.14503571 0.16651893 0.07740295
0.13902918 0.03644847 0.16279876 0.16220142 0.060512714 0.0070911697 0.0030903982 -0.028589386
0.0036916577 0.06943109 0.121074304 0.072376035 0.13784297 0.060992844 0.13052279 0.07431894
0.032046672 -0.073170856 0.0635493 0.12707971 0.097345345 -0.011532885 0.014241066 0.1480829
-0.0053385193 0.10707223 0.050865557 0.116654314 0.0013945566 -0.05883111 0.12190475 -0.04108367
0.038340498 0.0770466 0.012306204 -0.03418896 0.0016031704 0.087453015 -0.060963187 -0.01708107
0.088875726 -0.035671204 0.04705013 -0.040422834 -0.07890823 -0.060112227 -0.058255292 -0.06449777
0.121614836 0.09674334 0.03180695 0.038164556 0.086515434 -0.07683694 -0.006044321 -0.0515773
0.035350937 -0.05475686 0.42374676 0.021323396 0.100362144 0.06978705 0.005111624 -0.11826031
-0.062194236 -0.0195705 0.15065423 0.04645359 0.03567242 0.24999872 0.0046032565 -0.018554956
0.13972245 0.05549275 -0.02333159 0.04003538 0.15758367 -0.03096151 0.10190993 0.16436471
0.14972179 0.085463054 -0.030597609 -0.075824015 -0.0022918181 -0.111721165 0.17353886 0.12337446
0.06458662 0.14022337 0.15828882 -0.03043681 -0.037785705 0.11316393 0.08213848 0.12889063
0.047370024 0.05957657 -0.06305438 0.06063169 0.061835423 0.013730742 -0.051623426 0.09520095

dist.conv.weight f4 [19, 19, 1, 1]
00000000: fb23 6c3f 0fc9 e63e 1332 9c3e 1971 ac3e
00000010: 3b6d d4bd b5e0 653d bf0b ec3e d9c0 853e
00000020: 455c ba3e 7bc2 c83e d589 183f 528a 543d
00000030: d2b0 0e3f 6a6d 0d3f 1dac 013c 534b 9c3e
00000040: 73a7 da3e 0544 363e 4913 713e ddf9 273c
00000050: 37aa 9b3f 89f5 2c3e d303 0f3e eff9 b4bc
00000060: b629 a7bb 2d16 333e b701 863e 8f9c 0b3e
00000070: db52 533e e2fc 8f3d 326f 003d fcd7 4f3e
00000080: 62a6 253d d278 c93a 8d50 483e 125d 163e
00000090: e506 783e 8431 813e 784e cfbb 04bd 573e
000000a0: 6da0 8b3f b467 7d3c 1fe9 84bc 7878 b2bc
000000b0: 3338 b0bc 9d2b b63d 1797 7abc 9412 bb3d
000000c0: faa6 2abc 9302 343c f5a9 be3d 425f c93c
000000d0: f23e b9bb c62b d53c f034 eb3b e863 603e
000000e0: 95df 443e afcb e93b 0db3 153e be08 ad3d
000000f0: 31c8 853f c56d 2dbc 657b d3ba 7395 933d
00000100: dd20 e83d fc45 363d 4f2e b83d efc1 6b3d
00000110: edfe c73b c1bd a83d 6dd1 6d3c f306 f3bb
00000120: 4cc1 813d fa1a 383d 02dd 203e 221f 193e
00000130: 927d 85bc 1f11 47bb 0363 033c c41c 10bc
00000140: be06 853f 98a8 ce3c 75f4 aebc 9c70 a83d
00000150: 518a 87bc 0357 e7b9 07af d6bb 8d96 083c
00000160: 4c68 033c 57c9 a6bc 0a13 c63a 4fea ce3b
00000170: 7066 d23b 6f21 e73c 66e0 11bb 27a0 5cbc
00000180: 4d5b 883c af2d 6a3c 4648 adbc 836a 1cbc
00000190: b2a3 733f c6e5 f2bb 287f aa3b f686 a3bc
000001a0: 8689 b53c 5f9a dc3a 1140 393c cbdd 8fbc
000001b0: 13a3 9abd d408 2ebc 8dd5 ac3b 86c1 d63c
000001c0: c6e3 843d 6c42 53bb 28a7 65bb 977d 4d3d
000001d0: c637 ad3c 631b d83b 2637 3c3b 0199 24ba
000001e0: 7de1 813f f893 163d 766d 803c eb14 353c
000001f0: ab23 ea3c 4f0b d4bb 1d13 a6bc 10bc d9bc
00000200: ec74 bbba 62f5 e63c 159b 283d 0a2d 8a3d
00000210: 7f49 4e3d f3ff 9dbd 6464 063e bf03 54bd
00000220: a44c 26bd 788e 263e 49ea 1ebd 3505 8abd
00000230: 3725 3b3f 65fe 37bd 6310 febd 98a5 4d3d
00000240: 7576 c23d cb6f 05be bc45 14be cce2 8b3c
00000250: 4aad 143e f8cf 613e 76c5 173f ce34 183f
00000260: e06d f5bb f712 25bd c70b d8bc a89a 39bd
00000270: 117c 17bd 40b1 143d 16ab 9cbb 4f7a 9ebc
00000280: a478 773f 067c d83c baef 15bd 80b1 713c
00000290: df9f 93bd 7452 afbd c205 60bb 527f 36bc
000002a0: 6e3a 083c d063 3a3c 6bae b7bc e2a8 c03b
000002b0: cd9a 4f3c 7ac0 8d3a db9f 21bd c559 f0bc
000002c0: bf99 413b 3e88 0ebc ff31 943b 6571 51bd
000002d0: 15fb 813f e598 11bc dcd1 2dbd 81e2 423c
000002e0: 99c1 8fbc a93a a43b 8800 a0bb b4af d1bc
000002f0: b6db 6d3d 0a92 1b3d 7a86 d1bb 8829 b93e
00000300: 6900 7e3e cd74 863e 5eb3 9abc d405 dabb
00000310: 820e 8f3e 6985 8f3e 3d42 7d3e bb85 853e
00000320: cfd7 873f acfd 2b3c 6fde 833e 831d 363e
00000330: 18f0 a8bb 6038 283e 4aa8 7f3e c1e2 c33e
00000340: 7ca1 be3e 7cbf 89bb 6966 62bd 8a5b fcbc
00000350: f951 2dbd ddac cabc 25c1 a8bc 245b 66bc
00000360: 9497 02bc 9a66 2abd 5aa1 1bbd 31d7 97bc
00000370: 4b3a 793f 77b3 a1bc 1d44 04bc ed20 b1bb
00000380: c804 92bd 7517 b0bc 8a0c 7ebd 0d53 f9bc
00000390: 0270 5ebc a428 993e 1922 6a3d 71bb 4a3d
000003a0: 1a8d 7f3c d94f 103c 35e9 a23d 3138 3a3e
000003b0: a0e9 863d a16f 053e 3ced 403d 0ca3 e33c
000003c0: fefd 903f 4a3a 863d 0f9d 00bc dd57 223e
000003d0: 1dfe 0f3e ad61 963e da4f 8e3e 5dcb bc3d
000003e0: e2e1 24be 6dbe 9a3e 33f2 9f3e ea33 1a3e
000003f0: 61ec 64bb bad7 ad3e 9a5c 993e 160e f03d
0.922424 0.4507527 0.30506954 0.33680037 -0.103723966 0.0561225 0.46102712 0.26123694
0.3639852 0.39210877 0.59585315 0.051889725 0.55738556 0.5524508 0.00791457 0.30526218
0.4270588 0.17799385 0.23542513 0.010252443 1.216132 0.16890539 0.13966303 -0.022091834
-0.005101408 0.17488928 0.26173183 0.13633941 0.20637076 0.070306554 0.031356044 0.20297235
0.04044188 0.001537109 0.19561978 0.14683941 0.2422138 0.2523309 -0.006326493 0.21068197
1.0908333 0.015466619 -0.016224442 -0.02178596 -0.021511173 0.08895037 -0.015294812 0.09134403
-0.010415787 0.010986942 0.093097605 0.024581555 -0.0056532556 0.02602185 0.0071779415 0.21913111
0.19225915 0.0071348767 0.14619084 0.08448933 1.0451719 -0.010585253 -0.0016134797 0.072062396
0.11334393 0.044500336 0.08993208 0.057557996 0.0061033876 0.08239318 0.014515263 -0.0074166
0.063356966 0.0449476 0.15709308 0.14953282 -0.016295228 -0.0030375195 0.008019212 -0.008795921
1.0392683 0.025226876 -0.0213568 0.082246035 -0.016545447 -0.00044124582 -0.0065516266 0.008336675
0.008020472 -0.020359678 0.0015111875 0.006314553 0.006420903 0.028214185 -0.0022258996 -0.013465918
0.016645098 0.014293118 -0.021152627 -0.009546879 0.95171654 -0.007412645 0.0052031465 -0.019961815
0.022160303 0.0016830674 0.0113067785 -0.017561814 -0.07550635 -0.010622222 0.0052744807 0.026215326
0.06488757 -0.0032235635 -0.003504226 0.0501686 0.021144759 0.0065950616 0.0028719394 -0.0006278903
1.0146939 0.036762208 0.015677195 0.0110523505 0.028581461 -0.0064710747 -0.020272786 -0.026578933
-0.0014301813 0.02819318 0.041163523 0.06746872 0.05036306 -0.07714834 0.13124233 -0.051761385
-0.040600434 0.16265285 -0.03879765 -0.067392744 0.7310366 -0.044920344 -0.12405469 0.05020675
0.0949525 -0.13030927 -0.14479727 0.017075919 0.1451923 0.2205199 0.59285676 0.59455574
-0.0074899048 -0.04030129 -0.026372803 -0.045313507 -0.036983553 0.03630185 -0.004781137 -0.01934543
0.9666846 0.026426326 -0.036605574 0.014751792 -0.07208227 -0.085606486 -0.003418312 -0.011138754
0.008314712 0.011376336 -0.022422036 0.0058795074 0.012671185 0.0010814809 -0.03945909 -0.02933968
0.0029541103 -0.008699475 0.0045225616 -0.051133532 1.0154749 -0.008886551 -0.042436466 0.011894823
-0.01754837 0.0050118756 -0.004882876 -0.025596477 0.05807086 0.03798107 -0.0063942047 0.36164498
0.24804844 0.26260987 -0.018884357 -0.006653527 0.27940756 0.2803147 0.24732299 0.2607859
1.0612735 0.010497492 0.2575564 0.17784695 -0.0051555745 0.16427755 0.24966541 0.38258937
0.37232578 -0.004203735 -0.055273447 -0.030805368 -0.042314503 -0.02474063 -0.020599911 -0.014059816
-0.007970709 -0.041601755 -0.037995674 -0.018535228 0.97354573 -0.019738896 -0.00807288 -0.0054055364
-0.07129818 -0.02149556 -0.062023677 -0.03043511 -0.013576509 0.2991382 0.057161424 0.049495164
0.015597606 0.0088081 0.07954637 0.18185498 0.06587529 0.13030864 0.047101244 0.027787708
1.1327512 0.065540865 -0.007849946 0.1585383 0.1406178 0.29371396 0.27795297 0.09218476
-0.16101792 0.30223408 0.3123947 0.15058866 -0.0034930932 0.3395365 0.29953462 0.11721437

dist.conv.bias f4 [19]
00000000: 9f94 543f 7a4c 3ebd a76f f3bc df12 78bd
00000010: 6a29 96bd 17a5 21be 4206 b5bd cbcc 4d3e
00000020: de86 edbd 6188 83bd 620b 6ebc df83 b5bd
00000030: 8c71 f13c fda4 823e 5981 74be 6313 ebbd
00000040: 0921 1ebe 0eb2 10bd bd7b aabd
0.8303928 -0.046459652 -0.029716326 -0.060564872 -0.07332118 -0.15785633 -0.08839084 0.20097654
-0.115979895 -0.064224966 -0.014529081 -0.08863043 0.029473089 0.255165 -0.23877467 -0.11478307
-0.1544229 -0.035326056 -0.083243825
